loggers/h256_w256_bs20_in_channel1_lr0.0003/0512_0137/models/BasicModel_41.pth (torch, 40207 bytes, 17 tensors)

weight f4 [2, 1, 3, 3]
-0.0025946964 -0.019355495 0.0016409983 0.03776289 -9.478588e-05 -0.003438562 0.02077697 -0.008745377
-0.017251305 0.0052092974 -0.0024243356 0.024560131 -0.04461223 0.0016819767 -0.0115259625 0.02479423
-0.0089746 -0.02114774
00000000: c80b 2abb 6a8f 9ebc c416 d73a 43ad 1a3d
00000010: c8c7 c6b8 7f59 61bb 7734 aa3c c548 0fbc
00000020: 9c52 8dbc c1b2 aa3b 9ae1 1ebb 5432 c93c
00000030: 50bb 36bd c675 dc3a 64d7 3cbc 451d cb3c
00000040: 330a 13bc 063e adbc

weight f4 [2]
0.98060256 1.005967
00000000: c508 7b3f 87c3 803f

bias f4 [2]
0.06727175 -0.0030331379
00000000: c5c5 893d 9cc7 46bb

running_mean f4 [2]
0.12829736 -0.4774694
00000000: 6260 033e df76 f4be

running_var f4 [2]
0.1316924 0.40258774
00000000: 5fda 063e fb1f ce3e

weight f4 [4, 2, 3, 3]
-0.032769598 -0.025876276 0.013715691 -0.0005119157 -0.0263103 -0.0016936081 0.009890558 0.010149377
0.00965478 -0.019925768 -0.04159097 0.0057120654 0.04134762 -0.015290134 0.0035422356 0.005144662
-0.004825752 0.009320682 -0.034130614 0.019587457 0.011885817 0.013752473 -0.0040514506 -0.020438243
0.013896922 -0.06259106 -1.6608847e-05 -0.005940874 -0.0064702616 -0.0048822947 0.024646897 0.033004586
0.015570042 0.042059902 0.022994595 -0.008554422 0.02312706 -0.008813369 -0.015336558 0.042984456
-0.018584616 0.00468077 -0.004430427 -0.0024346523 0.015003182 -0.017824963 -0.012396642 0.015131661
-0.023853676 0.021497866 0.012162196 0.0045861327 0.037042983 0.0053087445 -0.029567715 -0.007441994
0.023149623 0.0004556512 -0.04520488 -0.020471286 -0.03116052 0.015548598 -0.018699685 -0.014572359
-0.014470759 -0.00569727 -0.048061993 -0.004380148 -0.014724368 0.019939417 0.0093648 -0.0077793095
00000000: 6a39 06bd 7cfa d3bc c7b7 603c 1532 06ba
00000010: b388 d7bc 0ffc ddba 020c 223c 9349 263c
00000020: 152f 1e3c 5d3b a3bc 4b5b 2abd 472c bb3b
00000030: 1f5c 293d 7883 7abc da24 683b 8e94 a83b
00000040: 5821 9ebb c6b5 183c 8bcc 0bbd e075 a03c
00000050: bbbc 423c 0d52 613c 08c2 84bb 1a6e a7bc
00000060: eaaf 633c be2f 80bd 3a53 8bb7 aaab c2bb
00000070: 7d04 d4bb a8fb 9fbb 4ae8 c93c d12f 073d
00000080: 7d19 7f3c 0147 2c3d 295f bc3c d927 0cbc
00000090: f674 bd3c f365 10bc 3046 7bbc 7810 303d
000000a0: c43e 98bc 2561 993b 1e2d 91bb b08e 1fbb
000000b0: e8cf 753c a805 92bc 491b 4bbc c9ea 773c
000000c0: c968 c3bc 4b1c b03c f343 473c 4547 963b
000000d0: 62ba 173d faf4 ad3b fe37 f2bc f8db f3bb
000000e0: 47a4 bd3c 78e4 ee39 c128 39bd 66b3 a7bc
000000f0: 5944 ffbc 8cbf 7e3c 1530 99bc e7c0 6ebc
00000100: c316 6dbc 2ab0 babb a7dc 44bd 5887 8fbb
00000110: 7a3e 71bc fd57 a33c d16e 193c 94e9 febb

weight f4 [4]
1.0632758 0.98122925 0.9753079 1.0474023
00000000: 6c19 883f d731 7b3f c7ad 793f 4711 863f

bias f4 [4]
0.017438412 -0.016467405 0.03288061 -0.06279304
00000000: 00db 8e3c a7e6 86bc d2ad 063d a399 80bd

running_mean f4 [4]
-0.060429305 0.016933428 0.07667726 -0.18950352
00000000: b884 77bd f9b7 8a3c f808 9d3d 360d 42be

running_var f4 [4]
0.005555824 0.009592463 0.003658843 0.013426371
00000000: a10d b63b b529 1d3c 33c9 6f3b 48fa 5b3c

weight f4 [8, 4, 3, 3]
-0.01783012 0.014344192 -0.024106078 0.0038702474 -0.040656812 -0.015300303 0.027784036 -0.022945262
0.0034232372 0.016023573 0.02649212 -0.0010965497 -0.04543903 0.031642035 0.019994318 0.022874244
-0.02039649 0.010887452 -0.008462306 -0.017695978 -0.022426784 0.0095999 0.002551848 -0.022813383
-6.8166984e-05 0.0024153618 -0.025160462 -0.009922466 -0.043080002 -0.0077871983 0.027005263 0.012136249
-0.012604039 0.00089198595 -0.033083715 -0.05763091 0.015015718 -0.0350773 -6.6416815e-06 0.0083710505
-0.028304659 -0.0028284464 -0.028704077 -0.002529946 0.008204127 0.0031737846 0.01309735 -0.05028692
0.005025163 0.016178468 0.008576375 -0.013203043 -0.005342712 0.0067129955 0.00019678628 -0.015018732
-0.0068622367 0.028035982 -0.008543684 -0.0180207 -0.006187939 0.010375416 -0.00032181412 -0.04560064
-0.037947945 0.021362858 0.020466676 0.045418356 -0.03054309 0.008008046 -0.02154611 -0.048954066
0.016125802 -0.00886918 -0.0072710696 -0.03047696 -0.041130804 -0.019792331 0.010188761 -0.040927656
0.03493084 -0.012626123 -0.036746167 -0.0025933268 0.0045671165 -0.019163882 0.037052687 -0.009285107
0.011629258 0.010785989 -0.013704311 -0.010946126 0.022156805 0.012797018 0.018524528 -0.003807105
-0.025219603 -0.0023048066 -0.016556988 -0.004939766 -0.012778425 0.016400715 0.055086862 -0.04198065
-0.010718048 0.005406021 -0.009388485 0.020415368 -0.024687096 -0.0006176096 0.016939696 0.028227948
-0.00094848144 0.011006512 -0.0202419 -0.0011856336 -0.032612488 0.011399757 -0.0047127847 0.0090031
0.00176384 -0.04756662 0.0013799913 0.028366214 0.003728626 -0.011059454 0.007769327 -0.0030530365
0.016558487 0.009435846 -0.01941211 -0.025939964 0.022510549 -0.015073221 -0.007833077 0.010570945
0.019316493 0.036130063 0.008446259 0.00039186538 0.0024833921 0.037047505 0.038646817 -0.025478978
0.010747228 -0.015184641 -0.008709494 0.01279971 -0.0027387661 0.023722235 0.021662727 0.039783895
0.011852242 0.0020329454 -0.010818626 -0.041722592 -0.054227907 -0.022541625 -0.019044109 0.0035102642
-0.03744846 -0.010349398 -0.013566196 0.038104154 -0.010718823 -0.011464367 -0.036811452 0.010756205
-0.022208767 0.004037251 0.001054141 -0.043978844 0.0016182608 -0.0074215475 -0.0030586834 0.01617451
0.035929956 -0.022928612 -0.0018003487 -0.011795176 0.016499313 0.030936917 -0.068885714 -0.02810805
0.010782377 -0.016322242 0.05810582 -0.030677648 0.026449405 -0.004409987 0.0047172178 0.017019935
0.010983325 -0.0014133531 -0.026525117 0.033767316 0.010132543 0.009529653 0.011300814 0.008496933
-0.023330593 -0.005183741 -0.00039459375 0.020100262 0.0006473445 -0.016585214 0.01094027 0.04326904
0.012253718 0.025432495 0.011183939 -0.012421934 0.006080767 -0.0015631041 -0.0212549 0.0028643208
-0.0028736352 0.043493792 -0.017475594 0.020174772 0.018862203 -0.03306621 0.0059357113 -0.005508136
0.035352606 0.0005239945 0.0053267465 0.023427414 -0.00787128 0.010942827 0.0135475565 0.014105362
-0.0016517292 0.004957844 -0.0028980516 -0.019826224 0.016340554 0.010477073 0.0043808264 -0.037428446
0.0021452978 0.0014318131 0.01382281 -0.033106342 0.0012319341 0.0128190275 0.005499165 -0.0056020673
-0.022983404 -0.046454944 -0.0065146163 -0.006030447 0.0054191225 0.026172502 -0.015356318 -0.014847506
00000000: 7910 92bc e703 6b3c 1c7a c5bc faa3 7d3b
00000010: c287 26bd 1fae 7abc 599b e33c b4f7 bbbc
00000020: 6458 603b de43 833c 0106 d93c 1aba 8fba
00000030: 471e 3abd 149b 013d 20cb a33c c462 bb3c
00000040: 8a16 a7bc 4961 323c 7ca5 0abc 28f7 90bc
00000050: 60b8 b7bc e648 1d3c e83c 273b 22e3 babc
00000060: dff4 8eb8 0c4b 1e3b 501d cebc d791 22bc
00000070: a874 30bd c12b ffbb 243a dd3c 1ed7 463c
00000080: 2c81 4ebc 2ad4 693a ca82 07bd 640e 6cbd
00000090: 7c04 763c 37ad 0fbd 9cdb deb6 bb26 093c
000000a0: 2cdf e7bc 755d 39bb d024 ebbc 73cd 25bb
000000b0: 9a6a 063c 45ff 4f3b 4496 563c a8f9 4dbd
000000c0: 1faa a43b b588 843c ed83 0c3c 9351 58bc
000000d0: eb11 afbb b0f8 db3b 6a58 4e39 2111 76bc
000000e0: 9ddc e0bb b7ab e53c cffa 0bbc 26a0 93bc
000000f0: 32c4 cabb a6fd 293c 29b9 a8b9 bdc7 3abd
00000100: 4e6f 1bbd 2901 af3c bba9 a73c 9908 3a3d
00000110: 8135 fabc 2e34 033c 7881 b0bc 0f84 48bd
00000120: 421a 843c 0a50 11bc 2742 eebb d1aa f9bc
00000130: c678 28bd 8723 a2bc c3ee 263c c2a3 27bd
00000140: a413 0f3d ccdd 4ebc 2683 16bd cef4 29bb
00000150: c0a7 953b 93fd 9cbc 8fc4 173d 9020 18bc
00000160: a588 3e3c b8b7 303c 0c88 60bc 6157 33bc
00000170: 3082 b53c 95aa 513c c0c0 973c 9f80 79bb
00000180: 5799 cebc 3d0c 17bb 85a2 87bc c3dd a1bb
00000190: 995c 51bc cb5a 863c c3a2 613d e7f3 2bbd
000001a0: c09a 2fbc fe24 b13b 29d2 19bc 213e a73c
000001b0: 983c cabc 14e7 21ba 1ec5 8a3c 4c3e e73c
000001c0: 83a3 78ba a854 343c 57d2 a5bc 4367 9bba
000001d0: ac94 05bd 0cc6 3a3c b46d 9abb bd81 133c
000001e0: a630 e73a 37d5 42bd d3e0 b43a 4360 e83c
000001f0: f75b 743b b632 35bc d795 fe3b 7415 48bb
00000200: aaa5 873c ce98 1a3c 2506 9fbc 0c80 d4bc
00000210: 0b68 b83c acf5 76bc 4e56 00bc c231 2d3c
00000220: 9f3d 9e3c 1efd 133d 2e62 0a3c 4873 cd39
00000230: 68c0 223b 20bf 173d 204c 1e3d 4ab9 d0bc
00000240: 2415 303c 00c9 78bc 44b2 0ebc e0b5 513c
00000250: df7c 33bb 2255 c23c 0876 b13c 70f4 223d
00000260: e82f 423c 2a3b 053b 9b40 31bc 4fe5 2abd
00000270: 151e 5ebd 37a9 b8bc 6402 9cbc 760c 663b
00000280: 8e63 19bd 8590 29bc c044 5ebc 1a13 1c3d
00000290: 019e 2fbc 0ad5 3bbc 9bc7 16bd cb3a 303c
000002a0: 29ef b5bc eb4a 843b 1a2b 8a3a 2923 34bd
000002b0: d21b d43a 7430 f3bb 3174 48bb 6880 843c
000002c0: 4a2b 133d c9d4 bbbc aef9 ebba 8e40 41bc
000002d0: 9129 873c 6b6f fd3c f413 8dbd da42 e6bc
000002e0: 91a8 303c 39b6 85bc 5e00 6e3d b14f fbbc
000002f0: 6cac d83c a781 90bb e492 9a3b 646d 8b3c
00000300: 67f3 333c 4340 b9ba 344b d9bc 994f 0a3d
00000310: f702 263c 4322 1c3c 0d27 393c b836 0b3c
00000320: cd1f bfbc 5fdc a9bb 7ae1 ceb9 4ea9 a43c
00000330: 8eb2 293a b7dd 87bc d13e 333c e03a 313d
00000340: d2c3 483c cf57 d03c d73c 373c 5e85 4bbc
00000350: 2c41 c73b 12e1 ccba c21e aebc 54b7 3b3b
00000360: 9953 3cbb 8c26 323d fa28 8fbc 9045 a53c
00000370: e884 9a3c 6f70 07bd 5b80 c23b 987d b4bb
00000380: e5cd 103d ad5c 093a fd8b ae3b d9ea bf3c
00000390: 8bf6 00bc 8b49 333c 92f6 5d3c 2d1a 673c
000003a0: d67e d8ba 6975 a23b 3ded 3dbb 9b6a a2bc
000003b0: a0dc 853c 07a8 2b3c 098d 8f3b 924e 19bd
000003c0: 2098 0c3b adab bb3a 1179 623c 849a 07bd
000003d0: d978 a13a e606 523c 5732 b43b 8c91 b7bb
000003e0: b147 bcbc 8a47 3ebd 9078 d5bb 0e9b c5bb
000003f0: e592 b13b b767 d63c 1199 7bbc f442 73bc

weight f4 [8]
0.99274457 1.0164952 0.9843003 1.0440483 1.0273728 1.0144601 0.98208344 0.97965616
00000000: 8224 7e3f 841c 823f 1bfb 7b3f 60a3 853f
00000010: f480 833f d4d9 813f d269 7b3f bfca 7a3f

bias f4 [8]
-0.0034049118 0.0069112144 0.013493486 0.011490514 0.005095688 -0.001446364 -0.0060976613 0.023107473
00000000: f124 5fbb 7877 e23b c813 5d3c b542 3c3c
00000010: bbf9 a63b ec93 bdba e4ce c7bb e24b bd3c

running_mean f4 [8]
-0.20944028 -0.15944804 -0.120406754 0.03180279 -0.15168793 0.08381798 0.034660336 -0.21168067
00000000: 8377 56be 5946 23be d197 f6bd a443 023d
00000010: 1554 1bbe c3a8 ab3d fff7 0d3d d1c2 58be

running_var f4 [8]
0.008467923 0.005851522 0.006129513 0.00784184 0.015977958 0.0065257866 0.0038995568 0.0055725724
00000000: 0bbd 0a3c 20be bf3b 15da c83b 107b 003c
00000010: 35e4 823c 44d6 d53b b58f 7f3b 209a b63b

weight f4 [97, 8, 3, 3]
-0.024453906 0.0051075113 0.032087963 -0.017254913 -0.023224946 -0.012919311 0.020514462 -0.027269473
0.0018357611 0.015810436 0.033905655 -0.00013090431 -0.007258792 -0.0028954435 -0.038411684 0.020234196
-0.0034953952 0.00652088 0.025183098 0.012919296 0.01077263 0.014110461 0.010106823 -0.036330212
0.014653191 -0.015566733 0.03079372 0.040121194 0.045422427 0.054539848 0.026583701 0.033223372
0.061965726 0.04768278 0.0020224256 -0.028635552 0.032980066 0.07000794 -0.0025985595 0.019565314
0.018248254 0.027884733 0.006786385 0.005863454 -0.002799155 0.02188473 -0.00039340026 -0.020477228
0.0068523763 -0.0033154753 0.0009955713 -0.003018051 0.028515836 0.0019971014 -0.020782594 -0.0069580753
0.008100132 0.026944395 -0.009817637 0.03230063 -0.0048074364 -0.011925492 0.027740786 -0.029320545
0.0052554514 0.019617442 -0.046327546 -0.034531932 -0.003297533 -0.034225374 -0.007832774 -0.028348794
0.02528057 0.023629224 -0.0211425 -0.057374638 -0.050309278 -0.008416388 0.011175727 0.0023854151
0.0035451967 0.02501804 -0.004118257 0.016528016 0.024251616 -0.017379561 -0.009336197 -0.0016230189
-0.005032099 -0.0026474777 0.04363231 -0.020781826 0.0016425459 0.0077970927 -0.009748946 0.008239222
0.017134495 -0.0035556932 0.007257711 0.015118637 0.018723045 -0.0241577 0.025876673 -0.03319468
0.0009725108 0.055760648 0.00539721 -0.023886282 0.046155147 0.03380368 0.014968472 -0.017324334
0.044416413 0.004995644 0.01915435 0.0072302455 0.019879794 -0.013511857 0.048267636 -0.0019641614
0.0184251 -0.013342648 -0.008542668 -0.03702545 0.02440354 0.0041812714 -0.00011486506 -0.02482369
0.024078855 0.024940765 -0.007019644 -0.008600135 -0.01918322 0.001895753 -0.0057897554 -0.0020412253
-0.025825478 0.0072331107 -0.004728801 0.025765179 -0.0075326543 -0.04848308 -0.010778822 -0.05769173
0.013319846 0.031139124 -0.022837998 0.018196965 0.008287799 -0.0011650962 -0.023077978 0.04475281
0.021437379 0.01712095 0.016062453 -0.018228956 0.004558951 0.024737049 0.030347642 -0.011861738
-0.00079737173 -0.0040470827 -0.0249437 -0.014885643 -0.004444319 -0.001120282 0.01799397 0.013324798
0.0052341553 -0.005907744 -0.025315814 -0.004865073 0.011178204 -0.016291142 0.0012266746 -0.008232411
-0.024456182 0.020891722 -0.005505565 0.011332091 0.025803035 -0.010378575 0.006666551 0.0045756
0.0030391866 -0.00855572 -0.0076171486 -0.021253746 0.002852462 0.005015964 -0.0026921355 -0.021701438
-0.016511481 0.0024111809 0.010004354 0.00013094963 0.010596027 0.00557837 -0.006491997 -0.0065479698
0.0034711258 -0.016222976 -0.027734604 0.009709798 0.02476911 0.0017745305 -0.03878208 -0.0033527855
0.026067482 0.011480601 0.0091778 0.025930678 -0.009375485 0.013426552 0.0039086267 0.037006862
-0.018357487 -0.014472233 -0.015424897 0.011378183 -0.015945708 0.008290906 0.025216611 0.04623905
-0.0024476422 0.023416175 0.02670885 -0.0032946242 -0.0017804194 -0.013150656 0.0013269366 -0.000550728
-0.016493183 -0.017901922 -0.006119027 0.012005977 -0.026670324 0.00022571358 0.011386159 0.02400867
-0.0014130354 -0.0012189442 0.02335229 0.00709118 0.026214542 -0.0075412 -0.0064077717 -0.011408149
-0.020589795 0.0036238837 -0.004687863 0.03425642 -0.016646525 -0.020248111 0.02442619 0.031271923
00000000: 8f53 c8bc e95c a73b ab6e 033d 2d5a 8dbc
00000010: 3e42 bebc 85ab 53bc f20d a83c 3b64 dfbc
00000020: ec9d f03a e384 813c a8e0 0a3d 5c43 09b9
00000030: 29db edbb 7bc1 3dbb 9255 1dbd 2fc2 a53c
00000040: 0013 65bb 1bad d53b c94c ce3c 74ab 533c
00000050: af7f 303c 902f 673c 1797 253c fdce 14bd
00000060: f013 703c 9c0b 7fbc 1d43 fc3c 1f56 243d
00000070: de0c 3a3d 2d65 5f3d 10c6 d93c 3b15 083d
00000080: c6cf 7d3d 054f 433d ac8a 043b 1b95 eabc
00000090: 1b16 073d 5360 8f3d 984c 2abb 7047 a03c
000000a0: 5d7d 953c 866e e43c 5360 de3b 3822 c03b
000000b0: 0772 37bb 9b47 b33c 4a41 ceb9 dcbf a7bc
000000c0: e689 e03b 7248 59bb d47d 823a 7eca 45bb
000000d0: 0b9a e93c cde1 023b 4240 aabc 9100 e4bb
000000e0: 6bb6 043c 7eba dc3c 27da 20bc aa4d 043d
000000f0: b387 9dbb 2463 43bc a540 e33c a431 f0bc
00000100: ec35 ac3b c2b4 a03c f4c1 3dbd 5b71 0dbd
00000110: 6c1b 58bb e82f 0cbd 0955 00bc bb3b e8bc
00000120: 3319 cf3c 1392 c13c 0933 adbc ab01 6bbd
00000130: 1a11 4ebd e4e4 09bc 651a 373c a054 1c3b
00000140: 8856 683b a2f2 cc3c 72f2 86bb c365 873c
00000150: 53ab c63c 955f 8ebc d9f6 18bc 7abb d4ba
00000160: 4ee4 a4bb 4e81 2dbb cbb7 323d a63e aabc
00000170: b24a d73a c17e ff3b 0bba 1fbc cdfd 063c
00000180: a45d 8c3c a206 69bb 18d2 ed3b 29b4 773c
00000190: 1261 993c 5ee6 c5bc 51fb d33c 25f7 07bd
000001a0: 18f0 7e3a 4765 643d 14db b03b 2aad c3bc
000001b0: 2e0d 3d3d ba75 0a3d 523e 753c c3eb 8dbc
000001c0: fced 353d 80b2 a33b 95e9 9c3c b2eb ec3b
000001d0: f3da a23c d660 5dbc 49b4 453d 29b9 00bb
000001e0: 3cf0 963c 1f9b 5abc 8cf6 0bbc 00a8 17bd
000001f0: efe9 c73c 0c03 893b b6e3 f0b8 0d5b cbbc
00000200: 0541 c53c 9350 cc3c 0b05 e6bb 95e7 0cbc
00000210: 2126 9dbc ea7a f83a fdb7 bdbb 14c6 05bb
00000220: f48f d3bc bb03 ed3b 0ff4 9abb 7f11 d33c
00000230: 7cd4 f6bb 3296 46bd a899 30bc 2a4e 6cbd
00000240: 7c3b 5a3c 7a17 ff3c c116 bbbc cd11 953c
00000250: 8cc9 073c 24b6 98ba 070e bdbc b94e 373d
00000260: 719d af3c 3c41 8c3c 6895 833c e454 95bc
00000270: 4163 953b 5aa5 ca3c 9e9b f83c bc57 42bc
00000280: b606 51ba 649d 84bb bb56 ccbc e9e2 73bc
00000290: a6a1 91bb 6dd6 92ba 1768 933c 4150 5a3c
000002a0: 4783 ab3b c095 c1bb 1c63 cfbc 316b 9fbb
000002b0: c924 373c 0075 85bc 5fc8 a03a 3ce1 06bc
000002c0: 5558 c8bc 1e25 ab3c 0768 b4bb 3caa 393c
000002d0: e360 d33c e60a 2abc 1573 da3b eaee 953b
000002e0: 172d 473b 4a2d 0cbc 4699 f9bb 561c aebc
000002f0: 5ff0 3a3b f55c a43b 8a6e 30bb 37c7 b1bc
00000300: 1643 87bc e704 1e3b 4de9 233c 864f 0939
00000310: f59a 2d3c c2ca b63b d1ba d4bb 5a90 d6bb
00000320: d47b 633b 0ce6 84bc ae33 e3bc d815 1f3c
00000330: 97e8 ca3c 5d97 e83a f5d9 1ebd 68ba 5bbb
00000340: 798b d53c 2119 3c3c 7c5e 163c 936c d43c
00000350: a29b 19bc 0afb 5b3c f013 803b 8294 173d
00000360: 7162 96bc f21c 6dbc b5b8 7cbc 8f6b 3a3c
00000370: 93a0 82bc 95d6 073c 1193 ce3c 2865 3d3d
00000380: 9f68 20bb 47d3 bf3c 85cc da3c 9fea 57bb
00000390: f65c e9ba d975 57bc 9bec ad3a bb5e 10ba
000003a0: b61c 87bc 0da7 92bc 1e82 c8bb b8b4 443c
000003b0: b97b dabc 87ad 6c39 038d 3a3c d5ad c43c
000003c0: 9a35 b9ba fbc4 9fba 4d4d bf3c 215d e83b
000003d0: e1bf d63c 2c1c f7bb 49f8 d1bb 3fe9 3abc
000003e0: eeab a8bc ae7e 6d3b a59c 99bb 7650 0c3d
000003f0: 4b5e 88bc 5edf a5bc 6f19 c83c fd16 003d

bias f4 [97]
0.032833442 -0.023583984 -0.061047737 0.06636865 -0.08146697 -0.018190466 0.055471897 0.10911602
0.030156482 -0.07553604 -0.039022125 -0.007839586 -0.034667727 0.11886562 0.05218468 -0.032503776
-0.061895248 0.08623641 0.09465303 -0.04053958 -0.098669045 0.10428389 -0.07176012 0.07766168
-0.028507 0.116952755 0.090267785 0.012851598 0.012076132 0.07967985 0.018435823 0.12579249
-0.04702477 0.028729646 0.048486806 0.043417394 0.045194525 -0.05823246 -0.01842392 -0.066509
-0.024109254 0.101707295 0.048396382 -0.009169442 -0.06359587 0.035223536 0.10472147 0.053577535
-0.08177899 -0.06967449 0.10108391 0.003890941 0.11937271 0.10565519 -0.056466363 0.05673339
0.077565 -0.012733747 0.054014206 0.13751073 0.0036557787 0.029269384 0.07845606 0.06169623
0.02068384 0.012306539 0.042730704 0.083075725 0.10578065 -0.05438103 -0.04144394 -0.082257524
-0.017089866 -0.008299024 0.0027765092 0.026745923 -0.042154238 -0.029836148 -0.047110133 0.02119984
-0.06619071 -0.037048988 -0.092257515 -0.04059025 -0.069895394 0.043515865 0.0044176737 -0.099902965
0.096624635 -0.015199064 -0.0327984 0.0075999913 -0.05963231 0.116222344 0.081876494 0.09390992
-0.062591106
00000000: 5c7c 063d 3333 c1bc 310d 7abd 49ec 873d
00000010: 28d8 a6bd 2c04 95bc 8036 633d 3878 df3d
00000020: ba0a f73c a4b2 9abd aad5 1fbd 9b71 00bc
00000030: bfff 0dbd d16f f33d 9abf 553d ae22 05bd
00000040: df85 7dbd b79c b03d 73d9 c13d d50c 26bd
00000050: ff12 cabd cb92 d53d f8f6 92bd 160d 9f3d
00000060: 8387 e9bc ed84 ef3d 51de b83d 828f 523c
00000070: f8da 453c 302f a33d b906 973c bfcf 003e
00000080: 0c9d 40bd 6f5a eb3c 1a9a 463d 70d6 313d
00000090: e51d 393d 2985 6ebd c3ed 96bc df35 88bd
000000a0: c580 c5bc ea4b d03d 493b 463d 6d3b 16bc
000000b0: 8d3e 82bd 8e46 103d 3678 d63d 1e74 5b3d
000000c0: be7b a7bd 80b1 8ebd 1505 cf3d 28ff 7e3b
000000d0: ae79 f43d c061 d83d 4649 67bd 4561 683d
000000e0: 66da 9e3d 35a1 50bc 003e 5d3d 9dcf 0c3e
000000f0: ca95 6f3b 59c6 ef3c 92ad a03d 30b5 7c3d
00000100: 2871 a93c 5ea1 493c 6406 2f3d 9b23 aa3d
00000110: 87a3 d83d a5be 5ebd 1fc1 29bd a276 a8bd
00000120: 0c00 8cbc a1f8 07bc 18f6 353b 441a db3c
00000130: eca9 2cbd f06a f4bc 8ef6 40bd 49ab ad3c
00000140: ff8e 87bd aec0 17bd 82f1 bcbd f641 26bd
00000150: 5125 8fbd b13d 323d 22c2 903b ed99 ccbd
00000160: 23e3 c53d 7f05 79bc 9d57 06bd 5909 f93b
00000170: 0241 74bd fb05 ee3d ddae a73d d853 c03d
00000180: c42f 80bd
