loggers/h256_w256_bs20_in_channel1_lr0.0003/0512_0137/models/BasicModel_92.pth (torch, 40207 bytes, 17 tensors)

weight f4 [2, 1, 3, 3]
000000 e1 bf e7 ba fa 59 b7 bc eb 6f 05 3a 4a ac 2f 3d
       -0.0017681086 -0.022381771 0.00050902244 0.042888917
000010 9f da e7 3a 20 92 89 bb 81 e0 b8 3c 6e 04 13 bc
       0.0017689056 -0.0041983277 0.02256799 -0.008973224
000020 13 a0 a4 bc e5 d2 e6 3b e1 3b 91 bb b6 49 d8 3c
       -0.02009586 0.0070441836 -0.004432187 0.026402336
000030 fd 05 43 bd 74 28 72 ba a7 95 3d bc eb 18 d7 3c
       -0.047613133 -0.00092375954 -0.011571324 0.026256999
000040 68 c4 23 bc af b3 b0 bc
       -0.009995557 -0.021570055

weight f4 [2]
000000 14 1a 78 3f 66 64 80 3f
       0.9691479 1.0030639

bias f4 [2]
000000 28 49 03 3e dd 2d 68 3d
       0.12820876 0.056684364

running_mean f4 [2]
000000 de 33 19 3e 97 17 00 bf
       0.14961192 -0.50035995

running_var f4 [2]
000000 7d 52 38 3e f2 ad e7 3e
       0.18000217 0.45249897

weight f4 [4, 2, 3, 3]
000000 b4 92 23 bd df a5 d1 bc 82 ea 73 3c ac dd ea 3a
       -0.03993483 -0.025591789 0.014887454 0.0017918847
000010 27 1d f0 bc da 13 30 bb fb aa 12 3c af e5 20 3c
       -0.029310776 -0.0026867301 0.008951898 0.009820386
000020 f6 df 2a 3c 2d 58 83 bc 11 59 4b bd 74 57 bc 3b
       0.010429373 -0.016033256 -0.049645487 0.00574773
000030 67 b6 29 3d 3c 2b 67 bc 8d bb bb 3b f0 99 ed 3b
       0.041433718 -0.014109429 0.005729145 0.007251017
000040 07 76 19 bc d4 4d f4 3b 78 92 23 bd 4c 06 cc 3c
       -0.009366519 0.007455567 -0.039934605 0.024905346
000050 88 77 23 3c b5 86 56 3c d9 d1 0d bb 33 45 b2 bc
       0.009977229 0.01309364 -0.0021639972 -0.021761512
000060 5f 37 71 3c ce 3a 7b bd 7f fa db bb c4 1a 8d ba
       0.014722674 -0.061335377 -0.006713211 -0.0010765423
000070 6a ac 51 bc 59 b1 78 bb 55 10 f6 3c f0 72 0d 3d
       -0.012797454 -0.0037947504 0.030037085 0.03453344
000080 36 38 9b 3c 4f 04 22 3d 91 dc ec 3c c9 55 ef bb
       0.018947702 0.03955489 0.028913768 -0.0073039276
000090 33 cc cf 3c ea 89 51 bc 53 1d 81 bc 39 6b 43 3d
       0.025365924 -0.012789229 -0.015761053 0.047709677
0000a0 2d e4 97 bc 8b d0 60 3b 2a 70 af bb 72 9d 06 ba
       -0.01854142 0.0034303989 -0.005353947 -0.00051351555
0000b0 28 c2 67 3c 1a ad 96 bc 62 1e 6c bc b4 83 2c 3c
       0.014145412 -0.018393088 -0.014411541 0.010529447
0000c0 3d 70 9a bc 3b 76 95 3c 02 3f 95 3c 95 12 d1 3b
       -0.018852348 0.018244853 0.018218521 0.006380389
0000d0 6b 44 2d 3d 90 a4 dc 3b 81 42 08 bd 0a f4 19 bc
       0.042301577 0.0067334846 -0.033266548 -0.009396562
0000e0 d6 58 d1 3c 48 89 2a 3c ff e6 37 bd 77 8f d6 bc
       0.025555056 0.010408707 -0.04489803 -0.026191456
0000f0 6a 32 18 bd 51 37 39 3c 84 9d 29 bc 8e 10 66 bc
       -0.037157454 0.011304692 -0.010352496 -0.014042033
000100 86 68 a3 bc da 75 4a bb 3e 2a 4e bd c9 c6 85 bb
       -0.019947302 -0.0030893 -0.050333254 -0.004082535
000110 30 9c 6d bc 1d 87 cb 3c 23 03 1e 3b e0 ff 4b 39
       -0.01450257 0.0248447 0.0024110756 0.0001945491

weight f4 [4]
000000 bb 25 8a 3f 50 cf 77 3f 48 78 74 3f 75 98 86 3f
       1.0792764 0.9680071 0.95496035 1.0515276

bias f4 [4]
000000 c5 74 b9 3c 49 c8 a3 bd 15 ce 99 3c d4 4b 01 be
       0.022638688 -0.07997186 0.018775025 -0.12626582

running_mean f4 [4]
000000 7e 0f 9a bd 18 3d e4 3c fd af b6 3d db cb 4a be
       -0.07522486 0.027861163 0.08920286 -0.19804327

running_var f4 [4]
000000 11 50 dc 3b 55 9e 37 3c c0 9c 92 3b e9 87 62 3c
       0.006723412 0.011207183 0.0044742525 0.013826349

weight f4 [8, 4, 3, 3]
000000 94 e2 a1 bc 58 ac 2a 3c bc c2 17 bc 7f 6b 4f 3c
       -0.019761361 0.0104170665 -0.009262737 0.012659906
000010 94 93 45 bd b3 c1 2b bc d8 bf bb 3c 36 a1 8d bc
       -0.048236445 -0.010483193 0.022918627 -0.017288785
000020 57 1c b7 bb a8 ac 32 3c 37 40 e6 3c b9 75 96 3b
       -0.005588095 0.010905422 0.028106792 0.0045916704
000030 86 c8 64 bd 16 ce 08 3d 26 c9 94 3c 37 95 e4 3c
       -0.055855297 0.033399664 0.018162321 0.027903182
000040 61 8b ef bc 63 53 93 3c bb f5 17 bc 5b 55 96 bc
       -0.029241266 0.017984098 -0.009274895 -0.018351248
000050 88 8d 82 bc 20 ba 84 3b 3f 22 39 3c da 9a cc bc
       -0.015936628 0.004050508 0.011299669 -0.024976183
000060 14 21 c4 3a 8f e8 8e 3b 7c a3 da bc 71 a0 21 bc
       0.0014963471 0.0043612192 -0.026689284 -0.009864912
000070 2f 2b 47 bd 7d 43 92 bc 9f 3f 19 3d 1f 19 86 3c
       -0.048625167 -0.017854447 0.03741419 0.0163694
000080 1e e9 91 bb 76 f4 81 3c ab d7 e1 bc c9 55 6e bd
       -0.0044528386 0.015863638 -0.027568659 -0.05818728
000090 43 b2 5f 3c be 51 d0 bc 41 40 37 bc 0f 09 29 3c
       0.013653341 -0.025429603 -0.011184753 0.010317101
0000a0 72 aa 03 bd 6d b4 49 3b 1f a1 22 bd fb d9 bf bb
       -0.03214497 0.0030777708 -0.03970444 -0.0058548427
0000b0 3c 3f 22 3c 49 00 93 3c d6 af 05 3c 98 d8 3e bd
       0.009902772 0.017944472 0.008159598 -0.04659328
0000c0 b5 bb f2 bb 63 d5 ae 3c 94 b1 00 3c 8d 1b 90 bc
       -0.0074076303 0.021341985 0.007854838 -0.017591262
0000d0 0a f3 c4 bb 3d c8 3d 3c 76 c2 a0 ba 48 6d f8 bb
       -0.006010418 0.011583385 -0.0012264985 -0.0075813867
0000e0 05 f0 00 bc 65 b8 08 3d 48 ef b7 bb 6c 1a ad bc
       -0.007869725 0.033378977 -0.0056132413 -0.021130763
0000f0 3a f7 fd bb cd 44 1b 3c da 6a 55 3a a3 f9 38 bd
       -0.007750419 0.009476853 0.00081412273 -0.045159947
000100 13 45 e6 bc 17 25 fa 3c bd f7 c2 3c 63 95 8c 3d
       -0.028109109 0.030535264 0.023799771 0.06864431
000110 f6 4b 47 bd 7d 36 bc 3c e6 25 6e bc 69 8f 8a bd
       -0.048656426 0.0229752 -0.014535403 -0.067656346
000120 cf 81 ef 3c 74 00 10 bc 40 97 ba bc e2 a7 bf bc
       0.029236702 -0.0087891705 -0.0227772 -0.023395482
000130 06 4e 46 bd 68 6a 94 bc a8 92 8b 3c e4 bc 33 bd
       -0.048414253 -0.018117145 0.017037705 -0.043881312
000140 5e 37 3d 3d 0b 35 cd b8 0e 5c 7d bd 0a 9a a5 3b
       0.04619538 -9.785042e-05 -0.06185537 0.0050537633
000150 a8 f9 55 3b df 11 90 bc 90 40 05 3d 31 96 93 bb
       0.0032650027 -0.017586647 0.032532275 -0.004503988
000160 b6 73 86 3b b1 b0 28 3c 5b cf a5 bc da 40 0a bc
       0.0041031493 0.010296033 -0.020240476 -0.008438313
000170 3c 8d a2 3c 4e eb 08 3c e5 79 a5 3c cd 49 5a 3b
       0.019842736 0.008356882 0.020199725 0.003330815
000180 24 27 e2 bc d6 c8 85 bb c6 d6 6f bc 9c 0b b7 bc
       -0.027606554 -0.0040827794 -0.014638608 -0.022344403
000190 4d 2b be bb f6 10 b2 3c a4 04 4e 3d 23 2c 23 bd
       -0.0058035017 0.021736603 0.050297394 -0.039837014
0001a0 27 9d 38 bc d1 38 83 3b ce ec 86 bc 29 26 b8 3c
       -0.011267937 0.004004576 -0.01647034 0.022479134
0001b0 68 a7 e6 bc 6b 5e 2f ba 19 e3 a4 3c a1 4c ff 3c
       -0.028155997 -0.00066897896 0.02012782 0.03116447
0001c0 2b 65 55 39 50 0b 19 3c d8 09 a3 bc 60 6b 13 bc
       0.00020350951 0.009341076 -0.019902155 -0.008997768
0001d0 f5 ab 27 bd 54 bf 37 3c ab a2 db ba 2c c6 9f 3b
       -0.040935475 0.01121505 -0.0016756853 0.004875919
0001e0 a0 d5 33 bb 7c 79 43 bd c8 c7 f4 3a e4 cd eb 3c
       -0.0027440563 -0.04772328 0.0018675262 0.0287847
0001f0 72 32 86 3b f1 bc 35 bc 60 45 cf 3b 70 26 e0 ba
       0.004095369 -0.01109241 0.006325409 -0.0017101299
000200 b4 0b a0 3c fe 1c 48 3c a0 8b c5 bc 57 ca a8 bc
       0.01953683 0.0122139435 -0.02411443 -0.020604296
000210 f4 39 c0 3c 79 90 82 bc 7f 84 1a bc e4 92 bc 3c
       0.023465134 -0.01593803 -0.009431004 0.023019262
000220 e5 bd cb 3c 40 10 15 3d f3 de 2f 3c 8b 5b d8 bb
       0.024870822 0.03639245 0.010734308 -0.0066027096
000230 1c d5 19 38 ea 98 08 3d 71 f2 2f 3d b8 25 da bc
       3.6676516e-05 0.033348955 0.04295582 -0.026629314
000240 bb 5e b7 3c 82 08 bf bc 0c e9 c5 bb 62 b3 ad 3c
       0.022384038 -0.023319487 -0.0060397442 0.0212037
000250 ff f5 06 3c b7 2c 81 3c 2a e0 22 3c 23 11 27 3d
       0.008237361 0.015768392 0.00994114 0.040787827
000260 1d 51 ed 3b ed ad 9c 3c 86 da ae bb 42 a1 81 bd
       0.0072423355 0.019125903 -0.0053361086 -0.063295856
000270 fc c2 5f bd 48 16 ba ba 50 4c a7 bc 75 da e0 3b
       -0.05462931 -0.0014197314 -0.02042213 0.0068619796
000280 50 79 18 bd f5 ee 25 bc 12 63 89 bc 77 14 26 3d
       -0.037225068 -0.010127773 -0.016770873 0.04054686
000290 bc 57 a1 bb 25 6b 18 bc 10 32 d5 bc c4 59 23 3c
       -0.004923789 -0.009302889 -0.026024848 0.009970132
0002a0 60 2f e7 bc 56 ac 79 3b 76 ca d7 3b 1b 90 56 bd
       -0.028220832 0.0038097105 0.0065854145 -0.052383523
0002b0 c9 a1 b0 3b e1 5d d7 3a 10 75 73 bc f9 25 33 3c
       0.00539038 0.0016431176 -0.014859453 0.010934346
0002c0 91 17 3e 3d 72 23 4c bc 2c cf 05 3b 62 68 0a bd
       0.046409193 -0.012459623 0.0020417674 -0.033790953
0002d0 35 69 03 3d 2c d7 c0 3c 33 aa 98 bd 84 e1 fd bc
       0.032082755 0.023540102 -0.07454338 -0.030991323
0002e0 46 30 bb 3b 2a aa 37 bc 28 6b 83 3d 6c c5 05 bd
       0.0057125418 -0.011210004 0.06416923 -0.03265898
0002f0 88 e3 fc 3c ba 26 81 bc d3 88 11 3c 8c c9 93 3c
       0.030870214 -0.015765537 0.008882719 0.018040441
000300 07 15 da 3b 07 10 19 bb d2 49 da bc 53 f2 e5 3c
       0.0066553387 -0.00233555 -0.026646528 0.02806965
000310 16 68 91 3c 0b 34 c3 3b 2c 4d 25 3c 84 bd 1c 3c
       0.017749827 0.0059571317 0.0100892 0.009566668
000320 06 d8 b0 bc a2 7a de bb c7 73 a3 3a 6b d7 b2 3c
       -0.021587383 -0.0067895213 0.0012470417 0.021831235
000330 64 6e 21 3b ac e8 96 bc 20 d3 33 3c 86 73 45 3d
       0.0024632448 -0.018421493 0.010975629 0.048205875
000340 a9 20 8b 3c b9 b9 c4 3c 98 ba 84 3c ef a3 02 bb
       0.016983347 0.02401434 0.016202256 -0.0019934138
000350 b7 71 13 3b 77 f5 93 bc 29 fc 67 bc df ec 0b 3b
       0.00224982 -0.018061383 -0.014159241 0.0021350903
000360 c1 83 45 bb bf d7 3d 3d 39 fb c8 bb 71 27 c2 3c
       -0.0030138346 0.04634833 -0.0061334637 0.023700448
000370 b3 7d cc 3c c4 4d 2d bd 26 eb 0b 3c f6 bc a3 bc
       0.024962282 -0.04231049 0.0085399505 -0.019987565
000380 60 bb 48 3d 88 47 1a ba 64 25 2e 3b 0c e3 af 3c
       0.04900682 -0.0005885293 0.002657258 0.02147057
000390 2e 4d 3a bc b7 06 25 3c e8 cf 43 3c ad ab bd 3b
       -0.01137094 0.010072402 0.011951424 0.0057882876
0003a0 7c 2d b8 3a e5 d9 c3 3b de 52 5a bb e1 3b 5b bc
       0.0014051641 0.005976903 -0.0033313553 -0.013380975
0003b0 32 f1 3a 3c fe 9f 5a 3c 6d c6 0a 3b f3 71 22 bd
       0.0114100445 0.013343809 0.00211754 -0.03965945
0003c0 2b af a3 b7 e7 62 82 3b 0b 37 52 3c 12 c3 38 bd
       -1.9512683e-05 0.0039790752 0.012830506 -0.04510791
0003d0 f8 03 b9 ba 71 05 92 3c ea b2 20 3c 75 9d 0c bc
       -0.0014115563 0.01782486 0.009808281 -0.008582463
0003e0 10 80 d2 bc 1d 91 35 bd 0b 55 56 bc d3 43 3c bc
       -0.02569583 -0.044327844 -0.013081799 -0.01149078
0003f0 fc 2c 0c bb 19 c0 0b 3d 4d 0b ac bc 3a 2a 5d bc
       -0.0021389117 0.034118745 -0.021001482 -0.013498837

weight f4 [8]
000000 51 15 8a 3f ef 0c 8a 3f 56 01 8d 3f 04 e3 8b 3f
       1.0787755 1.0785197 1.1016033 1.0928655
000010 3b ac 8b 3f fe 2f 8e 3f 8d e6 85 3f de c2 82 3f
       1.0911936 1.1108396 1.0460984 1.0215719

bias f4 [8]
000000 57 0e 73 bc da 06 6f 3b 27 1e 7b 3c ab ff 99 3c
       -0.014834962 0.003647259 0.015327013 0.01879867
000010 34 5a b5 3c 27 63 a4 bb 13 fc 8f ba 20 1d 7a 3c
       0.022137739 -0.0050167027 -0.0010985158 0.015265733

running_mean f4 [8]
000000 6e 3c 31 be 90 0a 03 be 14 92 09 be fe 1b a5 3c
       -0.17308208 -0.12796998 -0.1343463 0.02015495
000010 1b 2f d2 bd 29 76 b7 3d d7 a7 b9 3c af 5b 37 be
       -0.10262891 0.08958084 0.02266304 -0.17906068

running_var f4 [8]
000000 8b 25 e9 3b 0f a5 a8 3b 7e b3 e0 3b 4b e2 02 3c
       0.007115071 0.0051466296 0.0068573346 0.007988523
000010 2c 8b 46 3c 3f ec c1 3b e2 f4 84 3b 36 a9 b7 3b
       0.012118142 0.0059180553 0.0040575126 0.0056048883

weight f4 [97, 8, 3, 3]
000000 c4 02 ca bc 0f f1 80 bb 16 ae 1b 3d 86 c9 12 bb
       -0.024659522 -0.0039349864 0.03800782 -0.002239795
000010 1f 7c dd bc a0 0e ac bc f2 9c 85 3b 7f 7a 2b bd
       -0.027036725 -0.021003067 0.004077547 -0.04186487
000020 2f 80 c1 bc bc b4 a1 3c cb 42 ef 3c 80 d4 24 3a
       -0.023620693 0.019739501 0.029206654 0.00062877685
000030 37 d1 a5 bc fe 3e ba bc d2 56 52 bd 40 37 cf 3c
       -0.020241363 -0.022735115 -0.05135233 0.0252949
000040 8a 78 8f bc a6 96 8b 3c 41 13 cd 3c e9 6a bc 3c
       -0.017513532 0.017039608 0.025033595 0.023000197
000050 0f 54 7f 3c ea a5 87 3c ba b5 f5 3b 52 e9 1d bd
       0.015584006 0.016558606 0.00749847 -0.03855259
000060 3f 7c 21 3d e6 f4 42 3c e8 39 08 3d 03 42 63 3d
       0.03942513 0.011899209 0.03325835 0.055482876
000070 d6 a8 3a 3d 4b 56 84 3d 9e e2 80 3c 9e 4e 40 3d
       0.04557117 0.064617716 0.01573306 0.046949975
000080 8e 6e c2 3d 79 db 5f 3d 1b 50 65 bc 7d f0 23 bd
       0.09493743 0.054652665 -0.013996149 -0.04002427
000090 a0 87 35 3d 6e 07 a4 3d 0f 5f 8d bb b0 f7 93 3c
       0.044318795 0.080092296 -0.0043143104 0.018062443
0000a0 fd 8b a6 bc dc 8e 97 3d d8 59 03 3c 54 6d bb bc
       -0.020330423 0.07400295 0.008017026 -0.02287928
0000b0 2b d8 81 3c ca 99 d2 3a 13 cb 08 3b 3a 94 c9 bc
       0.015850147 0.0016067561 0.0020872995 -0.024606813
0000c0 58 63 47 3c 27 64 9e bc f3 14 88 bc 08 1f 30 bc
       0.0121696815 -0.019334866 -0.016611552 -0.010749586
0000d0 0a 50 f1 3c 84 76 32 bc 85 bc e8 bb fd c5 e4 b9
       0.02945711 -0.010892514 -0.0071025514 -0.00043635062
0000e0 48 5f bb 3a 8b 42 2c 3d 89 db 24 3c 48 53 4f 3d
       0.0014295364 0.042055648 0.010062107 0.050616533
0000f0 e4 af 31 bc 5a 76 14 bb 55 2e 01 3d 2f 6e 11 bd
       -0.010845158 -0.002265355 0.031538326 -0.03550547
000100 1e a4 24 bb 19 f7 94 3c 7b db 68 bd 22 12 36 bd
       -0.0025122236 0.018184232 -0.056849938 -0.044450887
000110 ba 94 6a bb 09 c4 90 bd 0c 72 fb bc 24 28 25 bd
       -0.0035794214 -0.07068641 -0.03069403 -0.040321484
000120 52 9e 27 3d 53 6b bb 3c 1e 40 97 bc 76 2f 22 bd
       0.04092247 0.022878325 -0.01846319 -0.039596044
000130 da 62 0a bd 2a ee fe bc d9 fc e1 3c 20 1a 55 bc
       -0.03378568 -0.031119425 0.027586387 -0.013006717
000140 2e e6 4a 3b 51 66 39 3c 40 4e 4c bc d3 b8 82 3c
       0.0030959952 0.011315898 -0.012469828 0.015957272
000150 1f f6 1d 3c 90 a6 2e bd 65 ea 1d bd ef 91 ca 3b
       0.009641199 -0.042639315 -0.038553614 0.0061819474
000160 a2 d8 5f 3c 83 6a 81 3c c2 2f 36 3d d5 b9 c6 bc
       0.013662489 0.015797859 0.04447914 -0.024258533
000170 10 fe a0 3b 00 68 23 3c 42 08 44 bc 92 6f 46 bc
       0.004913099 0.009973526 -0.011964859 -0.012111561
000180 94 3d ad 3c e3 1c ae 3b fa b9 06 3b 37 31 7c 3b
       0.021147527 0.005313502 0.0020557628 0.0038481483
000190 c9 7c 05 3d 3e 23 08 bd 8c 28 ad 3c 89 d4 0b bd
       0.032589708 -0.033236735 0.021137498 -0.034138236
0001a0 47 a6 04 3c 6d 88 91 3d fc c1 6c bc 40 4c 06 bd
       0.008096284 0.07106099 -0.014450546 -0.03278756
0001b0 fd 5a f4 3c 26 c4 e7 3c a5 98 8f 3c f4 6f 1e bc
       0.029828543 0.028291773 0.017528841 -0.009670246
0001c0 a5 e0 0d 3d 3a ba 1d 3d 70 52 1b 3d 19 37 41 3c
       0.034638066 0.038507678 0.037920415 0.011792921
0001d0 fe 3a 7e 3c 99 03 e7 bc dc 94 55 3d 89 9c ba ba
       0.0155169945 -0.028199958 0.052143916 -0.0014237325
0001e0 6c 7b 39 3d 3e 66 b7 bc a4 6c 83 bb c1 19 f3 bc
       0.04528372 -0.02238762 -0.0040107537 -0.029675366
0001f0 9e af 0c 3c b8 47 bd 3c d2 cb 00 bc 99 c8 00 bd
       0.008586792 0.023105487 -0.007861095 -0.031441305
000200 8d 92 4f 3d 3d 07 a0 3c d4 7b 5b bb 8e 23 a7 bb
       0.05067687 0.019534701 -0.0033490555 -0.005100674
000210 f0 15 97 bc 58 c8 3e bb cf d0 99 bc 5e 12 00 bc
       -0.018443078 -0.0029111113 -0.018776326 -0.007816879
000220 25 8e a2 bc 38 49 c9 3c a4 be c0 bc 80 b4 16 3d
       -0.01984317 0.024571046 -0.023528405 0.036793232
000230 25 68 08 bc 9f 47 8c bd b6 9b 98 bb 10 10 60 bd
       -0.008325611 -0.06849598 -0.004657234 -0.05470282
000240 8a 42 a5 ba 1d b4 fb 3c 83 2e dc bb f1 fd 32 3c
       -0.0012608331 0.030725533 -0.006719412 0.010924802
000250 91 88 8f bc ce 8b b0 bc c7 3a 6a 3b 17 c3 8d 3d
       -0.017521175 -0.02155104 0.00357406 0.06921976
000260 16 18 8e 3c e7 36 c0 3a 57 b0 39 3c 37 2f fa bb
       0.01734547 0.00146648 0.011333547 -0.007635023
000270 a9 a5 28 3c f9 86 2a 3d 98 c0 3e 3d 3f 2e 72 bc
       0.010293403 0.041632626 0.04657039 -0.014781534
000280 b6 83 51 3c c2 b3 ba ba 11 03 a5 bc dd 95 1d bc
       0.01278775 -0.0014244246 -0.020143064 -0.00961825
000290 4b 28 b6 bc c1 1e a7 bb 7b fc 5e 3d 2e bb 54 3c
       -0.02223601 -0.0051001017 0.054440003 0.01298408
0002a0 4d e6 9c ba 32 a9 28 bc 18 d0 4b bd b5 1b cf bc
       -0.001197049 -0.010294246 -0.049759 -0.025281766
0002b0 e4 c4 1a 3c a7 8e 6d bb aa a2 e6 3b 46 d6 4a bc
       0.009446356 -0.0036248358 0.007038434 -0.012380188
0002c0 5d ce 9a bc d0 aa 73 3c 17 46 50 bc c8 77 e3 bb
       -0.01889723 0.014872268 -0.012712023 -0.0069417693
0002d0 4f b7 6a 3c 15 87 15 3b 53 cb f6 3b 6b 2e 41 3c
       0.014325931 0.002281611 0.0075315624 0.011790852
0002e0 8c 6e af bc 1f 50 95 bb df 36 45 bc d6 20 35 3c
       -0.021415018 -0.0045566703 -0.012037008 0.011055192
0002f0 a3 5f 12 3c e3 c1 c1 3c 96 dc 3c bb f3 89 a6 bc
       0.008933934 0.023652023 -0.0028818003 -0.020329451
000300 c9 2d 94 bc 4e 0e ea 3c e0 69 13 3c 73 78 87 3c
       -0.018088238 0.028571274 0.008997411 0.016536927
000310 fe 3b a4 3b 29 67 23 3b 88 b4 38 3b 3a 62 ae bc
       0.0050120344 0.0024933314 0.0028183777 -0.021287072
000320 2f 10 2e 3c 5e c9 08 bd 9b 12 b5 bc 5c 25 9c ba
       0.010623976 -0.033395164 -0.022103598 -0.001191299
000330 71 85 ae 3c 8b ed 07 bc c1 73 f0 bc 6a f8 1f 3b
       0.021303864 -0.008296381 -0.02935207 0.002440954
000340 32 ab 75 3c 71 7c 29 3c e0 fb 96 3c f4 fd e2 3c
       0.014994429 0.010344611 0.01843065 0.027708985
000350 e0 74 6b bc 9c 00 05 bc 8e a6 8c 3a 8c 5f b3 3c
       -0.014371127 -0.008117821 0.001073079 0.021896146
000360 1b ac 82 bc dd 31 9e bc 62 ff 76 bc 90 19 8f 39
       -0.015951207 -0.019310886 -0.015075536 0.0002729413
000370 54 c3 b5 bc 8f 47 3f 3b ac d7 22 3d e8 69 23 3d
       -0.022187866 0.002918694 0.039756462 0.039895922
000380 4e bf 69 3c 3d dd ee 3c 5f 12 aa 3c da 24 93 bc
       0.014266802 0.029158229 0.020760713 -0.017961908
000390 3e a6 50 3c 42 d6 02 bc 93 90 c1 3c 7f 86 82 3c
       0.012734948 -0.007985653 0.023628509 0.015933273
0003a0 61 24 ee bc 52 c0 e2 38 51 39 22 3c 43 38 49 3c
       -0.029070081 0.00010812342 0.009901361 0.01228148
0003b0 b5 ae 15 bd 04 98 a8 bc 6a 65 81 3c 05 ac f3 3c
       -0.036543567 -0.0205803 0.015795428 0.029745111
0003c0 fa a3 0d bc 07 73 64 bb 94 14 aa 3c 89 6c 88 3c
       -0.008645052 -0.00348586 0.020761766 0.016653316
0003d0 c7 f2 d9 3c 5e 0a 5b bb 4d 02 3a bc 6a ce 97 bc
       0.026605023 -0.0033422927 -0.011353088 -0.018531043
0003e0 70 25 ba bc e3 66 ea b9 ad 45 64 3b 79 f5 50 3d
       -0.02272293 -0.00044708615 0.003483157 0.05101535
0003f0 ab d9 cb bc 5a 72 4e bc 5e b3 8b 3c 49 17 0c 3d
       -0.024884066 -0.012600506 0.017053302 0.034201894

bias f4 [97]
000000 c8 00 45 3d 91 3a 43 bc 04 bd 81 bd 98 f3 8f 3d
       0.04809645 -0.011915819 -0.0633488 0.07028884
000010 1e a2 97 bd e4 97 59 bc f4 ff 3d 3d e1 e5 d8 3d
       -0.07403968 -0.013280842 0.046386674 0.10590721
000020 2d 77 04 3d 03 cd 9c bd 81 12 c2 bc 7c b0 8d 3b
       0.032340217 -0.076562904 -0.023690464 0.004324017
000030 63 60 1b bd 26 8b f8 3d e0 99 54 3d 4c 03 fd bc
       -0.03793372 0.121359155 0.05190456 -0.030885361
000040 eb ff 80 bd 5c 0c ad 3d f1 27 c4 3d f0 fd 07 bd
       -0.062988125 0.08449623 0.09577931 -0.033201158
000050 f0 56 b3 bd 17 33 cd 3d 89 fc 8c bd 51 a9 9c 3d
       -0.087568164 0.1001951 -0.06884105 0.07649482
000060 af a8 84 bc 43 e1 e8 3d 1b 5f b5 3d c2 ad aa 3c
       -0.016193716 0.1137109 0.088560306 0.020834807
000070 47 6f 71 3c 2d 99 b0 3d 9e 8a ae 3c e8 12 00 3e
       0.014736003 0.08622966 0.021306332 0.12507212
000080 84 28 4c bd 02 00 f6 3c b2 f4 5b 3d 0a 22 4e 3d
       -0.049843326 0.0300293 0.053700157 0.05032543
000090 d5 24 5a 3d f5 00 34 bd 73 f8 d2 bc 82 3e 6f bd
       0.053257782 -0.043946225 -0.025753235 -0.05840922
0000a0 fb 6e db bc 35 87 d4 3d 46 8b 39 3d 4a 7c 2b bc
       -0.026786318 0.10377351 0.045298837 -0.010466645
0000b0 ac 65 72 bd d7 6a 29 3d b0 25 e9 3d 7f 83 68 3d
       -0.059178993 0.041361656 0.113841414 0.05676603
0000c0 9c 62 a9 bd a7 56 82 bd a4 b3 be 3d 6c bc 24 3c
       -0.08270761 -0.06364184 0.093116075 0.010054689
0000d0 f7 05 00 3e cc b9 d1 3d 9c c5 36 bd 84 30 6f 3d
       0.12502275 0.10240516 -0.04462205 0.058395877
0000e0 8c c1 a3 3d 16 bd 7e bc 2b da 5c 3d 10 0d 1a 3e
       0.079959005 -0.015548011 0.053919 0.15044045
0000f0 90 86 89 3b cf 95 05 3d c6 84 ab 3d 8f fa 8d 3d
       0.0041969493 0.03261357 0.08374934 0.06932556
000100 1e 59 df 3c 5b 52 2e 3b bc bd 41 3d 58 8f bb 3d
       0.027264174 0.002659938 0.047300085 0.091582
000110 28 e2 e9 3d 4a af 52 bd b7 27 14 bd 05 64 a6 bd
       0.11420089 -0.0514367 -0.036170688 -0.08124546
000120 d2 70 d7 bc 9e 61 91 bc 0f 4a 71 3c 78 01 03 3d
       -0.026298914 -0.017746743 0.01472713 0.031983823
000130 5a 81 1e bd 7a 9e bf bc 94 2c 5f bd 03 df e0 3c
       -0.038697578 -0.023390997 -0.054485872 0.02745009
000140 31 fd 7f bd ea d6 e6 bc 1c 0d ad bd 77 09 08 bd
       -0.06249732 -0.02817865 -0.08449766 -0.03321215
000150 9a bf 96 bd 27 1e 5f 3d 3d e9 12 3c 0e 7d b7 bd
       -0.07360764 0.054472115 0.008966741 -0.08959399
000160 8e 22 b9 3d 25 bd c6 bb db 84 02 bd 19 b8 2f 3c
       0.09039794 -0.0060650283 -0.031864982 0.010725045
000170 4c 03 68 bd ce fd f1 3d ea 6f a9 3d 8e 2b d0 3d
       -0.05664377 0.118159875 0.08273299 0.101645574
000180 72 46 54 bd
       -0.051824994
