loggers/h256_w256_bs20_in_channel1_lr0.0003/0512_0137/models/BasicModel_97.pth (torch, 40207 bytes, 17 tensors)

weight f4 [2, 1, 3, 3]
00000000: 9eb0 eaba ec44 b9bc d7af b439 011f 313d
00000010: 133f cf3a a6b6 80bb 6e83 b83c bf5f 16bc
00000020: 3591 a5bc 61c8 f63b 2522 98bb 8c46 d93c
00000030: 3bc2 43bd 5e5c 9cba b92d 36bc 8082 d73c
00000040: 7581 23bc a55a b1bc
-0.0017905419 -0.022615872 0.00034463286 0.04324246 0.0015811644 -0.0039280234 0.022523608 -0.009178101
-0.020210842 0.0075312112 -0.004642742 0.026522897 -0.047792654 -0.0011929383 -0.0111193 0.026307344
-0.009979595 -0.021649668

weight f4 [2]
00000000: 95c2 773f 5d68 803f
0.96781284 1.0031849

bias f4 [2]
00000000: ae63 073e 4ffe 753d
0.13221619 0.06005698

running_mean f4 [2]
00000000: c8f6 1b3e 135e 01bf
0.15230858 -0.5053417

running_var f4 [2]
00000000: f54c 3f3e 8a47 f13e
0.186817 0.47124892

weight f4 [4, 2, 3, 3]
00000000: e999 23bd e586 d4bc 611b 753c ac3b 053b
00000010: 895f f5bc edf4 36bb b5a4 153c c2a6 233c
00000020: 7072 2b3c 81cf 81bc 581c 4cbd 0693 c03b
00000030: 80d9 2a3d 403a 61bc 5204 b23b 8f7f 043c
00000040: cbee 20bc a320 ec3b 4f2c 23bd 3692 d23c
00000050: c4be 1b3c c7a3 543c 6de2 d8ba f655 b8bc
00000060: 8ff2 733c 2f42 7abd 5345 dabb d397 75ba
00000070: e69c 53bc adc6 85bb a67f fc3c 5d47 0b3d
00000080: c0da 9e3c 34fa 203d 09bf f33c cbb5 e4bb
00000090: 3968 d33c ffe2 58bc e107 83bc 9047 443d
000000a0: 4ea0 95bc 6db8 4d3b 4e1e abbb de1a 00ba
000000b0: 2b04 653c abf7 94bc 92c3 6abc 887f 363c
000000c0: e17e 9cbc b35e 983c 054a 933c 8ebc df3b
000000d0: fe6a 2d3d 4c1f f03b 26dd 09bd c877 15bc
000000e0: 354f d13c 0b07 2d3c 2558 36bd 453b d8bc
000000f0: efee 16bd 918c 3a3c 4ff3 25bc 68e5 60bc
00000100: dc08 aabc 93b9 31bb dadc 50bd dd5e 51bb
00000110: 5090 73bc 2911 d23c 3015 da3a 0395 4239
-0.039941702 -0.025943229 0.014960141 0.0020329757 -0.029952781 -0.0027916983 0.0091335075 0.009988489
0.010464296 -0.015846016 -0.04983172 0.0058769016 0.04171133 -0.013746798 0.005432644 0.008087053
-0.009822558 0.007206039 -0.039837178 0.025704484 0.009505931 0.012978501 -0.0016546972 -0.022501927
0.014889373 -0.061098274 -0.006661096 -0.0009368632 -0.0129158255 -0.004082522 0.030822586 0.034003604
0.019391418 0.039301112 0.029754179 -0.006979679 0.025806533 -0.013237714 -0.015994968 0.04791981
-0.018264916 0.0031390444 -0.0052221185 -0.0004886816 0.0139780445 -0.018184504 -0.014328854 0.011138804
-0.01910347 0.018599844 0.017979631 0.0068278974 0.042338364 0.0073279496 -0.03365817 -0.009122796
0.025550464 0.010560761 -0.044517655 -0.02639545 -0.03684896 0.011386053 -0.01012881 -0.01372657
-0.020756178 -0.0027118667 -0.05099187 -0.0031947412 -0.01486595 0.025642948 0.0016638394 0.00018556793

weight f4 [4]
00000000: df3f 8a3f 012c 773f 5b0e 743f 37bf 863f
1.0800742 0.9655152 0.95334405 1.0527104

bias f4 [4]
00000000: c3d6 c33c 8896 adbd 81ac 7b3c 1cfb 02be
0.023906117 -0.08475977 0.015360952 -0.12791103

running_mean f4 [4]
00000000: 1bf9 9abd 3711 f23c 5248 b93d 2320 4bbe
-0.07567044 0.029549224 0.09046997 -0.19836478

running_var f4 [4]
00000000: 782d de3b 8ec3 373c e1b7 933b 19a7 603c
0.0067803226 0.011216057 0.004508004 0.013711714

weight f4 [8, 4, 3, 3]
00000000: fb95 a1bc c3b9 253c 0562 08bc 59ab 453c
00000010: 27fe 47bd 5426 3abc b789 b83c 38a9 84bc
00000020: f003 e1bb 7bb6 2f3c ebe7 ed3c b307 873b
00000030: 0aa5 66bd 0cbe 083d ac68 933c 33e7 e53c
00000040: 6d1c f4bc 8787 913c e0c2 1fbc 3028 98bc
00000050: f214 81bc 9781 853b 5c84 3a3c 00bd cebc
00000060: c1d7 c43a b6f4 883b a0d0 d8bc 0220 27bc
00000070: bb94 47bd 263c 94bc 851a 1c3d f82b 8f3c
00000080: 608e 9ebb a8dd 843c cf82 e2bc 7030 6dbd
00000090: 002b 5d3c 1289 c6bc 29e9 4abc b32d 303c
000000a0: 9a7c 04bd 82a7 3c3b 364b 24bd 33a6 afbb
000000b0: fb29 1e3c 299d 933c 2da3 f43b 2abf 3abd
000000c0: f2e8 f3bb 82ca b03c b593 e33b 8c23 90bc
000000d0: 8256 d0bb 7615 453c e2db 9cba f8fd fabb
000000e0: 4fe0 04bc 602a 0b3d ab39 babb 22c4 b0bc
000000f0: 3830 01bc f24a 1d3c 7b12 203a c0e4 3abd
00000100: 9f28 e6bc 574a 003d d495 be3c 5520 8f3d
00000110: eec7 49bd ab2b c73c 6474 63bc 5f20 8dbd
00000120: c768 fc3c 6b07 07bc 419d c7bc aa8f babc
00000130: 7be6 45bd e5df 89bc b5b5 903c 7f40 37bd
00000140: a48c 3f3d 4e88 683a 75f0 81bd 2d5d 983b
00000150: 003a 163b 1aca 8bbc 7204 053d 47dc 66bb
00000160: 815f 6b3b 08b0 2c3c da6d a0bc 8b96 04bc
00000170: 4b76 9e3c 3652 f43b c764 a93c 951d 783b
00000180: 9c9b e4bc 9f5c 78bb d050 72bc 64fb c7bc
00000190: b5fc bdbb 796d be3c ac20 4b3d e2d8 22bd
000001a0: c85a 32bc ee1f 663b d410 8dbc 90b6 bc3c
000001b0: c13b eabc 4037 5aba 4ed8 ab3c b422 f93c
000001c0: 7750 373a f750 1b3c fbc6 9dbc 8036 18bc
000001d0: da48 2cbd a9c6 393c b7fb bcba b53f 813b
000001e0: 4ccb 3bbb b14c 41bd 74fc f03a b0aa ea3c
000001f0: 0f44 823b 596e 3ebc 0a70 cf3b b149 b0ba
00000200: bf56 a23c 737d 4b3c 4608 cabc ded4 a0bc
00000210: 3bf1 c03c 5300 85bc 9f1b 1bbc ccbe c23c
00000220: af3c c53c 506d 173d 54b5 2e3c babe f0bb
00000230: cbe8 0fba 0509 0b3d 3fa8 323d f031 dabc
00000240: 3deb be3c 974d cabc 1a83 d4bb cd9e b23c
00000250: 14c1 083c 98be 723c e000 113c 52c4 273d
00000260: b2ca 053c 0469 9a3c df6a 8fbb 3009 84bd
00000270: 64cc 5dbd 88a6 b9ba 3e82 a2bc f67c e23b
00000280: c8f5 16bd 03de 2cbc d6de 89bc ebd2 233d
00000290: fb78 96bb b25d 1ebc 4568 d2bc 027e 253c
000002a0: e4ef e8bc 91dd 8a3b a4eb d53b e783 57bd
000002b0: 61b0 b83b fdf8 ee3a 556f 84bc 6117 223c
000002c0: 5c46 463d ff26 37bc afd4 263b d49d 13bd
000002d0: 4620 083d f55e c03c 7c84 98bd a6f3 fabc
000002e0: f26f bd3b a141 36bc 41d1 833d 2379 06bd
000002f0: 584f fe3c 4952 8cbc 954b 183c 3a73 933c
00000300: d0f9 c23b 09ec 3abb a360 d4bc caa1 e73c
00000310: 1730 9c3c bed4 af3b fd98 273c fda2 123c
00000320: 5c01 afbc 674a e3bb 3137 bb3a e841 b43c
00000330: 2182 2c3b d898 9abc 184d 353c 9a93 463d
00000340: e22e 853c f627 c23c ecae 853c c087 8539
00000350: 2d9f 0f3b a94b 9abc b906 5ebc 91fd 093b
00000360: 953e 31bb 4136 3e3d 3c77 aabb 6388 c13c
00000370: e8da ce3c 6003 2fbd b2ca 0e3c 4d6d aabc
00000380: 3986 4c3d a6b5 a5b9 cfd9 273b 40b7 ac3c
00000390: beae 38bc 43f2 283c cf3c 3c3c 598d bc3b
000003a0: e2cd a13a 7e1a c33b 75fd 67bb 229f 51bc
000003b0: f1ba 393c 3f2c 5f3c 016d f03a c035 23bd
000003c0: ca64 9538 d3b3 7d3b 0249 533c 579c 39bd
000003d0: c3e3 b4ba 02d8 933c 6f2c 283c 8b61 12bc
000003e0: 4c34 d6bc 60f4 36bd 9074 56bc 3027 47bc
000003f0: c3ad 32bb 7ba3 0f3d 074c a9bc b430 54bc
-0.019724837 0.01011509 -0.008324151 0.012064778 -0.048826363 -0.011361677 0.022526605 -0.016193971
-0.0068669245 0.010724659 0.029041251 0.004120791 -0.056309737 0.033384368 0.017994247 0.028064346
-0.02979871 0.01776482 -0.009751052 -0.01857385 -0.015757058 0.004074286 0.011384096 -0.025236607
0.0015017913 0.0041795624 -0.026466668 -0.010200502 -0.048725825 -0.018095087 0.03811123 0.01747702
-0.0048387498 0.016218975 -0.027650265 -0.05790752 0.0134990215 -0.024235282 -0.012384691 0.010753083
-0.03234539 0.0028786366 -0.04011079 -0.0053603887 0.009653564 0.018019276 0.007465741 -0.045592465
-0.0074435407 0.021580938 0.0069450983 -0.017595075 -0.006357969 0.0120290425 -0.0011967386 -0.00765967
-0.00811012 0.03397596 -0.005683144 -0.021577898 -0.007885031 0.009600388 0.00061062694 -0.04562831
-0.028095542 0.031320896 0.023264803 0.06988589 -0.049262933 0.024312815 -0.01388273 -0.0689094
0.03081168 -0.008241515 -0.024366977 -0.022773582 -0.048315506 -0.016830394 0.01766477 -0.044739243
0.046764985 0.00088704086 -0.06344692 0.0046497793 0.0022922754 -0.017064143 0.032474943 -0.003522651
0.003591508 0.010540016 -0.019583631 -0.008092533 0.019343516 0.0074560894 0.020677937 0.003785943
-0.027906232 -0.0037897003 -0.014789775 -0.024411865 -0.0057979473 0.02324556 0.049591705 -0.039757617
-0.010885902 0.0035114246 -0.017219938 0.023036271 -0.028592946 -0.0008324273 0.020977166 0.030412056
0.0006992886 0.009479753 -0.01925992 -0.009290338 -0.042061664 0.011338868 -0.0014418279 0.003944362
-0.002865511 -0.04719228 0.0018385784 0.028645843 0.0039753984 -0.011622989 0.006330495 -0.0013449696
0.019816754 0.012420046 -0.024662148 -0.019632753 0.023552528 -0.016235506 -0.009467035 0.02377262
0.024076788 0.036969483 0.010663349 -0.007346955 -0.0005489706 0.03394415 0.043617483 -0.02663514
0.02330553 -0.0246952 -0.006485355 0.021804238 0.008346815 0.014815949 0.008850306 0.04095871
0.008166002 0.018848903 -0.0043767537 -0.06447065 -0.05415 -0.001416401 -0.019837495 0.006911869
-0.03685549 -0.010550979 -0.01682989 0.03999607 -0.0045920587 -0.009665893 -0.025684485 0.010100843
-0.028434701 0.0042378386 0.0065283347 -0.052616026 0.0056362604 0.0018232163 -0.016166368 0.009893269
0.048406944 -0.011178731 0.002545636 -0.03603919 0.033233903 0.023482779 -0.074471444 -0.030633759
0.005781167 -0.011124046 0.064363964 -0.03283037 0.031043693 -0.01712908 0.009295364 0.01799928
0.00595019 -0.0028522036 -0.025924986 0.02827539 0.0190659 0.005365937 0.010229346 0.008949992
-0.021362953 -0.0069363597 0.0014283416 0.022004083 0.002632268 -0.01887171 0.011065744 0.048480608
0.016257707 0.023700695 0.01631876 0.00025468878 0.0021914945 -0.018834906 -0.0135514075 0.0021055678
-0.0027045358 0.04643846 -0.005202202 0.023624605 0.025250867 -0.042727828 0.0087153185 -0.020804072
0.049932692 -0.0003160659 0.0025612002 0.021083474 -0.0112721305 0.010311666 0.011489107 0.0057541546
0.0012344683 0.005954086 -0.0035398875 -0.012794288 0.011336074 0.013621389 0.0018343033 -0.039846182
7.123647e-05 0.003871192 0.012895824 -0.045315113 -0.0013800788 0.018047336 0.0102645 -0.008934389
-0.026147984 -0.044666648 -0.013089314 -0.012155339 -0.0027264215 0.035068016 -0.020666135 -0.012951065

weight f4 [8]
00000000: 980b 8b3f 1dab 8a3f a632 8e3f cf61 8c3f
00000010: 1466 8c3f c346 8f3f 2d86 863f 2236 833f
1.0862913 1.083347 1.1109207 1.0967349 1.0968652 1.119347 1.0509697 1.0250895

bias f4 [8]
00000000: c3dc 82bc 3de7 553b 4d33 7e3c f7a3 a03c
00000010: 397e c33c fffc aabb 722b 06b9 5267 6e3c
-0.015974408 0.003263905 0.015515161 0.019609435 0.023863899 -0.0052181478 -0.0001279542 0.014551001

running_mean f4 [8]
00000000: 5625 32be eed6 02be 7440 08be c5e2 a23c
00000010: 2540 cfbd 920b bb3d aea0 b23c 0865 37be
-0.17397055 -0.12777302 -0.13305837 0.019883523 -0.101196565 0.09133066 0.021805134 -0.17909634

running_var f4 [8]
00000000: 5715 e83b 4283 aa3b 9234 e13b e577 023c
00000010: 7e0e 453c d44f c13b 7a18 863b dc3f ba3b
0.007082622 0.0052036354 0.006872722 0.007963155 0.012027381 0.005899409 0.0040922733 0.005683882

weight f4 [97, 8, 3, 3]
00000000: 6716 bebc 04a2 95bb c3af 1e3d 2e91 e1b9
00000010: 2c9b d4bc 5fa7 a9bc 3c19 173b f9ca 31bd
00000020: bfe2 d3bc 65f0 a43c 6a60 ea3c 542d 1a3a
00000030: b9a4 aebc feb8 c4bc 511b 55bd 8ee7 cf3c
00000040: b7ae 92bc 9fe0 8d3c f812 c93c 0f58 c53c
00000050: a643 813c 7580 833c d138 dd3b 096c 1ebd
00000060: 94f1 293d d086 653c 4790 053d a2e8 663d
00000070: f749 393d ad91 833d 2a87 683c 3cfc 423d
00000080: d88c c53d ce32 653d a8b9 7fbc 9afd 28bd
00000090: 9a8c 3a3d 3b69 a63d fbf0 8bbb 1609 943c
000000a0: e08b bfbc 2566 9c3d 1f96 063c edfa cdbc
000000b0: 2704 8e3c 81c5 cdba dc2e c93a 057b c7bc
000000c0: 0e05 523c 45c0 aabc 37c2 90bc cdac 3ebc
000000d0: cdba f53c 9c98 3ebc 64d9 f0bb d6df 86b9
000000e0: de31 fb39 8cff 2c3d 7e2b 383c 4e31 533d
000000f0: 5237 2ebc b672 9eba f2a7 013d 4789 10bd
00000100: c005 5fbb fd2e 923c a7f2 66bd 8129 39bd
00000110: e236 4cbb 2e0f 95bd afcd 03bd 9995 25bd
00000120: dccb 2c3d 7c2f b73c 8040 98bc d631 1fbd
00000130: ad2b 01bd 6c43 01bd e8f4 eb3c 0dc1 66bc
00000140: 0c3c 473b 87df 1d3c 78c5 5dbc 3866 793c
00000150: 1d6c 083c 1cb3 35bd 9e9b 1ebd af2d e03b
00000160: fd68 703c 2f96 853c bcc3 323d 3ceb c3bc
00000170: 4760 c03b 9602 1c3c eb27 45bc d276 5bbc
00000180: bcc6 ad3c 925e bf3b 8912 dd3a e800 303b
00000190: 181a 093d 42b4 0abd 8e11 a63c 0c90 0cbd
000001a0: 3065 0a3c 8f1d 943d 2327 7ebc dcd0 05bd
000001b0: d970 e93c a63c e23c 12e1 8d3c 7f20 20bc
000001c0: 57b2 033d 9788 273d 77ad 1f3d 9f79 553c
000001d0: 3a49 7f3c c557 f3bc b0b4 553d 334d 13bb
000001e0: 8df2 413d 37e1 bdbc d5b4 56bb a4e3 f1bc
000001f0: ec83 f83b 5fc1 c63c d43d febb 632c 01bd
00000200: 4f33 553d 76dd 9a3c b37d 1dbb f8dc b2bb
00000210: 8246 98bc 2b9e 4ebb 5e68 a1bc 7025 fdbb
00000220: 8c4c a4bc 4a16 cf3c 310e cdbc 383d 1b3d
00000230: bce3 febb c7a8 8cbd 6b14 6cbb 1e16 5bbd
00000240: 4702 fdba 1487 fb3c 4d1d 93bb e25f 283c
00000250: dd31 a0bc d71d bdbc 6202 cf3b f638 8f3d
00000260: 4d65 853c 529c b1b8 94e7 393c 9cd9 debb
00000270: bbb3 343c ce7e 2d3d 3e9c 433d abf1 7dbc
00000280: b1e3 5e3c e005 9aba 0297 9dbc 0f01 21bc
00000290: aa25 bcbc 0539 bbbb ed40 663d c3e2 513c
000002a0: b77e 02bb 82db 33bc e197 51bd 8dcd d9bc
000002b0: a4c8 183c 5faf 54bb 38a9 053c 4a4c 4cbc
000002c0: bb9b 94bc 6a3d 733c f9f6 4ebc e60b 00bc
000002d0: 71c6 563c e9f0 2f3b f34c e63b 59ef 463c
000002e0: 1555 bebc 22bb 81bb 2a1b 4fbc 760d 653c
000002f0: ec55 143c 905e c33c 7b10 4fbb 3d4a a0bc
00000300: 7edb 95bc ee42 f73c d16c 0e3c 8ec2 913c
00000310: a6af 913b c0de 123b e1fd 303b 9ff3 b4bc
00000320: 3c7a 353c 9340 0cbd f550 aabc bcfa fdba
00000330: b458 ae3c 830d 14bc a498 ecbc 26d0 393b
00000340: 06e2 6b3c 3427 253c 007b 9d3c e108 e93c
00000350: 8594 6dbc fea6 1dbc 9ede 913a 0c22 ac3c
00000360: 87e0 86bc 2c3e 9fbc d111 68bc 1236 bbb9
00000370: 5db6 b7bc b19b de3a 07f7 243d a028 1f3d
00000380: 7bbb 813c be30 ef3c aa53 a63c b5e7 9abc
00000390: dbd5 5d3c c27c f8bb d811 c93c 4960 903c
000003a0: 730f f6bc fbfe 6e3a 2269 433c 4c12 3e3c
000003b0: d10c 15bd 5c1f aebc e934 833c 3249 f43c
000003c0: 4cfc 15bc 8e51 66bb 64f2 a43c 3fef 8d3c
000003d0: 5431 d63c 2e54 4cbb 3ef5 3abc 6b4e 9ebc
000003e0: 6470 bbbc 2aff cbba 52f4 6f3b 45c1 543d
000003f0: 2614 d2bc 7358 3fbc d811 833c b19b 0b3d
-0.023204042 -0.004566433 0.03874184 -0.00043023512 -0.025952898 -0.020709692 0.0023055812 -0.04340646
-0.025864957 0.02013416 0.028610427 0.0005881388 -0.02131878 -0.024013992 -0.052028004 0.025378969
-0.017905576 0.017319022 0.024545178 0.024089841 0.015779328 0.016052464 0.006751158 -0.03867725
0.041490152 0.014009193 0.032608297 0.0563742 0.045236554 0.0642427 0.014192382 0.04760383
0.096460044 0.055956654 -0.015608229 -0.04125748 0.045544244 0.0812554 -0.0042706705 0.018070739
-0.023382127 0.0763667 0.008214503 -0.025144065 0.017335964 -0.001569912 0.0015349048 -0.024350652
0.012818588 -0.020843634 -0.017670734 -0.011637879 0.0299963 -0.011633065 -0.0073501337 -0.00025725242
0.00047911605 0.042235896 0.011240838 0.051560692 -0.010633307 -0.001208863 0.031654306 -0.035287168
-0.0034030527 0.017844671 -0.056383755 -0.045205597 -0.0031160642 -0.07278286 -0.032178577 -0.04042587
0.042186603 0.02236151 -0.018585443 -0.038865887 -0.031535793 -0.03155844 0.028803304 -0.014084113
0.003040078 0.009635813 -0.01353585 0.015222125 0.008326557 -0.044360265 -0.038722627 0.0068413834
0.014673469 0.016306965 0.043643698 -0.02391588 0.005870852 0.009522101 -0.012033443 -0.013395028
0.021212928 0.005840131 0.0016866486 0.002685601 0.03347215 -0.033863313 0.020272043 -0.03431706
0.008446977 0.072322 -0.015512261 -0.032669887 0.028496193 0.02761681 0.017319236 -0.009773373
0.0321525 0.040901747 0.03898379 0.013029485 0.015581423 -0.029704938 0.05217427 -0.0022476434
0.047350455 -0.02317868 -0.0032761593 -0.029527493 0.0075840857 0.024262128 -0.0077588353 -0.03153647
0.052050885 0.018904429 -0.0024031221 -0.0054584704 -0.018588308 -0.003152738 -0.019703086 -0.00772541
-0.020056032 0.025279183 -0.025031181 0.03790018 -0.007778613 -0.06868129 -0.0036022912 -0.05348789
-0.0019303047 0.030704059 -0.004489577 0.0102767665 -0.019555027 -0.023085518 0.0063174227 0.06993286
0.016283656 -8.4691346e-05 0.011346716 -0.0068008434 0.011029179 0.04235726 0.047756426 -0.015499513
0.013604091 -0.0011751018 -0.019237045 -0.009826913 -0.022967178 -0.0057135844 0.05621426 0.012810412
-0.0019911954 -0.010977628 -0.051170234 -0.026587272 0.00932518 -0.0032453162 0.008158021 -0.012469361
-0.018140664 0.014846185 -0.012632125 -0.007815337 0.013108836 0.0026846475 0.007028216 0.012142026
-0.02323393 -0.0039590755 -0.012640754 0.01398026 0.0090536885 0.023848802 -0.0031595516 -0.01956665
-0.018293139 0.030183282 0.008692936 0.017792966 0.0044459878 0.0022410601 0.0027006792 -0.022088824
0.011076506 -0.03424127 -0.020790556 -0.0019377093 0.021282531 -0.009036425 -0.028881378 0.0028352826
0.01439715 0.010080148 0.01922369 0.028446617 -0.014500742 -0.009622334 0.0011128967 0.021012329
-0.016464485 -0.019438826 -0.014164404 -0.00035707705 -0.022425825 0.0016983656 0.040274646 0.038857102
0.015836468 0.029198047 0.020303566 -0.018909315 0.013539757 -0.0075832317 0.024544641 0.017624037
-0.030036664 0.00091169745 0.011926921 0.011601042 -0.036389176 -0.021255188 0.01601644 0.029820058
-0.009154391 -0.0035143825 0.020135112 0.017325995 0.026146568 -0.0031178105 -0.011411009 -0.019324502
-0.02288074 -0.0015563716 0.0036614132 0.05194213 -0.025644373 -0.011678803 0.01599972 0.034084026

bias f4 [97]
00000000: efda 4b3d fdd5 30bc 2c02 82bd d308 913d
00000010: 8a45 96bd e62f 50bc 47ca 3a3d 8520 d83d
00000020: 873e 043d 0eca 9cbd 2d15 b7bc d59a b13b
00000030: 1c11 1dbd 800b f93d 6770 533d 81bb fcbc
00000040: 2817 81bd 92be ac3d 121e c43d 9a20 05bd
00000050: ec6c b1bd 35a7 cc3d e4ba 8cbd 8f73 9c3d
00000060: fb1c 76bc 64a8 e73d 63ee b43d 472a af3c
00000070: b244 7a3c 4d7f b13d 19bf af3c d0a1 ff3d
00000080: 5727 4dbd cb4e f63c ee5a 5c3d 5d0f 513d
00000090: a57c 5d3d 55d3 2ebd 9f29 dbbc 2b08 6cbd
000000a0: 5bce dcbc 1ee0 d43d a463 373d 9722 2ebc
000000b0: 1f20 71bd 1e73 2b3d 91e4 ea3d 98f7 683d
000000c0: deb4 a9bd ff9d 80bd 82bf bc3d 9809 2d3c
000000d0: 5786 003e 64dc d03d 0806 31bd 93da 703d
000000e0: 9d32 a43d 113b 81bc 8a1b 5d3d 564e 1b3e
000000f0: 4f0a 863b f5dc 063d 5238 ac3d 6aa2 8f3d
00000100: 52ed e43c 948f df3a 202c 443d 170a bd3d
00000110: 0b02 ec3d 4028 52bd 5080 12bd 9f9f a6bd
00000120: 1b25 e0bc a550 99bc ad9b 843c ae8c 053d
00000130: e9f3 1cbd dc28 bbbc a48e 62bd dd1a e53c
00000140: 7bd7 7ebd 2948 ddbc 0272 abbd 9a00 05bd
00000150: f44a 97bd 39a4 633d d2a5 183c 3542 b5bd
00000160: e317 b83d 24ec a7bb aa0a 02bd d907 343c
00000170: 62f4 66bd a275 f23d 6a86 a93d 6aa8 d03d
00000180: 6a06 50bd
0.04976934 -0.010793206 -0.063480705 0.07081761 -0.07337482 -0.012706732 0.045603063 0.105530776
0.032286193 -0.076557264 -0.022348965 0.0054200687 -0.038346395 0.121603966 0.051620867 -0.030851128
-0.06303245 0.08434786 0.09576048 -0.032501794 -0.08663353 0.0999283 -0.06871584 0.076392286
-0.015021558 0.11311415 0.08834531 0.021382464 0.015275167 0.08666859 0.021453427 0.12482035
-0.050086346 0.030066868 0.053797655 0.051040042 0.05407395 -0.04268201 -0.026753245 -0.057624977
-0.026953867 0.103943095 0.04477276 -0.010628364 -0.058868524 0.04185783 0.11469377 0.05687675
-0.08286451 -0.06280135 0.09216215 0.010561369 0.12551247 0.10198286 -0.043218642 0.0588022
0.08017466 -0.015775235 0.05398134 0.15166602 0.0040905843 0.032925565 0.0840918 0.070134
0.027945194 0.001705634 0.047893643 0.0923044 0.11523827 -0.051307917 -0.0357669 -0.08135914
-0.027361443 -0.018715212 0.016187513 0.032604866 -0.03831855 -0.022846632 -0.055311814 0.027966911
-0.062217217 -0.027011948 -0.08371355 -0.032471277 -0.07387343 0.055576537 0.009316878 -0.088505186
0.08988931 -0.0051245857 -0.03174845 0.010988199 -0.056385405 0.11838843 0.082775906 0.101883724
-0.050787367
