loggers/h256_w256_bs20_in_channel1_epo100_lr0.0003/0516_1552/models/BasicModel_15.pth (torch, 68751 bytes, 17 tensors)

weight f4 [2, 1, 3, 3]
0.006754427 -0.0075943586 -0.0052777743 0.007401645 -0.008864976 -0.008567747 0.00064605515 -0.014522698
-0.00077605643 -0.017585482 -0.011178078 0.0026002764 0.01655171 0.028863184 0.0142420195 -0.03914123
-0.034435242 0.011265826
00000000: 3e54 dd3b 19da f8bb 2ef1 acbb 8089 f23b
00000010: 673e 11bc bc5f 0cbc 075c 293a 9cf0 6dbc
00000020: 4470 4bba 6e0f 90bc 4224 37bc 6669 2a3b
00000030: 7497 873c 7c72 ec3c 5c57 693c 8e52 20bd
00000040: f80b 0dbd 4d94 383c

weight f4 [2]
0.9842905 0.9752267
00000000: 76fa 7b3f 75a8 793f

bias f4 [2]
-0.00520981 0.024300102
00000000: 0eb7 aabb 0211 c73c

running_mean f4 [2]
-0.40561208 -0.4232582
00000000: 63ac cfbe 4cb5 d8be

running_var f4 [2]
0.15214066 0.6380127
00000000: c3ca 1b3e cd54 233f

weight f4 [4, 2, 3, 3]
0.010477551 0.014730509 0.027540231 -0.006233584 -0.025471179 0.002177695 -0.01700088 -0.008445615
0.02860292 0.0020647286 0.010017969 0.004780925 -0.015016383 0.016529132 0.026269602 0.025837334
0.008956912 -0.024785947 0.01634794 -0.017151944 -0.026312117 0.006189603 -0.0043950574 -0.04287983
0.0009484086 -0.0013608389 0.018690944 0.035282895 0.002185634 -0.026377289 -0.022261836 0.008496366
-0.00048050968 -0.0008846837 0.010732267 -0.00022096926 0.00060362776 0.039311763 0.017043097 0.016722452
0.046402194 -0.03118486 0.008463355 0.016580077 0.052308608 0.00047274528 -0.006617278 0.014677496
0.01766334 -0.030445008 -0.0022092205 0.009254071 0.009836223 -0.01626432 -0.023304194 -0.0075180302
-0.012589016 -0.017837055 0.016803352 0.005428777 -0.011963144 0.013844973 0.031862415 -0.01116663
-0.0011717653 0.037306376 0.00913681 -0.0035788645 -0.018158458 0.026915075 -0.011311094 0.008862214
00000000: 09aa 2b3c 3c58 713c 0d9c e13c 1843 ccbb
00000010: efa8 d0bc a9b7 0e3b 6e45 8bbc 7a5f 0abc
00000020: ac50 ea3c 6650 073b 6822 243c 4ea9 9c3b
00000030: 4607 76bc 1a68 873c 5933 d73c d1a8 d33c
00000040: 03c0 123c e60b cbbc 1dec 853c 3c82 8cbc
00000050: 828c d7bc 27d2 ca3b 6a04 90bb c3a2 2fbd
00000060: a09e 783a 2d5e b2ba c01d 993c cc84 103d
00000070: db3c 0f3b 2f15 d8bc 745e b6bc 5834 0b3c
00000080: ebec fbb9 1eea 67ba 64d6 2f3c fcb3 67b9
00000090: c63c 1e3a 5f05 213d f79d 8b3c 86fd 883c
000000a0: 3a10 3e3d 6477 ffbc e2a9 0a3c f1d2 873c
000000b0: 8d41 563d ccda f739 c0d5 d8bb e179 703c
000000c0: b5b2 903c cf67 f9bc 92c8 10bb 639e 173c
000000d0: 1c28 213c c03c 85bc 70e8 bebc cf59 f6bb
000000e0: 2942 4ebc 041f 92bc 2fa7 893c e2e3 b13b
000000f0: 1001 44bc 07d6 623c 2a82 023d 3ef4 36bc
00000100: eb95 99ba 92ce 183d 8fb2 153c 628b 6abb
00000110: 0cc1 94bc 017d dc3c 2b52 39bc d232 113c

weight f4 [4]
1.0082016 0.98594785 1.0042729 0.9990791
00000000: c00c 813f 1467 7c3f 048c 803f a6c3 7f3f

bias f4 [4]
0.042244747 0.024053304 0.02195489 0.05502434
00000000: d408 2d3d 6f0b c53c beda b33c 3461 613d

running_mean f4 [4]
0.06637419 -0.026487973 0.09698194 0.032519933
00000000: 31ef 873d 4efd d8bc 789e c63d 9f33 053d

running_var f4 [4]
0.0017908 0.0012312571 0.0046318225 0.0012315682
00000000: 47b9 ea3a 2262 a13a 8bc6 973b 926c a13a

weight f4 [8, 4, 3, 3]
0.033188384 -5.919914e-05 -0.009820372 0.01055206 -0.04494349 0.021396857 0.019674016 0.011575416
0.020735731 -0.01619068 -0.007823938 -0.006378336 0.00050787255 0.02718853 0.020836992 -0.014042449
-0.008558601 -0.0046455255 -0.05069257 -0.027069746 -0.003026525 0.008320396 0.044892818 0.016164415
0.022085553 -0.023256129 0.048543304 -0.024609057 0.0035242976 4.272283e-05 0.019353325 -0.0030510346
-0.03435409 0.007288513 -0.021430412 0.0063418522 0.001170216 -0.006127801 -0.016588394 0.025876243
0.028850947 -0.021850163 -0.0019628827 -0.026557373 0.009721753 -0.017123997 -0.0008681645 -0.0017866434
-0.0040040417 -0.012512476 -0.06291256 -0.017781207 0.012405103 0.034395307 -0.02508212 0.04205998
-0.034805153 0.015664572 0.006331895 0.0060682436 0.05929589 0.0077558737 0.007215781 -0.0055629793
-0.017613133 0.009336433 -0.037347652 0.04078777 -0.03385354 -0.0026060117 -0.039181706 -0.013197953
0.013452384 0.016493613 0.01208272 -0.034600135 -0.0009907563 0.017016063 0.01940979 0.016670331
-0.010931319 -0.0168805 0.008134962 0.013039417 0.0039677043 -0.03938398 0.025644097 -0.023547022
-0.0081491005 0.027034173 -0.022254271 0.010233496 0.016851248 -0.0056855567 0.040820863 -0.0030349009
-0.0023616967 -0.0316423 -0.046063 -0.010434038 -0.008296131 -0.007153329 -0.0134969475 0.04416436
0.010677326 0.01642771 -0.03958228 -0.005846225 -0.025894716 -0.03742696 -0.02046706 0.011644963
0.00015406929 0.035483785 -0.051938098 -0.00013815389 -0.027689891 0.0035816573 0.007829459 0.012578507
-0.02180583 0.014486616 0.055509623 -0.0032830264 -0.00708152 -0.010205685 0.013908126 -0.034487106
-0.029806366 -0.023606611 0.0022330664 0.011055083 -0.017197968 -0.0041771545 0.016763488 0.013187585
-0.038642786 -0.02186008 -0.018939508 0.013415471 -0.022888582 -0.036140505 -0.0040621758 0.013918306
-0.0023935307 0.0058204303 -0.019493643 -0.0089666555 0.007048743 0.0113497665 -0.01542908 0.0040446734
-0.008128458 -0.01954612 0.00013960915 -0.021249318 -0.008763625 0.031704407 -0.0024590169 -0.03483398
0.04789156 -0.00020315264 0.026335591 0.022857232 -0.0043248804 0.021906726 -0.0060022776 0.030954922
-0.03183493 -0.044561237 -0.009505531 -0.011887694 0.026297765 0.01515596 -0.018263772 -0.0005389978
-0.009636638 0.025779909 0.008477502 -0.0042390553 -0.0053988392 -0.015184718 0.01768665 -0.045641832
-0.023850536 0.02016062 -0.0013211954 0.022916753 0.032699138 0.01703282 -0.033577822 -0.01660573
-0.030480484 0.017172 -0.0008478372 -0.02842448 -0.0018490468 0.030781463 0.03318768 -0.027666584
-0.020839464 0.014044183 -0.00972818 -0.01644708 -0.0122991605 -0.049491003 0.0072904453 -0.028023293
-0.025959346 -0.022259317 0.0058816625 -0.023128351 0.0034773173 -0.043730892 0.012201791 0.018431509
-0.04352538 0.038065393 0.022363344 -0.020809261 -0.0071702376 -0.034136403 -0.014405226 -0.0085351225
-0.0016774868 -0.025756909 0.027476607 0.0006907524 0.00858554 -0.030343756 -0.02899887 -0.012894147
0.007375494 0.030148802 0.04950491 -0.011330768 -0.06632354 -0.0015117659 -0.0012945817 -0.03945588
0.010109842 0.0040840833 0.018938642 -0.031814896 0.02374724 -0.0022953416 -0.0005003426 0.023375463
0.006296329 -0.0010144116 -0.019114386 -0.017268099 -0.021731367 0.0006377423 -0.02720685 0.0020482715
00000000: 8bf0 073d 984c 78b8 a0e5 20bc 8ce2 2c3c
00000010: aa16 38bd 7648 af3c 672b a13c d0a6 3d3c
00000020: fbdd a93c 51a2 84bc f92f 00bc 5c01 d1bb
00000030: c022 053a 7bba de3c 57b2 aa3c 4d12 66bc
00000040: 6039 0cbc 7e39 98bb 03a3 4fbd 5fc1 ddbc
00000050: aa58 46bb 4552 083c 88e1 373d 3c6b 843c
00000060: c3ec b43c a383 bebc 58d5 463d ef98 c9bc
00000070: e7f7 663b 4a31 3338 dd8a 9e3c def3 47bb
00000080: e0b6 0cbd 7ad4 ee3b d58e afbc 50cf cf3b
00000090: ef61 993a b8cb c8bb 62e4 87bc 6afa d33c
000000a0: d258 ec3c 1dff b2bc b5a3 00bb d98e d9bc
000000b0: fd47 1f3c a047 8cbc 8995 63ba ce2d eaba
000000c0: 5634 83bb 2101 4dbc 4dd8 80bd e5a9 91bc
000000d0: c63e 4b3c 18e2 0c3d 0579 cdbc 1647 2c3d
000000e0: d98f 0ebd fd52 803c c97b cf3b 1ed8 c63b
000000f0: 3fe0 723d fc24 fe3b 5c72 ec3b a749 b6bb
00000100: 6b49 90bc d7f7 183c daf9 18bd 1411 273d
00000110: 02aa 0abd 9fc9 2abb ff7c 20bd 3a3c 58bc
00000120: 6367 5c3c 9d1d 873c 9af6 453c dfb8 0dbd
00000130: 44dc 81ba 4565 8b3c 4801 9f3c 3890 883c
00000140: 4619 33bc f948 8abc 8148 053c 47a3 553c
00000150: 8403 823b 1951 21bd 9213 d23c afe5 c0bc
00000160: ce83 05bc c576 dd3c 974e b6bc 65aa 273c
00000170: a10b 8a3c e84d babb c733 273d 30e5 46bb
00000180: b2c6 1abb 5b9b 01bd 8eac 3cbd 87f3 2abc
00000190: 7fec 07bc 7966 eabb 4d22 5dbc b0e5 343d
000001a0: f3ef 2e3c 6893 863c 0721 22bd b191 bfbb
000001b0: 2821 d4bc 034d 19bd 89aa a7bc 84ca 3e3c
000001c0: a98d 2139 7257 113d 0bbd 54bd 67dd 10b9
000001d0: e9d5 e2bc 3dba 6a3b 2247 003c 1516 4e3c
000001e0: 24a2 b2bc 4559 6d3c 0f5e 633d 0b28 57bb
000001f0: 180c e8bb bf35 27bc e9de 633c 5a42 0dbd
00000200: 7b2c f4bc a762 c1bc a358 123b 6120 353c
00000210: c1e2 8cbc 83e0 88bb 9553 893c be10 583c
00000220: e647 1ebd e913 b3bc 0727 9bbc 90cc 5b3c
00000230: d680 bbbc 1108 14bd 001c 85bb 9b09 643c
00000240: c8dc 1cbb 4fb9 be3b 22b1 9fbc e1e8 12bc
00000250: 24f9 e63b 5ff4 393c 41ca 7cbc 2e89 843b
00000260: 392d 05bc 2f1f a0bc 0c64 1239 0d13 aebc
00000270: 4f95 0fbc 7bdc 013d 7527 21bb 13ae 0ebd
00000280: f129 443d 5f05 55b9 bdbd d73c 173f bb3c
00000290: bab7 8dbb bc75 b33c c1ae c4bb 2d95 fd3c
000002a0: 5865 02bd d885 36bd 16bd 1bbc 9ac4 42bc
000002b0: 696e d73c b450 783c e89d 95bc 884b 0dba
000002c0: fde2 1dbc 6330 d33c 38e5 0a3c c6e7 8abb
000002d0: bfe8 b0bb 53c9 78bc 98e3 903c eef2 3abd
000002e0: 3362 c3bc e227 a53c f62b adba eabb bb3c
000002f0: 88ef 053d 6a88 8b3c e688 09bd bd08 88bc
00000300: 35b2 f9bc 4bac 8c3c 6441 5eba 75da e8bc
00000310: b75b f2ba 6829 fc3c ceef 073d 08a5 e2bc
00000320: 86b7 aabc 9319 663c f262 1fbc 07bc 86bc
00000330: 6b82 49bc 14b7 4abd b0e4 ee3b 1b91 e5bc
00000340: b2a8 d4bc 2c59 b6bc f6ba c03b ab77 bdbc
00000350: b4e3 633b 2a1f 33bd 05ea 473c adfd 963c
00000360: ab47 32bd 75ea 1b3d 5533 b73c 2f78 aabc
00000370: 50f4 eabb 9dd2 0bbd e603 6cbc e6d6 0bbc
00000380: 1edf dbba 2700 d3bc 9f16 e13c 9c13 353a
00000390: 5daa 0c3c 7893 f8bc 0a8f edbc f941 53bc
000003a0: 21ae f13b 9ffa f63c a9c5 4a3d afa4 39bc
000003b0: a3d4 87bd 7226 c6ba f4ae a9ba 7d9c 21bd
000003c0: c0a3 253c c6d3 853b 3625 9b3c 5650 02bd
000003d0: 9289 c23c 716d 16bb 6c29 03ba e67d bf3c
000003e0: 7051 ce3b 01f6 84ba c695 9cbc d475 8dbc
000003f0: fb05 b2bc 292e 273a e6e0 debc 4b3c 063b

weight f4 [8]
1.0598524 1.0243962 1.0389526 1.0328459 1.0000606 1.048132 1.0090196 1.0489558
00000000: 3ea9 873f 6a1f 833f 66fc 843f 4b34 843f
00000010: fc01 803f 3029 863f 8e27 813f 2f44 863f

bias f4 [8]
0.02837993 0.03420476 0.027470049 0.03389028 0.029097442 0.031344943 0.032964554 0.031733796
00000000: 077d e83c 4a1a 0c3d de08 e13c 89d0 0a3d
00000010: c25d ee3c 8e63 003d d705 073d 4cfb 013d

running_mean f4 [8]
0.035550367 -0.14381608 0.0014838977 -0.24716155 0.011993369 -0.2206161 -0.15584831 -0.109233215
00000000: 439d 113d 8644 13be 587f c23a eb17 7dbe
00000010: d67f 443c 30e9 61be b396 1fbe aab5 dfbd

running_var f4 [8]
0.0076724994 0.030849114 0.008769824 0.036289312 0.006939123 0.041219167 0.015290949 0.021863567
00000000: 9769 fb3b 48b7 fc3c 4faf 0f3c 1aa4 143d
00000010: 9561 e33b 6ed5 283d e386 7a3c 391b b33c

weight f4 [194, 8, 3, 3]
-0.0021157302 0.0067798737 -0.034768306 0.040250927 0.0078630885 -0.02451311 0.016751442 -0.030464226
-0.021648064 -0.018013911 0.0015272531 -0.048656218 -0.023322742 -0.027408745 -0.011664666 0.0065921023
-0.0110190995 -0.040691264 0.024824666 -0.027221914 0.021917662 0.030561421 -0.0156188905 -0.010503962
-0.00023055448 0.011442876 -0.015661137 -0.0048207487 0.008002209 0.014585689 0.011919288 -0.03013129
-0.03552945 0.02014476 -0.0019072447 0.028287504 0.017532948 -0.03694592 -0.010874737 -0.0152798705
0.022623938 0.0061442144 0.017770572 -0.017117053 0.0006394978 -0.0018588025 -0.048972223 0.02832136
-0.046188053 -0.032452073 -0.015855784 -0.018595846 0.011393631 -0.019248752 0.020731332 -0.032262053
-0.008350196 0.025972646 0.016084678 0.017186917 0.054202054 -0.013259517 0.002340153 0.01752299
-0.009320119 0.0014401376 -0.010917015 -0.052010506 -0.031343944 0.006953777 0.0150065115 0.010307309
-0.02850458 -0.029722743 0.0027179474 -0.0063873376 0.01260378 0.00048725057 -0.017271446 -0.0006663821
0.048793122 -0.0065868106 0.006355159 -0.004824689 0.015981875 -0.03786736 0.034606054 0.023602337
-0.0015668598 -0.031424873 0.015152755 -0.023394508 0.01596775 -0.019046934 0.0016316714 0.029536298
-0.024232013 0.011616784 0.01975919 -0.04035283 0.027670808 0.022456396 -0.0010322041 0.053960282
0.02508744 0.0090538105 -0.0017610379 -0.0066526593 -0.026476067 -0.023762336 0.009537581 -0.0053427224
-0.006532288 -0.04772052 -0.018614085 -0.013891211 0.008786355 -0.012096453 -0.040463045 -0.016976453
-0.0212128 0.031957947 0.026871925 -0.03678811 -0.008873743 0.0146756545 -0.026381716 0.018578047
0.02921835 -0.036757722 0.017740002 0.03122142 0.0016786612 0.011705928 0.014603162 -0.009030404
0.050292186 -0.009547813 -0.008290299 0.015838083 0.010839555 0.02813372 0.0074450998 0.02269401
0.033475 0.026476545 0.025374824 0.023180217 0.01053124 0.009162175 0.046126675 0.018700564
0.0026105773 0.017521095 -0.026014786 0.012022649 0.011607818 0.01977808 0.00080196146 0.02447633
-0.02405287 0.006100838 0.033497177 -0.010129536 0.0052724676 0.029853757 0.0022929031 0.023736496
-0.002219593 -0.0052881474 0.011483816 0.033878908 0.02262667 0.005998313 0.031051151 0.001685015
0.037962858 -0.0057297093 0.01922583 0.034566432 0.018726261 0.0031537907 -0.009488336 -0.013240364
-0.005510896 -0.01533355 -0.0040323134 0.020400982 0.03642027 0.010662872 0.026889168 0.01782581
0.016953249 0.0250715 0.0027325694 0.0040336302 0.02059528 0.011583964 -0.02570522 0.0043798
-0.0142007675 0.015608638 0.016932078 0.036525037 0.007760133 -0.0054070293 0.03929298 0.036179
-0.002635545 0.026133044 -0.014630478 0.023831338 0.0058981827 0.05007371 0.023270145 -0.0023398732
-0.031460047 -0.02003814 0.02547655 -0.022333786 -0.024841422 -0.032238137 -0.016253252 -0.011070819
-0.00077052857 -0.03339849 -0.03705296 -0.034968663 -0.0077604544 0.014430999 -0.002918037 -0.0133656915
-0.00020629687 -0.0017279257 -0.016761338 0.0010126209 -0.011601799 0.008859943 -0.0011719185 -0.03463493
-0.018750742 -0.043081798 0.015303241 -0.008113586 0.0013250782 -0.0049561923 -0.017948681 -0.010302161
-0.004102351 -0.035648644 -0.0004844264 -0.035901003 -0.018753616 -0.025070002 -0.02414132 -0.048127644
00000000: 10a8 0abb b429 de3b 3669 0ebd 28de 243d
00000010: 2fd4 003c b8cf c8bc 523a 893c 1d90 f9bc
00000020: 4857 b1bc e991 93bc 1c2e c83a be4b 47bd
00000030: 560f bfbc 4e88 e0bc 281d 3fbc 9002 d83b
00000040: 7489 34bc e2ab 26bd 195d cb3c 7e00 dfbc
00000050: ab8c b33c f25b fa3c 60e6 7fbc cf18 2cbc
00000060: ffc0 71b9 e77a 3b3c c94b 80bc 5ff7 9dbb
00000070: b21b 033c d0f8 6e3c 1e49 433c e5d5 f6bc
00000080: 5487 11bd a006 a53c 83fc f9ba 32bb e73c
00000090: 42a1 8f3c 9b54 17bd f42b 32bc 6c58 7abc
000000a0: d655 b93c 6855 c93b 9793 913c 1039 8cbc
000000b0: f9a3 273a 10a3 f3ba 1997 48bd 3202 e83c
000000c0: af2f 3dbd 77ec 04bd fde3 81bc 5156 98bc
000000d0: 5aac 3a3c 8faf 9dbc c1d4 a93c 3725 04bd
000000e0: 43cf 08bc 96c4 d43c 04c4 833c 94cb 8c3c
000000f0: f902 5e3d 723e 59bc 415d 193b 608c 8f3c
00000100: 6ab3 18bc 00c3 bc3a 48dd 32bc f808 55bd
00000110: 8262 00bd 82dc e33b dfdd 753c fddf 283c
00000120: 7082 e9bc 1c7d f3bc 971f 323b df4c d1bb
00000130: 1680 4e3c aa75 ff39 d97c 8dbc 25b0 2eba
00000140: 4cdb 473d 2cd6 d7bb f03e d03b 6d18 9ebb
00000150: 6cec 823c ce1a 1bbd 14bf 0d3d b059 c13c
00000160: 175f cdba 5eb7 00bd 4343 783c d7a5 bfbc
00000170: cdce 823c 5108 9cbc cfdd d53a 1bf6 f13c
00000180: 3782 c6bc 5354 3e3c 06de a13c 0249 25bd
00000190: e4ad e23c 7af6 b73c 064b 87ba 7505 5d3d
000001a0: 2d84 cd3c 6f56 143c a0d2 e6ba 8dfe d9bb
000001b0: 56e4 d8bc 3ba9 c2bc 8443 1c3c 0112 afbb
000001c0: ce0c d6bb 9876 43bd 917c 98bc f697 63bc
000001d0: a5f4 0f3c 3430 46bc 94bc 25bd 3412 8bbc
000001e0: 77c6 adbc 56e6 023d 8322 dc3c 21af 16bd
000001f0: 2d63 11bc 2872 703c 781e d8bc fd30 983c
00000200: 525b ef3c 448f 16bd 7b53 913c 10c4 ff3c
00000210: 8606 dc3a 38ca 3f3c 1a42 6f3c 42f4 13bc
00000220: 2eff 4d3d 6e6e 1cbc 09d4 07bc debe 813c
00000230: 6498 313c b078 e63c 06f6 f33b cae8 b93c
00000240: 151d 093d 57e5 d83c ddde cf3c 70e4 bd3c
00000250: 398b 2c3c f21c 163c 53ef 3c3d ed31 993c
00000260: 3816 2b3b 6688 8f3c f61c d5bc a5fa 443c
00000270: b82e 3e3c a405 a23c b93a 523a 9682 c83c
00000280: 860a c5bc 8ae9 c73b 5634 093d 5af6 25bc
00000290: aac4 ac3b de8f f43c 8844 163b 0a73 c23c
000002a0: 9776 11bb 3248 adbb 9e26 3c3c 9cc4 0a3d
000002b0: 915b b93c 7f8d c43b fc5e fe3c b9db dc3a
000002c0: f17e 1b3d 49c0 bbbb 7d7f 9d3c 8895 0d3d
000002d0: d167 993c d4af 4e3b f774 1bbc 1dee 58bc
000002e0: bf94 b4bb 9239 7bbc 7f21 84bb f61f a73c
000002f0: 6c2d 153d 54b3 2e3c ac46 dc3c 6f07 923c
00000300: 8ae1 8a3c bf62 cd3c e814 333b 8b2c 843b
00000310: 6fb7 a83c abca 3d3c c193 d2bc 6d84 8f3b
00000320: 56aa 68bc 5fbb 7f3c 24b5 8a3c 479b 153d
00000330: b748 fe3b 732d b1bb adf1 203d 6e30 143d
00000340: 1cb9 2cbb f714 d63c acb4 6fbc f039 c33c
00000350: 8b45 c13b 171a 4d3d 08a1 be3c 8f58 19bb
00000360: 40dc 00bd 0627 a4bc 33b4 d03c 58f5 b6bc
00000370: 3d80 cbbc 230c 04bd 8a25 85bc 6162 35bc
00000380: 4cfd 49ba dbcc 08bd d8c4 17bd 4d3b 0fbd
00000390: 694b febb ff6f 6c3c 893c 3fbb c6fb 5abc
000003a0: 6551 58b9 917b e2ba 134f 89bc ebb9 843a
000003b0: 7915 3ebc 4b29 113c 0f9b 99ba 5bdd 0dbd
000003c0: 289b 99bc 8a76 30bd 72ba 7a3c d9ee 04bc
000003d0: 3fae ad3a 8e67 a2bb 1d09 93bc 65ca 28bc
000003e0: 046d 86bb 5004 12bd 9cfa fdb9 ee0c 13bd
000003f0: 2fa1 99bc 9b5f cdbc 04c4 c5bc 7e21 45bd

bias f4 [194]
-0.0066376543 0.10591488 -0.054311182 0.060518567 -0.017709825 -0.1262195 -0.09653826 0.09754135
-0.10069051 -0.068001315 -0.06861044 -0.11587659 0.054013547 0.102675036 -0.015935455 -0.027393091
0.0049735676 -0.0011489026 -0.004502563 -0.04577062 -0.03441662 -0.024676474 0.017201524 -0.07804789
-0.040589876 0.0882579 0.11740939 -0.11282849 -0.054651715 -0.015182051 0.07526256 0.056793485
-0.040057227 -0.060274374 0.0013484228 -0.10290766 0.027889254 0.11026542 -0.060031086 0.07529965
-0.030337509 0.09912251 0.069434986 0.06615292 0.03468972 0.07486177 0.035573885 0.08420844
0.1075345 0.037190616 0.0908857 -0.0490687 -0.08398398 0.11584946 0.089461364 0.08660839
0.012042129 0.06646637 -0.057962947 -0.06862221 -0.0031571975 0.090408236 -0.026228443 -0.08534021
0.11035586 -0.019114649 -0.0161515 0.092465624 0.0066837366 -0.08326542 0.053750243 -0.053445127
0.08987273 0.06375221 0.057881314 0.046442878 0.09680241 -0.030175755 0.010731501 -0.093214944
-0.003058322 -0.104349785 -0.013527194 -0.08053421 -0.01852733 -0.07289747 0.065421954 -0.045854572
0.020262469 0.10128771 0.12514481 0.03111757 0.070907645 0.080047466 0.01317539 -0.07352644
0.049179345 0.05216789 -0.05126236 0.010389208 -0.09558881 0.07920578 0.048337854 -0.072714314
0.11018901 0.03640744 -0.03931098 -0.009020383 0.050532505 0.09369983 0.0901103 -0.10193927
0.09364847 -0.0071216705 0.002979105 -0.043390866 -0.115798905 0.03095694 0.029384715 -0.07524775
-0.03603631 -0.10393607 -0.07321182 -0.106988706 -0.014949563 0.042667415 -0.07205245 -0.12674889
-0.0020271707 0.010514621 -0.085324384 -0.06435646 -0.0066965334 -0.12682712 -0.008881924 -0.059933376
-0.09791137 -0.035914607 -0.059559092 0.011801325 -0.0076652407 0.085911155 -0.018362349 0.0056095757
-0.018734943 -0.117045656 0.042259812 0.09503343 -0.06787489 0.048679445 0.096430734 0.011349055
-0.0687081 -0.096166015 0.117660776 0.026160613 0.06378737 0.05822302 -0.074428074 0.021658307
-0.0014273644 -0.0892639 0.13258123 0.09243681 0.01790504 -0.0048903204 0.11871487 -0.12384351
0.008142828 0.0525433 -0.10774111 -0.004091823 -0.06941709 0.09208703 0.07099407 0.088630095
-0.006670967 -0.0941277 -0.08432575 -0.07181098 -0.0028473954 0.08901157 -0.056791253 0.09206345
0.091698386 0.051792324 0.060625218 -0.10778449 0.028212417 -0.10173992 0.064514875 0.002080599
0.054348696 0.04467812
00000000: ae80 d9bb e7e9 d83d 6775 5ebd 51e2 773d
00000010: 3214 91bc af3f 01be dab5 c5bd c2c3 c73d
00000020: d336 cebd 4644 8bbd a183 8cbd b550 edbd
00000030: 4f3d 5d3d 4a47 d23d 128b 82bc 7a67 e0bc
00000040: 4ff9 a23b c696 96ba 3c8a 93bb f979 3bbd
00000050: 71f8 0cbd 5126 cabc 36ea 8c3c 92d7 9fbd
00000060: 9241 26bd 8fc0 b43d 5674 f03d a012 e7bd
00000070: 7ada 5fbd 23be 78bc 4223 9a3d 49a0 683d
00000080: 0c13 24bd 43e2 76bd 90bd b03a 40c1 d2bd
00000090: 0178 e43c d6d2 e13d 28e3 75bd b436 9a3d
000000a0: 5e86 f8bc be00 cb3d ee33 8e3d 2f7b 873d
000000b0: cf16 0e3d 2151 993d ecb5 113d 7975 ac3d
000000c0: 0c3b dc3d 3055 183d 4822 ba3d 43fc 48bd
000000d0: cbff abbd 7b42 ed3d 8537 b73d bd5f b13d
000000e0: 5a4c 453c 851f 883d 8e6a 6dbd cd89 8cbd
000000f0: fce8 4ebb f427 b93d 08dd d6bc d9c6 aebd
00000100: 4102 e23d 5396 9cbc 2750 84bc 9e5e bd3d
00000110: 3f03 db3b 0f87 aabd 3729 5c3d 47e9 5abd
00000120: 320f b83d 8590 823d f514 6d3d e33a 3e3d
00000130: 5840 c63d 2533 f7bc 2dd3 2f3c 7ae7 bebd
00000140: 216e 48bb 57b5 d5bd 2aa1 5dbc 1fef a4bd
00000150: a1c6 97bc 454b 95bd f2fb 853d 01d2 3bbd
00000160: 7afd a53c ee6f cf3d f625 003e 46ea fe3c
00000170: 0738 913d edef a33d 97dd 573c 0895 96bd
00000180: 4870 493d ffad 553d 7bf8 51bd 7f37 2a3c
00000190: 11c4 c3bd a436 a23d eafd 453d 3eeb 94bd
000001a0: c7aa e13d f81f 153d 8d04 21bd 3aca 13bc
000001b0: 2cfb 4e3d b2e5 bf3d c08b b83d 89c5 d0bd
000001c0: c5ca bf3d e75c e9bb 173d 433b 9fba 31bd
000001d0: fa27 edbd 6999 fd3c 37b8 f03c 7e1b 9abd
000001e0: cf9a 13bd 6fdc d4bd 14f0 95bd e51c dbbd
000001f0: 03ef 74bc 07c4 2e3d 3c90 93bd 76ca 01be
00000200: 48da 04bb 8445 2c3c 8dbe aebd 52cd 83bd
00000210: 986e dbbb f8de 01be 7d85 11bc b37c 75bd
00000220: c285 c8bd 321b 13bd 3cf4 73bd 585a 413c
00000230: b32c fbbb 30f2 af3d a36c 96bc 88d0 b73b
00000240: 067a 99bc a2b5 efbd a018 2d3d e3a0 c23d
00000250: fe01 8bbd 1964 473d 7a7d c53d 63f1 393c
00000260: d5b6 8cbd b0f2 c4bd 22f8 f03d c84e d63c
00000270: f4a2 823d 437b 6e3d bf6d 98bd c36c b13c
00000280: 6716 bbba fecf b6bd 60c3 073e 834f bd3d
00000290: 97ad 923c fb3e a0bb c820 f33d aba1 fdbd
000002a0: 7f69 053c a537 573d 5fa7 dcbd b314 86bb
000002b0: 8c2a 8ebd 2098 bc3d 5765 913d b283 b53d
000002c0: 2198 dabb 06c6 c0bd fbb2 acbd a311 93bd
000002d0: 5e9b 3abb b34b b63d f29d 68bd c38b bc3d
000002e0: 5dcc bb3d 3024 543d 2652 783d 1dbe dcbd
000002f0: ba1d e73c 055d d0bd 6020 843d a95a 083b
00000300: bd9c 5e3d 6800 373d
