loggers/h256_w256_bs20_in_channel1_epo100_lr0.0003/0516_1552/models/BasicModel_55.pth (torch, 68751 bytes, 17 tensors)

weight f4 [2, 1, 3, 3]
000000 fa e2 2f 3c d7 aa 2e bc ea 2e cd bb b7 c3 5a 3c
       0.010735268 -0.010660849 -0.006261696 0.013352326
000010 91 bb 92 bc ff 77 63 bc f1 de b7 b9 c5 58 90 bc
       -0.017911704 -0.01388359 -0.00035070584 -0.017620454
000020 6c ab 42 bb c7 3f 7f bc 5e a9 0d bc 2e 60 a5 ba
       -0.0029704226 -0.015579171 -0.008646337 -0.0012617165
000030 d9 0c 45 3c 76 6e fe 3c 56 58 6a 3c 40 ba 52 bd
       0.012026989 0.031058531 0.0143032875 -0.051447153
000040 f3 93 f9 bc 59 19 22 3c
       -0.030466055 0.009893739

weight f4 [2]
000000 9c 06 80 3f d5 58 75 3f
       1.0002017 0.9583867

bias f4 [2]
000000 f2 be 2f bc 42 4b 80 3c
       -0.010726677 0.015660886

running_mean f4 [2]
000000 69 ee 21 bf 2f 3a 11 bf
       -0.6325441 -0.56729406

running_var f4 [2]
000000 38 a4 c2 3e 46 92 51 3f
       0.38015914 0.8186382

weight f4 [4, 2, 3, 3]
000000 b7 24 4b 3c 0f fd f9 b9 ca c5 2e 3d 4f b3 c6 3b
       0.01239889 -0.00047681524 0.042669095 0.0060638557
000010 28 24 cd bc ed 34 92 bb 08 6b 3a bc 80 06 5f 3a
       -0.025041655 -0.0044618757 -0.011378057 0.00085077435
000020 bf 63 df 3c b0 02 ed 3b 36 d6 f4 3b 03 0e 2c 3c
       0.027269242 0.0072329864 0.007471825 0.0105013875
000030 5b f4 a8 bc 2a c4 ba 3c 00 c6 b0 3c dc 52 ce 3c
       -0.02062433 0.022798616 0.021578789 0.025185995
000040 c4 4d 46 3c f1 86 d4 bc 26 a0 d1 3c 6b 1a 0a bd
       0.012103502 -0.025943251 0.02558906 -0.0337166
000050 9e d2 a4 bc 3b b0 60 3c c1 49 50 bc 71 b3 44 bd
       -0.020119961 0.013713892 -0.012712897 -0.04802269
000060 23 57 8d bb e2 de ba 3a e8 55 87 3c c1 66 1a 3d
       -0.004313366 0.0014257098 0.016520455 0.03769565
000070 0e 7e 19 3b 56 f1 e7 bc 94 a3 b2 bc 40 a6 5e 3c
       0.0023421082 -0.02831332 -0.021806516 0.013589442
000080 8f d8 d7 bb fa b7 73 bb 7e df f6 3b 70 21 84 3b
       -0.006587095 -0.0037188516 0.0075339666 0.0040323064
000090 8f da 3f 3c 01 46 64 3d 1f 35 a9 bc 98 f4 30 3d
       0.011709823 0.055730823 -0.020655213 0.043202013
0000a0 9d 42 b0 3c 60 9a 06 bd 5a 24 c3 3b 61 28 92 3c
       0.021516139 -0.032862067 0.005955261 0.01784152
0000b0 68 87 51 3d 77 4c 25 bc 9c 64 f5 bb 61 c8 95 3c
       0.051154524 -0.010089031 -0.0074888 0.018284025
0000c0 e1 c4 86 3c 4d c9 c8 bc 00 5f bc 3b dd 26 68 3c
       0.016451301 -0.02451005 0.0057486296 0.014169422
0000d0 e5 08 de 3b ec 48 81 bc f9 2c ef bc 6d 79 2f bc
       0.0067759627 -0.015781842 -0.02919625 -0.0107101025
0000e0 96 ac 68 bc 9b 76 9d bc 73 8e 88 3a bc f7 34 3c
       -0.014201304 -0.019221595 0.001041843 0.011045393
0000f0 a3 df 39 bc 54 de e5 3c 28 88 2a 3d e9 fc 65 bc
       -0.011344823 0.028060116 0.041633755 -0.014037349
000100 d1 f9 6f bb 37 32 0c 3d 8d 5d 6b 3c 15 02 62 bc
       -0.0036617408 0.034227576 0.014365566 -0.013794442
000110 dd e3 ee bb d9 83 b3 3c 80 ea 33 bc d4 c2 f0 3b
       -0.007290347 0.021913456 -0.010981202 0.007347444

weight f4 [4]
000000 df 05 81 3f 74 8b 82 3f 98 94 80 3f bf b4 77 3f
       1.0079917 1.0198808 1.0045347 0.9676017

bias f4 [4]
000000 d7 53 11 3d 84 72 ce 3c d6 bf 2f 3d 50 89 c3 3d
       0.035480347 0.02520109 0.04290756 0.09547675

running_mean f4 [4]
000000 bf b0 a2 3d 4b 87 0f bd a2 6c c6 3d 84 f8 be 3c
       0.07943868 -0.035041135 0.09688689 0.02331186

running_var f4 [4]
000000 bf 6c f4 3a f5 65 b5 3a ae aa 84 3b f5 65 74 3a
       0.0018648132 0.001383959 0.004048667 0.0009323054

weight f4 [8, 4, 3, 3]
000000 4e 25 12 3d c3 32 01 b8 8f e2 3c bc ef 96 87 3c
       0.035680108 -3.0803272e-05 -0.011528625 0.016551463
000010 69 d7 1e bd c7 52 83 3c 1c 35 ac 3c f8 c9 c4 bb
       -0.03877965 0.016030682 0.021021418 -0.006005522
000020 c2 16 b8 3c ab 53 33 bc ec 0d 78 3a a6 cf 26 bb
       0.02247179 -0.010945241 0.0009462524 -0.0025453358
000030 3e 84 40 bc 06 a6 05 3d db 94 e6 3c 17 fd b9 b9
       -0.011750279 0.032629035 0.028147152 -0.00035474516
000040 44 83 7d 3c 31 64 db bc 51 1f 85 bd 4c 91 e7 bc
       0.015473191 -0.026781173 -0.06500114 -0.028267525
000050 32 e1 0c 3c 9c 89 0d 3c bb c0 9e 3d 1e 7d 48 bc
       0.008598613 0.008638766 0.07751604 -0.0122368615
000060 34 7a 38 3c da e4 94 bc 15 cd 0f 3d ff bd 69 bc
       0.011259604 -0.018175531 0.03510769 -0.01426649
000070 0d 54 dd bb 1d 48 61 3b 10 0f c4 3a 9e f1 42 bc
       -0.0067544044 0.0034375258 0.0014958102 -0.011898426
000080 a4 73 f6 bc 11 97 86 bb 16 90 a8 bb 86 84 ba 3b
       -0.030084439 -0.004107364 -0.0051441295 0.0056920676
000090 a0 ec 65 bc 9b 89 1b 3c 5e 96 c7 bc 7b 6b ed 3c
       -0.014033467 0.009493257 -0.024363693 0.028981915
0000a0 ac 11 fd 3c 6a ba f0 bc 6b 15 f2 bb fe ea cf bc
       0.030892216 -0.029385764 -0.007387807 -0.025380608
0000b0 be c2 ad 3c 29 ce f5 3b 28 64 a8 3b 3a 34 55 3b
       0.021211024 0.007501383 0.0051388927 0.003253235
0000c0 38 a9 ee bb 0e ba 3d bb 40 ab b3 bc cb 71 98 ba
       -0.007283356 -0.0028950009 -0.021932244 -0.0011630593
0000d0 13 17 67 3b 7a 12 ef 3c 18 7a 63 bc 95 4c 3c 3d
       0.0035261556 0.029183615 -0.01388409 0.04597147
0000e0 fb e6 ed bc db 87 fc 3c 83 de e5 bb b7 dc 40 3c
       -0.029040804 0.0308265 -0.007015051 0.0117713725
0000f0 96 bf 9e 3d 1e f7 9b bc 7e 21 85 bc 31 79 a4 bc
       0.07751386 -0.019038733 -0.016251322 -0.02007732
000100 42 b5 b8 bc 8f 42 0c 3d 1f 29 2a bd 7c 1a 1c 3d
       -0.022547368 0.034243163 -0.041543122 0.038111195
000110 3c 2a 6a bc ec 15 17 bb 0e 7e e0 bc 97 02 90 bc
       -0.014292296 -0.0023053838 -0.027403858 -0.01757936
000120 87 2a 81 3c 76 89 65 3c 10 65 b2 3b 86 1c 03 bd
       0.015767349 0.014009824 0.0054441765 -0.032009624
000130 f2 d7 0f 3b 3b c6 09 3c fa dc 87 3c a7 fc 82 3b
       0.0021948782 0.008409078 0.016584862 0.0039974037
000140 26 72 bd bb 6e 83 f8 bc 34 df 9f 3b 23 0b a3 3c
       -0.00578143 -0.030336108 0.004878903 0.019902771
000150 6a 47 ac 3c 75 b5 82 bd 1c 9b 13 3d 02 21 ea bc
       0.021030147 -0.063822664 0.036036596 -0.028580192
000160 58 83 2d 3c 7e aa c6 3c 39 7e 96 bb 80 97 4a ba
       0.010590397 0.024251219 -0.0045926836 -0.0007728264
000170 40 3d ff 3c 04 ce 85 bb 1f bc e3 3c e2 4b f1 3b
       0.031157136 -0.004083397 0.027799664 0.0073637823
000180 13 42 ce bb ef 44 2b bd ae a2 e1 bc 0e 9c c7 3a
       -0.0062944978 -0.041813787 -0.027543392 0.0015229003
000190 6a 83 2b bc 09 59 8a bc 7a b2 a3 bb d7 87 13 3d
       -0.010468343 -0.016888158 -0.0049956413 0.03601822
0001a0 84 27 43 3c a5 62 ac 3c 55 1f 18 bd 65 4b b3 bb
       0.011911277 0.021043131 -0.037139256 -0.005471634
0001b0 09 f9 22 bb 2f 7b 18 bd 85 19 c9 bc b3 ce ca 3c
       -0.0024867675 -0.037226852 -0.024548301 0.024756765
0001c0 f9 f5 3d bc 62 20 16 3d 49 dc e4 bc 34 fc 03 bc
       -0.011594289 0.036651976 -0.027937071 -0.008055735
0001d0 a3 ab 43 bd 92 04 02 bc a2 58 39 3b 20 54 58 3a
       -0.047771107 -0.00793566 0.002828159 0.00082522817
0001e0 4b 05 d7 bc 48 9a 80 3c 80 9d 8d 3d 0a a0 00 bc
       -0.026247641 0.015698567 0.06914806 -0.007850656
0001f0 1d 00 e2 bb 91 68 d9 b8 2f 6b e4 3c 79 76 55 bc
       -0.006896986 -0.00010366843 0.02788314 -0.013028734
000200 d1 7a a4 3b 4f f4 3c 3b a4 7c 45 3b bd f6 a7 3c
       0.0050195237 0.0028832143 0.0030134106 0.020503396
000210 34 e1 9b bc fd ff 52 bb fa 2a df b9 50 9f 97 3c
       -0.019028284 -0.0032196038 -0.00042565895 0.018508583
000220 2a 01 b1 bc 63 41 29 bd 8f 48 45 bc 9f d1 a2 3c
       -0.021607 -0.041322123 -0.012041225 0.019875346
000230 cd 58 cb bc e3 ab 18 bd cb 29 a7 ba f6 ae ea 3b
       -0.024822617 -0.0372733 -0.0012753544 0.0071619703
000240 d3 dd ac 3a 22 07 35 3b b9 6f 3e bc d8 91 09 bc
       0.0013188667 0.002762266 -0.011623316 -0.008396588
000250 35 a5 5c 3b b2 2f 8c 3c 93 dd 03 bc f3 6e d2 bb
       0.0033667807 0.017112587 -0.008048433 -0.0064219176
000260 40 da 29 bc 09 ff 96 bb 9e 1b a6 bc 6b 5b 59 bc
       -0.010366976 -0.0046080393 -0.02027684 -0.013266425
000270 be c3 5d bc 02 ac dc 3c 57 fd 92 bb 3c b2 5f bd
       -0.013535438 0.026937488 -0.004485767 -0.054613337
000280 65 41 92 3d 7a ff 7e bb 8b ea 0f 3c 32 a3 7a 3c
       0.07141379 -0.00389096 0.008783947 0.015297698
000290 cc a8 05 bc 8b 71 9b 3b 8c dc 2f 3b b3 84 21 3d
       -0.00815792 0.00474376 0.0026834337 0.039433192
0002a0 f8 32 4f bc 26 7f 25 bd a1 48 3e 3c ba 55 30 3b
       -0.012646429 -0.04040446 0.011613996 0.0026906566
0002b0 57 ab 19 3c 0f 07 07 3c 2e 67 27 3b 00 f2 fa bb
       0.0093792295 0.008241429 0.0025543678 -0.007658243
0002c0 1c ef 03 bc dd 68 99 3c 1f d0 a6 3c fd e1 c5 bb
       -0.008052614 0.01872676 0.020362912 -0.006038903
0002d0 f0 8e 55 3c 01 6f 7b 3c 51 53 2d 3c d7 b8 cf ba
       0.013034567 0.01534629 0.010578946 -0.0015847933
0002e0 3e 56 fb bc 9a 53 89 3c 72 14 83 3c 9b c6 17 3c
       -0.030680772 0.016763497 0.01600096 0.00926366
0002f0 79 a7 01 3d 1f 55 96 3c e1 49 10 bd e2 16 c5 bc
       0.031653855 0.018351136 -0.035226706 -0.024058763
000300 ea 82 2c bd bf 52 cc 3c 30 8e b0 bb 4b 0a 3b bd
       -0.042117037 0.0249418 -0.005388044 -0.045664113
000310 9c d6 bc 3a 80 62 a5 3c c2 a9 ea 3b be 5d 26 bd
       0.001440722 0.02018857 0.00716135 -0.040616743
000320 d7 0f 27 bd de 24 2c 3c e0 fc 1c bd 51 8c 88 3b
       -0.04078659 0.010506837 -0.038327098 0.0041671176
000330 3b 14 10 bd 72 71 64 bd 85 70 a9 3c 13 77 a6 bc
       -0.035175543 -0.055772252 0.020683536 -0.02032045
000340 08 2a f4 3a f2 8a c6 bc 68 a2 d3 bb 8d 53 2c bd
       0.0018628249 -0.024236176 -0.0064585693 -0.042071868
000350 15 a3 0e 3c 8f 88 d1 bc d2 64 80 3c b9 ed 02 3c
       0.008705874 -0.025577812 0.015673075 0.007991248
000360 ee 84 fb bc 6e 48 0f 3d b9 cf 4a 3d 84 4d 9b bc
       -0.030703034 0.034981184 0.049514506 -0.01895786
000370 80 3f 74 bc 18 31 28 bd 9a 42 29 bc 42 4a eb 3b
       -0.014907718 -0.041062444 -0.01033082 0.007180483
000380 48 10 16 bc c2 27 dc bc 24 bb a9 3c 1b e7 10 3c
       -0.009159155 -0.026874427 0.020719118 0.008844162
000390 bf c5 6d 3a 93 45 94 bc 8b 00 fe bc cf 55 99 bc
       0.0009070299 -0.018099582 -0.031006118 -0.018717675
0003a0 20 24 a8 3c f9 bc d3 3c 1c 30 52 3d b7 95 91 bc
       0.020525038 0.025846945 0.051315412 -0.017771585
0003b0 61 4b a0 bd b3 25 cb 3b 6b 93 60 3c 76 d3 a0 bc
       -0.078268774 0.0061995625 0.013707022 -0.019632082
0003c0 d6 69 d9 3b 19 35 a7 bc fe c5 e7 3c ce 94 ec bc
       0.006634931 -0.020411061 0.028292652 -0.02887955
0003d0 21 47 f1 3c 3e c6 ee b9 40 8d 0a 3c 77 35 3d 3c
       0.029452862 -0.000455426 0.008456528 0.011548392
0003e0 aa 70 b3 b9 c9 cf 85 3b cc f9 d9 bc b6 6a be bb
       -0.00034225482 0.004083608 -0.02660837 -0.005811061
0003f0 2e e0 ba bc 10 c9 d7 3b c2 ed a3 bc 8f fe 64 3c
       -0.022811975 0.006585248 -0.020010833 0.013976707

weight f4 [8]
000000 d3 9d 99 3f d0 70 8e 3f b3 c0 97 3f 70 fb 91 3f
       1.2001289 1.1128178 1.1855682 1.1404858
000010 5a b2 92 3f f7 4d 9d 3f 7b b6 96 3f fa 9f 91 3f
       1.1460679 1.2289418 1.1774439 1.1376946

bias f4 [8]
000000 50 91 54 3d cc 44 27 3d 4f eb 3a 3d 80 48 85 3d
       0.051896393 0.040837094 0.045634564 0.06507969
000010 1d 1c 83 3d 1d 09 73 3d c1 e5 e0 3c fd 89 0f 3d
       0.064018466 0.059334863 0.027453305 0.035043705

running_mean f4 [8]
000000 07 a7 0c 3d d9 89 a0 bc 20 1d fa 3b a4 7b 21 be
       0.034338977 -0.01959698 0.0076328665 -0.15769821
000010 c4 60 16 3d 13 3b 6d be ba 99 ad bd 31 46 c8 bd
       0.036713377 -0.23167066 -0.08476587 -0.09779013

running_var f4 [8]
000000 16 21 97 3b 14 16 04 3c 1a 54 b6 3b 92 fa 9d 3c
       0.0046120984 0.008061904 0.005564225 0.01928452
000010 a1 89 d0 3b 31 60 a3 3c 26 94 28 3c 7e 55 26 3c
       0.006364063 0.019943329 0.010289228 0.010152219

weight f4 [194, 8, 3, 3]
000000 ae d7 c3 3b 96 f0 15 3d 4b fd e5 bc 5c 4c cb 3c
       0.0059766388 0.036606394 -0.028074881 0.024816684
000010 0e b0 80 bc 25 11 18 bd 33 41 03 3d 9f b0 8a bc
       -0.01570895 -0.037125725 0.0320446 -0.016929923
000020 f7 dc 07 bd 74 76 10 bd 80 bc cb 3a ad a6 d7 bc
       -0.033169713 -0.035269216 0.0015543848 -0.026324594
000030 c8 f1 6b bc 50 71 d5 bb 21 fc df 3b c7 9c 33 bd
       -0.014400907 -0.006513752 0.006835476 -0.043850686
000040 95 82 aa bc 9b 12 e6 bc 82 56 31 3d d8 65 a3 bc
       -0.02081422 -0.028085044 0.04329539 -0.019946024
000050 59 a2 45 3d 1c be cd 3c 34 df bc bc dc 32 bb ba
       0.04825053 0.025115065 -0.02305565 -0.0014282125
000060 c7 3e 0a 3c 16 b7 a5 3c 9d 6e 93 bb fd 58 43 3c
       0.008437819 0.020228904 -0.00449927 0.011923072
000070 f8 61 97 3c 9e 84 9f 3c 02 49 dc 3c 96 eb 14 bd
       0.018479332 0.019472416 0.026890282 -0.036357485
000080 f7 56 60 bc a2 b5 5d 3c 1b be d7 bb d0 ea 21 3d
       -0.013692609 0.013532074 -0.0065839416 0.039530575
000090 0e b7 2a 3d f1 0b 0e bc 75 fb 73 bc 2d 55 4b bc
       0.04167848 -0.008669839 -0.014891495 -0.012410444
0000a0 89 28 0f bb 6e 97 ef 3b 98 bf e3 3c ba 9f ee 3b
       -0.002184423 0.007311753 0.02780132 0.0072822245
0000b0 dd 5a 2b 3c 0e 35 e5 3c 16 6e 8a bd e5 73 42 3c
       0.010458675 0.0279794 -0.067592785 0.011868452
0000c0 4e 79 37 bd d5 69 37 bd cd 7a 7b bd ab c9 92 bb
       -0.04479342 -0.044778664 -0.06139641 -0.004479607
0000d0 fe 9e a8 3b 21 3f db bc da 26 d8 3c a5 23 99 bd
       0.0051459065 -0.0267635 0.026385713 -0.07477502
0000e0 bc b9 ec bc 77 a2 80 3c a5 83 27 bd b5 8a a1 3c
       -0.028897159 0.01570247 -0.04089703 0.019719461
0000f0 3c 54 6e 3d 11 7b de bb 31 e8 5c 3c f5 f7 d8 3c
       0.0581858 -0.006789573 0.013483093 0.026485423
000100 4e 42 0f 3b 07 75 82 3b 81 2e 6a bd 60 76 9c bd
       0.002185959 0.003981236 -0.057173256 -0.07639766
000110 06 66 2e bd 8a d2 e9 3a e9 bf 8e bc 93 fe 07 3c
       -0.042577766 0.0017839235 -0.017425494 0.008300441
000120 1b e1 15 bd bc e6 73 bd 41 1d 82 bb 34 1d 14 3c
       -0.03659163 -0.059546217 -0.0039707725 0.009040166
000130 f5 29 14 3d fa b1 56 3c 58 62 05 bd 49 92 68 bc
       0.036172826 0.013103956 -0.03256449 -0.014195033
000140 34 07 77 3d 17 e5 2e 3c 5d 4b cf 3b de 58 de bc
       0.060309604 0.010674736 0.0063261227 -0.027141985
000150 62 6b e7 3b 76 9d 70 bd 3c e2 83 3c 6a a0 97 3d
       0.0070623616 -0.058743916 0.016099088 0.074036434
000160 19 df 06 3c 4a 43 34 bd 0d e6 59 bb 18 2d fb bc
       0.008231902 -0.044009484 -0.0033248693 -0.03066115
000170 48 f5 29 bc 21 da 5e bc 7a 9b 14 3c ef 96 a7 3c
       -0.010373421 -0.013601811 0.009070272 0.020457713
000180 ca bf 06 bd da 42 39 3b 0e d9 0c 3c 10 d7 69 bd
       -0.032897748 0.0028268606 0.008596672 -0.057089865
000190 cb c5 8c 3c eb d9 8f 3c 89 1d 83 bc 65 7d 76 3d
       0.017184159 0.017559966 -0.016005294 0.06017818
0001a0 6b 3d 55 3b f2 4a 80 3c dc 2a 3f 3b 20 a6 92 bc
       0.0032537829 0.015660737 0.0029169833 -0.01790148
0001b0 57 57 4f bd e8 1a 55 bd 12 14 5e 3c 4f 82 06 bc
       -0.050620403 -0.052027613 0.01355459 -0.008209779
0001c0 3d b3 95 3c ff 37 48 bd 5b a8 ea bc 14 d2 1c bd
       0.018273944 -0.048881527 -0.028644731 -0.038286284
0001d0 db 92 87 ba bc c1 2b bd 33 d0 b2 bc 54 c1 09 ba
       -0.0010343449 -0.041932806 -0.021827793 -0.00052549434
0001e0 8e 1c b9 bc df 63 35 3d a9 4b 94 3d e3 77 50 bd
       -0.022596624 0.044284698 0.072409935 -0.050895583
0001f0 5b 25 2c bb f3 ca b5 3c 18 37 03 bd 4c 3e 7a 3d
       -0.0026267383 0.0221915 -0.032034963 0.061094567
000200 f0 d0 4b 3d ff f8 d8 bc 3c 03 99 3d da eb ea 3c
       0.049759805 -0.026485918 0.0747132 0.028676916
000210 18 8d 17 bb f5 94 ab 3b 3b 8a 62 3b 51 69 93 bc
       -0.002312487 0.005236263 0.0034567255 -0.017994555
000220 02 d6 1e 3d 91 09 46 bc 6a 87 1b 3d 50 cd 24 3d
       0.038778313 -0.012087242 0.037970938 0.040234864
000230 57 df b4 3c a0 5f 08 3d f3 4e 23 3d 3c 47 ca 3c
       0.022079153 0.03329432 0.039870214 0.02469217
000240 dc b0 83 3d c5 6f 3b 3d 93 ce 39 3d d7 b0 55 3d
       0.064302176 0.04576089 0.04536302 0.0521706
000250 9f 06 8c 3c 4c 17 77 bc 2e 27 ca 3d 95 48 d2 3b
       0.017093001 -0.015081238 0.09870754 0.006417344
000260 c2 f8 c6 bc 1d 1d 0e 3c 10 68 cf bc 8a 9f 08 3d
       -0.024288539 0.008673933 -0.025318176 0.033355273
000270 b9 34 f3 3c 50 32 d3 3c 87 ca ac 3c 5f c7 06 3d
       0.029688226 0.025780827 0.021092666 0.03290498
000280 1c c0 63 bc 1f 03 85 3c 40 15 ff 3c 55 2a 2a bd
       -0.013900783 0.01623684 0.031138062 -0.041544277
000290 bd 87 63 3b c4 6b 31 3d c7 47 82 3b e6 d5 92 3c
       0.0034718357 0.043315664 0.0039758417 0.01792426
0002a0 37 16 b5 3c c2 54 97 3c ce ca b7 3c ab 32 42 3d
       0.02210532 0.018473033 0.022435572 0.047411602
0002b0 42 4c 39 bb e2 b9 b1 bc 91 59 e5 3c cc c1 e4 bc
       -0.0028274213 -0.021695081 0.02799681 -0.02792444
0002c0 85 17 43 3b cd 91 ae bc 51 30 9b bc 34 41 07 3b
       0.0029768657 -0.021309758 -0.018943937 0.002063823
0002d0 a4 e5 7e 3d ac 7a 53 3d 43 94 90 bc 00 4f b8 3b
       0.06223072 0.05163066 -0.017648822 0.005624652
0002e0 c3 49 3a bc ff de 06 bd 41 bc 78 3c 65 ec 40 3d
       -0.011370125 -0.03292751 0.015181602 0.047100443
0002f0 9b d0 95 3b f7 94 0d 3d c6 1b 60 3c 0d 37 6d 3c
       0.004571987 0.034565892 0.013678497 0.014478457
000300 ec e1 9a 3c 48 a0 0d bc e1 5d 02 bd a5 81 b4 3b
       0.018906556 -0.008644171 -0.03182781 0.005508619
000310 d1 72 0c 3c 0b 48 c3 bc 47 92 ab bc ff a4 a7 bc
       0.008572296 -0.023838064 -0.020943774 -0.020464418
000320 04 cf 8a 3b d7 c0 08 bc 8a ee 31 bd dc d1 1a 3d
       0.004236104 -0.008346758 -0.04344038 0.037797794
000330 f4 82 b3 bc e1 f4 20 bd 60 d2 97 3c 3f 05 04 3d
       -0.02191303 -0.039296035 0.018532932 0.032231566
000340 0c 29 05 bc 61 b3 e0 3c d5 fe 07 bd 33 58 83 3b
       -0.008127462 0.027429285 -0.03320201 0.004008317
000350 97 e9 91 bc c2 c6 6d 3d 0a b3 7c 3c 70 47 17 bb
       -0.01781158 0.05805088 0.015423546 -0.0023083352
000360 69 21 7f bd fe 11 21 bd db 77 b3 3b a6 39 52 bd
       -0.06228772 -0.0393238 0.0054769344 -0.05132451
000370 1d 9d 00 bd 69 e5 02 bc 4a fe 8c bd db a7 9e 3a
       -0.031399835 -0.007989266 -0.06884439 0.0012104468
000380 b3 0a d6 3c bd 13 c9 bc 99 8c 1a bd b7 94 66 bd
       0.026128149 -0.024545545 -0.03773174 -0.05629417
000390 88 b3 d3 bc 52 e9 09 3c b3 1e be bc 64 93 b2 bc
       -0.025842443 0.008417444 -0.023207998 -0.021798797
0003a0 6d 96 29 bc 54 67 42 bc 78 10 6c bc fa d5 04 3d
       -0.010350806 -0.011865456 -0.014408223 0.032430626
0003b0 48 8b 20 bc 88 19 97 bb 96 1d 3b bb 55 18 ec bc
       -0.009798832 -0.004611198 -0.002855157 -0.028820196
0003c0 46 6b 30 bd 27 df 88 bd 90 65 8e 3b 4e 60 b1 bc
       -0.043071054 -0.06683188 0.0043456033 -0.021652367
0003d0 be 4b db 3c 97 42 ba 3c a9 17 74 bc 94 32 9e 3c
       0.026769515 0.02273683 -0.014898219 0.019311227
0003e0 cb e3 fc 3c 5d 4e a4 bc ac 53 1a 3d bd af 5e bb
       0.030870339 -0.020056898 0.037677452 -0.003397926
0003f0 53 02 7f bd 1c 9c 96 bd b6 d1 82 bc 01 2c 89 bd
       -0.062258076 -0.07353994 -0.015969139 -0.06697846

bias f4 [194]
000000 5f 9c 99 3b 21 aa c1 3d 02 03 59 bd 63 6d 72 3d
       0.0046878303 0.09456278 -0.052981384 0.05918635
000010 cb 06 93 bc 4f ee 00 be c0 3d c6 bd 73 4b c8 3d
       -0.017947575 -0.12590908 -0.09679747 0.09780016
000020 30 17 e3 bd a8 87 6c bd 5e 77 7c bd b3 67 fb bd
       -0.11088407 -0.05774656 -0.061637275 -0.122756384
000030 b9 2e 63 3d 00 2b cf 3d f9 7d d2 bc 6f 5b 90 bc
       0.05546448 0.101156235 -0.025694834 -0.017621724
000040 84 3e 6b 3b ed 3d 75 39 54 89 2a bc 66 38 23 bd
       0.0035895417 0.0002338809 -0.010408718 -0.039848708
000050 93 8a e6 bc c1 68 fd bc e3 b1 f6 3c a6 3d ba bd
       -0.02814225 -0.03093374 0.03011412 -0.0909379
000060 10 be f7 bc fd 86 9f 3d 1e 9c 00 3e c1 d7 f7 bd
       -0.030241996 0.07789419 0.12559554 -0.12101699
000070 4b c5 60 bd 8f b1 74 bc 6e 15 a9 3d 25 8e 4a 3d
       -0.054875653 -0.014934911 0.082560405 0.049451966
000080 3b e2 1b bd ec e3 7e bd 1c 16 4e 3c bb aa e9 bd
       -0.038057547 -0.062229082 0.0125785135 -0.114095174
000090 ba cf 08 3d 5e 6f d6 3d f3 9e 54 bd 13 91 89 3d
       0.03340123 0.1047046 -0.0519094 0.06717124
0000a0 b9 07 e7 bc 19 93 c6 3d 70 7d 97 3d b5 3a 7c 3d
       -0.028201925 0.096960254 0.07396972 0.061579425
0000b0 98 94 17 3d 3a 7d 94 3d 7b 4f 02 3d 12 15 b4 3d
       0.037006944 0.072504476 0.03181408 0.08793081
0000c0 7d ce d2 3d 83 ef 2a 3d 3e 1e aa 3d 50 02 29 bd
       0.10293291 0.041732322 0.083065495 -0.04126197
0000d0 e4 1f c4 bd f8 ae 02 3e 8c 76 aa 3d b1 fd bd 3d
       -0.09576395 0.12762058 0.08323392 0.092769034
0000e0 1d dd ec 3c 4a 01 4b 3d 03 eb 53 bd 53 33 99 bd
       0.028914029 0.049561776 -0.051737797 -0.074804924
0000f0 72 a5 7a 3b 46 cf aa 3d 24 3a 07 bd 3f cc a0 bd
       0.0038245586 0.083403155 -0.03301443 -0.07851457
000100 b9 38 cb 3d f7 67 03 bc 6b 25 92 bc f8 c2 c0 3d
       0.09922928 -0.008020393 -0.017840108 0.09412187
000110 c6 27 ad 3c d9 0a c8 bd bb 19 84 3d db 79 83 bd
       0.02113713 -0.09767694 0.0645022 -0.064197265
000120 24 9d ba 3d 0d c0 7f 3d 84 ad b0 3d 62 60 93 3c
       0.091120034 0.062439013 0.086268455 0.017990295
000130 b3 41 c7 3d 45 7d fb bc 12 fa 00 3c f6 ff b8 bd
       0.09729328 -0.030699382 0.007872121 -0.09033196
000140 10 5d 95 b9 f7 50 db bd 16 79 7f bc 82 a5 a0 bd
       -0.00028488832 -0.10708802 -0.015592834 -0.07844068
000150 18 06 a4 bc c4 26 92 bd 2e ec 8b 3d 7b b7 47 bd
       -0.020022437 -0.071363 0.06832157 -0.048758965
000160 b8 ad 0f 3d 2e f2 b0 3d 27 23 06 3e 6c 9b ce 3c
       0.03507778 0.08639942 0.13099347 0.025220595
000170 98 fb 9e 3d 55 11 96 3d b8 a8 81 3c 5d f7 9b bd
       0.077628314 0.073275246 0.015827522 -0.0761554
000180 4a e8 84 3d cf 24 15 3d bf 77 f5 bc 32 79 32 bc
       0.06489618 0.036412057 -0.029964326 -0.010893153
000190 da d8 ba bd 6e 4e 99 3d 64 84 02 3d 9a 54 66 bd
       -0.091233924 0.074856624 0.03186454 -0.056233026
0001a0 62 d0 e9 3d 49 8e 04 3d 21 a4 2e bd 31 0f ba bb
       0.11416699 0.032362256 -0.042636994 -0.0056780805
0001b0 5e 19 4e 3d c7 35 c0 3d 02 39 b9 3d c2 70 d1 bd
       0.05031716 0.09385257 0.090440765 -0.10226585
0001c0 76 b9 cb 3d 70 91 54 bc 11 1e 67 3b 54 e7 33 bd
       0.09947483 -0.012974128 0.0035265724 -0.043921784
0001d0 27 7f ed bd 04 24 ff 3c 14 03 0c 3d 3c e9 a3 bd
       -0.11596518 0.031145103 0.034182623 -0.0800347
0001e0 7c d0 27 bd 69 ae ca bd 00 52 8d bd b5 a0 e3 bd
       -0.04097031 -0.09896547 -0.06900406 -0.11114637
0001f0 b5 a8 2d bc 14 e5 1c 3d 1d 8f 8b bd 23 b5 05 be
       -0.010599305 0.038304403 -0.06814406 -0.1305738
000200 29 0b 15 bc 0e 07 90 3c a8 8b b8 bd 48 c7 73 bd
       -0.009096899 0.017581489 -0.09011012 -0.05951622
000210 2a 90 1d 3c ef 86 12 be c0 4c 1e b9 9c 93 8c bd
       0.009616891 -0.14309286 -0.00015096646 -0.06864092
000220 aa 70 c0 bd bb 11 23 bd 19 58 66 bd 70 33 0b 3c
       -0.09396489 -0.03981183 -0.05623636 0.00849615
000230 94 57 21 bb 21 3f a5 3d 84 5e c0 bc 0e db 2f 3c
       -0.002461885 0.080686815 -0.023482569 0.010733379
000240 ca d8 24 bc 14 ac 00 be df ea 66 3d 8d 9c a5 3d
       -0.010061452 -0.12565643 0.056376334 0.080865
000250 70 a3 8e bd ea ad 4e 3d c9 37 e5 3d ca 48 89 bb
       -0.06964767 0.050458826 0.11192281 -0.0041895853
000260 12 63 92 bd a9 25 bf bd 5d 1c f4 3d 33 59 c9 3c
       -0.071478024 -0.09333355 0.11919472 0.024578666
000270 e7 45 4f 3d a4 2a 92 3d fb 5f 8e bd a7 5c 89 3c
       0.050603773 0.07137039 -0.069519006 0.016767813
000280 77 4c 3a 3a f2 1b bb bd f1 8a 08 3e a5 8b bb 3d
       0.0007106731 -0.091361895 0.13334252 0.091574945
000290 71 fb 21 3d 10 65 d9 bc 07 66 fe 3d bc 72 04 be
       0.039546434 -0.026537448 0.12421804 -0.12934393
0002a0 26 e3 15 3c 7c 04 53 3d 5b be f1 bd 14 c8 cc 3b
       0.009148395 0.05151795 -0.118038855 0.006249437
0002b0 7a a2 8c bd 7f 0a bb 3d b2 94 8d 3d c5 3c b9 3d
       -0.068669274 0.09132861 0.06913127 0.09044794
0002c0 73 74 27 bc ee 6f b9 bd c2 77 a2 bd 6d 37 9d bd
       -0.010220635 -0.09054552 -0.07932998 -0.07676587
0002d0 c1 6c 02 3c 3e 19 a0 3d b5 d1 34 bd f5 9e a2 3d
       0.007960499 0.078173146 -0.044145305 0.07940475
0002e0 52 38 ba 3d 8c 15 57 3d 62 be 5b 3d aa 6d ce bd
       0.090927735 0.052510783 0.05364836 -0.100795105
0002f0 e4 71 77 3c 6c 79 b5 bd 5b b5 72 3d 78 89 ef 3b
       0.015102837 -0.0886105 0.059254985 0.0073100887
000300 0d 4b 8b 3d d5 a8 fd 3c
       0.06801424 0.030964294
