loggers/h256_w256_bs20_in_channel1_epo100_lr0.0003/0516_1552/models/BasicModel_88.pth (torch, 68751 bytes, 17 tensors)

weight f4 [2, 1, 3, 3]
000000 b7 05 3d 3c 73 d4 44 bc 59 16 e7 bb a6 d5 75 3c
       0.011537007 -0.0120135425 -0.0070522246 0.015004551
000010 43 55 97 bc 6c 0d 9e bc 0c 49 90 ba ee 07 a0 bc
       -0.018473273 -0.01929351 -0.0011008098 -0.019535031
000020 5e c2 b1 ba c0 12 76 bc 15 37 27 bc 88 e5 b1 ba
       -0.0013561954 -0.015019119 -0.010206004 -0.0013572434
000030 a5 2b 31 3c 43 0e 0b 3d b2 3d 66 3c 06 b6 63 bd
       0.010813628 0.033949148 0.014052795 -0.055593513
000040 dd ca d6 bc 5b 2f 10 3c
       -0.02621978 0.008800353

weight f4 [2]
000000 76 16 81 3f 83 f1 72 3f
       1.008498 0.9489977

bias f4 [2]
000000 28 61 49 bd e3 c0 0e 3c
       -0.04916492 0.00871298

running_mean f4 [2]
000000 d3 76 3e bf e1 bf 15 bf
       -0.7440006 -0.5849591

running_var f4 [2]
000000 68 fe 05 3f fe 00 5b 3f
       0.5234132 0.8554839

weight f4 [4, 2, 3, 3]
000000 28 52 02 3c 78 1c f6 bb da d4 46 3d 16 f4 02 3c
       0.007954158 -0.007510718 0.048542835 0.007992765
000010 15 b7 c2 bc ea ff 18 bb 1c 4b d2 bb e9 8c 09 3c
       -0.023768941 -0.0023345896 -0.006417645 0.008395412
000020 b9 a8 eb 3c ad 8a 1e 3c bc c2 c0 3b 6d 65 24 3c
       0.028766977 0.009676618 0.005882589 0.010033947
000030 a5 17 b4 bc 6b 2a b6 3c e7 77 bb 3c 5c 52 e4 3c
       -0.02198393 0.022237023 0.022884322 0.027871303
000040 cd fe 37 3c 2b 69 db bc 17 8a ca 3c 0e be 1f bd
       0.011230183 -0.026783546 0.02472405 -0.03899961
000050 e6 e7 9f bc be 78 94 3c b2 00 44 bc f0 bf 64 bd
       -0.019519757 0.01812398 -0.011963056 -0.05584711
000060 2e dd a3 bb 73 a9 7d 3a d2 30 89 3c 7b ff 1b 3d
       -0.005000732 0.0009676434 0.016746912 0.038085442
000070 62 42 5d 3b d5 52 f9 bc 82 e9 b5 bc 73 2b 50 3c
       0.003376149 -0.030435005 -0.022206072 0.012705672
000080 1c e5 d7 bb 08 d4 8b ba c2 80 a8 3b 6a 38 ba 3b
       -0.0065885913 -0.0010668049 0.0051423023 0.0056829946
000090 89 87 82 3c 51 6e 79 3d 3c 2c 01 bd 58 45 62 3d
       0.015933769 0.06089622 -0.031536326 0.055241913
0000a0 7e 31 6b 3c e0 fa 05 bd 82 12 b7 3b b8 4b 1b 3c
       0.014355062 -0.032709956 0.005586923 0.009478502
0000b0 12 ad 51 3d c5 3b 68 bc 87 33 fa bb 48 3e 9f 3c
       0.051190443 -0.014174406 -0.007635537 0.019438878
0000c0 25 20 7c 3c 3c f2 9a bc 6a c4 f3 3a d5 3a 7b 3c
       0.015388523 -0.018914334 0.0018597965 0.015333851
0000d0 9b 49 a4 3b c9 54 93 bc dc 30 fc bc 0b 6b 15 bc
       0.0050136573 -0.017984765 -0.030785017 -0.009119759
0000e0 e3 a6 77 bc c2 84 ab bc 07 b1 16 3a 1c 24 65 3c
       -0.0151154725 -0.020937327 0.0005748425 0.01398566
0000f0 0e 49 51 bc 76 30 07 3d 85 a9 2f 3d 3e b9 6f bc
       -0.012773765 0.0330052 0.042886276 -0.0146315675
000100 ae 6c 28 bb 6e 6e 08 3d 94 ff 77 3c 24 17 8d bc
       -0.0025699544 0.03330844 0.015136618 -0.017222948
000110 45 f5 8a bb 3d bb ac 3c a0 cc 2f bc dc d3 b5 3b
       -0.004240664 0.021085376 -0.010729939 0.0055489372

weight f4 [4]
000000 53 16 81 3f db 77 82 3f e9 06 82 3f 55 2a 76 3f
       1.0084938 1.0192827 1.0158359 0.96158344

bias f4 [4]
000000 ee 9f 24 3d 17 1f 1c 3d ac b5 44 3d dc 7e ca 3d
       0.040191583 0.038115587 0.04802482 0.09887478

running_mean f4 [4]
000000 96 68 b1 3d aa 66 1f bd 6d d5 ae 3d f0 e3 c1 3c
       0.08662526 -0.038916267 0.085368015 0.02366826

running_var f4 [4]
000000 7e 57 07 3b 5e c0 d4 3a 3f 64 7a 3b b4 5f 75 3a
       0.0020651515 0.0016231646 0.0038206724 0.0009360269

weight f4 [8, 4, 3, 3]
000000 30 23 01 3d 0e ee 36 3b 70 7e 98 bc a2 ab 7e 3c
       0.031527698 0.0027912888 -0.018614978 0.01554385
000010 76 61 11 bd 6a 87 86 3c 70 ee 93 3c d1 66 20 bc
       -0.035493337 0.016421992 0.018058032 -0.009790138
000020 bd ff bb 3c 5b 0b 69 bc 17 6e 0b 3c 50 12 9a bb
       0.022949094 -0.014223899 0.008510134 -0.00470189
000030 8d 22 71 bc f2 ca c5 3c f1 42 12 3d 85 e8 c0 3b
       -0.01471771 0.024144623 0.03570837 0.0058870935
000040 b5 b1 7c 3c c8 11 fd bc 67 e4 7d bd 5e 1d c5 bc
       0.015423228 -0.030892268 -0.0619854 -0.024061855
000050 dc 1e 70 3b c2 71 1e 3c d1 e3 c1 3d 26 0a f7 bc
       0.0036639487 0.009670677 0.09467281 -0.030156206
000060 de 0f 22 3c dd 9b 93 bc a3 68 d0 3c df 71 f7 bb
       0.009891478 -0.018018657 0.02544052 -0.0075514163
000070 fc 1e e6 ba 53 3d 6a 3b 1a 9e 91 ba 26 bd 8a bc
       -0.0017556841 0.0035742118 -0.001110974 -0.016935896
000080 11 1e c3 bc 08 e0 02 bc 56 c3 78 39 2e 7e a5 3b
       -0.023818048 -0.0079879835 0.00023723891 0.005050442
000090 3e a9 97 bc 77 b4 75 3c 66 ce ee bc b9 33 0f 3d
       -0.018513318 0.014996639 -0.029151153 0.034961436
0000a0 0c 9f 05 3d 6d 29 10 bd 3c 56 93 bc ed ff 90 bc
       0.032622382 -0.035195757 -0.017985456 -0.01770016
0000b0 93 5e e3 3c 2f 72 56 3c 67 4e ad 3b 09 0d e8 ba
       0.027755057 0.013088747 0.0052888873 -0.001770408
0000c0 5a cf 92 bc a3 34 e5 ba 6f e9 75 bc ae ea 58 bb
       -0.017921139 -0.0017487 -0.015009268 -0.0033098864
0000d0 ee 97 2e 3b ec 7c da 3c 31 1a 8d bc f2 2f 35 3d
       0.002664085 0.026670896 -0.017224403 0.044235177
0000e0 b4 49 cc bc cc 46 d2 3c 29 01 3d bc 7a b6 99 3c
       -0.024937488 0.025668524 -0.011535921 0.01876377
0000f0 82 14 9d 3d e7 96 da bc 9b 83 c5 bc 5d 85 80 bc
       0.07669927 -0.026683284 -0.024110606 -0.015688593
000100 ee d8 cb bc 4c 30 32 3d e5 a8 fb bc db aa 09 3d
       -0.024883714 0.04350309 -0.030720184 0.033610206
000110 c8 b1 39 bc 15 1f b0 3a 66 c9 97 bc c4 69 b7 bc
       -0.01133389 0.0013436998 -0.018528651 -0.0223893
000120 0d 37 84 3c 8f a8 87 3c 12 da 86 3b 17 50 0e bd
       0.016139532 0.016559867 0.0041153515 -0.03474435
000130 15 25 bd 3b 33 3f b5 3b 7b f7 83 3c 35 ce 02 3b
       0.005772243 0.0055312156 0.016109219 0.0019959335
000140 fa 8f 08 bc 1c fc fc bc 97 69 b5 3b 01 ce a6 3c
       -0.008335108 -0.030881934 0.005536269 0.020361902
000150 25 ea c6 3c e4 69 98 bd b3 a7 13 3d 30 71 00 bd
       0.02428157 -0.07442072 0.036048602 -0.031357944
000160 2c f7 36 3c c4 60 f1 3c a5 cd e0 bb 20 bf 6c 3b
       0.011167329 0.029465087 -0.0068604522 0.0036124662
000170 29 e9 f2 3c c4 e7 8d bb ca 10 ba 3c 26 75 94 3b
       0.029652195 -0.004330607 0.022713084 0.0045305667
000180 12 30 04 bc 55 6a 32 bd e8 8d b6 bc 1b 17 ab ba
       -0.0080681015 -0.043558437 -0.022284463 -0.0013053151
000190 20 54 2d bc f6 12 81 bc ba a1 b8 ba 3f f6 07 3d
       -0.010579139 -0.015756112 -0.0014086284 0.033193823
0001a0 cd 30 49 3c 56 c3 bf 3c 7f d6 04 bd 74 b4 5b bb
       0.012279701 0.023408573 -0.032431122 -0.0033524306
0001b0 7d 11 de 3b 27 99 fa bc 49 dd 94 bc 95 3f c6 3c
       0.006776987 -0.030590607 -0.018171923 0.02420024
0001c0 47 89 bf bc 55 64 e5 3c bf 62 90 bc 25 20 1f bc
       -0.023380889 0.028001944 -0.01762521 -0.009712254
0001d0 1c 8e 65 bd d5 c2 58 bc b0 68 ef bb 00 68 b5 3b
       -0.05604373 -0.013230045 -0.007306181 0.0055360794
0001e0 a3 e4 00 bd 29 e8 78 3c 65 9f 8e 3d eb 30 33 bb
       -0.031468045 0.01519207 0.06963996 -0.002734239
0001f0 d9 2c 5b bb 7b a3 2a ba 7e ff 4a 3c d4 98 e7 bb
       -0.003344348 -0.0006509346 0.012390016 -0.007067779
000200 ad 7c d4 3c 14 e2 62 3c 97 d8 3a 3b a0 46 f1 3c
       0.025938356 0.013847847 0.0028510445 0.029452622
000210 cb f1 b9 bc f3 ba 4c bb a3 42 2c bc 58 5f d3 3c
       -0.022698304 -0.003123936 -0.010513934 0.0258023
000220 8c 1b 5b bc 03 bb 67 bd 1d 2a c1 bc 92 d4 e5 3c
       -0.013373267 -0.056574833 -0.023579651 0.028055463
000230 90 02 8f bc 9c b4 14 bd 1c 77 dd ba 32 43 55 3c
       -0.017457277 -0.036305055 -0.0016896459 0.013016509
000240 09 a2 e6 3a 71 8d e6 ba b9 50 36 bc cb 82 26 bc
       0.0017595898 -0.001758976 -0.011127644 -0.010163019
000250 2b 81 11 3c 8c 9a 9d 3c 04 10 ee bb 51 47 b4 bb
       0.008880894 0.019238733 -0.007265093 -0.0055016656
000260 99 55 82 bc 79 e1 26 ba 3b b2 92 bc cf 47 3c bc
       -0.015909957 -0.00063659955 -0.017907253 -0.01149173
000270 80 5e ac bc b7 b0 c9 3c a3 70 05 bc bf 62 61 bd
       -0.021041155 0.024620397 -0.0081445305 -0.055025812
000280 a2 19 a0 3d c2 25 db bb ee 57 90 3b 16 5f 9a 3c
       0.07817389 -0.0066878507 0.0044050133 0.018844169
000290 28 b1 51 bb 9f 67 c7 ba 63 63 da 3a 4f e7 13 3d
       -0.0031996462 -0.0015213377 0.00166617 0.036109265
0002a0 5a 70 53 bb 1a a5 3a bd 88 0e 3f 3c ef d5 5f 3b
       -0.0032263012 -0.04556761 0.011661179 0.0034154614
0002b0 af ec e1 3b a0 a8 04 3c 89 01 25 3c 6d 5c 3e bc
       0.00689467 0.008096844 0.010071167 -0.011618716
0002c0 34 2a b3 bb 4a 90 5c 3c d5 5b ba 3c e9 b6 cd bb
       -0.0054676775 0.013462136 0.022748867 -0.006277908
0002d0 3c c7 ac 3c 43 37 04 3d 62 7e 9e bb f9 bd 12 3b
       0.021091096 0.032279264 -0.0048368433 0.0022391065
0002e0 f0 7c 10 bd c9 28 c7 3c 84 40 c3 3c 7a 85 97 3a
       -0.0352754 0.02431144 0.023834474 0.0011560165
0002f0 ad 0c c6 3c 62 17 c5 3c da 1b 29 bd b4 09 80 bc
       0.024175966 0.024059001 -0.041286327 -0.015629627
000300 b6 33 09 bd ca 76 e4 3c f6 e3 4c bb 8b 8c 4f bd
       -0.03349658 0.027888674 -0.0031263805 -0.05067114
000310 df e1 0a bb 8e 86 9e 3c 79 da ad bb 40 90 13 bd
       -0.0021191759 0.01935127 -0.005305585 -0.03602624
000320 c1 9e 2d bd 37 ac 67 3b 9f e1 0c bd dc 3a 81 3c
       -0.042387728 0.003535045 -0.034394857 0.015775137
000330 62 f4 35 bd 83 93 44 bd 7f 5b f3 3c 57 1c cf bc
       -0.044422515 -0.04799224 0.029706715 -0.025282068
000340 13 16 63 bb 98 c3 95 bc d6 33 8f ba 75 f9 3f bd
       -0.0034650608 -0.018281743 -0.0010925482 -0.04686876
000350 96 c8 aa 3b 2e 46 74 bc 54 1f 62 3c 73 92 e6 3b
       0.0052119 -0.01490931 0.0138014145 0.007036501
000360 7d 7f e1 bc 42 17 12 3d 6a fe 4e 3d 87 28 b2 bc
       -0.027526611 0.03566671 0.050535597 -0.02174784
000370 ba 6f 9b bc 11 d6 1f bd cd 33 3e bc 63 4c 4b 3c
       -0.018974174 -0.03902251 -0.01160903 0.012408349
000380 2f 79 ea bb 9a f5 bd bc 5a 2f 8c 3c 60 1a 4a 3c
       -0.0071555595 -0.023188401 0.017112423 0.01233539
000390 54 f1 b8 bb 5c 91 9e bc 20 33 b0 bc 0b 19 a9 bc
       -0.005644003 -0.019356422 -0.021508753 -0.020641824
0003a0 ed ff 9f 3c 07 4f a1 3c e3 d8 26 3d 31 34 b9 bc
       0.019531215 0.019691003 0.040734183 -0.022607895
0003b0 dc 5f b3 bd 4d 43 ed 3b ba b7 e5 3c de c5 32 bb
       -0.08758518 0.007240689 0.02804171 -0.0027278583
0003c0 45 20 e0 3b 47 80 0d bd f9 df ff 3c da 69 13 bd
       0.0068397843 -0.034546163 0.031234728 -0.03598962
0003d0 2e e0 04 3d 1a 93 d2 3b 99 fb 99 3c 78 86 e4 3a
       0.032440357 0.0064262273 0.018796729 0.0017435094
0003e0 06 2e db bb a7 37 24 3c 12 4a b6 bc 71 fe 03 bc
       -0.006688836 0.010023034 -0.022252116 -0.008056269
0003f0 d4 fa cd bc ab 14 08 3c f2 97 86 bc fc 39 1a 3c
       -0.025144018 0.008305709 -0.016429875 0.009413239

weight f4 [8]
000000 1f c8 a8 3f cd 8a 9a 3f 82 9b a9 3f 85 1d 9f 3f
       1.3186072 1.2073609 1.3250582 1.2430884
000010 80 b4 a2 3f d4 32 b5 3f d3 96 a6 3f 61 23 9f 3f
       1.2711334 1.4156137 1.3014778 1.2432672

bias f4 [8]
000000 f0 ac 8a 3d f0 eb 35 3d 90 38 64 3d 13 c2 a3 3d
       0.067712665 0.04441446 0.055718005 0.07996001
000010 e7 74 b4 3d c6 75 9d 3d a9 2b 9e 3c a0 5e 25 3d
       0.0881136 0.07688479 0.019307928 0.040373445

running_mean f4 [8]
000000 cd 11 e1 3c cb 4c c8 bb ec 13 f6 3a e6 a5 09 be
       0.027474308 -0.00611267 0.0018774248 -0.13442191
000010 a1 bc 09 3d 2e 4d 57 be b9 55 9f bd de ba a1 bd
       0.033627156 -0.21025535 -0.07780022 -0.0789697

running_var f4 [8]
000000 e6 92 7a 3b 7d e0 d9 3b 03 4a b2 3b c9 b7 8b 3c
       0.003823453 0.0066490755 0.005440952 0.017055409
000010 10 ff cf 3b bf 4d 80 3c 52 8c 1f 3c dc 0d 0f 3c
       0.0063475445 0.015662072 0.009738045 0.008731332

weight f4 [194, 8, 3, 3]
000000 af ef f5 3b 26 3e 6e 3d 2c 09 ea bc 08 a2 88 3c
       0.007505379 0.058164738 -0.028568827 0.016678825
000010 48 04 a8 bc da cb 5e bd 06 0b 39 3d ec a7 10 bc
       -0.020509854 -0.054393627 0.04517653 -0.008829098
000020 e2 ce 3f bd 4e f8 5b bd 7e f5 a4 3b b7 d4 c6 bc
       -0.04682816 -0.0537036 0.0050341478 -0.024271352
000030 1f c8 9f bc 6a bd ca 3a be 90 34 3c 4f 41 a7 bd
       -0.019504605 0.0015467827 0.011020837 -0.081667535
000040 d7 ce ab bc d6 af 8e bc d3 ed 44 3d a9 75 a8 bc
       -0.020972652 -0.01741783 0.04807837 -0.020563917
000050 86 65 a4 3d ae 43 9d 3c d5 66 dd bc 8a 6e 63 3c
       0.080271766 0.019197311 -0.027026573 0.013881335
000060 1b 6a 54 3c 0b 4a c3 3c 36 b8 29 3b d0 a1 bd 3c
       0.012964751 0.023839017 0.0025897152 0.023148447
000070 c9 69 1a 3d d1 fc a7 3c 32 87 05 3d d2 64 21 bd
       0.03769854 0.020506294 0.032599635 -0.03940279
000080 e9 8c 93 bb a2 c5 8c 3a 91 4a 60 bc 74 1c 4a 3d
       -0.004502882 0.0010740052 -0.013689653 0.04934354
000090 e8 83 62 3d 8d 99 84 3c 17 9d d0 bc a5 c2 5f bc
       0.055301577 0.0161865 -0.025465531 -0.013657247
0000a0 5a eb d2 bc a7 e0 52 bb 47 4c 09 3d a1 a6 c4 3c
       -0.02574699 -0.003217736 0.03352001 0.024005236
0000b0 0c e9 d2 3b ba 7f 58 3d 71 c0 9d bd fa 8b d0 3a
       0.0064364728 0.052856185 -0.07702721 0.0015910857
0000c0 e1 c0 33 bd 42 a9 10 bd 97 4e ae bd 57 7c 83 3b
       -0.043885116 -0.035317667 -0.085110836 0.004012625
0000d0 5b 4c ec bb 9e 15 13 bd 83 83 01 3d 71 cc b5 bd
       -0.0072112507 -0.035909288 0.03161956 -0.08876885
0000e0 bb cb 08 bd 03 59 f6 3b 96 dc 78 bd 16 bb 09 3d
       -0.033397418 0.0075179352 -0.060757242 0.033625685
0000f0 ac 2a 7d 3d 3e db 95 bb a1 b5 04 3d 46 b3 fb 3c
       0.061808273 -0.004573255 0.032399777 0.030725133
000100 66 db 66 3c 19 f6 16 b9 d1 f4 c1 bd b9 2f b6 bd
       0.014090395 -0.00014396793 -0.09470523 -0.08895821
000110 ce d6 54 bd f1 e4 95 bb 6f 53 14 bd c2 a4 98 3c
       -0.051962666 -0.004574411 -0.03621238 0.01863325
000120 89 1f 1c bd e2 18 a6 bd 84 9b 63 bb f9 af 8c 3c
       -0.03811601 -0.08110215 -0.0034730146 0.017173754
000130 d2 d1 27 3d 00 d5 f8 3c 18 2c 3b bd e6 9c b6 bc
       0.040971585 0.030375004 -0.045696348 -0.022291612
000140 83 7a 97 3d 6c 80 ee 3c 20 72 3a 3b 8e 12 ef bc
       0.07396414 0.02911397 0.0028449371 -0.029183652
000150 41 5a 47 3c ef ca 88 bd d4 1d 43 3c a9 10 e5 3d
       0.012167514 -0.066793315 0.011908967 0.11184818
000160 ef 80 09 3c 4e e5 5f bd 36 ed 04 bc 26 0f f6 bc
       0.008392557 -0.05466204 -0.008113196 -0.03003652
000170 81 ac 2d bd 73 d2 fb bb df b0 55 3c 83 9d a8 3b
       -0.04240084 -0.0076849996 0.013042658 0.00514573
000180 56 48 19 bd e3 32 4e ba 91 8a c5 3a db e5 8b bd
       -0.0374225 -0.0007865859 0.0015071203 -0.06830951
000190 e5 d7 05 bb 71 51 87 3c e4 e6 b1 bc 56 78 81 3d
       -0.0020422873 0.016518326 -0.021716543 0.063217804
0001a0 32 6e c2 bb 9c 4e e6 3c 76 3a 24 3c 7f 12 e3 bc
       -0.0059335465 0.028113656 0.010023704 -0.02771878
0001b0 a7 91 83 bd 21 71 9d bd d9 a9 c5 3c cb 1a e4 bb
       -0.06424265 -0.07687593 0.024128841 -0.006961202
0001c0 23 5b 2b 3d e1 11 1d bd 8f c0 0c bd 19 4e 61 bd
       0.04183496 -0.03834713 -0.034363326 -0.05500612
0001d0 ef bc 43 3b c3 d2 88 bd 34 de 4a bc 5f c0 1f 3c
       0.0029867252 -0.066808246 -0.012382079 0.009750455
0001e0 d1 7c c0 bc 69 a3 0e 3d c7 db c4 3d e1 39 73 bd
       -0.023497017 0.03482381 0.09612232 -0.05938137
0001f0 1b 6a 1f 3c 67 5c 00 3d 40 a6 18 bd 77 c9 99 3d
       0.009729887 0.03133812 -0.037267923 0.075091295
000200 c8 3b 5e 3d 88 ea 95 bc ed ac c1 3d d2 df 71 3c
       0.05425623 -0.01830031 0.09456811 0.014762836
000210 22 a6 c2 bb 2d ed 45 3b 53 55 7d bc 7a 27 b6 bc
       -0.0059402147 0.0030201182 -0.015462237 -0.02223562
000220 8f 1a dc 3c 4b 6e 02 bc 28 a3 9a 3d f5 46 58 3d
       0.026868133 -0.007960866 0.07550651 0.052802045
000230 4f e4 00 3d 5d 63 22 3d bd 3d 70 3d d2 2d 6b 3c
       0.031467732 0.03964554 0.05865263 0.014354186
000240 67 d9 c1 3d e7 c5 3e 3d 18 0e 49 3d f3 6d 80 3d
       0.09465294 0.046575453 0.049085706 0.06270971
000250 2b 3e 97 3c de ee 35 bd 96 e6 f4 3d 9a 32 3b bc
       0.018462261 -0.044417255 0.11958043 -0.011425639
000260 23 ed 64 bd 64 89 aa bc b8 0e 18 bd 49 a0 48 3d
       -0.055890214 -0.020817466 -0.037123412 0.048980985
000270 55 8f ab 3c 4e 07 70 3c e5 71 1e 3d 11 9b 2c 3d
       0.02094237 0.014650179 0.038682837 0.04214007
000280 1b 78 b6 bb 63 5e 30 3d 12 6a ac 3c 35 b9 94 bd
       -0.005568517 0.043058764 0.021046672 -0.07261888
000290 0c f0 f7 3b 43 d1 4d 3d 23 86 3d 3c be a9 be 3c
       0.0075664576 0.050248396 0.011567625 0.023274299
0002a0 56 22 07 3d cc 8f 1b 3d 8c d3 35 3d 84 c5 74 3d
       0.03299173 0.037978932 0.0443912 0.059758678
0002b0 84 18 be bb eb 85 25 bd 67 2f 0c 3d b5 ed 21 bd
       -0.0058012623 -0.040410917 0.034224894 -0.039533336
0002c0 05 1a cc bc be fe ae bc a7 4a 3c bd 4d 46 75 bc
       -0.02491475 -0.021361705 -0.04596963 -0.014970374
0002d0 00 3c a4 3d 9e 2e b1 3d ad d8 e0 bc 39 29 05 3c
       0.080192566 0.0865147 -0.027447069 0.008127504
0002e0 ab 86 ce bc e0 8c 35 bd a9 72 a3 3c 05 cc 75 3d
       -0.025210699 -0.044323802 0.019952135 0.06000902
0002f0 be a1 1b bc ee 59 5c 3d 92 23 a3 3b dd 3b 40 3c
       -0.009499012 0.0537967 0.0049786055 0.0117330225
000300 a3 c2 6e 3c 87 42 cc bc b4 c7 29 bd 2b 9a 64 3c
       0.014572772 -0.024934066 -0.041450217 0.013952772
000310 1a 7b 26 bc 7b 3b 4f bd cb b0 9a bc 1c 81 fc bc
       -0.010161186 -0.050593834 -0.01888313 -0.030823283
000320 a1 99 b1 3c cd 32 cd bc 1b b1 68 bd 29 91 44 3d
       0.021679701 -0.025048638 -0.056809526 0.047989998
000330 bf eb 19 bd 88 84 f1 bc 02 0d 17 3d d4 03 90 3c
       -0.03757834 -0.029482141 0.03687764 0.01757995
000340 0c b8 e3 bc a9 2f e9 3c ae 65 35 bd ed 85 33 3b
       -0.027797721 0.028465109 -0.044286422 0.0027393058
000350 c1 fb f2 bc 44 1d 94 3d f1 1b dd 3c 1a 1b 38 bb
       -0.029661061 0.072321445 0.026990863 -0.0028092326
000360 7f b9 bd bd 7c 69 24 bd 1f 7c e4 3a 02 65 7d bd
       -0.09263896 -0.04013966 0.001743201 -0.061863907
000370 e9 35 06 bd 99 e8 ae 3c e6 c2 b7 bd 47 12 9c 3c
       -0.032766256 0.021351146 -0.08972721 0.019051684
000380 b9 75 6c 3d f0 38 a2 3b c8 42 d4 bc 3a 47 93 bd
       0.057729457 0.004950635 -0.02591075 -0.0719132
000390 a2 10 8c bc d2 11 a0 3c 4b 1b 27 bd ae 41 fe bc
       -0.017097775 0.019539747 -0.040797513 -0.031037178
0003a0 f2 00 99 bc 0f 78 1e bd 17 9f 8d bb 73 10 82 3d
       -0.018677209 -0.038688716 -0.0043219435 0.06350794
0003b0 e1 97 63 bc 73 47 3d bc e9 2a 2b bc ab f3 0b bd
       -0.013891191 -0.011552679 -0.010447242 -0.034167927
0003c0 03 fe 5c bd 4e cc b0 bd 8c 4e 90 bc 80 49 0b bd
       -0.053953182 -0.08632718 -0.017615579 -0.034005642
0003d0 2c 95 f3 3c ed c9 29 3d 85 19 ad bc 6d 53 fd 3c
       0.029734217 0.041452337 -0.021130333 0.03092357
0003e0 02 a5 70 3d fa c8 a3 bc 92 7f 84 3d 61 6c 5f 3c
       0.058751114 -0.019993294 0.064696446 0.013636679
0003f0 57 4a a4 bd 01 0a de bd c1 dc c9 bb f0 45 8e bd
       -0.08021992 -0.10841752 -0.006160349 -0.06946933

bias f4 [194]
000000 10 f0 47 3c 15 3a b2 3d 6a 0e 5e bd 50 76 77 3d
       0.012203231 0.087024845 -0.054212965 0.060415566
000010 a3 af 9c bc 65 49 ff bd 59 4c c4 bd d0 59 c6 3d
       -0.019126719 -0.12465171 -0.09584875 0.09685099
000020 da 42 ef bd 56 f9 53 bd 36 f4 64 bd 45 79 03 be
       -0.11682673 -0.051751457 -0.05589696 -0.1283923
000030 91 2d 74 3d d1 8a c6 3d e2 e5 09 bd bf ee 1d bc
       0.059613768 0.09694446 -0.0336665 -0.009639441
000040 10 fe 74 3b a8 69 b0 38 dd 4b 3c bc 4e ba 1e bd
       0.0037382878 8.412014e-05 -0.011492697 -0.038751893
000050 62 d0 c9 bc 89 01 0d bd d2 bd 30 3d 4d e5 d4 bd
       -0.024635497 -0.034425292 0.043149777 -0.10395298
000060 07 03 98 bc 18 91 87 3d 0a 1b 0b 3e 57 6b 06 be
       -0.018556131 0.06619471 0.13584533 -0.13126884
000070 18 b6 51 bd ef 4c 98 bc e4 11 b8 3d 79 6c 2c 3d
       -0.05119905 -0.018591372 0.08987787 0.042095635
000080 c1 ab 10 bd 4c f5 84 bd be 19 ad 3c 77 19 fb bd
       -0.035320047 -0.06492099 0.021130439 -0.122607164
000090 7d 7e 35 3d 3d 01 c0 3d 54 79 37 bd 07 f5 75 3d
       0.04431008 0.09375236 -0.044793442 0.06004813
0000a0 75 66 c8 bc c0 da be 3d ad 2f a0 3d 61 b1 6a 3d
       -0.024462918 0.09319067 0.078215934 0.057298068
0000b0 4f 2b 21 3d 72 9e 8f 3d b0 75 07 3d 6e 71 b1 3d
       0.039347943 0.07012643 0.03307122 0.08664213
0000c0 23 0d ce 3d f6 36 34 3d d3 6d a0 3d c3 ad 15 bd
       0.100610994 0.043997727 0.07833447 -0.036542665
0000d0 f2 5c d4 bd 75 cb 0a 3e af 09 a8 3d 2c 4c c0 3d
       -0.103692904 0.13554175 0.08204972 0.09389529
0000e0 d1 c9 3f 3d d5 80 01 3d 03 09 34 bd 4b 11 a9 bd
       0.046823326 0.031617004 -0.043953907 -0.082552515
0000f0 8c 8e 40 3c 46 87 9a 3d 01 5d 18 bd 37 28 98 bd
       0.011752736 0.075453326 -0.03719807 -0.074295454
000100 2e d3 b9 3d 7f 11 e9 39 d4 7c 59 bc 3d 5a b7 3d
       0.090734825 0.0004445426 -0.01327439 0.089527585
000110 35 7c 1c 3d a4 eb ea bd 6e 55 9d 3d ad b5 9c bd
       0.03820439 -0.11470726 0.0768231 -0.076518394
000120 90 17 be 3d 1a 8f 78 3d 6b 65 e5 3d 59 f0 ff bb
       0.09281838 0.060683347 0.112009846 -0.007810634
000130 6e 72 ce 3d 53 48 0c bd 09 00 c7 3b 2b 46 b5 bd
       0.100804195 -0.03424866 0.0060730022 -0.08851274
000140 d3 8b 12 3a 56 fa dc bd c3 4e 94 bc b9 74 9b bd
       0.00055902934 -0.10789935 -0.018103963 -0.075906225
000150 98 73 81 bc 9a b6 9a bd bd 85 8d 3d 1a ef 4a bd
       -0.01580219 -0.0755436 0.06910274 -0.04954443
000160 1f 19 47 3d c6 13 95 3d 1a 48 0e 3e 15 1b 8d 3c
       0.04860794 0.07279162 0.13894692 0.017224828
000170 bc 4e a5 3d ba a5 8f 3d cb 66 a3 3c a7 5c a4 bd
       0.08071658 0.07014032 0.019946476 -0.080254845
000180 00 c4 a9 3d 16 94 96 3c a4 e4 4f bc ef a1 e6 bc
       0.08289337 0.01838116 -0.0126887895 -0.028153388
000190 3e 00 b6 bd 7d 78 94 3d 3c 4b 86 3c 9e ee 26 bd
       -0.08886765 0.07249544 0.016393296 -0.040754907
0001a0 88 6a f7 3d 14 3b d2 3c d0 33 3d bd 35 09 0a bb
       0.12080866 0.025662936 -0.04619199 -0.0021062617
0001b0 8f 50 5e 3d 4f f9 b7 3d 2d 60 b9 3d 1d 96 d1 bd
       0.054276045 0.08983099 0.09051547 -0.1023371
0001c0 ec 84 d7 3d a5 a8 99 bc e3 72 80 3b 4a 73 35 bd
       0.105234 -0.018757174 0.0039199456 -0.0442994
0001d0 1f 81 ed bd 4e 53 ff 3c d3 f4 22 3d 3a 5d af bd
       -0.115968935 0.031167652 0.039784264 -0.085627034
0001e0 b5 e3 28 bd cb 13 ca bd d8 da 80 bd 50 01 f0 bd
       -0.041232783 -0.098670565 -0.06291741 -0.11719
0001f0 af a8 c8 bb 7a 82 0a 3d 65 41 82 bd ec 48 0a be
       -0.0061236243 0.03381584 -0.06360129 -0.1350438
000200 cb 5d 80 bc 0e da c5 3c 9b 63 bb bd 48 e3 6d bd
       -0.015669724 0.024151828 -0.091498576 -0.05807808
000210 7d 8d bd 3c b3 54 20 be d7 96 3f 3c c4 ca a4 bd
       0.023138756 -0.1565731 0.011693678 -0.08046487
000220 e0 dd b3 bd d6 02 3c bd ee 25 52 bd 4c ac 6a 3b
       -0.08782554 -0.045901142 -0.051305704 0.0035808263
000230 65 da 19 3b 55 5c 9b 3d 52 5c e0 bc 8e e3 6f 3c
       0.002347612 0.0758597 -0.027387772 0.014641656
000240 10 a9 b6 3a 51 56 0c be 3c d3 8a 3d d4 26 8e 3d
       0.0013935883 -0.13704802 0.06778571 0.069409996
000250 73 15 99 bd 9d 97 63 3d cd 2d fd 3d 2a 82 82 bc
       -0.07474794 0.05556451 0.123622514 -0.015931208
000260 13 7d 99 bd 1b ee b7 bd 39 19 f9 3d 3e 06 b5 3c
       -0.07494559 -0.08980962 0.12163014 0.022097703
000270 ee 6e 1d 3d b9 04 ab 3d 9b ec 7f bd 62 b8 1f 3c
       0.03843587 0.0835051 -0.062481504 0.00974855
000280 21 c5 35 3b 22 41 bf bd 7b 26 09 3e f1 1d ba 3d
       0.0027735906 -0.09338595 0.13393585 0.09087742
000290 61 3c 5d 3d 5f f9 27 bd 8c c9 07 3e 9b 08 0d be
       0.05401266 -0.041009303 0.13260478 -0.13772814
0002a0 ac 75 39 3c d2 0b 4a 3d a7 1c 05 be 72 77 95 3c
       0.011319559 0.04932768 -0.12999211 0.018245433
0002b0 05 5d 81 bd ce be af 3d 82 de 8a 3d b4 de bb 3d
       -0.0631657 0.08581315 0.06780721 0.091733366
0002c0 88 25 a2 bc 23 c6 a5 bd 3a a8 98 bd 75 f3 a6 bd
       -0.019793287 -0.08094432 -0.07453962 -0.081519045
0002d0 9d 60 a6 3c f8 bf 86 3d b5 6e 10 bd 0c 68 90 3d
       0.02030974 0.06579584 -0.03526183 0.07051095
0002e0 30 93 bb 3d 4b 2f 54 3d 2d fa 44 3d d3 05 c3 bd
       0.09158933 0.051802915 0.04809015 -0.09522595
0002f0 71 5f b1 3b 9b 97 a1 bd 58 26 7b 3d bc 12 ab 3b
       0.005412989 -0.078902446 0.061315864 0.005220739
000300 fc d1 a8 3d 16 30 87 3c
       0.08243176 0.016502421
