loggers/h256_w256_bs20_in_channel1_epo100_lr0.0003/0516_1552/models/BasicModel_21.pth (torch, 68751 bytes, 17 tensors)

weight f4 [2, 1, 3, 3]
00000000: 77d7 093c 2002 02bc 4d40 d3bb d76b 0a3c
00000010: 5fb2 32bc 3406 16bc 8e1a a13a 50ea 77bc
00000020: ee28 b6ba 28ac 8bbc 92cd 23bc 8078 9c3a
00000030: d1d1 853c edf4 ee3c 73a8 573c c2e8 2ebd
00000040: 17dd 0abd 8d93 373c
0.008413187 -0.007935077 -0.0064468742 0.008448563 -0.010906785 -0.009156752 0.0012291239 -0.015131548
-0.0013897696 -0.017049864 -0.009997742 0.0011937767 0.0163354 0.029169524 0.01316272 -0.042702444
-0.033902254 0.011204612

weight f4 [2]
00000000: a2b4 7c3f 45e0 783f
0.98713124 0.9721721

bias f4 [2]
00000000: d3d1 0cbc e97c fe3c
-0.008594948 0.031065421

running_mean f4 [2]
00000000: 392a e8be 0d2e f8be
-0.45344713 -0.48472634

running_var f4 [2]
00000000: 0448 463e dc71 333f
0.1936341 0.7009561

weight f4 [4, 2, 3, 3]
00000000: 09cc 3e3c f3fa 4e3c d56f 003d 4f6b 98bb
00000010: 49f4 cabc deb6 edb9 9664 97bc 691b e0bb
00000020: ae58 da3c 6407 4d3b 24a2 1b3c 867c dc3b
00000030: 2b5f 80bc cfe1 8d3c 514f d03c cb7e c73c
00000040: 1b7d 393c ad44 debc fda9 973c d746 b8bc
00000050: 4a97 bdbc 6c1e 0c3c 06af 05bc ae44 28bd
00000060: 67e8 dcba 98a9 64bb 57e2 a73c a237 113d
00000070: 4d9e 493b 1517 eabc 4564 acbc 264d 083c
00000080: 499f e7ba 8473 6ebb 17c7 413c 3dd7 09b9
00000090: 6f97 a73a b3e8 253d 08c8 4d3c b2da 9e3c
000000a0: e2ec 2f3d 78c9 11bd 7c6b 173c f3f1 a43c
000000b0: 37f0 533d bdac 11bb dce0 15bc 7940 7c3c
000000c0: b2d8 8d3c 4f77 f0bc 1391 623a 8e60 323c
000000d0: f65c 1a3c 9be3 7dbc 9761 c9bc 9f06 25bc
000000e0: e3ec 46bc f79e 87bc 7b8b 683c edd9 e33b
000000f0: 21ae 59bc e20d 843c d179 163d 7126 54bc
00000100: 7d73 35bb 6209 173d a1f4 0e3c b86d aabb
00000110: 877f 76bc a19c d33c 55b4 2cbc fd53 013c
0.011645325 0.012633073 0.03135665 -0.004651464 -0.024774687 -0.0004534041 -0.01848058 -0.006839205
0.026653614 0.0031284923 0.009499107 0.0067287115 -0.01567038 0.017319588 0.025428446 0.024352452
0.011321331 -0.027132357 0.018513674 -0.022494717 -0.02314343 0.008552175 -0.008159405 -0.041081123
-0.0016853929 -0.0034891125 0.02049367 0.035453446 0.003076452 -0.02857546 -0.021043906 0.008319175
-0.0017671372 -0.003638477 0.011827252 -0.0001314552 0.001278622 0.040505122 0.012559898 0.019391391
0.04295052 -0.035592526 0.009241935 0.020134902 0.05174276 -0.0022228204 -0.009147849 0.015396231
0.017315242 -0.029353766 0.00086428336 0.010887278 0.009421578 -0.01549616 -0.024582667 -0.010072379
-0.012141439 -0.016555293 0.014193411 0.006953469 -0.0132861445 0.016119901 0.036737267 -0.012948618
-0.0027687245 0.036874183 0.008725316 -0.005201068 -0.015045053 0.025831522 -0.010541041 0.0078935595

weight f4 [4]
00000000: 96dd 803f 55bd 7e3f 0f81 803f d3e1 7d3f
1.0067623 0.9950765 1.0039386 0.99172705

bias f4 [4]
00000000: 39fa 4c3d ad0f e23c 2c76 b53c 6484 8d3d
0.05004332 0.027595365 0.022151075 0.06910017

running_mean f4 [4]
00000000: a7a1 863d 8084 f5bc 5f95 c53d b43f f93c
0.065738015 -0.029970407 0.09647631 0.030425884

running_var f4 [4]
00000000: 84f6 e23a 22e7 9f3a d9cc 903b b9b4 8b3a
0.0017315899 0.001219962 0.004418951 0.0010658718

weight f4 [8, 4, 3, 3]
00000000: fe8a 163d 2d40 1fba c5c7 d0bb f44c 3f3c
00000010: 2f23 2cbd 7b51 b23c 5d8b bf3c 8f8a 283c
00000020: eb9f a13c b828 7fbc 25e8 cdbb bb94 f4bb
00000030: 5b91 e5ba 46e6 eb3c e682 ab3c 01b7 57bc
00000040: d80b d7b9 1409 00bc 4d6a 6cbd d419 d1bc
00000050: 951f 20ba f329 003c c2e6 4b3d eef3 883c
00000060: 54cc a63c 35db 9abc 8de9 423d 86bf b8bc
00000070: c390 8c3a 19c7 a83a 4ee7 6e3c c86b 25bb
00000080: 0f53 13bd ee29 0b3c 5a01 98bc 4476 e23b
00000090: e1f4 87bb be63 bfbb 0ba6 a8bc 4c1a d33c
000000a0: 1f2a f53c b67f a7bc 4849 3fba 8759 d3bc
000000b0: 476d 2e3c 2638 52bc 085c dd3a a15a 023b
000000c0: a9fd e6ba a002 39bc bdc8 59bd 2bc2 85bc
000000d0: 6a53 333c 9b7a 0c3d 8df3 9fbc e039 323d
000000e0: d0e4 08bd 9ae3 a43c 13b1 cc3b a1c8 c93b
000000f0: 408d 843d cabb a43b 06aa c83a 3678 0ebc
00000100: d5b0 7dbc 8d9f 753c ba9f 2bbd b137 263d
00000110: 5cb9 f5bc ba53 e0ba bed0 2ebd 24f2 4cbc
00000120: 879a 5d3c cb53 5c3c 626d 4a3c a5bf 06bd
00000130: 2972 2aba fbf4 833c 75a0 923c 1231 643c
00000140: 2a3d 27bc 3dc2 b5bc aba9 203c 6367 733c
00000150: 567a 083c ff51 3bbd 849c e73c cbae c8bc
00000160: 1d31 6ebb 90e6 ca3c 2748 82bc 88fc e23b
00000170: b992 b13c 218e 25bb 8c1b 233d b4c1 053b
00000180: 4052 25bb 240b 10bd 4f13 30bd 995c 22bc
00000190: f691 02bc e36f 1cbc cc6b 38bc a201 2d3d
000001a0: 486d 333c 6271 963c e7e7 21bd 7318 e4bb
000001b0: 5e6f b2bc 63af 21bd c220 c3bc 6a55 9a3c
000001c0: e626 72ba a862 0c3d 14a2 3bbd b3f5 d0ba
000001d0: f03d 0ebd 7a93 f13a 349b fc3b 9664 133c
000001e0: 2679 b1bc e354 8a3c 84a6 6f3d 7bab abbb
000001f0: 5e43 b8bb cef3 0fbc a8a2 ce3c f404 e7bc
00000200: f416 c7bc 1061 87bc 607d d13a c878 343c
00000210: 61be 7abc 4a47 b7bb a25b 4a3c db64 7a3c
00000220: 7268 1ebd 5bc7 b5bc 4353 8cbc 5d75 883c
00000230: 6d2a c2bc 23bd 19bd ba8d dabb 7123 0d3c
00000240: b959 d3ba a37c 603b 2782 6ebc 3bd3 cebb
00000250: 89e9 243b 9e1e 383c 0e4b 5fbc 5fde a43a
00000260: 5d2f e5bb 1478 9bbc fb25 cdbb ff56 a7bc
00000270: 5d77 c3bb 3022 003d eb1e 38bb 8800 2bbd
00000280: bd1a 663d d2bc e838 1f90 e13c 30c2 a53c
00000290: 6960 00bc 87d9 af3c 5b45 94bb 01b4 023d
000002a0: a8e5 debc d7b5 32bd b9b7 8dbb 8c97 f9bb
000002b0: 0fb9 c03c 8c9b 723c 7bb8 48bc 429e 24bb
000002c0: 676d 15bc 5d4b cb3c 46cf 2c3c 2722 b2bb
000002d0: d15b 58b9 85c6 3fbc ec96 9a3c 339a 1fbd
000002e0: f1f1 c3bc ab6f 983c ba86 00bb 99a9 9b3c
000002f0: fd7d 133d 91c2 823c 314d f6bc 1425 9bbc
00000300: 7027 12bd ebbc 8c3c 97bc f9b9 83a3 03bd
00000310: 3205 9639 38f6 003d 25f4 f13c 3a26 04bd
00000320: b54f dfbc 24bb 603c 63ab 8ebc 692f 8fbc
00000330: a662 6bbc 09a9 5ebd ce6b e33b 212b d8bc
00000340: 8fe2 a9bc 0bb5 b7bc c25e 333b 7855 e1bc
00000350: 2407 243b 0643 2abd ac52 433c 38a8 553c
00000360: e563 20bd 0361 223d 734a f53c e426 98bc
00000370: 10b6 14bc 4708 15bd 9606 79bc cde8 9ebb
00000380: d3d8 babb 169c e6bc 5893 e43c 1b79 1f3b
00000390: 50c0 9d3b f4f7 d2bc b873 f1bc 9e21 77bc
000003a0: b1c3 533c 3c9a eb3c bf63 4e3d 83b4 4ebc
000003b0: 4cad 8cbd e69b 2138 92ba bf3a ae5c 1cbd
000003c0: e1d9 2b3c 95dc df38 dcbe 8e3c 9f91 eebc
000003d0: 4caa c53c 39ef 65bb 2751 1f3b f842 a13c
000003e0: 46ef 6c3b 9c60 1a3a de7c a9bc 358e 89bc
000003f0: 2084 b1bc 3b06 853a cdcf d0bc 1c73 c43b
0.036753647 -0.00060749316 -0.0063714706 0.011676062 -0.04202574 0.021767369 0.023381883 0.010286941
0.019729575 -0.015573673 -0.0062837773 -0.007464019 -0.0017514633 0.028796326 0.02093644 -0.01316619
-0.0004101682 -0.007814664 -0.057718564 -0.025525011 -0.0006108222 0.0078225015 0.049780615 0.016717877
0.020361103 -0.018903354 0.047586013 -0.022552263 0.0010724295 0.0012876719 0.0145815145 -0.0025241245
-0.035967883 0.008493884 -0.018555332 0.006911071 -0.004149065 -0.0058407476 -0.020586988 0.025769375
0.029927311 -0.02044664 -0.00072969915 -0.025799526 0.010646171 -0.01283077 0.0016888389 0.0019890445
-0.0017623204 -0.01129213 -0.053169955 -0.016327938 0.01094518 0.034296613 -0.019525314 0.043512225
-0.033421338 0.02012806 0.006246695 0.00615795 0.06472254 0.005027269 0.001530946 -0.008695653
-0.015484055 0.014991653 -0.041900374 0.040580455 -0.029995613 -0.0017114796 -0.04267954 -0.012508903
0.013525612 0.013447712 0.01235518 -0.03289761 -0.00065019965 0.016108027 0.017898777 0.013927715
-0.010207454 -0.022187347 0.009806077 0.014856192 0.008329948 -0.045732494 0.028272875 -0.02449741
-0.0036345192 0.024768144 -0.015903546 0.0069270767 0.021676408 -0.0025261717 0.039821193 0.0020409646
-0.0025226027 -0.035166875 -0.042987164 -0.009909772 -0.00796937 -0.00954816 -0.0112561695 0.042237885
0.010951348 0.018364612 -0.0395278 -0.0069609224 -0.02178162 -0.039473902 -0.023819331 0.018839557
-0.00092373637 0.034273773 -0.045808867 -0.0015942365 -0.034727037 0.0018430792 0.0077089313 0.0089961495
-0.021664213 0.01688618 0.05850841 -0.005238948 -0.005623265 -0.008786155 0.025224045 -0.028200604
-0.024302937 -0.016525775 0.0015982799 0.011015125 -0.015304179 -0.005593215 0.0123509485 0.015282835
-0.038673826 -0.022189787 -0.017129546 0.016657526 -0.02370187 -0.03753389 -0.006669727 0.008614407
-0.0016124762 0.0034253977 -0.014557398 -0.0063118017 0.0025163612 0.011237768 -0.013628734 0.0012578479
-0.0069941715 -0.018978156 -0.006260631 -0.020427225 -0.005965157 0.031282604 -0.00280946 -0.041748554
0.056177843 0.000110977926 0.027534543 0.020234197 -0.007835486 0.02146603 -0.0045248694 0.031909946
-0.027209118 -0.043630447 -0.00432488 -0.0076169427 0.023525743 0.014807593 -0.012251015 -0.0025118743
-0.009120322 0.02481621 0.010547465 -0.0054362 -0.0002063357 -0.011705046 0.018870793 -0.038965415
-0.023919078 0.018607935 -0.0019611553 0.019001769 0.036008824 0.015961917 -0.030066105 -0.018938579
-0.03568214 0.017179927 -0.0004763349 -0.03213836 0.000286141 0.031484812 0.029535362 -0.03226302
-0.027259687 0.013716493 -0.017415708 -0.017478662 -0.014366781 -0.054360423 0.0069403416 -0.026387753
-0.020737914 -0.022425195 0.0027369712 -0.027506575 0.002502867 -0.041567825 0.011921566 0.013040595
-0.039157767 0.0396433 0.029942727 -0.018573232 -0.00907661 -0.036384847 -0.015199324 -0.0048495294
-0.005702117 -0.0281506 0.02790229 0.002433366 0.004814185 -0.025752999 -0.029474124 -0.015083699
0.012925074 0.028760068 0.050388094 -0.01261628 -0.06868991 3.8530583e-05 0.0014627746 -0.038174324
0.010488958 0.00010674555 0.017424993 -0.029122172 0.024129055 -0.0035085215 0.0024309845 0.019685254
0.003615336 0.00058890297 -0.020689424 -0.016791442 -0.021669447 0.0010148952 -0.025489712 0.0059951674

weight f4 [8]
00000000: f6e3 893f 5aa8 843f ccda 863f 4116 863f
00000010: 97cc 813f 3966 883f 654e 843f 5cb5 873f
1.0772693 1.0363877 1.0535522 1.0475541 1.0140561 1.0656196 1.0336424 1.0602221

bias f4 [8]
00000000: 6435 fc3c ade3 203d f98f f63c bca8 293d
00000010: b0ce 053d f771 123d 8b0c 153d a037 0e3d
0.030787177 0.03927963 0.030097948 0.041420683 0.032667816 0.035753217 0.036388915 0.034721017

running_mean f4 [8]
00000000: 9885 7f3d c188 f4bd 8567 253c 3896 71be
00000010: 914d b83c 10dc 7bbe 9c21 13be f046 febd
0.062383264 -0.11940146 0.010095482 -0.2359246 0.022497924 -0.24595666 -0.1436829 -0.12415874

running_var f4 [8]
00000000: afd8 f93b ae71 c83c ff68 fb3b 3c41 023d
00000010: 11ef d63b 7cee 163d 0870 633c 720c a63c
0.0076247077 0.02446827 0.0076724286 0.031800494 0.0065592607 0.03684853 0.013881691 0.020269606

weight f4 [194, 8, 3, 3]
00000000: 74b3 ca3a 07ae 383c c47b 08bd 2851 213d
00000010: ad94 4d3b 6fd3 d7bc 179f bb3c 2025 e5bc
00000020: f796 a8bc cabc 99bc 3264 ee3a 0fc1 38bd
00000030: 3b72 c1bc 9397 c9bc d1df 35bc 5886 e439
00000040: 95f0 3ebc d9af 21bd 0ab9 e73c bf31 d7bc
00000050: a6cd c13c 04c7 f53c a773 94bc 0269 38bc
00000060: f89d 893a 6d4a 373c c770 73bc 000d ddba
00000070: c5c0 f13b 1b73 783c f4bf 663c 599c 09bd
00000080: a806 06bd 6244 a53c 5a5c 50bb 45f2 ec3c
00000090: 38a4 a63c f36d 09bd 7e79 28bc 2ac2 60bc
000000a0: fb9c a03c 59db 0f3c b6f1 a13c 23cd 68bc
000000b0: f84c 9e3b e6ff 373b 0261 58bd 50fe d13c
000000c0: 4e34 3ebd 12d8 16bd 6851 bfbc 060c 89bc
000000d0: 2dd1 413c fdf9 a4bc 9461 aa3c d415 29bd
000000e0: 4686 70bc 41da c83c 9cf5 d53b ec29 743c
000000f0: f11a 613d 8667 4ebc a082 ae3a 6317 9d3c
00000100: 7cab 05bc 669f 103b 535b 72bc 12bf 66bd
00000110: 2f0b 0bbd 78b6 ca3b b4f6 2c3c 31ee 103c
00000120: 85c0 03bd 6124 0cbd d3a8 a63a d3ee b4bb
00000130: 81f6 8d3c dd16 183b 91e1 bfbc a1f4 4ebb
00000140: 4d7a 433d 0323 bfbb 1baf c63b 942e 09bc
00000150: 1a50 853c 1590 26bd aa6e 0b3d 22c5 f33c
00000160: 4924 74ba 05b0 05bd fc86 3f3c 7d71 c7bc
00000170: 1716 693c c673 97bc b17b 873b 4d1d f83c
00000180: bffe d0bc 7182 423c 674a 9b3c 7b1e 32bd
00000190: 90c8 e73c 4b36 b33c 6f85 51bb 8935 6b3d
000001a0: e383 b63c bfd7 133c c61f 00ba 3ce2 eebb
000001b0: e2e6 efbc cf72 debc 3691 123c 643b e2bb
000001c0: b358 66bb 9f41 4ebd aada a8bc 0e9d 89bc
000001d0: c98e 963b a451 89bc 4df0 15bd f61d 6abc
000001e0: 91b9 abbc f6d1 143d 8dc7 0c3d c852 1ebd
000001f0: 7188 18bc b807 7f3c eaaa d8bc 6613 e23c
00000200: 759a 113d d399 10bd d396 df3c 1c3b 093d
00000210: fabb 713a 82f3 343c 87c6 7f3c 5c0b 2fbc
00000220: f33b 493d c7fc 28bc 0ea6 90bb 2d2e a53c
00000230: 1d3f 5c3c 8cbf ec3c 94dd 423c bbde c53c
00000240: e02b 183d 8589 f83c 028e f73c e10b f03c
00000250: ed61 523c dd2e 273c e62b 633d 0ca1 9e3c
00000260: fd3c b13a 54dc 943c 53f0 c9bc 1565 6b3c
00000270: 7483 473c d48f b03c a180 1d3b d637 c83c
00000280: a95f babc a0c9 c43b c87a 0f3d de76 3ebc
00000290: 8b8d 9f3b 7a5d 093d 720c 203b ac7d ad3c
000002a0: 2673 2b3b 34fd 80bb 81b1 3d3c da72 123d
000002b0: 7057 993c 176d e23a 3e55 f73c 6fe8 9cbb
000002c0: 4182 073d c24f 05bc 4d67 4d3c d1d4 f43c
000002d0: eb07 c73c 4403 fe3b b709 2fbc c3aa 24bc
000002e0: b2ea d4bb 077c 8abc 35ad 2dba cf1f b83c
000002f0: 4bc1 0b3d a4b4 633c 771e d03c c565 913c
00000300: 5d5a 8d3c bc9e a63c bb58 f3ba bfb0 683b
00000310: ca50 953c c8d4 c23b d7de d9bc 68b7 8eba
00000320: a70d 81bc f7fe 583c 46f3 b43b edf6 033d
00000330: af81 963b 01fd 6ebc e077 fa3c 6cb5 173d
00000340: 17db 11bb e3b3 d43c 9b81 7fbc a382 b83c
00000350: 7107 6a3b 0fe1 4d3d b3a1 b13c da25 37bb
00000360: 1deb 0fbd 8ccb c3bc 2a02 a93c dc1c e9bc
00000370: af6a debc dc4f 08bd 3fa1 d1bc 9d41 40bc
00000380: 78bb ff39 0b76 0bbd d358 1dbd fed4 18bd
00000390: 5c7b 08bc c755 4f3c 7516 94bb eb68 5abc
000003a0: 4d97 c5ba 5602 d6ba 92dd 95bc 3766 243b
000003b0: ab78 37bc e69c a93b 0d2c adba 5662 03bd
000003c0: 2c37 c1bc 75fe 35bd 6f2c 793c e5aa 23bc
000003d0: c671 ab3b 36ae 33ba 4900 8cbc 23e2 7abb
000003e0: a749 4b3a f426 08bd c246 cb3b 7bc3 ffbc
000003f0: 4a41 c7bc 8c08 f3bc 49f6 bbbc 5430 52bd
0.0015464858 0.01127196 -0.033321157 0.039384037 0.0031369135 -0.026345937 0.022903008 -0.027971804
-0.020579798 -0.01876678 0.001818782 -0.04510599 -0.02361404 -0.024608409 -0.011100725 0.00043587643
-0.011654039 -0.039474342 0.028286476 -0.026268838 0.023657631 0.030002125 -0.018121554 -0.011255505
0.0010499349 0.011187178 -0.014858431 -0.0016864836 0.0073777162 0.015164162 0.014083851 -0.03359637
-0.03272119 0.020174209 -0.0031793327 0.028924117 0.020341977 -0.03355212 -0.010282872 -0.013718167
0.019606104 0.008780324 0.019768577 -0.014209065 0.0048309527 0.0028076111 -0.05282689 0.025633961
-0.0464366 -0.036827154 -0.023354247 -0.016729366 0.011829657 -0.020138735 0.020798482 -0.041280583
-0.014680451 0.024518134 0.006529523 0.014902573 0.054957334 -0.012597924 0.0013314076 0.01917619
-0.008158561 0.0022067665 -0.014792281 -0.056334563 -0.033946212 0.0061863028 0.0105568655 0.008845852
-0.032166023 -0.03421438 0.0012715108 -0.005521634 0.017329456 0.0023206987 -0.023422988 -0.0031578916
0.047724057 -0.005833031 0.0060633547 -0.0083729215 0.016273547 -0.04066475 0.034041084 0.029757086
-0.0009313268 -0.03263857 0.011689898 -0.024346108 0.014226458 -0.018487822 0.004134618 0.03028741
-0.025512097 0.01187192 0.018956376 -0.0434861 0.028293878 0.021876475 -0.0031970402 0.057424102
0.022279685 0.009023606 -0.0004887547 -0.007290153 -0.029284898 -0.027154354 0.008945754 -0.0069040526
-0.0035148084 -0.05035555 -0.02061208 -0.016798522 0.004594658 -0.016762562 -0.03660612 -0.01428937
-0.020962508 0.036333047 0.034369994 -0.038653165 -0.009309874 0.015565805 -0.026448686 0.02759714
0.035547692 -0.03530295 0.027293598 0.033503637 0.0009221431 0.011044385 0.015611297 -0.010683861
0.049129438 -0.010314173 -0.0044143265 0.02016362 0.013442782 0.02889993 0.011893649 0.024154058
0.037151217 0.030339012 0.030219082 0.02930254 0.01284073 0.010204044 0.055461787 0.019363903
0.0013522204 0.018171467 -0.024650728 0.014367362 0.012177337 0.021552958 0.0024032968 0.024440687
-0.022750692 0.006005481 0.035029203 -0.01162502 0.004869168 0.03353641 0.002442148 0.02117809
0.0026161163 -0.003936434 0.011577965 0.035754062 0.018718451 0.0017274943 0.030192014 -0.0047884504
0.033083204 -0.0081366915 0.012536836 0.029886635 0.024295768 0.007751854 -0.010683469 -0.010050478
-0.0064977044 -0.016904844 -0.0006625236 0.022476105 0.034119885 0.013898049 0.025405152 0.017748723
0.017255003 0.020339362 -0.0018565872 0.003550574 0.018227 0.0059457757 -0.026595516 -0.00108884
-0.01575358 0.013244382 0.0055221645 0.03221791 0.004593096 -0.014586688 0.030574739 0.03703825
-0.0022255832 0.025964683 -0.015594865 0.02252323 0.0035710002 0.05026346 0.02168355 -0.0027946145
-0.03513633 -0.02390077 0.020630915 -0.028456144 -0.02715048 -0.033279285 -0.025589583 -0.011734393
0.00048777065 -0.03404812 -0.038414788 -0.0373125 -0.008330192 0.012654728 -0.0045192786 -0.013330678
-0.0015074998 -0.00163276 -0.01829413 0.002508534 -0.011198203 0.0051761745 -0.0013211981 -0.032076202
-0.023585878 -0.044432122 0.015208348 -0.009989475 0.0052320687 -0.00068542676 -0.01708998 -0.003828176
0.00077548105 -0.033240274 0.0062035033 -0.031221142 -0.024323124 -0.029667161 -0.022944586 -0.05131562

bias f4 [194]
00000000: 834c adbb 8b24 d63d c3f4 5cbd 5761 763d
00000010: 65fb 8bbc 7ee0 01be 9264 c5bd 7472 c73d
00000020: eeb7 d0bd 7ebe 88bd da06 8abd f3c7 efbd
00000030: d5df 5f3d 29f1 d03d 9dfe 88bc 5af0 d9bc
00000040: 50b4 a63b 1c89 a5ba 0381 9ebb 9e18 3abd
00000050: 53d8 09bd 6761 d0bc e5b2 983c 14c8 a2bd
00000060: fa5c 1fbd 0e4d b13d 7ee0 f13d eb7e e8bd
00000070: a83a 5ebd 4f2f 7fbc 1fca 9d3d 284c 613d
00000080: 8d6c 1fbd 1483 7bbd a322 403b 65fc d5bd
00000090: 4af6 e33c a8ef e13d ee37 73bd b4e0 983d
000000a0: 498d eebc f280 c83d 6f50 8f3d c15b 863d
000000b0: 43d8 113d 926d 973d b769 103d a918 ad3d
000000c0: 55e5 db3d 61f8 183d af72 b73d 1e9f 43bd
000000d0: 2132 afbd 2474 f03d cdce b53d 66c3 b23d
000000e0: 5a53 643c a43c 843d b8e3 6abd fcc9 8dbd
000000f0: 984e 17bb 7d69 b73d 8f01 debc b8fa acbd
00000100: 2a68 e03d 6e37 96bc e3be 88bc e077 be3d
00000110: 9846 083c 90dc adbd bf89 5e3d d449 5dbd
00000120: 9c8c b83d 410e 823d b800 7b3d be45 303d
00000130: c0e5 c63d 45d0 f9bc 5045 303c e9f3 bebd
00000140: 5b88 19bb de29 d7bd d317 5abc 195e a5bd
00000150: a1c2 96bc c689 95bd 002f 873d d838 3ebd
00000160: b364 b23c a851 cc3d 920e 013e 0a97 f73c
00000170: bbc2 923d 6861 a23d f06a 5f3c e784 97bd
00000180: 2d28 513d 3bf0 4d3d 0adf 47bd 8bda 013c
00000190: 2fbb c0bd 272e 9f3d 447e 3e3d cf2a 91bd
000001a0: c9ec e03d ea91 163d d466 1fbd de38 1abc
000001b0: 5795 4e3d a214 c03d e8b5 b83d 66ef d0bd
000001c0: ad83 c13d eb84 02bc 3177 693b 001c 34bd
000001d0: 07f0 edbd 3d60 003d ab67 f13c 7f46 9abd
000001e0: d139 15bd 240a d4bd 898a 94bd 9d7e dcbd
000001f0: 043e 65bc 1dd6 2a3d 17a9 92bd ed3a 02be
00000200: d8ed 4dbb a688 3e3c 4a7d aebd c50a 84bd
00000210: 7386 8cbb 7354 04be cd04 ffbb dff9 79bd
00000220: e918 c6bd 9eee 17bd c5ca 70bd 08bf 343c
00000230: 4954 e1bb 0a53 ae3d 900b 99bc a350 c23b
00000240: 4984 92bc 146f f1bd 774a 363d 1a04 be3d
00000250: 0031 8abd 22c3 453d bb5a c93d 08ec 1a3c
00000260: 3617 8dbd b38d c4bd 0e46 f13d 9f09 d53c
00000270: cbdf 7e3d ecdb 743d 55e9 96bd e95f ab3c
00000280: c84c 85ba 80a4 b7bd e366 083e 3702 bc3d
00000290: 64b5 a93c a564 fcbb a9b6 f33d 5837 febd
000002a0: 05f8 103c 5151 543d a470 debd 17a6 52bb
000002b0: d002 8fbd c36f bd3d 41b4 913d 6531 b53d
000002c0: 1424 ccbb d7aa c1bd d4bd abbd bb03 94bd
000002d0: d334 eeba 722d b43d 5cdb 60bd 7ca9 b83d
000002e0: fbba bb3d 303f 543d 186b 733d 9d49 dabd
000002f0: 277a da3c 9b32 cdbd 1586 833d b860 1b3b
00000300: e119 633d 637c 323d
-0.005288662 0.10456189 -0.05394436 0.060151424 -0.017087648 -0.12683293 -0.09638323 0.09738627
-0.10191332 -0.066769585 -0.06739588 -0.11708059 0.054656822 0.10202248 -0.016722972 -0.026603866
0.005087413 -0.0012629363 -0.0048371567 -0.045433633 -0.03365357 -0.02543707 0.018639991 -0.07948318
-0.03890703 0.08657275 0.118103966 -0.11352333 -0.054255158 -0.015575244 0.07704567 0.05500427
-0.03892188 -0.061404303 0.002931752 -0.10448531 0.0278274 0.11032039 -0.05937951 0.07464734
-0.029120104 0.09790219 0.06997763 0.065604694 0.035606634 0.07393946 0.035257068 0.08451969
0.10737101 0.037346248 0.08957421 -0.047759168 -0.08554483 0.11740902 0.08877335 0.087286755
0.013935888 0.06456879 -0.057346076 -0.06923291 -0.0023087617 0.08955667 -0.027100353 -0.08446258
0.10957368 -0.018336978 -0.016692584 0.09300208 0.008317612 -0.084893346 0.054330584 -0.054025486
0.09011194 0.06350375 0.061279982 0.04303526 0.0971179 -0.030494818 0.010758713 -0.09323866
-0.0023427221 -0.105060324 -0.013311344 -0.08074588 -0.018403353 -0.07301669 0.066007614 -0.04644093
0.021776533 0.09976512 0.12603214 0.030223388 0.07166048 0.07928735 0.013636336 -0.07398396
0.051063705 0.05027793 -0.04879669 0.00792564 -0.094107024 0.07772475 0.046507135 -0.07088243
0.10982663 0.03676025 -0.038916424 -0.009412972 0.05043539 0.093789354 0.09019071 -0.10201912
0.09448943 -0.00796626 0.0035624022 -0.043972015 -0.11618047 0.03134178 0.029468378 -0.07532977
-0.03643209 -0.10353497 -0.07252986 -0.10766337 -0.013991836 0.0417081 -0.071611576 -0.12717791
-0.0031422284 0.011629259 -0.08519991 -0.064473666 -0.0042884885 -0.1292284 -0.0077825547 -0.06102931
-0.0967272 -0.037092797 -0.058787126 0.0110318735 -0.0068765027 0.08511932 -0.018682271 0.005930023
-0.017885344 -0.117887646 0.04450461 0.09278126 -0.06747627 0.048281796 0.098317586 0.009455688
-0.06889193 -0.095973395 0.1178094 0.026005564 0.062225144 0.059780046 -0.07368723 0.020919757
-0.0010169977 -0.08966923 0.13320498 0.0918011 0.020716377 -0.0077024275 0.11900074 -0.124129
0.008848195 0.051835362 -0.10861328 -0.0032142454 -0.06982958 0.092498325 0.07114459 0.08847312
-0.006229887 -0.09456413 -0.08385816 -0.07227274 -0.0018173702 0.087977305 -0.054896697 0.090167016
0.09166523 0.051818073 0.059428304 -0.10658572 0.026669575 -0.10019418 0.064220585 0.0023708772
0.055444602 0.043575656
