loggers/h256_w256_bs20_in_channel1_epo100_lr0.0003/0516_1552/models/BasicModel_37.pth (torch, 68751 bytes, 17 tensors)

weight f4 [2, 1, 3, 3]
00000000: 034b 213c ac85 22bc 3ed5 bfbb 3991 393c
00000010: bbc2 62bc 2948 43bc 5057 a9b9 fa54 89bc
00000020: 0188 13bb 92f6 69bc 11e0 0dbc 54de b0ba
00000030: fc04 603c 52be ea3c 02af 693c e6f6 48bd
00000040: df97 05bd f7d2 4d3c
0.009844544 -0.009919565 -0.005854278 0.011326128 -0.013840373 -0.01191906 -0.00032299245 -0.016764153
-0.0022511485 -0.014279978 -0.008659379 -0.0013493993 0.013673063 0.028655205 0.0142629165 -0.049063586
-0.03261554 0.012562505

weight f4 [2]
00000000: d0c3 7d3f 7abb 773f
0.9912691 0.9677044

bias f4 [2]
00000000: caf6 f0b9 23d5 eb3c
-0.0004596024 0.028788155

running_mean f4 [2]
00000000: f7cd 0dbf 482b 07bf
-0.553924 -0.52800417

running_var f4 [2]
00000000: bac5 963e 0688 3e3f
0.29447728 0.74426305

weight f4 [4, 2, 3, 3]
00000000: 2673 5d3c e77f c63b d667 183d 023d 093b
00000010: 1a6b c8bc cc6c 9dbb 973b 7cbc feee c4b8
00000020: 7b9b dc3c 12a7 c53b 0f44 0d3c 92e7 143c
00000030: e8ad 96bc 08ed ac3c f8f6 b73c 49ea c53c
00000040: 2580 593c 98c6 dfbc 8a3b b73c 9133 edbc
00000050: 5649 abbc 10a2 3d3c da8d 36bc da93 2bbd
00000060: 9a32 a6ba 2b9a 3bbb 9aa3 853c 7358 1b3d
00000070: 0680 293b bd75 e6bc e77e b6bc b828 3f3c
00000080: 12c7 a4bb 54be 90bb 27e6 343c e087 023b
00000090: aa4f e53b 7459 553d ea4c c2bb 3e7a ec3c
000000a0: 9623 183d feaa 0ebd d9bc 1f3c 1998 a03c
000000b0: 88fc 483d 757b d5bb e06a 1abc 8ea5 973c
000000c0: 1c68 8e3c e8ee cebc 214f 9f3b c278 683c
000000d0: 6224 e33b b0a5 67bc f872 d9bc e598 2fbc
000000e0: bb6e 59bc 88ff 91bc 8272 903b 6a45 153c
000000f0: 8f0c 42bc fdbe ad3c b8f5 293d 00ca 62bc
00000100: 1837 87bb eb00 173d 13a6 463c 4379 10bc
00000110: b473 3bbc 1ff0 bb3c 747c 2dbc 4f85 073c
0.013516223 0.0060577276 0.0372084 0.0020940905 -0.024465133 -0.0048042294 -0.015395067 -9.390524e-05
0.026929608 0.006031879 0.008622183 0.009088414 -0.018393472 0.021109119 0.022456631 0.024159567
0.013275181 -0.027316377 0.022367258 -0.028955253 -0.020908993 0.011574283 -0.0111422185 -0.04188905
-0.0012679875 -0.0028625827 0.016313363 0.03792615 0.0025863661 -0.028132314 -0.022277309 0.011667423
-0.005028614 -0.00441722 0.011041201 0.0019917414 0.006998022 0.052087262 -0.005929579 0.028866883
0.037143312 -0.03483104 0.009749615 0.019603776 0.049068958 -0.0065149614 -0.009424895 0.01851156
0.017383628 -0.025260404 0.004861728 0.014188947 0.0069318274 -0.014138624 -0.02654408 -0.010717605
-0.013271029 -0.017822042 0.0044081816 0.009110788 -0.0118438145 0.021209234 0.0414941 -0.013842106
-0.0041264407 0.03686611 0.012124556 -0.008817974 -0.01144116 0.022941647 -0.010588754 0.008271529

weight f4 [4]
00000000: e150 813f 7457 813f 9d25 7f3f 0469 7a3f
1.0102807 1.0104814 0.9966677 0.9781649

bias f4 [4]
00000000: 8c08 463d 1361 e43c abb2 e53c 3aea bb3d
0.048347995 0.02787832 0.028039297 0.091755345

running_mean f4 [4]
00000000: 8e5b 9c3d dc21 02bd 089c db3d 03c3 dc3c
0.0763465 -0.031770572 0.1072312 0.026948458

running_var f4 [4]
00000000: 690d f03a 3083 aa3a 1278 913b 71c5 7f3a
0.0018314543 0.0013009068 0.0044393623 0.0009756899

weight f4 [8, 4, 3, 3]
00000000: 21cd 1a3d 78ff 113a 30c6 19bc 4442 813c
00000010: f3a2 2bbd ed38 943c 483a bf3c eff2 10bb
00000020: e5ea ac3c a6ca 3cbc b23d 3bbb 943c 3cbb
00000030: 9152 e4bb 33db 033d 573c ba3c 7b07 e3bb
00000040: 506a 633c 3e49 91bc 1ff7 8bbd fb21 c8bc
00000050: af75 b63b 1ba4 9d3b 3c27 7f3d 423e 963a
00000060: f224 543c 7ea4 8cbc 953f 333d 782b 9cbc
00000070: 0fb0 fbba 456f 8d3b 9954 013c f704 eebb
00000080: 9857 11bd 814d 103b c6b5 3abc ddb1 b73b
00000090: eaee 2abc 9fe3 913b e9fc acbc d654 e13c
000000a0: e719 093d 6d3d babc 2bb6 c5ba 5872 e7bc
000000b0: efb7 523c 26ec 30bb 49c0 973b b53b c23b
000000c0: 3a77 da3a 4bda cebb 2aa5 01bd d58a f4bb
000000d0: f03a bf3b 964a f63c 2840 61bc a9c6 2b3d
000000e0: 052e 07bd 829b e33c 0339 743a 18b1 073c
000000f0: 2cb5 943d da4c f4bb cc3a 13bc dc00 a1bc
00000100: 915d a8bc 338e f53c a2bd 43bd c084 173d
00000110: f88d 8bbc dc32 64ba ba76 2ebd 7c5a 57bc
00000120: b23c 5f3c 1643 333c e0b4 113c b878 05bd
00000130: b762 843a d615 383c 29e9 7a3c d1da 1a3c
00000140: e4e0 c9bb 2b2a eebc 09b2 153c 01f6 9c3c
00000150: 3c8f 6c3c 8bdf 68bd 12c6 043d fc00 d1bc
00000160: 92d5 c63b 40b5 c53c ede5 a3bb a144 503a
00000170: a7ac e63c 480c 22bb 2175 063d d2a2 0b3c
00000180: 0474 8bbb 8092 25bd 4247 04bd b19a d4b9
00000190: 5aac 29bc fa9b 72bc 037c 98bb 1dc8 1c3d
000001a0: 56bb 583c 4638 b03c 981b 22bd d471 1fbc
000001b0: 69b1 49bc 0267 1ebd dd75 e8bc 811d c83c
000001c0: 6b01 4dbb 2bc0 123d 5bf7 13bd 0174 8abb
000001d0: 6c70 2bbd 8689 dabb 34cd a73b 7fdd 703a
000001e0: 759e b4bc 8da4 923c 19b7 843d 5e10 00bc
000001f0: c453 f2bb c162 83bb 19b6 fa3c 58c4 98bc
00000200: 3463 20bc 1cf6 e7bb 6c1f 093a 2986 783c
00000210: 78e0 8bbc 67d8 d3bb 5d58 5b3b 4790 853c
00000220: 769c f6bc e1fe d6bc ab65 f9bb c043 a43c
00000230: 8ce7 e2bc 7b09 1fbd 46c8 0abc 89e8 063b
00000240: 5cae cf3a 2684 cd3a 4d62 2bbc 8fbb dbbb
00000250: aea4 49ba e47d 833c ca62 18bc 4610 c8bb
00000260: b7ac 11bc cf74 18bc c340 94bc 5bb3 89bc
00000270: e80b 29bc 4a36 ef3c 2c65 92bb da94 51bd
00000280: 8e16 893d 1e53 35bb d256 9e3c e86b 843c
00000290: 0fda 2cbc 03c9 393c 0746 c3b9 1c71 113d
000002a0: b0b2 a1bc 1e4f 24bd a48f d23b 1354 c1ba
000002b0: b166 7a3c 1c81 163c 11bf 82bb 8022 93bb
000002c0: eaed 14bc e7df b63c 5b5a 813c 2bed 92bb
000002d0: 3120 2b3c 8621 e43b dd7d 953c f94c 6cbc
000002e0: 0ba4 cbbc 0da2 643c b5cb 133c 72da 7f3c
000002f0: a53e 1c3d b221 5c3c 4aab e5bc 4872 b7bc
00000300: 95ed 33bd cba2 943c 5353 ccba adad 20bd
00000310: 469f 6e3b 2737 cf3c 720e a33c b122 1abd
00000320: 7547 12bd b5de 6b3c e0ab 00bd 6da0 30bc
00000330: 8997 d4bc 097d 6ebd aa7c 683c 6167 bbbc
00000340: f1c6 a1bb 2585 ccbc 5d4d 9fbb e996 0cbd
00000350: e4f9 ff3b 65e9 15bd 5d44 8c3c ea92 103b
00000360: 364c 0fbd c15a 133d ba38 3a3d 8d52 9bbc
00000370: 9246 48bc 6cbe 28bd 23d5 5bbc 9c4a 193b
00000380: 063a b7bb 9ae4 f5bc 3263 c53c d6d0 023c
00000390: c6d2 293b 9344 aabc 1495 01bd f9d4 8bbc
000003a0: 4686 983c 6c42 dc3c 8e31 513d b657 78bc
000003b0: 6f64 91bd 2eaa 223b 4f07 e43b d17a edbc
000003c0: c312 1f3c fe13 09bc 853e b93c 861f e2bc
000003d0: a8e8 d73c 26b1 85bb bee6 ba3b dfb8 6a3c
000003e0: 76d7 9f3a 64e8 913b c4fc b7bc bcfb 34bc
000003f0: 4f80 abbc ff4e 3b3b 3457 babc 7486 813c
0.037793282 0.0005569379 -0.0093856305 0.015778668 -0.041903447 0.01809355 0.02334322 -0.0022117456
0.0211081 -0.0115229245 -0.0028570709 -0.002872263 -0.0069678505 0.032191467 0.02273385 -0.006928382
0.013880327 -0.01773512 -0.06834244 -0.024430266 0.005568228 0.0048108227 0.062293276 0.0011462646
0.012948262 -0.01716828 0.04376181 -0.019063696 -0.001920225 0.004316243 0.007893705 -0.0072637754
-0.035483927 0.0022018852 -0.011395877 0.0056059198 -0.010432938 0.0044521834 -0.02111669 0.027506273
0.033471968 -0.022734368 -0.0015084198 -0.028252766 0.012861236 -0.0026996224 0.0046310765 0.005927528
0.0016667612 -0.0063126436 -0.031651653 -0.007462839 0.0058358833 0.030064862 -0.013748206 0.041937504
-0.033002872 0.027784113 0.0009316357 0.0082819685 0.07261118 -0.0074554505 -0.008986186 -0.01965373
-0.020552428 0.029975032 -0.04778827 0.036991835 -0.01703547 -0.00087050884 -0.042593695 -0.013144132
0.013625311 0.0109412875 0.008893222 -0.03258583 0.001010022 0.011235675 0.015314379 0.009451584
-0.0061608423 -0.029072842 0.009136685 0.019160273 0.014438447 -0.056853812 0.032415457 -0.025513165
0.00606794 0.024134278 -0.0050017745 0.0007944797 0.028158499 -0.0024726558 0.032826547 0.008522706
-0.0042557735 -0.040422916 -0.03229452 -0.00040551045 -0.010356033 -0.0148076955 -0.004653455 0.03827678
0.013228258 0.021511208 -0.039577097 -0.009731729 -0.012310364 -0.038672455 -0.028376514 0.024428131
-0.0031281363 0.035827797 -0.03612457 -0.0042252545 -0.04185526 -0.006669226 0.0051208977 0.0009188279
-0.022048214 0.01790073 0.064802356 -0.007816402 -0.0073952395 -0.004009575 0.030604409 -0.018648311
-0.009789277 -0.007078899 0.00052308175 0.015168705 -0.017074808 -0.006465006 0.0033469417 0.016304148
-0.030103903 -0.026244583 -0.0076109967 0.020051837 -0.0276983 -0.0388274 -0.0084706005 0.002058538
0.001584481 0.0015679642 -0.010460448 -0.0067057083 -0.00076920807 0.01605124 -0.009300897 -0.0061054556
-0.008891276 -0.009305193 -0.018097287 -0.016809156 -0.01031778 0.029200692 -0.004467627 -0.051167347
0.06693755 -0.002766795 0.019328509 0.016164735 -0.010550036 0.011339429 -0.00037245473 0.03550826
-0.019738525 -0.040114515 0.0064258147 -0.0014749788 0.015283273 0.0091860555 -0.003990062 -0.0044901967
-0.009089926 0.022323562 0.015790155 -0.004483839 0.010444687 0.006962004 0.018248493 -0.014422649
-0.024858495 0.013954652 0.0090207355 0.015616046 0.03814568 0.013435768 -0.028035779 -0.02239336
-0.043927748 0.018144032 -0.0015588797 -0.03922813 0.0036410852 0.025294853 0.019904349 -0.03763074
-0.035712678 0.014396359 -0.031413913 -0.010780436 -0.025951164 -0.05822471 0.0141898785 -0.022876443
-0.0049370457 -0.024965832 -0.0048615173 -0.034323607 0.0078117717 -0.036599535 0.017122442 0.0022060224
-0.03498479 0.03597522 0.045464255 -0.018960262 -0.0122238565 -0.041197225 -0.013417515 0.0023390418
-0.0055916337 -0.030016232 0.024095152 0.007984361 0.0025912984 -0.020784652 -0.031636313 -0.017069327
0.018618714 0.026887141 0.05107265 -0.015157631 -0.07099234 0.0024820673 0.006958879 -0.028989227
0.009709063 -0.008366583 0.02261282 -0.027602922 0.026356056 -0.0040799556 0.005703776 0.014326303
0.001219495 0.004452752 -0.022459395 -0.011046346 -0.020935206 0.002858102 -0.02274666 0.015811183

weight f4 [8]
00000000: 7507 913f 76b0 883f fc0c 8e3f 5d57 8b3f
00000010: 8036 893f 07ce 903f 6a14 8d3f 1fb4 8b3f
1.1330401 1.0678852 1.1097713 1.0886036 1.0719757 1.1312875 1.1021855 1.0914344

bias f4 [8]
00000000: 1033 233d f4b2 263d 7221 1c3d eae2 5e3d
00000010: 0f81 3e3d 2399 3c3d dd4e 0a3d 6a90 103d
0.03984362 0.040698007 0.038117833 0.05441562 0.0465098 0.04604448 0.033766616 0.035293974

running_mean f4 [8]
00000000: 9b17 333d 9dad 76bd 6ea5 5f3c f9c3 50be
00000010: f6e3 d33c c658 67be 4a41 d2bd 17d2 cdbd
0.043723684 -0.060224164 0.013650281 -0.20387258 0.025865536 -0.22592458 -0.10266359 -0.10049837

running_var f4 [8]
00000000: 7cae b03b 57df 4d3c 246c cb3b 06cd cb3c
00000010: 4fb0 cf3b caf6 c93c a433 3c3c d88f 4c3c
0.005391894 0.012565455 0.0062079597 0.024878036 0.0063381563 0.024653811 0.011486921 0.012485467

weight f4 [194, 8, 3, 3]
00000000: 66a5 cd3b c5d7 c23c 9a2d f1bc d7d6 053d
00000010: 60fc f2bb fe8e febc 2b4b ec3c 0ada afbc
00000020: 8f9f c3bc 5362 b6bc 9b7d 6b3b 1f52 0fbd
00000030: bdf7 8fbc 46f7 53bc b8c9 18bb 5957 9fbc
00000040: bd70 7dbc f819 10bd 5767 193d 664b b3bc
00000050: 0a2e 073d 56c7 e43c 0cd4 a8bc 0194 15bc
00000060: 615b 9c3b cb7d 743c cc69 36bc 4f87 ac3b
00000070: c004 2a3c 33e6 8f3c 38fc a23c a74d 11bd
00000080: 830e b2bc 8d6e 913c 6246 89bb 1f93 063d
00000090: 3832 003d 9728 b9bc 5fc6 37bc 6826 4ebc
000000a0: e8f5 203c bab7 333c 8ce4 c53c dd2b 73bb
000000b0: 3b50 323c 2004 6b3c a3ff 7bbd ac43 983c
000000c0: 04e3 3dbd 7f53 37bd 69e0 33bd a447 34bc
000000d0: e179 373c 6e72 b8bc c8e5 bb3c 2c2b 7bbd
000000e0: f1d0 c4bc b40f a73c 3675 aabc 050b 653c
000000f0: 5116 673d 5034 21bc 790c a63b 6d0d bd3c
00000100: d719 65bb 9d8b 833b 2b0e 02bd 1e78 87bd
00000110: 1699 1dbd 0a2e 823b 1b6a 6abb 66a4 cb3b
00000120: 601d 17bd 7f63 3fbd 7adb 2abb 5c2f 9b3a
00000130: 8e65 e43c 6707 e73b 888d f0bc ab49 1ebc
00000140: 64fc 503d 43ef 18bb dc82 8c3b 2f69 97bc
00000150: 5daf 273c da55 56bd b200 cf3c 6153 4b3d
00000160: 7e11 3d3b 923c 17bd 3440 253b f34f ebbc
00000170: 36d6 9f3b 2575 86bc 8003 d93b 74b0 e63c
00000180: 8179 efbc 8b48 053c ca8c 793c fd94 4ebd
00000190: 402e cf3c 7a81 9f3c 369d 13bc 32e3 723d
000001a0: b40f 393c f479 3b3c f0c5 083a e7e2 37bc
000001b0: 06d3 24bd 690e 1cbd 7ede 213c 62b5 03bc
000001c0: 7254 cd3b e935 57bd 68cd ccbc 929a dfbc
000001d0: ae27 bfba 26d2 e7bc e996 e4bc 0658 edbb
000001e0: ce52 acbc 744d 353d 2efe 603d 1dc3 35bd
000001f0: 6232 0ebc 32fd 923c 222e eabc 9920 433d
00000200: 01df 373d a767 ffbc fdc0 5f3d 91fd 0c3d
00000210: 99e9 0dba cec0 073c 7b8a 423c 5afa 6ebc
00000220: 521f 363d c897 46bc ee92 4d3c dd98 f53c
00000230: 8a40 933c d9d9 fe3c 6831 d53c e464 db3c
00000240: bd6b 4c3d 2206 233d 050f 263d 3003 353d
00000250: ba41 853c 32fa e13a 2e5d a23d 9e45 8a3c
00000260: 02dc f7bb 9acd 8e3c d3bf babc 70c1 b53c
00000270: 8512 b13c 3025 d33c 1d07 2c3c 7a43 df3c
00000280: 7b89 a3bc a207 013c c727 143d 4c06 b3bc
00000290: cffe 833b 76e1 223d 1534 d83a c5c8 8a3c
000002a0: f328 4f3c 4582 8d3b 0ac6 643c a49e 263d
000002b0: 7220 e83b 0277 2bbc 8d13 e13c 6036 90bc
000002c0: 8fc1 a53c 4934 78bc 1382 8ebb 3f41 7b3c
000002d0: 6dc7 313d 245b e03c 4db4 61bc da8b e1ba
000002e0: 190a 0bbc 3ff4 c5bc 4297 f43b 61e1 093d
000002f0: 3b2e a23c 4038 bc3c 4ad1 9f3c dbe5 863c
00000300: d4ca 903c 10b6 bd3b 401f 8cbc 2573 663b
00000310: 53b5 5d3c 1103 18bc cd10 d9bc afb9 4bbc
00000320: b03e 1bbc 6037 2e3b a3bf babc cee5 f73c
00000330: 4cc3 12bc 362b 0cbd 7672 8a3c 8040 1a3d
00000340: 9575 14bb 0fd6 d63c 9582 bdbc 3bb2 673c
00000350: fb47 c1bb 1737 583d 12a8 873c 3177 03bb
00000360: 2b2b 44bd a9a7 08bd d2d1 283c d48b 31bd
00000370: b678 fabc 4a23 cbbc 1b63 4abd f18d 17bc
00000380: c512 1a3c 4a6c 08bd c9e9 24bd 90d9 38bd
00000390: d88f 91bc e318 0a3c f9b0 4ebc fa43 84bc
000003a0: eea4 8cbb 8d96 65bb 673c 9fbc c1b4 503c
000003b0: 83ad 29bc 9983 8aba 2896 0aba bb0d e4bc
000003c0: c0ac 09bd dfc9 57bd 430e 523c b863 74bc
000003d0: ea23 8a3c 1b89 3c3c 4383 6bbc 8d46 133c
000003e0: 0a24 5f3c 48d2 d6bc 5d1f bd3c e98e 88bc
000003f0: 1ce4 31bd 9bee 49bd 4897 a2bc c548 74bd
0.0062758205 0.023784528 -0.02944069 0.03267559 -0.0074153394 -0.031074043 0.028844437 -0.021466274
-0.023879794 -0.022263682 0.003593302 -0.034990426 -0.017574186 -0.012937373 -0.0023313593 -0.01945083
-0.015468773 -0.035181016 0.03745207 -0.021886539 0.03300289 0.027927082 -0.020608924 -0.009129525
0.0047716354 0.0149225695 -0.011133622 0.0052651535 0.010377109 0.017565822 0.019895658 -0.035474446
-0.021735435 0.01775291 -0.0041892985 0.03285515 0.031297892 -0.022602363 -0.011216729 -0.012582399
0.009824254 0.010969097 0.024156831 -0.0037105002 0.010883386 0.014344245 -0.06152309 0.018586956
-0.046359077 -0.044757362 -0.043915186 -0.011003409 0.011198492 -0.022515502 0.022936717 -0.06132047
-0.024025412 0.02039323 -0.020807844 0.013979678 0.056417767 -0.009839132 0.005067405 0.023077691
-0.0034958029 0.004014446 -0.031751793 -0.066147074 -0.038476072 0.0039727734 -0.003576881 0.006214666
-0.03689325 -0.046725746 -0.002607076 0.0011839676 0.027880456 0.007050443 -0.029364362 -0.0096611185
0.05102195 -0.002333597 0.0042880606 -0.018482773 0.010234681 -0.05232797 0.025268886 0.049640063
0.0028849537 -0.036923 0.002521527 -0.028724646 0.004877831 -0.01641328 0.0066227317 0.028160311
-0.029232742 0.008134971 0.015231321 -0.050435055 0.025290608 0.019470919 -0.00900965 0.0592987
0.011295248 0.01144265 0.0005217483 -0.011223531 -0.04024031 -0.03809968 0.009879706 -0.0080388505
0.00626617 -0.052541647 -0.02500029 -0.027295385 -0.0014583969 -0.028298449 -0.02790399 -0.007243159
-0.021035578 0.04426332 0.054929905 -0.044375528 -0.008679004 0.017942999 -0.028586451 0.04763851
0.044890407 -0.031177355 0.054627407 0.034421507 -0.0005413532 0.008285714 0.011873837 -0.014586056
0.044463463 -0.012121148 0.012547238 0.029980117 0.01797511 0.031109737 0.026024535 0.026781507
0.049907435 0.03980077 0.040541667 0.044192493 0.016266692 0.0017240702 0.07927929 0.0168789
-0.007564069 0.017432023 -0.022796547 0.022186965 0.021615276 0.025774568 0.010499743 0.027253855
-0.019963017 0.007875355 0.036170747 -0.021853589 0.0040281783 0.039765798 0.0016495014 0.016941437
0.01264404 0.004318508 0.013963232 0.040678635 0.007083946 -0.010465385 0.027475143 -0.017604053
0.020233897 -0.0151491845 -0.004349002 0.01533538 0.043403078 0.02738721 -0.013775897 -0.0017207817
-0.008486294 -0.024164317 0.0074643204 0.033662204 0.019797435 0.02297604 0.019508976 0.016467026
0.017674841 0.005789526 -0.017104745 0.0035163846 0.013532001 -0.009278075 -0.026497269 -0.012434407
-0.009475395 0.00265833 -0.022796458 0.030260947 -0.008957695 -0.034220897 0.016900282 0.03765917
-0.0022653092 0.026225118 -0.023133555 0.014141615 -0.0058984733 0.052786913 0.016559634 -0.0020060057
-0.04789273 -0.03336302 0.010303931 -0.04334624 -0.030575138 -0.0247971 -0.04941092 -0.00925015
0.009403889 -0.033306397 -0.040262017 -0.04512936 -0.017768785 0.008428785 -0.012615436 -0.016145695
-0.004292122 -0.0035032362 -0.019437982 0.012738408 -0.01035631 -0.0010567784 -0.0005286657 -0.027838578
-0.033612013 -0.052682754 0.012820783 -0.014916353 0.016862828 0.011507298 -0.014374557 0.008988989
0.013619432 -0.026223317 0.023086244 -0.016669707 -0.043430433 -0.049299818 -0.019847527 -0.05963971

bias f4 [194]
00000000: 4926 c0b9 5f0a cc3d 6536 59bd 09a2 723d
00000010: 42dd 8ebc 127d 01be 3b3b c6bd 0649 c83d
00000020: 611b dabd 9b9c 7ebd 8bea 84bd e0d1 f4bd
00000030: 9d82 603d cb91 d03d 7884 aabc 8860 b8bc
00000040: cb78 823b e85d 25b9 0290 f9bb 1db0 2ebd
00000050: 521f febc 8ce4 e5bc ec14 c43c ee9b adbd
00000060: a419 10bd 1fa8 a93d 4869 f73d 2e08 eebd
00000070: 342f 61bd 6736 73bc 1e13 a33d 02a8 563d
00000080: f95b 1cbd 9d81 7ebd 178b ed3b 3ecb debd
00000090: 7fed ef3c cde7 de3d 46f3 67bd 083d 933d
000000a0: 9e32 e8bc 13e5 c63d 9c13 933d 8d90 823d
000000b0: 4f84 133d 4b8f 963d 7129 083d f330 b13d
000000c0: ca16 d83d fd7c 203d 9bcd b03d 9b5a 36bd
000000d0: e2c1 b9bd 0202 fb3d b43a af3d 9749 b93d
000000e0: 6c19 a43c 7474 6f3d 5a2e 62bd d51b 92bd
000000f0: 56c7 b539 78f4 b13d c5bf f4bc f542 a7bd
00000100: de1a d73d ec39 62bc 1188 95bc 73a3 c13d
00000110: f178 5b3c 313a b8bd df5e 6d3d 081f 6cbd
00000120: c50b b93d 7081 813d ff2b 943d 6ed3 023d
00000130: e407 c63d 5072 f6bc 609b 193c bc19 bcbd
00000140: 6ece 81ba a8e7 d9bd b967 67bc 48ae a3bd
00000150: b957 9fbc 9c5c 93bd ecbb 893d b154 43bd
00000160: aff5 dd3c ed5e c13d 150b 033e dd8a e73c
00000170: 1105 993d 7a14 9c3d 930c 6b3c 4bf4 98bd
00000180: 97de 683d 9c29 363d bb7c 24bd 7452 39ba
00000190: 3af9 bcbd 686d 9b3d c04d 243d e410 84bd
000001a0: bc81 e33d ef4b 113d 032c 25bd 130a 03bc
000001b0: 1b5b 4c3d 2c25 c13d 28e1 b83d d119 d1bd
000001c0: 5a0d c63d 2cfd 26bc 15e6 743b 2ccc 34bd
000001d0: 16eb edbd 815f 003d 3673 ff3c 16c7 9dbd
000001e0: dfd3 1fbd 87b5 cebd 5d9e 91bd 5560 dfbd
000001f0: a159 4fbc e357 253d e52c 90bd 5770 03be
00000200: 44c5 cabb 0f6b 703c 7b2e b3bd bf9c 7ebd
00000210: fb09 103b d5f3 0abe c5b8 8dbb d40c 84bd
00000220: dbd2 c3bd f466 1cbd cb69 6cbd 5158 233c
00000230: db37 a2bb e25c aa3d dffe a9bc f514 033c
00000240: 2e41 75bc 665b f7bd 0af4 4c3d 8aa4 b23d
00000250: 539b 8abd 8e9a 463d 0653 d63d a073 4b3b
00000260: 1401 90bd ea96 c1bd a012 f33d 08b0 cd3c
00000270: 8d4e 683d 1faf 853d 5571 93bd f28e 9d3c
00000280: c835 14ba 2e89 b8bd 5e81 083e 2bb9 bb3d
00000290: 00ea f13c 6f52 87bc 2835 f73d a3da 00be
000002a0: dd42 123c 8df6 533d 91bb e5bd e682 be39
000002b0: 2a34 90bd 0b9f be3d 6ba6 8f3d dd35 b73d
000002c0: 008b e5bb ae0d c0bd d55d a7bd 4e5b 98bd
000002d0: f10a 183b 00ae ab3d 7ab8 4abd 5995 ad3d
000002e0: 2b3f ba3d 2821 573d 1477 673d fd4c d4bd
000002f0: 55be ad3c 8cff c1bd 95a8 7b3d 3069 a83b
00000300: 1684 763d 47fe 1e3d
-0.00036649618 0.09962916 -0.05303039 0.05923656 -0.017439488 -0.12645367 -0.09679266 0.09779553
-0.10649753 -0.06216107 -0.06490048 -0.11954093 0.054812063 0.10184058 -0.02081512 -0.022506967
0.003981685 -0.00015770609 -0.007616044 -0.042648423 -0.031020794 -0.028063081 0.023935758 -0.08477007
-0.035180703 0.0828402 0.12080628 -0.11622654 -0.054976657 -0.0148445135 0.07962631 0.05240632
-0.03817365 -0.062135328 0.007249247 -0.10878609 0.029288052 0.10884056 -0.056628488 0.07189375
-0.028344449 0.09711661 0.071814746 0.06375227 0.03601485 0.0735155 0.033242647 0.086519144
0.10551222 0.039181698 0.08632966 -0.04452 -0.09070183 0.12256242 0.085561186 0.09047239
0.020031653 0.058460668 -0.055219986 -0.07134215 0.00034671527 0.08689207 -0.0298766 -0.08167068
0.105031714 -0.013807755 -0.018253358 0.094550036 0.013395534 -0.08995474 0.057951804 -0.05764678
0.09035448 0.06323516 0.07234954 0.031939916 0.09669474 -0.030083805 0.009375423 -0.09184596
-0.000990344 -0.10639888 -0.0141238505 -0.07992226 -0.01945101 -0.07195398 0.067252964 -0.04768819
0.02709469 0.09441934 0.12797196 0.028264457 0.074716695 0.07621093 0.01434626 -0.0746847
0.056852903 0.044473276 -0.040158015 -0.00070694764 -0.09227224 0.07589227 0.04011321 -0.06448534
0.11108729 0.035472807 -0.040325176 -0.007998007 0.049891572 0.09430918 0.0902732 -0.10210002
0.09670515 -0.010192197 0.0037368585 -0.044140026 -0.11617105 0.03134108 0.031182867 -0.07703988
-0.039020415 -0.10093217 -0.071102835 -0.10907046 -0.012655647 0.04036702 -0.07039813 -0.12835823
-0.0061880667 0.014673962 -0.087491 -0.062161203 0.0021978605 -0.13569577 -0.0043250048 -0.06447759
-0.09561702 -0.03818412 -0.05771808 0.009969787 -0.004950506 0.08318497 -0.020751415 0.008000602
-0.014969153 -0.1207798 0.05003742 0.087227896 -0.06767907 0.04848724 0.10465054 0.003104426
-0.07031456 -0.09452613 0.11868787 0.025108352 0.056715537 0.06527542 -0.07199351 0.0192332
-0.0005653766 -0.0901054 0.133306 0.09166177 0.029530525 -0.0165188 0.120706856 -0.12583403
0.008927074 0.0517488 -0.11217416 0.0003633715 -0.070411995 0.09307679 0.070141636 0.089458205
-0.0070050955 -0.09377609 -0.08172194 -0.0743929 0.002319988 0.08382797 -0.049492337 0.084757514
0.090940796 0.052521855 0.056510046 -0.10366247 0.021208921 -0.0947257 0.06144007 0.0051394925
0.06018456 0.038816717
