loggers/h256_w256_bs20_in_channel1_lr0.0003/0512_0106/models/BasicModel_10.pth (torch, 40207 bytes, 17 tensors)

weight f4 [2, 1, 3, 3]
000000 96 a9 7a bb 8d ba 30 bc 4a 5b 0c 3b 24 aa fa 3c
       -0.0038248054 -0.010786665 0.0021416717 0.030598707
000010 49 e3 08 bb a9 27 84 3b 48 2b aa 3c 88 42 0c bc
       -0.0020887426 0.004033048 0.020772591 -0.008560784
000020 0f ba 46 bc 3e b8 f4 3b 73 40 3b bb c3 09 0a 3d
       -0.012129321 0.0074682524 -0.002857235 0.033700716
000030 8d 43 00 bd 05 87 21 3c ce 34 e8 bb 1e 67 b2 3c
       -0.03131442 0.009858851 -0.007086373 0.021777686
000040 85 5e 33 bc 04 68 a4 bc
       -0.010947828 -0.02006913

weight f4 [2]
000000 f2 90 7e 3f 8c 32 80 3f
       0.9943992 1.0015426

bias f4 [2]
000000 26 cd 38 3b 1d 13 98 3b
       0.002819845 0.0046409504

running_mean f4 [2]
000000 80 e3 83 3e b1 0a 1e 3e
       0.25759506 0.15433766

running_var f4 [2]
000000 24 14 4a 3e c3 ab 7e 3e
       0.19734246 0.2487021

weight f4 [4, 2, 3, 3]
000000 18 64 d6 bc d0 58 a5 bc 89 dd e1 3b 58 7b 0d bc
       -0.026170775 -0.02018395 0.006892864 -0.0086353645
000010 07 45 0f bd 33 b7 51 3b 10 e7 fe 3b f9 fc 18 3c
       -0.03497794 0.0032000064 0.0077790096 0.009337657
000020 7b 36 4f 3c 67 71 21 bc 61 33 fa bc 09 a2 db 3a
       0.0126472665 -0.009853697 -0.030542077 0.0016756664
000030 9b 0d 1d 3d 0f bd 5b bc cf 01 0a 3c 26 5e bc 3b
       0.038343053 -0.013411774 0.008423283 0.005748528
000040 39 d0 c9 3a 42 65 c7 39 de 03 f8 bc e4 f7 0f 3c
       0.0015397138 0.0003803168 -0.030275282 0.008787129
000050 39 3f cc 3b 1e 84 19 3c e0 70 65 ba 0a 89 b7 bc
       0.0062331227 0.009369878 -0.00087524764 -0.022404213
000060 e9 be 8c 3c 4c 30 64 bd fc 8f 85 ba db ae 3d bc
       0.017180877 -0.055710122 -0.0010190005 -0.011577333
000070 2e da 87 bb cb d5 df 3b 3b e1 92 3c 81 a3 28 3d
       -0.004145882 0.006830906 0.017929664 0.041171554
000080 61 5f 17 3d 9d 10 0f 3d b6 9b 4b 3c e7 cb b4 3a
       0.036956195 0.034927953 0.012427261 0.0013793678
000090 9b ab d2 3c 79 53 2e bc 1c 12 79 bb 01 04 20 3d
       0.025716593 -0.010640019 -0.0038005179 0.03906632
0000a0 58 08 a1 bc e6 c9 b8 bb 77 c7 18 bc 31 33 99 3b
       -0.019657299 -0.0056393025 -0.0093249 0.004675292
0000b0 74 d6 98 3c 44 7b a8 3b 92 fb b6 3b 2d ef c6 3c
       0.018656947 0.0051416475 0.0055841887 0.02428397
0000c0 df 4e a9 bb 8f ff 01 3d 41 0d 40 3c 62 f2 8d 3a
       -0.005166873 0.03173786 0.01172191 0.0010829682
0000d0 08 73 cf 3c cf 07 e8 3b 92 c0 be bc 7c 62 94 bb
       0.025323406 0.007081009 -0.023285184 -0.004528342
0000e0 ea ac b4 3c 05 33 d5 ba b4 b9 08 bd a8 d3 e2 bc
       0.022055108 -0.0016265815 -0.033380225 -0.027688816
0000f0 fa c3 28 bd 03 c3 ac 3c fe 05 d1 bc 55 53 9f ba
       -0.041202523 0.021089083 -0.025515553 -0.0012155572
000100 1c 77 3e 3c 0b 1f b5 3b 1b 4e 13 bd 18 50 b6 b9
       0.011625078 0.0055273823 -0.03596316 -0.0003477342
000110 65 ff 9a 3b b3 43 8d 3c ef 2b 1e 3a 6d d1 64 bb
       0.0047301524 0.017244196 0.00060337683 -0.0034914867

weight f4 [4]
000000 df e8 82 3f bf c7 7c 3f 2f ba 82 3f 9b 93 82 3f
       1.0227317 0.9874229 1.0213069 1.0201296

bias f4 [4]
000000 c4 72 51 3b 46 20 ab 3b e0 d2 bb 3b 3f f8 b2 3b
       0.0031959275 0.005222353 0.0057319254 0.005461722

running_mean f4 [4]
000000 d6 db f8 bc 02 ed 91 3d 28 1a 12 3e 89 f8 de bd
       -0.030378263 0.07125284 0.1426779 -0.10887248

running_var f4 [4]
000000 b0 a6 ec 3d cb a3 00 3e 9c d3 fe 3d ad 49 fc 3d
       0.115552306 0.12562482 0.12442705 0.1231874

weight f4 [8, 4, 3, 3]
000000 63 7c 7b bc 13 ca 67 3c 2a a9 94 bc 73 08 0b bc
       -0.01534948 0.014147299 -0.01814707 -0.008485901
000010 e0 59 fd bc 9e dc 88 ba 75 5d fa 3c 22 05 4a bc
       -0.030926645 -0.0010441726 0.030562142 -0.012330325
000020 3c 26 ba 3c fb ca 09 3b 9d 8b 20 3d 35 a2 37 3b
       0.02272331 0.0021025527 0.039195646 0.0028020267
000030 74 3b 31 bd 4f db a5 3c c5 31 09 3c 42 89 d4 3c
       -0.04326959 0.020246176 0.008373682 0.025944356
000040 21 9c 64 bc cf b6 43 3b 93 52 88 3c e0 08 a6 bc
       -0.01395324 0.00298636 0.016640937 -0.020267904
000050 de 28 23 bd 7a b3 22 bc b0 0d 2b bb b2 48 b3 bc
       -0.039833896 -0.009930486 -0.0026100688 -0.02188525
000060 b1 2e be 3b 5b b9 92 3c 16 82 d3 bc 95 e5 40 bb
       0.005803906 0.01791065 -0.025818866 -0.0029433717
000070 25 b2 1a bd 57 f0 0b 3c 4e 39 51 3b 34 82 06 bc
       -0.037767548 0.008541188 0.0031925025 -0.008209754
000080 cd 5c 8a bc 31 4d 93 ba 2d 7a a6 bc c6 55 14 bd
       -0.016889954 -0.0011238215 -0.02032193 -0.036214612
000090 fe 36 24 3c 7d d7 c8 bc 32 17 50 3b 28 9d 94 3c
       0.010022877 -0.024516815 0.0031752107 0.018141344
0000a0 a1 7a ba 3b 54 25 e1 3b b9 a0 6d bb 80 f3 ae 3c
       0.005690888 0.006870905 -0.0036259128 0.021356344
0000b0 18 a7 1d 3c e3 13 12 bc d2 fb 48 ba 3b f0 cc bc
       0.009622358 -0.008915874 -0.00076669187 -0.025016895
0000c0 44 bc 10 3c 28 56 43 3b fb 27 4b 3c 24 4a 88 bc
       0.0088339485 0.0029805992 0.012399669 -0.016636916
0000d0 2e 21 9b bc f6 39 28 3c cd 8f 1e 3b 94 a1 28 bd
       -0.01893672 0.010267725 0.0024194599 -0.041169718
0000e0 34 70 94 3b 37 b9 a0 3c 4d a7 35 bb 72 6a 96 bb
       0.004529977 0.019619567 -0.0027718127 -0.004590326
0000f0 a4 9c b2 bc 7a af 22 3c 7f 4f 87 bc cb 9c de bc
       -0.021803208 0.009929532 -0.016517399 -0.027174374
000100 09 bb 26 bd 92 53 b3 bb 3e b2 ca 3c 8d 15 de 3c
       -0.040705714 -0.005472609 0.024743196 0.027109886
000110 a1 d2 c1 bc 12 da 63 3c b1 31 af bc b8 21 12 bd
       -0.023660006 0.0139069725 -0.021386 -0.035676688
000120 ea 72 b6 3c 4c 3f fb 3b 70 da 3b 3c a1 4d b6 bc
       0.022271592 0.0076674577 0.011465654 -0.022253813
000130 25 22 d5 bb 63 5e be bc ba d0 da 3b b3 17 1b bc
       -0.0065043145 -0.023238366 0.006677714 -0.0094661
000140 25 90 0c 3d 18 e0 b7 bc 27 bc 06 bc 68 05 b7 3b
       0.034317154 -0.022445723 -0.00822357 0.0055853613
000150 e5 8c 86 3c a0 f4 68 bc b4 02 f6 3c df 1d c1 3b
       0.016424606 -0.014218479 0.030030586 0.0058934535
000160 a1 40 43 3b 35 54 fd 3b a0 91 6f bc 22 0e de ba
       0.002979316 0.0077309855 -0.014622122 -0.0016941468
000170 35 71 9c 3c 21 23 13 3d a6 dc 34 3d fc 30 41 bb
       0.01909695 0.035922173 0.04415574 -0.002947866
000180 86 2c b0 bc 13 30 4d bb 25 e4 5a bc f4 98 38 3c
       -0.021505605 -0.0031309172 -0.013360058 0.011266936
000190 2f 0a 5e bb 24 8f 00 3c ab d2 48 3d 4c c3 bf bc
       -0.0033880582 0.007846627 0.049029034 -0.023408554
0001a0 3c 85 6b 3b 79 b1 28 3c 8c ab 61 3c 45 b5 67 3a
       0.0035937568 0.010296219 0.01377381 0.0008838962
0001b0 b6 00 62 bc eb 0b 9d bc 04 5c 3a bc 23 83 e4 3c
       -0.013794115 -0.019170722 -0.011374477 0.027894562
0001c0 b0 c7 7b bc de 04 b8 ba 6d d3 57 bc a4 eb 95 3c
       -0.015367433 -0.0014039536 -0.013172966 0.018300839
0001d0 dc 05 0b bd 85 eb 5c 3c 69 4d e8 3a 58 ca 74 3b
       -0.033941135 0.013483887 0.0017723265 0.0037352052
0001e0 e1 de 63 3b 9a e9 03 bd 50 5e c5 3c db 2b b7 3c
       0.0034770297 -0.0322052 0.024092823 0.02235978
0001f0 82 74 97 3a 61 2f 29 bb d2 f5 3c 3c e0 95 84 3b
       0.0011555108 -0.0025815594 0.0115332175 0.004046187
000200 13 8c 08 3c 01 f5 74 3c d6 91 00 bd da 61 fb bc
       0.008334178 0.014950992 -0.03138908 -0.030686308
000210 b4 c9 6e 3c 6f 3a fb bb 10 4d 32 bc ae 97 6b 38
       0.014574457 -0.007666878 -0.010882631 5.616963e-05
000220 c0 f8 2a 3c bb ac cf 3c 15 56 ce bb 37 9b 21 3d
       0.010435283 0.025350919 -0.006296883 0.039454665
000230 2e a3 18 3c 89 26 18 3c 36 cf 16 3d 9b ca 8d bc
       0.009316249 0.009286531 0.036818705 -0.017308524
000240 f9 2a 89 bc 0a 62 69 bc b6 89 de bb f1 54 8a 3c
       -0.016744124 -0.014244566 -0.0067913188 0.016886206
000250 b9 c7 86 bc f1 05 81 bb e6 82 f3 3c a3 e2 df 3c
       -0.016452657 -0.003937476 0.029725503 0.027329748
000260 92 20 99 3c e4 cb a0 3b 2b 0b 09 3c ad a0 8a bc
       0.018692289 0.004907118 0.008364479 -0.01692232
000270 80 c3 bb bc 60 e9 15 bd a0 b8 7f bc c9 ac 6a 3a
       -0.02292037 -0.036599517 -0.015607983 0.00089521386
000280 b8 ed c3 bc 80 c6 81 3c 47 11 b0 bc 75 a1 6b 3a
       -0.023917064 0.015841722 -0.021492613 0.00089885975
000290 99 49 a4 bc 71 4e c6 3a 6d 18 81 bd ea c5 88 3c
       -0.020054625 0.0015129579 -0.06303487 0.016695935
0002a0 65 1c a4 bc 9b 4a 9b bc 0b eb 7e bc 17 ec a7 bc
       -0.02003307 -0.018956473 -0.015558968 -0.020498319
0002b0 14 09 8e 3c ad f8 9e bc 33 08 55 bc 1e 15 54 bc
       0.017338313 -0.019405687 -0.013002443 -0.012944488
0002c0 2e bd a0 3b 9a 48 6e bc 9d 66 65 ba 97 21 58 ba
       0.0049053645 -0.014543677 -0.00087509473 -0.00082447514
0002d0 78 52 82 3c 1b 70 b3 3c 8f 6d 21 bd 4e 60 0a bd
       0.015908465 0.021904042 -0.039411124 -0.03378325
0002e0 34 92 98 3b 38 af 84 bc 13 79 26 3d 1f bf dc bc
       0.0046561006 -0.016196832 0.04064281 -0.026946602
0002f0 1b 40 1e 3d cb 89 4d 3c 4e b2 45 3c f7 3c a5 3c
       0.038635354 0.012545059 0.012066437 0.020170672
000300 fa 29 28 3c 4b 81 01 bc 76 12 b1 bc 67 8c 0d 3d
       0.010263914 -0.007904361 -0.021615248 0.034557726
000310 7f f5 bd 3b dd 7b 19 3c 74 fc c1 3c 40 6d 83 3c
       0.0057970877 0.00936791 0.02367995 0.016043305
000320 a9 38 21 bc a7 f4 ac bc 55 ee 8a 3b 1b 4e 01 3d
       -0.009840169 -0.021112753 0.004239837 0.031568628
000330 41 9b 88 3c 8c 07 51 bc 12 1d b9 3c 7f 22 af 3c
       0.016675593 -0.012758147 0.02259687 0.021378754
000340 4d 48 02 3c 2e 27 a9 3c e6 f1 67 3c 50 98 7a bb
       0.007951808 0.020648565 0.014156794 -0.0038237758
000350 b3 8e d2 3b 4d ff 84 3c a1 74 42 bc 7f 2e 2e 3c
       0.0064257025 0.016235018 -0.011868627 0.010631203
000360 4e 19 e8 3b ef 67 02 3d 54 6f 19 bc ae e4 d6 3c
       0.0070830947 0.0318374 -0.009364922 0.02623209
000370 f3 37 91 bc 77 ce 4d bc 18 76 8d 3a 05 84 80 3c
       -0.017726874 -0.012561432 0.0010792641 0.015687952
000380 31 5b ab 3c 73 3b e7 bb e2 7c 95 3b e8 1b fe 3c
       0.020917507 -0.0070566474 0.0045620063 0.031019166
000390 23 37 cc 3b da ce 00 bb a7 7b c8 3c f6 29 a4 3c
       0.0062321587 -0.0019654543 0.024473025 0.02003954
0003a0 00 c8 c1 bb 59 26 4b 3c c6 34 0d bc e7 ea 7a bc
       -0.0059137344 0.0123992795 -0.008618539 -0.015314794
0003b0 ab f4 b3 3b 46 9b 5d 3c b3 ea 99 3c 91 ae b9 ba
       0.005491813 0.01352579 0.018788671 -0.0014166405
0003c0 a9 c3 a2 3c 25 77 de ba ff 62 a8 3c 4f a6 21 bd
       0.019868689 -0.0016972764 0.020555018 -0.039465245
0003d0 1e 58 89 3b c4 76 7b 3c 7d 1a 0c 3b 28 82 44 3c
       0.0041914126 0.01534814 0.0021378093 0.011993922
0003e0 bb c6 3b 3a f9 53 b5 bc b5 8b cc 3c 8a dc 4c bc
       0.0007163097 -0.022134768 0.024968961 -0.0125037525
0003f0 6f f0 0b 3c 6e a0 5d 3c b7 44 8e bc 2c 75 08 bc
       0.008541211 0.013527019 -0.01736675 -0.008328717

weight f4 [8]
000000 3b 18 79 3f 34 41 7c 3f 54 90 7d 3f 88 59 81 3f
       0.973026 0.9853699 0.9904835 1.0105448
000010 6c 2c 82 3f 25 e2 81 3f 16 48 7e 3f 45 a6 74 3f
       1.0169806 1.0147139 0.99328744 0.9556621

bias f4 [8]
000000 1d fa c9 b9 4a 09 f2 ba 91 20 15 3b 8d 1c 14 ba
       -0.00038524056 -0.0018465903 0.0022755007 -0.00056500064
000010 7b 0d 41 bb 13 64 33 bb 6c a5 45 bb f6 63 a2 ba
       -0.0029457498 -0.0027372881 -0.0030158414 -0.001238941

running_mean f4 [8]
000000 fa a1 c4 bd 1e 81 80 bd bc 90 f2 3d f0 29 e9 3c
       -0.09601207 -0.06274627 0.11844012 0.02846238
000010 b0 b7 3e be f4 c9 2b 3e 92 6a 32 3e 44 41 13 3d
       -0.18624759 0.16776258 0.17423466 0.035950914

running_var f4 [8]
000000 45 5c eb 3d ec c9 ed 3d 00 b7 f2 3d d6 ef ea 3d
       0.114922084 0.11610779 0.11851311 0.11471526
000010 95 06 14 3e 69 99 fe 3d aa 50 ff 3d ee e5 ef 3d
       0.14455636 0.124316044 0.12466557 0.117137775

weight f4 [97, 8, 3, 3]
000000 96 68 6d bc 53 c4 7b 3c 6e b6 20 3d 0f 84 52 bc
       -0.014490267 0.015366632 0.03923648 -0.012848868
000010 78 a0 26 bb a8 76 8b bb 69 55 ed 3c 43 74 6c bc
       -0.0025425237 -0.0042560883 0.02897139 -0.014432016
000020 41 a7 f1 3c 76 48 31 3c 36 38 0d 3d 42 58 9b bb
       0.029498698 0.010820499 0.034477435 -0.0047407458
000030 54 fa a0 bb 67 ce a7 3c 54 4f c4 bc 79 88 3f 39
       -0.004912654 0.020484162 -0.023963608 0.0001826602
000040 25 1b 60 3b d0 b6 e0 3b a7 77 05 3c 27 ed c2 3a
       0.0034195867 0.0068577304 0.008146203 0.0014871702
000050 0a 98 43 ba 60 82 97 ba 2b 30 17 3c 88 a1 0c bd
       -0.0007461315 -0.001155924 0.009227793 -0.034333736
000060 05 a8 a5 bb a9 cb f7 bc 09 da a1 3c 8b a2 38 3c
       -0.00505543 -0.03024848 0.019757288 0.011269222
000070 6a 73 af 3c 3c a8 bf 3c f6 5d 10 3c e0 89 f5 3b
       0.021417338 0.02339565 0.0088114645 0.0074932426
000080 3a ab 3b 3c 73 0b 38 3d 4a 9f 7e 3b 6e be 1a bd
       0.011454398 0.044932794 0.0038852268 -0.037779264
000090 c2 1a b2 3c f1 14 72 3d 04 f4 70 bc 40 ad 6d 3c
       0.021741275 0.059102003 -0.014706615 0.014506638
0000a0 38 a0 da 3c 12 93 a1 bc 7c 3a cf 3a a6 60 8a 3b
       0.026687726 -0.019723449 0.0015810276 0.004222947
0000b0 4e 1c 28 bc 2a ff 14 3c 5e 2a cc bc 12 7a e3 bc
       -0.010260655 0.009094039 -0.024922546 -0.027768169
0000c0 4e 2a 11 3b ef 23 b5 bb 1a 5b 2d 3c c9 b1 5a 3c
       0.002215046 -0.0055279653 0.010580802 0.013348051
0000d0 48 19 d3 3c 8b 70 09 3c d9 b6 37 bd 0e a4 d3 bb
       0.025768891 0.008388649 -0.04485211 -0.006458766
0000e0 0e f1 0e 3c 5e 5f 8d 3c 44 54 82 bc be 17 12 3d
       0.008724464 0.017257389 -0.015909322 0.035667174
0000f0 65 4d ac 3c e1 35 84 bb 82 fa 16 3d 4a 53 bd bc
       0.021032998 -0.004034743 0.036859997 -0.023111004
000100 7e 87 51 3c 18 0b c7 3c 45 77 8a bc 7e c3 82 bc
       0.0127886515 0.024297282 -0.016902575 -0.015962359
000110 79 d1 bf 3c b4 21 ad 3b 79 2f 70 3c 4c 04 52 3b
       0.023415314 0.0052835587 0.014659756 0.0032046018
000120 a3 2b 94 3c f7 b0 88 3c d7 92 f5 bc e1 b9 1b bd
       0.018087214 0.016685946 -0.029977245 -0.038019065
000130 7a 2b 1d bd a8 c1 72 3c d6 a6 bb 3c 8a 3f b9 3c
       -0.03837154 0.014816679 0.022906702 0.022613306
000140 66 84 14 bb 7e 80 b3 3c ca cc 4a bc 82 19 33 3c
       -0.0022661923 0.021911856 -0.012377927 0.0109313745
000150 bb 97 69 3c 56 74 c5 bc b5 c2 aa 3c 1f d9 8e bb
       0.014257367 -0.024103325 0.020844797 -0.004359379
000160 af 35 7a bc c4 c5 7b bb 6d 18 b8 3c 2f 70 2d bb
       -0.015271588 -0.0038417438 0.022472585 -0.0026464572
000170 a9 13 16 3c 92 1d d4 bb f1 48 32 3b b0 42 01 3d
       0.009159961 -0.0064732516 0.002720412 0.03155774
000180 b1 57 c4 3b 70 f2 c8 3b 7d 5c c9 3c 98 77 29 3c
       0.005991899 0.0061324164 0.024580235 0.010343455
000190 af a4 a9 bb 3d 27 7f bc 75 4d c2 3c ba 8c 34 bd
       -0.0051771025 -0.01557332 0.023718575 -0.04407952
0001a0 08 36 9e 3b e4 94 0a 3d 63 e5 3a 3c f6 3d 8b bb
       0.0048282184 0.0338334 0.011407229 -0.0042493297
0001b0 db 86 6e 3d 8d 68 0b 3d 0b 78 e8 3b 53 5c fd bc
       0.058234077 0.034035254 0.0070943884 -0.030927813
0001c0 2d d7 16 3d 8d ee d0 bc 72 f5 39 3c 6c 49 56 3c
       0.0368263 -0.025504375 0.011350023 0.013079029
0001d0 54 8e b0 3c a8 c2 3f bd e4 eb 0a 3c 0c e6 da bc
       0.021552242 -0.046816498 0.008479092 -0.026721023
0001e0 17 b3 8d bc 1e 54 b5 bc 33 9a ab 3a 74 5a 53 bc
       -0.01729731 -0.022134837 0.001309222 -0.012899984
0001f0 07 5f 1c 3d 8d bb c2 bb 21 57 64 3c 07 a9 b1 bb
       0.038176563 -0.005942768 0.013936789 -0.005421761
000200 94 3f 79 3c 1d cd a9 3c d1 96 0d 3c 31 95 44 3c
       0.015212912 0.020727688 0.008641914 0.011998461
000210 b7 e5 04 bd 8d 68 9e 3c c8 d1 a4 3c ca 4d 00 bc
       -0.032445636 0.019336963 0.020119563 -0.007831046
000220 dc cc 3a bd 8e 17 ba bc d9 3c 96 3a 84 01 95 3c
       -0.045605525 -0.02271631 0.0011462226 0.0181892
000230 be 3c 3d 3c c2 93 24 3c 44 b0 2e 3a 26 20 48 bd
       0.011550127 0.010044994 0.0006663839 -0.048858784
000240 06 9b 83 3c 49 5f ed 3c 04 1e 0d bd 4e 3f a6 3c
       0.016065132 0.0289761 -0.034452453 0.020293858
000250 4b a2 aa 3c b9 1d 0a bc ed ac cf bc 35 98 d4 3a
       0.02082934 -0.008429938 -0.025351012 0.0016219678
000260 b3 c4 1a 39 32 d8 ab 3c 48 7a 2b 3c 9c d4 b4 bc
       0.0001475986 0.020977113 0.010466166 -0.022074036
000270 3f b2 a7 3c d3 72 20 bb 25 05 9e 3c 79 3c 6c 3b
       0.020470737 -0.0024482503 0.019289562 0.0036046787
000280 a6 fb 70 bb a5 f3 b1 3c f6 61 ee bc e3 29 71 bc
       -0.0036771088 0.021722624 -0.029099446 -0.014719459
000290 13 14 a5 3c 56 27 42 3a ac 23 76 bc 6a 7c ad 3c
       0.020151174 0.0007406374 -0.015023153 0.02117749
0002a0 44 c8 65 3b 1a 4d 67 bc 21 3e 81 3c 40 52 8c bb
       0.0035061995 -0.014117504 0.015776696 -0.004282266
0002b0 f4 f6 4c 3c 14 b2 b2 bc 16 94 ff 3a 73 84 1f bc
       0.01251005 -0.02181343 0.0019499089 -0.009736168
0002c0 93 b4 cb bc 84 be 29 3d 02 f5 74 3c 81 46 23 3d
       -0.024866378 0.041441455 0.014950993 0.03986216
0002d0 49 69 86 3c b3 52 c2 bc 2c 9a ac 3a 23 bd 98 bb
       0.016407626 -0.023721075 0.0013168505 -0.0046612187
0002e0 6a d7 c5 3a 1e 22 0e bc 8b 8a 56 ba d8 db 9e bc
       0.0015094106 -0.008675126 -0.00081840967 -0.019391939
0002f0 82 bd a9 3b 48 cc 66 b6 f8 b8 c5 3b 76 90 65 3c
       0.005180062 -3.4391578e-06 0.006034013 0.014011493
000300 f8 a8 99 3a b3 d4 73 bc 8e a0 04 3c dc 9b 8a bc
       0.001172333 -0.014882254 0.00809492 -0.016920023
000310 3f 26 60 3a 37 b1 03 39 23 7b 8a bc cb 61 19 3c
       0.0008550621 0.00012559151 -0.01690442 0.009361695
000320 ee f9 ea 3c 85 15 4a bc 6b 13 b9 bc cb 3f fe 3c
       0.028683629 -0.012334232 -0.022592267 0.031036278
000330 bc 6a 2d 3d f1 1c d1 3b f8 cf 47 bd 0a 45 94 bc
       0.042338118 0.006381624 -0.04878232 -0.018099327
000340 65 01 0b 3d 2d e7 44 3c 77 c3 88 bc 5e 84 23 3c
       0.033936877 0.012018007 -0.016694767 0.009980289
000350 0e 50 5e bc 3f 76 98 3c 9b 58 7c bc a3 68 af 3c
       -0.013568891 0.018611072 -0.015401985 0.0214122
000360 18 54 d4 bc 66 29 50 bc 45 dc 78 bc 2a 43 03 3b
       -0.025919005 -0.012705183 -0.015189235 0.0020029047
000370 29 3f 67 bc 67 fc c5 3c 8d 2b 74 bc 4f f6 09 3d
       -0.01411418 0.024168206 -0.014902961 0.033682164
000380 06 8a ab bc 1a 54 ab 3c 56 17 d7 3c d6 94 4b bb
       -0.020939838 0.020914126 0.026256245 -0.0031064055
000390 f3 b7 2f bc 76 ee 99 bb 61 f8 2f 3c 22 1c 10 3c
       -0.010725009 -0.004697616 0.0107403705 0.00879577
0003a0 03 d1 aa 3c 0b 93 26 3b 45 a7 81 3c a4 92 91 3b
       0.020851618 0.0025417234 0.01582683 0.0044425298
0003b0 8d 32 55 bc a2 9f 0d 3d 2f 65 00 3b 6f 44 4e 3c
       -0.0130125405 0.034576066 0.001959156 0.012589558
0003c0 b7 cd c3 ba 66 d4 7b bc 4e 45 a5 3b b8 60 32 3c
       -0.0014938627 -0.015370464 0.005043662 0.010887317
0003d0 7a 01 73 3c 13 59 3a bc af 77 bd 3b eb f9 2d bb
       0.014831895 -0.011373776 0.0057820897 -0.0026546668
0003e0 47 75 32 bc a0 37 a8 3b 61 3c e0 bc 79 50 89 bb
       -0.010892219 0.005133584 -0.02737254 -0.0041905013
0003f0 23 0d 14 bc 98 32 be bc d2 b7 f5 3c 38 a8 c0 3c
       -0.009036335 -0.023217484 0.029994879 0.023517713

bias f4 [97]
000000 54 73 c0 3c e3 7b 05 bd c4 b1 82 bd b3 16 7b 3d
       0.023492493 -0.03258885 -0.06381562 0.061300945
000010 b3 52 b8 bd fa 03 9f bc cb 9b 67 3d d6 d9 df 3d
       -0.090001486 -0.019411076 0.05654506 0.10930221
000020 99 d4 b6 3c 49 8c 99 bd 48 7a 61 bd de eb a8 bc
       0.022318171 -0.074974604 -0.055048257 -0.020620283
000030 f7 2d 17 bd 9c af ee 3d 97 08 53 3d 1f c2 0a bd
       -0.03690907 0.116545886 0.051521864 -0.033876535
000040 a3 3c 78 bd c3 6a a9 3d e0 e5 b1 3d 16 e3 3e bd
       -0.060604703 0.08272316 0.08686423 -0.046603285
000050 bf c9 e0 bd be af d2 3d 0a 47 9d bd 36 c2 a0 3d
       -0.1097598 0.102874264 -0.07679565 0.07849543
000060 88 b5 2c bd 6c a9 ef 3d 4f ce b4 3d 8e 2d 40 3b
       -0.04216531 0.117022365 0.08828413 0.0029324028
000070 20 c8 2d 3c ed 43 99 3d fa ba 8c 3c b9 6a f7 3d
       0.010606796 0.07483659 0.017179001 0.120809026
000080 51 0f 40 bd 76 ae ac 3c a4 a4 21 3d f9 7b 13 3d
       -0.046889607 0.021079283 0.039463654 0.0360069
000090 c8 eb 21 3d 3d 72 8f bd 2d 59 99 bc ad 06 94 bd
       0.0395315 -0.07004211 -0.01871928 -0.07227836
0000a0 ee f9 d2 bc 46 b5 c3 3d 8c 7d 30 3d 84 7e 39 bc
       -0.025753941 0.095560595 0.04308848 -0.011321668
0000b0 3e 59 90 bd 5a 8b 01 3d 3c 15 c4 3d a7 39 52 3d
       -0.070482716 0.031627037 0.09574363 0.051324513
0000c0 52 35 ae bd 4a e8 97 bd a8 72 dd 3d 80 46 ba bb
       -0.08506264 -0.074173525 0.108128846 -0.005684674
0000d0 04 d4 db 3d ee 5b e0 3d ab 61 7d bd 2a fe 52 3d
       0.10733798 0.10955034 -0.06186072 0.05151192
0000e0 11 50 98 3d 66 d5 39 bc 08 49 4d 3d 50 4b f8 3d
       0.074371465 -0.011342382 0.050118476 0.1212374
0000f0 ad 65 b0 3a e6 9e c4 3c 14 93 91 3d 00 52 5a 3d
       0.0013458036 0.02400155 0.07108131 0.053300858
000100 3b a8 9d 3c 75 c8 91 3c 2a 4c 38 3d ea 06 9b 3d
       0.019245258 0.01779578 0.04499451 0.07569678
000110 f3 58 d6 3d 66 35 70 bd c6 95 41 bd 27 f8 b3 bd
       0.104661845 -0.058644675 -0.047261976 -0.08787566
000120 2b 08 66 bc 8f 0b 86 b7 14 52 09 bc d0 b3 b1 3c
       -0.014040033 -1.5979427e-05 -0.008381385 0.021692187
000130 52 89 36 bd af 37 0e bd 6a e8 43 bd 11 20 77 3c
       -0.044564553 -0.034721073 -0.04782907 0.015083329
000140 8a 96 99 bd ab 91 15 bd e7 58 da bd 7b 66 31 bd
       -0.07499416 -0.036515873 -0.10661488 -0.043310624
000150 a5 33 8c bd 1e 3b db 3c 21 77 89 bb 33 15 e0 bd
       -0.06845788 0.026761588 -0.0041951095 -0.109415434
000160 76 fc c8 3d 06 56 b6 bc 56 81 0d bd 36 24 2b 3b
       0.09813778 -0.022257816 -0.034547172 0.0026114113
000170 44 2c 86 bd 10 92 e2 3d f9 5e 9f 3d a8 9f a6 3d
       -0.06551412 0.110630155 0.077817865 0.08135921
000180 c3 0a 8c bd
       -0.0683799
