loggers/h256_w256_bs20_in_channel1_lr0.0003/0512_0106/models/BasicModel_20.pth (torch, 40207 bytes, 17 tensors)

weight f4 [2, 1, 3, 3]
0	0xbb739866	-0.0037169694
1	0xbc553d9c	-0.013015177
2	0xbb01c6da	-0.0019802363
3	0x3ce4cd3d	0.027929896
4	0xbb5be940	-0.0033555776
5	0x3b9ab66d	0.004721454
6	0x3caac984	0.020848043
7	0xbc0f9b34	-0.008765031
8	0xbc609bd5	-0.013709028
9	0x3c055d99	0.008139991
10	0xbb184e0f	-0.0023239886
11	0x3d09ee17	0.033674326
12	0xbd067424	-0.032825604
13	0x3c1c9da7	0.009559072
14	0xbbda2566	-0.0066572903
15	0x3ca71173	0.020394063
16	0xbc471087	-0.0121499365
17	0xbca8d285	-0.020608196

weight f4 [2]
0	0x3f7f51e2	0.9973432
1	0x3f7f9cd0	0.9984865

bias f4 [2]
0	0x3bc3fe40	0.0059812367
1	0x3bee7aad	0.0072778077

running_mean f4 [2]
0	0x3e45d281	0.19318582
1	0xbd64e738	-0.05588457

running_var f4 [2]
0	0x3dc7babf	0.09752416
1	0x3e2ca744	0.16860682

weight f4 [4, 2, 3, 3]
0	0xbccda0b8	-0.02510105
1	0xbcbc8505	-0.023012647
2	0x3b4967c2	0.003073201
3	0xbc198f45	-0.009372537
4	0xbd0d3118	-0.034470648
5	0x3b7b123b	0.0038310427
6	0x3bf5e385	0.007503929
7	0x3c2efd35	0.010680486
8	0x3c3a8b1f	0.011385708
9	0xbc24e1e6	-0.010063624
10	0xbcf522be	-0.029923793
11	0x3ad769ca	0.0016434726
12	0x3d2568ee	0.040383272
13	0xbc6136d7	-0.013745985
14	0x3bc88cfe	0.006120323
15	0x3b947a55	0.0045311847
16	0xba7347e7	-0.00092804286
17	0xbb9034e6	-0.0044008372
18	0xbd0e230e	-0.0347014
19	0x3b4ccbe2	0.0031249453
20	0x3af4c61f	0.0018674767
21	0x3c37e728	0.011224546
22	0x38de4cc7	0.00010600086
23	0xbcb126de	-0.021624979
24	0x3c807b76	0.01568387
25	0xbd698a94	-0.057016924
26	0xbb5f2086	-0.0034046485
27	0xbc3c8f8e	-0.0115088355
28	0xbb45608b	-0.0030117359
29	0x3c1924c6	0.009347146
30	0x3c89061c	0.016726546
31	0x3d2b5741	0.04183126
32	0x3d1ba9e8	0.038003832
33	0x3d0ab3b2	0.033862777
34	0x3c1a0e8f	0.009402885
35	0xba49145c	-0.0007670575
36	0x3cd9f158	0.02660434
37	0xbc1ff5a7	-0.009763158
38	0xbbdbdbdc	-0.006709559
39	0x3d2bb3c6	0.041919492
40	0xbcb5a57d	-0.022173638
41	0xbc17df4b	-0.009269546
42	0xbbd2703f	-0.006422072
43	0x3c29e11b	0.010368611
44	0x3ca8cfd1	0.020606907
45	0x3c1e563e	0.009664116
46	0x3c2044e3	0.009782049
47	0x3cdea648	0.027178898
48	0xbb5789b7	-0.003288848
49	0x3cf42832	0.029804323
50	0x3c3be48d	0.011468065
51	0xbb5fba32	-0.003413808
52	0x3ca7d968	0.02048941
53	0x3bb8bd1d	0.0056377784
54	0xbcde0681	-0.02710271
55	0xbb816a1b	-0.0039494163
56	0x3ca14301	0.01968527
57	0xbb9b016a	-0.004730393
58	0xbd1e9438	-0.03871557
59	0xbcf98e7c	-0.03046345
60	0xbd268d91	-0.040662352
61	0x3ca5356b	0.020167073
62	0xbcd3139e	-0.02576619
63	0xbb408958	-0.0029378738
64	0x3c0a6078	0.0084458515
65	0x3b5d8779	0.0033802672
66	0xbd241e19	-0.040067766
67	0xb9ad2e68	-0.00033031707
68	0x3c040e02	0.00805998
69	0x3c59130d	0.013249171
70	0xbb38c792	-0.0028195125
71	0xbb8e5b19	-0.004344356

weight f4 [4]
0	0x3f831e03	1.0243534
1	0x3f7d49ff	0.98941034
2	0x3f824e3b	1.0180124
3	0x3f82e5d8	1.0226393

bias f4 [4]
0	0x3bf36cf2	0.007428759
1	0x3c020415	0.007935544
2	0x3c3394df	0.010960787
3	0x3c251c9e	0.010077624

running_mean f4 [4]
0	0xbd65da62	-0.05611647
1	0x3d60d0a4	0.054886475
2	0x3e207865	0.15670927
3	0xbe148197	-0.1450256

running_var f4 [4]
0	0x3c9c43ba	0.019075263
1	0x3cd87296	0.026421826
2	0x3cc0fd33	0.023558235
3	0x3ceead86	0.029135477

weight f4 [8, 4, 3, 3]
0	0xbc878b95	-0.01654605
1	0x3c72b059	0.014812552
2	0xbc9d229e	-0.019181546
3	0xbbd4afa6	-0.0064906655
4	0xbcfe5559	-0.031046556
5	0x38d2f440	0.000100590754
6	0x3ce94468	0.028475001
7	0xbc80bdb6	-0.015715461
8	0x3cada17a	0.021195162
9	0xba8e3bc8	-0.0010851556
10	0x3d1e5f24	0.038664952
11	0x3ba5d02b	0.005060216
12	0xbd3969b7	-0.045266833
13	0x3caff152	0.021477375
14	0x3c38922e	0.011265321
15	0x3cd313b9	0.02576624
16	0xbc8a1cf3	-0.016859507
17	0x3a441416	0.00074797997
18	0x3c810b08	0.01575233
19	0xbca211b2	-0.019783828
20	0xbd232db4	-0.039838508
21	0xbc1df734	-0.009641457
22	0x3ac80c7d	0.0015262511
23	0xbc9b61bc	-0.018967502
24	0x3b97eaec	0.004636159
25	0x3c88d15e	0.016701397
26	0xbce55d2b	-0.027998528
27	0xbb8930a7	-0.004186708
28	0xbd1c52ee	-0.038165025
29	0x3c01592b	0.007894794
30	0x3a37310b	0.0006988204
31	0xbbe5a4c7	-0.0070081684
32	0xbc78c238	-0.015183024
33	0xbb511399	-0.003190255
34	0xbc96aa7b	-0.018391838
35	0xbd0cbac3	-0.034357797
36	0x3c33f44c	0.010983538
37	0xbccb790d	-0.024837995
38	0x3af1faf8	0.0018461635
39	0x3c920f54	0.017829575
40	0x3b921b47	0.004458818
41	0x3ba99b9f	0.005176022
42	0xbac9fa40	-0.0015409663
43	0x3cca0667	0.024661256
44	0x3c1dad58	0.009623848
45	0xbc139271	-0.009007082
46	0xb9b972c0	-0.00035371445
47	0xbcbf28f3	-0.023334956
48	0x3bf03f2e	0.0073317504
49	0x3ae9615e	0.0017805507
50	0x3c37ad86	0.011210805
51	0xbc938e3d	-0.01801216
52	0xbca1ab7c	-0.01973509
53	0x3c334bdb	0.010943378
54	0x3a33c563	0.0006857721
55	0xbd2a0c78	-0.041515797
56	0x3bb4c6a1	0.0055168425
57	0x3c9d2949	0.019184725
58	0xbb8a0ba7	-0.004212815
59	0xbc12539c	-0.008931067
60	0xbcb76ec7	-0.02239169
61	0x3c242823	0.010019335
62	0xbca90b34	-0.020635225
63	0xbce3af49	-0.027793543
64	0xbd278793	-0.040900778
65	0xbba32002	-0.004978181
66	0x3ccf3d15	0.02529768
67	0x3ce05fb1	0.02738938
68	0xbcb27999	-0.021786498
69	0x3c63667a	0.013879413
70	0xbcac43ff	-0.021028517
71	0xbd0c84f4	-0.03430648
72	0x3ce0f936	0.027462583
73	0x3c49faf0	0.012327895
74	0x3c72487e	0.014787791
75	0xbcb2f8ad	-0.021847093
76	0xbc4710e9	-0.012150028
77	0xbccbe02f	-0.024887173
78	0x3bd3ac9a	0.0064597847
79	0xbc18f89a	-0.009336615
80	0x3d114cba	0.035473563
81	0xbcd670ca	-0.026176829
82	0xbc4b3320	-0.012402326
83	0x39cbefe0	0.00038897898
84	0x3c77709d	0.015102533
85	0xbc9a70ac	-0.018852554
86	0x3cc4e2b3	0.02403388
87	0x3b94fe5f	0.004546925
88	0xba92a50e	-0.0011188106
89	0x3b80261d	0.0039107935
90	0xbca7dc55	-0.020490805
91	0xbbd61ec5	-0.0065344297
92	0x3c65216e	0.013985021
93	0x3cf1dc27	0.029523922
94	0x3d20461e	0.03912937
95	0xbc07691d	-0.008264807
96	0xbcde8f70	-0.027168006
97	0xbbf771f1	-0.0075514247
98	0xbc97ac62	-0.018514816
99	0x3c82c784	0.015964277
100	0x3a3b98c9	0.00071562506
101	0x3c4beece	0.012447072
102	0x3d58b369	0.052905474
103	0xbc9aef56	-0.018912952
104	0x3c027b9d	0.007964042
105	0x3c6b60bd	0.014366326
106	0x3c959bc4	0.018262751
107	0x3ba6cc6f	0.0050902884
108	0xbc0caa40	-0.008585513
109	0xbc72341a	-0.01478293
110	0xbc138b46	-0.009005373
111	0x3cfbd161	0.030739488
112	0xbc83859d	-0.016054923
113	0xbb04b247	-0.0020247863
114	0xbc1ec9f3	-0.009691703
115	0x3c974169	0.018463807
116	0xbd0cbbc8	-0.03435877
117	0x3c57cbf6	0.013171187
118	0x3b28bdbb	0.0025747854
119	0x3b9e78ad	0.004836163
120	0x3bbf03d2	0.005829313
121	0xbd032843	-0.03202082
122	0x3cd4abb0	0.025960773
123	0x3cc1227e	0.023576017
124	0xbad00ad3	-0.0015872366
125	0xbb45163e	-0.0030073072
126	0x3c1b0ff4	0.009464253
127	0x3ad44955	0.0016196171
128	0x3c050295	0.008118291
129	0x3c74d2d0	0.01494284
130	0xbd0bea1a	-0.034158804
131	0xbce67286	-0.02813078
132	0x3c6ac1e8	0.014328457
133	0xbc181a5b	-0.009283627
134	0xbc1c986e	-0.009557826
135	0x3b98bdeb	0.004661312
136	0x3c6e79bb	0.01455539
137	0x3cf9d4d1	0.030496987
138	0xbbd0e38a	-0.006374781
139	0x3d1c8823	0.038215768
140	0x3c3076b2	0.010770487
141	0x3be2f585	0.006926241
142	0x3d099686	0.033590816
143	0xbc8a9577	-0.016916974
144	0xbc955f45	-0.018233905
145	0xbc84eefa	-0.016227234
146	0xbc0ca59e	-0.008584408
147	0x3c86f9bf	0.01647651
148	0xbc8b33cf	-0.016992478
149	0xbbb5f3ac	-0.0055527296
150	0x3cec923b	0.028878322
151	0x3cd5c6d1	0.02609578
152	0x3c93235c	0.017961197
153	0x3bb545b0	0.005531989
154	0x3be6ae86	0.007039848
155	0xbc803b97	-0.015653415
156	0xbcbd0683	-0.023074394
157	0xbd1a17ff	-0.03762054
158	0xbc856209	-0.016282098
159	0x39e048c6	0.0004277883
160	0xbcd578b8	-0.02605854
161	0x3c613a70	0.013746843
162	0xbcb0a143	-0.02156127
163	0x3ac2f822	0.0014874975
164	0xbc928a0e	-0.017888095
165	0x39dba71c	0.0004189544
166	0xbd80073e	-0.06251381
167	0x3c887bf6	0.016660672
168	0xbcb8b67d	-0.022547955
169	0xbcb37111	-0.0219045
170	0xbc8cb5c3	-0.017176514
171	0xbcb431d2	-0.021996412
172	0x3c7ee69a	0.015557909
173	0xbca7f21a	-0.020501185
174	0xbc3f1ad7	-0.011664114
175	0xbc5b0037	-0.01336675
176	0x3bd2964e	0.006426609
177	0xbc2b7d5d	-0.010466901
178	0x3ae0bd68	0.0017146291
179	0xb8d2fc25	-0.00010060546
180	0x3ca64732	0.02029762
181	0x3cb4630c	0.022019885
182	0xbd1d58f8	-0.038414925
183	0xbd135f16	-0.035979353
184	0x3a87ebe5	0.0010369985
185	0xbc9b5245	-0.018960128
186	0x3d2eb7d7	0.042655792
187	0xbcc3a3d5	-0.023881832
188	0x3d2bb14a	0.041917123
189	0x3c8c5fab	0.017135462
190	0x3c154ef5	0.009113063
191	0x3c7fe5f8	0.015618794
192	0x3bc03528	0.0058657117
193	0xbc2edccf	-0.010672762
194	0xbcd904e9	-0.0264916
195	0x3d0c5e67	0.034269717
196	0x3be4507b	0.006967602
197	0x3c2ace9a	0.010425234
198	0x3cc06a7e	0.02348828
199	0x3c6d6eaa	0.014491716
200	0xbc73ee07	-0.014888293
201	0xbcbf90d9	-0.023384498
202	0x3b59ba14	0.0033222483
203	0x3cef2a17	0.029194875
204	0x3c7dac53	0.01548298
205	0xbc5604c1	-0.013062657
206	0x3ca613d2	0.020273123
207	0x3cbe5877	0.023235543
208	0x3ba9a6d0	0.0051773563
209	0x3cc2dafe	0.023786064
210	0x3c91564a	0.017741341
211	0xbb95f557	-0.004576366
212	0x3bd6a03e	0.006549864
213	0x3c8629d0	0.01637736
214	0xbc5d6237	-0.013512186
215	0x3c1ec3cf	0.009690239
216	0x3c3e348a	0.011609206
217	0x3cfb88fa	0.030704964
218	0xbc298580	-0.01034677
219	0x3cd37fb3	0.025817728
220	0xbc95adf4	-0.018271424
221	0xbc5d0880	-0.013490796
222	0xb88a75f3	-6.6023225e-05
223	0x3c801a34	0.015637495
224	0x3c8d8d8d	0.01727941
225	0xbbe0862d	-0.0068519325
226	0x3a7f703d	0.0009744203
227	0x3cfdf20d	0.030999208
228	0x3bed683e	0.0072450927
229	0xbb380c2a	-0.0028083422
230	0x3ccc8d26	0.024969649
231	0x3cb6fdea	0.022337873
232	0xbb4046af	-0.0029339006
233	0x3c2eb354	0.010662872
234	0xbbb24ede	-0.0054415306
235	0xbc7b151d	-0.015324858
236	0x3bda145a	0.006655258
237	0x3c83f17c	0.01610636
238	0x3ca20a69	0.019780355
239	0xb85ae458	-5.2187912e-05
240	0x3ccac3e5	0.024751613
241	0x3b06580e	0.0020499262
242	0x3cab0457	0.020876093
243	0xbd2e4a7e	-0.04255151
244	0xbac931db	-0.0015349941
245	0x3c3f6684	0.0116821565
246	0x3b5cf9f4	0.003371832
247	0x3bec4e01	0.007211447
248	0xbafa0c9a	-0.0019077242
249	0xbcbbfd45	-0.022947917
250	0x3cad18f0	0.021130055
251	0xbc69592e	-0.0142424535
252	0x3c2abc92	0.010420935
253	0x3c855a29	0.016278343
254	0xbc8c62f3	-0.017137026
255	0xbb61cb14	-0.003445332

weight f4 [8]
0	0x3f792b7e	0.9733199
1	0x3f7c3f23	0.9853384
2	0x3f7cf2a3	0.98807734
3	0x3f8183a3	1.0118297
4	0x3f82444d	1.0177094
5	0x3f81ae0e	1.0131242
6	0x3f7d8cce	0.99042976
7	0x3f73b186	0.95192754

bias f4 [8]
0	0x3b4acc0e	0.003094438
1	0x39b20883	0.00033957147
2	0x3bf0f854	0.007353822
3	0x3b331ad5	0.0027329226
4	0xbb08c971	-0.0020872022
5	0xbacf5464	-0.0015817997
6	0xbb789754	-0.0037931995
7	0x3a61a568	0.00086077163

running_mean f4 [8]
0	0xbe09a452	-0.1344159
1	0xbde0eed2	-0.10983051
2	0x3dc9fdc1	0.09862853
3	0x3d19d086	0.03755238
4	0xbe834f3b	-0.25646386
5	0x3e42f47d	0.19038577
6	0x3e4a0156	0.19727072
7	0x3d000ff4	0.031265214

running_var f4 [8]
0	0x3c914eb1	0.017737718
1	0x3ca272e3	0.019830173
2	0x3c94212b	0.018082222
3	0x3c992c4e	0.018697884
4	0x3d58d6a5	0.052939076
5	0x3cd4f713	0.02599672
6	0x3ce6cb42	0.028173093
7	0x3c8a6345	0.016893039

weight f4 [97, 8, 3, 3]
0	0xbc31d845	-0.010854785
1	0x3c972b27	0.018453194
2	0x3d2ee9cc	0.042703435
3	0xbc313718	-0.010816358
4	0xb9d0a23a	-0.0003979372
5	0xbb106cfe	-0.002203762
6	0x3d006216	0.031343542
7	0xbc3f2d8f	-0.011668577
8	0x3d013ab1	0.031550113
9	0x3c629674	0.013829816
10	0x3d18f726	0.037345074
11	0xbaee74ab	-0.0018192729
12	0xbb1975ff	-0.0023416278
13	0x3cbac053	0.022796785
14	0xbcae763b	-0.021296611
15	0x3b102854	0.0021996694
16	0x3bb6142f	0.0055566053
17	0x3c1575bb	0.009122307
18	0x3be3bff3	0.0069503724
19	0x3b77c560	0.0037806854
20	0x3b36a4ea	0.0027869293
21	0x3aa514cb	0.0012594698
22	0x3c4413f8	0.011967652
23	0xbcfbf17f	-0.030754803
24	0xbb10aa59	-0.0022074191
25	0xbcdfaa20	-0.027302802
26	0x3cbd34ed	0.023096526
27	0x3c58ea41	0.013239444
28	0x3cc2f68f	0.023799209
29	0x3cd68ba0	0.026189625
30	0x3c34d7ff	0.011037826
31	0x3c284e0e	0.010272516
32	0x3c699001	0.014255525
33	0x3d429d20	0.047513127
34	0x3be15e89	0.0068777245
35	0xbd0cea31	-0.03440303
36	0x3cc99c12	0.024610553
37	0x3d7e7180	0.06211996
38	0xbc3c1e20	-0.011481792
39	0x3c8acccb	0.016943356
40	0x3cec2b56	0.028829258
41	0xbc8b597b	-0.017010441
42	0x3b8e1980	0.004336536
43	0x3bd66c35	0.006543661
44	0xbc08f65d	-0.008359519
45	0x3c3a1adc	0.011358943
46	0xbcb64842	-0.022251252
47	0xbccdf559	-0.025141405
48	0x3ba56071	0.005046897
49	0xbb31b8f4	-0.0027118297
50	0x3c51f9d9	0.012815916
51	0x3c87a805	0.01655961
52	0x3cea71be	0.02861869
53	0x3c364c41	0.011126579
54	0xbd3171a9	-0.043321285
55	0xbb8b0954	-0.0042430554
56	0x3c3b8136	0.0114443805
57	0x3ca68a9e	0.02032977
58	0xbc54b6ba	-0.0129830185
59	0x3d1dbefc	0.038512215
60	0x3ccad0e8	0.024757817
61	0xba380990	-0.0007020468
62	0x3d236a62	0.039896376
63	0xbc9cbfb4	-0.01913438
64	0x3c8113a5	0.015756438
65	0x3cdc628f	0.026902465
66	0xbc59b767	-0.013288355
67	0xbc4fb2c3	-0.012676897
68	0x3cce3e38	0.025176153
69	0x3c006eb2	0.007838892
70	0x3c90e2ff	0.017686365
71	0x3bd0b918	0.006369721
72	0x3cb8f54f	0.02257791
73	0x3cb0958e	0.021555688
74	0xbcda6c58	-0.02666299
75	0xbd108fe3	-0.03529347
76	0xbd11e7ae	-0.035621338
77	0x3c6015af	0.013677045
78	0x3ce3ac19	0.027792023
79	0x3cdcb8da	0.026943613
80	0x3a8898f4	0.001042156
81	0x3cb1b501	0.021692755
82	0xbc5b845e	-0.013398258
83	0x3c298c09	0.010348328
84	0x3c61f460	0.013791174
85	0xbcb9ee9c	-0.022696786
86	0x3cbd2096	0.023086827
87	0xbbb05372	-0.005381041
88	0xbc8a588f	-0.016887931
89	0xbbcded4b	-0.006284391
90	0x3ca301df	0.019898353
91	0xb97bb4cd	-0.00024004579
92	0x3c486880	0.012231946
93	0xbc211500	-0.009831667
94	0x3ad63c32	0.0016344844
95	0x3d0c76cb	0.034292977
96	0x3bc79059	0.0060902056
97	0x3b944d71	0.0045258333
98	0x3cc4e1ed	0.024033511
99	0x3c097f1b	0.008392121
100	0xbbb5536e	-0.0055336272
101	0xbc84f648	-0.016230717
102	0x3cb96601	0.022631647
103	0xbd39a5a4	-0.045323983
104	0x3b50ebd7	0.0031878853
105	0x3d1966c9	0.03745154
106	0x3c59fd8a	0.013305077
107	0xbb34523b	-0.0027514833
108	0x3d6c4616	0.057684027
109	0x3d0bf879	0.03417251
110	0x3bf2d54b	0.0074106804
111	0xbd017eb2	-0.031614967
112	0x3d17a40f	0.037021693
113	0xbcc05513	-0.023478067
114	0x3c3a822f	0.011383577
115	0x3c52d412	0.012867944
116	0x3ca89ab2	0.020581577
117	0xbd41326c	-0.047167227
118	0x3c1634e3	0.009167883
119	0xbce9d73b	-0.028545013
120	0xbc6594ce	-0.014012529
121	0xbcb1ffcb	-0.021728417
122	0xb90bfbd3	-0.00013349885
123	0xbc1e8915	-0.009676238
124	0x3d22deb3	0.039763164
125	0xbb2da4ab	-0.0026495855
126	0x3c347fd3	0.011016804
127	0xbbd3acc0	-0.0064598024
128	0x3c7207be	0.014772354
129	0x3ca28479	0.019838559
130	0x3bd10f82	0.0063800225
131	0x3c339907	0.0109617775
132	0xbd08ac97	-0.03336772
133	0x3c917809	0.017757433
134	0x3cb86471	0.022508832
135	0xbbf37665	-0.007429885
136	0xbd42eebb	-0.047590952
137	0xbcd195a0	-0.025584042
138	0x3b93a798	0.0045060627
139	0x3ca23295	0.01979951
140	0x3c1cb480	0.009564519
141	0x3c621a71	0.013800249
142	0x3b6575e2	0.003501289
143	0xbd375162	-0.044755347
144	0x3c2f9a58	0.010717951
145	0x3cf0e053	0.029403841
146	0xbd18df70	-0.03732246
147	0x3c79f979	0.015257233
148	0x3ca97aa3	0.02068836
149	0xbbc42991	-0.0059864004
150	0xbcd1a979	-0.025593506
151	0x3b6ed5dc	0.0036443388
152	0x3b6ef4dd	0.0036461868
153	0x3ca35c08	0.019941345
154	0x3c3abec1	0.011398018
155	0xbcbd88a6	-0.023136448
156	0x3ca03217	0.019555135
157	0xbb7f2951	-0.0038934539
158	0x3c82de00	0.015974998
159	0x3b6ca4b2	0.0036108908
160	0xbbc5d87c	-0.00603777
161	0x3c8b16bf	0.01697862
162	0xbcd2e48d	-0.025743747
163	0xbc5a38ea	-0.013319233
164	0x3c783905	0.015150313
165	0x3bb03a79	0.0053780642
166	0xbc5f2295	-0.013619085
167	0x3c8e305b	0.017357042
168	0x3bbb87f7	0.0057229954
169	0xbc3c6e8b	-0.011500965
170	0x3c7ef568	0.015561439
171	0xbb8e7034	-0.0043468717
172	0x3c62f36a	0.01385198
173	0xbc9dd11d	-0.019264752
174	0x3abc1521	0.0014349559
175	0xbc1addbb	-0.009452279
176	0xbccfe1b5	-0.02537618
177	0x3d2f38dc	0.042778835
178	0x3c57449b	0.013138915
179	0x3d1eb4c7	0.03874662
180	0x3c77545b	0.0150957955
181	0xbcc40747	-0.023929251
182	0x3a2e4bb0	0.00066488516
183	0xbb8a4f12	-0.0042208517
184	0x3ad1d9ae	0.0016010308
185	0xbbea7dca	-0.0071561085
186	0xb942c1d3	-0.00018573487
187	0xbc999dcc	-0.018752001
188	0x3bc66475	0.006054456
189	0xb9d34862	-0.00040298986
190	0x3b583fcd	0.0032997013
191	0x3c71bf2e	0.014755053
192	0x3b2b3c31	0.0026128406
193	0xbc5e39e2	-0.013563605
194	0x3c25d8c0	0.010122478
195	0xbc7aec20	-0.015315086
196	0x3b6c5c2b	0.0036065679
197	0x3b52a962	0.0032144417
198	0xbc705d71	-0.014670716
199	0x3c041d7d	0.008063671
200	0x3cd79044	0.026313908
201	0xbc276819	-0.01021769
202	0xbcc5d8e2	-0.02415127
203	0x3ce98bb7	0.028509004
204	0x3d28ba40	0.041193247
205	0x3bd1a176	0.0063974215
206	0xbd437b7d	-0.04772519
207	0xbcb59da4	-0.022169895
208	0x3d036286	0.03207638
209	0x3c68eea4	0.014217053
210	0xbca7a8a4	-0.020466156
211	0x3c11fd35	0.008910467
212	0xbc3f0994	-0.011659998
213	0x3c9c85a6	0.019106697
214	0xbc74c4bd	-0.014939484
215	0x3cb60f83	0.022224193
216	0xbcf23b84	-0.029569395
217	0xbc37911a	-0.0112040285
218	0xbc71a4f4	-0.014748801
219	0x385a40ed	5.2035717e-05
220	0xbc63aa6a	-0.01389561
221	0x3cdc6f97	0.026908679
222	0xbc97fe78	-0.018553957
223	0x3cf137c4	0.029445536
224	0xbc92ee9e	-0.017936047
225	0x3caf9130	0.021431535
226	0x3cd2f4de	0.025751527
227	0xbbf16116	-0.00736631
228	0xbc7d9772	-0.015478002
229	0xbbe0631b	-0.006847752
230	0x3bddef47	0.006772909
231	0x3bd48f65	0.0064868205
232	0x3c8d6baa	0.017263252
233	0x3b1e13a5	0.0024120596
234	0x3c9b64ac	0.018968903
235	0x3bb5047a	0.0055242153
236	0xbc918bd4	-0.01776687
237	0x3d0edf71	0.03488106
238	0x3b7b4e47	0.0038346217
239	0x3c6904d7	0.014222345
240	0xba140516	-0.000564651
241	0xbc6bda42	-0.014395298
242	0x3b991959	0.004672211
243	0x3bd66d7c	0.0065438133
244	0x3c2d9445	0.010594432
245	0xbc464f68	-0.012103893
246	0x3bbbc989	0.005730812
247	0xbbaedade	-0.0053361496
248	0xbc4bd687	-0.012441284
249	0x3bf9ad8e	0.0076195663
250	0xbcdbd68a	-0.026835699
251	0xbbdb2d99	-0.0066887853
252	0xbc4ea8ab	-0.012613456
253	0xbce5700f	-0.028007535
254	0x3cd8ba9c	0.02645617
255	0x3c9d865e	0.01922911

bias f4 [97]
0	0x3cd883bc	0.026430003
1	0xbd0489e8	-0.03235808
2	0xbd809b1d	-0.062795855
3	0x3d705e48	0.058683664
4	0xbdb3a133	-0.08770981
5	0xbc8d9b9f	-0.01728612
6	0x3d676c39	0.056499694
7	0x3de5fcab	0.11229833
8	0x3cac32ea	0.021020371
9	0xbd9496aa	-0.072552994
10	0xbd546a91	-0.051859442
11	0xbc982e98	-0.018576905
12	0xbd0bfd59	-0.034177158
13	0x3df029f8	0.11726755
14	0x3d5c1014	0.05372627
15	0xbd025a49	-0.031824384
16	0xbd7c3459	-0.06157336
17	0x3dac41ff	0.08411025
18	0x3db3808f	0.08764755
19	0xbd42ba6c	-0.047541067
20	0xbddd31c7	-0.1080051
21	0x3dd74592	0.10511316
22	0xbd99191e	-0.07475494
23	0x3da5c85e	0.08094858
24	0xbd24bd1f	-0.040219422
25	0x3df12ef5	0.117765345
26	0x3dbae85d	0.09126351
27	0x3b5c0c4c	0.0033576665
28	0x3c396739	0.011316114
29	0x3d9e56ad	0.07731376
30	0x3c8b0fb6	0.016975265
31	0x3dfef610	0.124492764
32	0xbd33426b	-0.043764513
33	0x3cb6ef3f	0.022330878
34	0x3d25a6e0	0.040442348
35	0x3d192146	0.037385248
36	0x3d1f4d05	0.03889181
37	0xbd8d35da	-0.06895037
38	0xbc9b7c72	-0.018980239
39	0xbd9053aa	-0.07047208
40	0xbcbd59b7	-0.023114068
41	0x3dc40fcb	0.09573325
42	0x3d388cca	0.045056142
43	0xbc22c845	-0.009935443
44	0xbd8ddb0e	-0.06926547
45	0x3d071ee9	0.032988463
46	0x3dbe99b5	0.09306661
47	0x3d5f661d	0.054540742
48	0xbdaabb18	-0.083364666
49	0xbd980826	-0.07423429
50	0x3ddab2ec	0.10678658
51	0xbb27e67d	-0.002561956
52	0x3ddaebe7	0.10689526
53	0x3ddb9b12	0.10722937
54	0xbd805787	-0.062666945
55	0x3d57786f	0.05260509
56	0x3d966b5b	0.07344695
57	0xbc30e1d6	-0.010796031
58	0x3d5bae77	0.05363318
59	0x3dfc9236	0.12332575
60	0x3ab26a1d	0.0013611946
61	0x3ccdab97	0.025106234
62	0x3d8e00d9	0.069337554
63	0x3d5ca04c	0.05386381
64	0x3c99f61f	0.018794117
65	0x3c93348c	0.017969392
66	0x3d3b1ab3	0.04567976
67	0x3d9dc1c5	0.07702974
68	0x3dd9ee5e	0.10641168
69	0xbd6e2afa	-0.058146454
70	0xbd37c08d	-0.044861365
71	0xbdb017de	-0.08598302
72	0xbc65a036	-0.014015248
73	0xbaaba92b	-0.0013096681
74	0xbba5b769	-0.0050572646
75	0x3ca62a2b	0.02028378
76	0xbd39bf7a	-0.045348622
77	0xbd08fb35	-0.033442695
78	0xbd3a4489	-0.045475516
79	0x3c8f4280	0.017487764
80	0xbd96324c	-0.07333812
81	0xbd192cd2	-0.03739626
82	0xbdd4a560	-0.10383105
83	0xbd2518c5	-0.040306825
84	0xbd8824a6	-0.06647615
85	0x3cfc4849	0.030796187
86	0xbb4a61b3	-0.0030880987
87	0xbdd82522	-0.105539575
88	0x3dcc09a5	0.09962777
89	0xbcadeac4	-0.021230109
90	0xbd09e2b2	-0.03366346
91	0x3b736ad5	0.0037142534
92	0xbd856cce	-0.065148935
93	0x3de346a5	0.11097459
94	0x3da2de2d	0.07952533
95	0x3da45eec	0.080259174
96	0xbd86b743	-0.06577923
