loggers/h256_w256_bs20_in_channel1_lr0.0003/0512_0106/models/BasicModel_66.pth (torch, 40207 bytes, 17 tensors)

weight f4 [2, 1, 3, 3]
-0.0008924652 -0.014852216 -0.006305838 0.02787404 3.720799e-05 0.0048215203 0.020746587 -0.009690975
-0.013249259 0.0063326233 -0.0005666599 0.028404923 -0.03370172 0.009321224 -0.003707133 0.024011677
-0.015891785 -0.021214398
00000000: 53f4 69ba b556 73bc 34a1 cebb 1958 e43c
00000010: c60f 1c38 d8fd 9d3b bff4 a93c e5c6 1ebc
00000020: 6c13 59bc e581 cf3b e78b 14ba 71b1 e83c
00000030: d10a 0abd 0cb8 183c 5ff3 72bb 23b4 c43c
00000040: 7d2f 82bc d1c9 adbc

weight f4 [2]
0.9926861 1.0020299
00000000: ad20 7e3f 8442 803f

bias f4 [2]
-0.0034287055 -0.012377323
00000000: 22b4 60bb 41ca 4abc

running_mean f4 [2]
0.113277026 -0.08678639
00000000: c9fd e73d 10bd b1bd

running_var f4 [2]
0.10465946 0.14387508
00000000: b357 d63d fd53 133e

weight f4 [4, 2, 3, 3]
-0.020343171 -0.02663007 0.0038961861 -0.010072036 -0.03350688 0.004722298 0.0046308883 0.013653373
0.006671238 -0.012875335 -0.024545329 -0.0015648737 0.042341273 -0.01474958 0.010612062 0.004767748
-0.0062129293 -0.01055547 -0.037687033 0.0083567975 0.00058386975 0.010823717 0.00033304797 -0.015387251
0.01032701 -0.057098605 -0.009138807 -0.008623604 -0.0060327114 0.014479417 0.013186043 0.044697013
0.03275534 0.037093263 0.009875448 -0.0010435517 0.02581044 -0.00939301 -0.007943771 0.040489975
-0.020184493 -0.018267805 -0.0061686547 0.013897249 0.019129796 0.014057802 0.0137857385 0.028545227
0.0068319715 0.025240917 0.01672381 -0.00590447 0.019823045 0.008863496 -0.036978364 0.003097687
0.014458386 0.004280669 -0.04905402 -0.010312925 -0.024687983 0.020369355 -0.02894578 -0.006295683
0.006466514 -0.0019567648 -0.05149367 -0.0028090482 0.0070214444 0.010928409 -0.00010382523 -0.011696504
00000000: b9a6 a6bc 4e27 dabc 2857 7f3b 2e05 25bc
00000010: 833e 09bd 82bd 9a3b b5be 973b 66b2 5f3c
00000020: 679a da3b 12f3 52bc 4913 c9bc 731c cdba
00000030: 0b6e 2d3d 39a8 71bc 37de 2d3c c53a 9c3b
00000040: d495 cbbb daf0 2cbc b85d 1abd f3ea 083c
00000050: d60e 193a f655 313c f19c ae39 cf1a 7cbc
00000060: 9f32 293c 3ae0 69bd efba 15bc 044a 0dbc
00000070: 0dae c5bb 143b 6d3c 460a 583c 3714 373d
00000080: 772a 063d 1bef 173d a2cc 213c c9c7 88ba
00000090: 6a70 d33c 24e5 19bc 9726 02bc d1d8 253d
000000a0: f359 a5bc 5da6 95bc 6d22 cabb 49b1 633c
000000b0: 17b6 9c3c b252 663c 94dd 613c aed7 e93c
000000c0: bbde df3b 0ac6 ce3c 5f00 893c 497a c1bb
000000d0: f063 a23c 3238 113c a076 17bd 9002 4b3b
000000e0: dee2 6c3c db44 8c3b deec 48bd 8bf7 28bc
000000f0: 743e cabc a2dd a63c b31f edbc 044c cebb
00000100: 0de5 d33b 113d 00bb 07eb 52bd 0218 38bb
00000110: 2514 e63b 120d 333c bfbc d9b8 b2a2 3fbc

weight f4 [4]
1.033928 0.99781585 1.0083088 1.0146056
00000000: c157 843f dc70 7f3f 4310 813f 99de 813f

bias f4 [4]
0.0061863703 -0.002403978 0.020868529 0.01414902
00000000: 09b7 ca3b 0f8c 1dbb 7af4 aa3c 4bd1 673c

running_mean f4 [4]
-0.073582344 0.0478291 0.17048928 -0.16841121
00000000: 57b2 96bd 72e8 433d be94 2e3e fd73 2cbe

running_var f4 [4]
0.0071421843 0.013966446 0.012687348 0.015571508
00000000: fc08 ea3b 85d3 643c 98de 4f3c a31f 7f3c

weight f4 [8, 4, 3, 3]
0.0048897653 0.019928567 -0.016157513 -0.0020634169 -0.03728057 0.0002684746 0.027969329 -0.016432157
0.018913804 -0.01077026 0.039708376 0.018473305 -0.046220396 0.026047958 0.007897164 0.02572254
-0.010402846 -0.005686188 0.012203114 -0.021461155 -0.03004624 -0.007204188 0.00344396 -0.012776903
0.0017159219 0.02066563 -0.03385739 -0.0036840257 -0.036784884 0.005408252 -0.0124149555 -0.0030627213
-0.0257867 -0.0040359185 -0.014038814 -0.04145305 0.008654294 -0.025925709 2.1212083e-05 0.021883797
0.015232477 0.014118623 0.008309352 0.03484881 0.008467098 -0.011303258 0.0069507146 -0.012247797
0.007945163 -0.0016746789 0.013598142 -0.015109286 -0.017362311 0.009131981 -0.002801555 -0.029852925
0.0075778384 0.021304522 -0.0005844361 -0.008002501 -0.024812311 0.026910948 -0.029750925 -0.019367775
-0.030259298 -0.009029155 0.02154664 0.021560673 -0.015564163 0.009593814 -0.019760936 -0.038133234
0.033264324 0.017052451 0.019025445 -0.026503868 -0.019016711 -0.01845068 0.0014064577 -0.013734904
0.027529083 -0.032806307 -0.006799009 0.0048328214 0.021048225 -0.024753645 0.019749003 0.012368756
0.00047936902 0.0075627407 -0.027907617 -0.002811564 0.011562209 0.023055052 0.038771786 -0.011141583
-0.022499695 0.0017021993 -0.013207977 0.01732086 -0.0047941515 0.007662612 0.053266507 -0.015545007
0.0026623905 0.017372563 0.020414902 0.004944378 -0.008612724 -0.006189578 -0.01558737 0.034320913
-0.026746554 -0.0034218696 0.0009781341 0.016863206 -0.02897556 0.009381631 -0.0026204875 0.011337404
0.0027531148 -0.024075797 0.029875625 0.024889834 -0.011042793 -0.0014758145 0.016162856 -0.002270401
0.006952339 0.019747308 -0.036089938 -0.013106611 0.016481433 -0.015129769 -0.0004341544 0.0032603813
0.00961874 0.03913677 -0.009881448 0.027884994 0.0065016313 0.009008682 0.041924227 -0.030608945
-0.011168691 -0.019193657 -0.0112984255 0.023729358 -0.0022623416 -0.0013688412 0.034784745 0.028295727
0.01519911 0.0077777677 0.001546883 -0.014675308 -0.024992755 -0.03735484 -0.019968012 0.0033635611
-0.029192565 0.007307296 -0.02152014 0.007750955 -0.014957038 -0.0032878458 -0.045982048 0.020156454
-0.023944646 -0.02734839 -0.022235433 -0.013023868 0.019144248 -0.018443191 0.0041207024 -0.018761048
0.020926865 0.008109547 0.004353811 0.003495014 0.0066822525 0.015565545 -0.031510204 -0.056747932
-0.013282881 -0.01081266 0.043876957 -0.018362869 0.054164793 0.011382771 -0.00075627136 0.008714759
-0.00987382 0.00081336603 -0.037144195 0.0285587 0.01013055 0.002087394 0.014919447 0.010733715
-0.022307765 -0.037311602 0.008617877 0.03313365 0.01824631 -0.008277607 0.0109260185 0.004547474
-0.0028112086 0.0033485678 0.012829989 0.0009249704 0.0065576825 0.013457961 -0.00802326 0.009351689
0.010358501 0.02603606 -0.017866693 0.01939057 -0.02198409 -0.017486578 -0.002785927 0.020433838
0.020511556 -0.016058026 -0.020054428 0.032287236 0.00855738 -0.005643874 0.033874184 0.011243368
0.0010813803 0.002707081 -0.0031591477 -0.020541964 0.0054360353 0.009011798 0.009720262 0.0005189024
0.017252332 0.011090892 0.020004073 -0.04291786 -0.015877767 0.010773652 0.020191018 0.006304685
-0.0064401324 -0.011207889 0.016091578 -9.8472476e-05 0.009376568 0.021309987 -0.014504577 -0.0037906414
00000000: 533a a03b 3c41 a33c c35c 84bc 643a 07bb
00000010: 83b3 18bd 0dc2 8c39 ef1f e53c bb9c 86bc
00000020: 1ff1 9a3c bf75 30bc 40a5 223d 5455 973c
00000030: 9951 3dbd 8762 d53c 1b63 013c 14b8 d23c
00000040: b370 2abc 3453 babb 92ef 473c 4ecf afbc
00000050: 8823 f6bc 1c11 ecbb 10b4 613b 3756 51bc
00000060: c9e8 e03a f84a a93c 0cae 0abd b26f 71bb
00000070: bfab 16bd b537 b13b 1968 4bbc f0b7 48bb
00000080: a13e d3bc bd3f 84bb 0e03 66bc acca 29bd
00000090: bdca 0d3c 2762 d4bc 9af0 b137 a645 b33c
000000a0: a491 793c cc51 673c f323 083c a0bd 0e3d
000000b0: 95b9 0a3c 4d31 39bc d2c2 e33b fcaa 48bc
000000c0: 6e2c 023c e680 dbba beca 5e3c f08c 77bc
000000d0: 683b 8ebc 4e9e 153c 4b9a 37bb 1f8e f4bc
000000e0: 844f f83b d286 ae3c d834 19ba ec1c 03bc
000000f0: 3043 cbbc 5974 dc3c 36b8 f3bc 2ba9 9ebc
00000100: 59e2 f7bc 05ef 13bc 9482 b03c 02a0 b03c
00000110: d500 7fbc 5f2f 1d3c b0e1 a1bc 9831 1cbd
00000120: 2c40 083d 95b1 8b3c 40db 9b3c a41e d9bc
00000130: efc8 9bbc e125 97bc e458 b83a 5d08 61bc
00000140: ac84 e13c e85f 06bd 39ca debb a55c 9e3b
00000150: 546d ac3c 28c8 cabc a9c8 a13c 53a6 4a3c
00000160: d253 fb39 ded0 f73b 849e e4bc 3742 38bb
00000170: 6b6f 3d3c f3dd bc3c 2acf 1e3d 308b 36bc
00000180: 4851 b8bc 551c df3a 4566 58bc 7ae4 8d3c
00000190: 4218 9dbb a616 fb3b fb2d 5a3d 7cb0 7ebc
000001a0: 807b 2e3b e850 8e3c 273d a73c 7304 a23b
000001b0: 621c 0dbc f2d1 cabb 2b62 7fbc 1694 0c3d
000001c0: 971b dbbc 7241 60bb bc34 803a b524 8a3c
000001d0: 275e edbc 6ab5 193c 7cbc 2bbb 85c0 393c
000001e0: 9a6d 343b 9b3a c5bc babd f43c c4e5 cb3c
000001f0: d5ec 34bc 1e70 c1ba f767 843c 02cb 14bb
00000200: 72d0 e33b 1bc5 a13c 0bd3 13bd 1cbd 56bc
00000210: 1204 873c dae2 77bc 389f e3b9 1fac 553b
00000220: eb97 1d3c e14d 203d cce5 21bc 126f e43c
00000230: a30b d53b 2799 133c bdb8 2b3d 9cbf fabc
00000240: e3fc 36bc 043c 9dbc 081d 39bc 1264 c23c
00000250: cb43 14bb b06a b3ba 737a 0e3d 71cc e73c
00000260: b005 793c a5dc fe3b c8c0 ca3a b470 70bc
00000270: 9bbd ccbc 6401 19bd f593 a3bc 316f 5c3b
00000280: 3f25 efbc 0b72 ef3b 014b b0bc b9fb fd3b
00000290: 5d0e 75bc e678 57bb ac57 3cbd 261f a53c
000002a0: 9027 c4bc bb09 e0bc 1527 b6bc 1062 55bc
000002b0: 66d4 9c3c 2d16 97bc f506 873b c5b0 99bc
000002c0: d16e ab3c e8dd 043c 6aaa 8e3b 9b0c 653b
000002d0: ccf6 da3b a106 7f3c d810 01bd 8570 68bd
000002e0: 71a0 59bc 9527 31bc 53b8 333d ba6d 96bc
000002f0: e7db 5d3d cd7e 3a3c 8340 46ba 59c8 0e3c
00000300: cdc5 21bc 1238 553a 8324 18bd eff3 e93c
00000310: 9bfa 253c a9cc 083b b270 743c 77dc 2f3c
00000320: c6be b6bc 0dd4 18bd ff31 0d3c 26b7 073d
00000330: 4979 953c cd9e 07bc 0b03 333c fa02 953b
00000340: 413c 38bb a573 5b3b e034 523c b679 723a
00000350: d4e1 d63b c87e 5c3c fe73 03bc d437 193c
00000360: b4b6 293c 9349 d53c 2c5d 92bc f9d8 9e3c
00000370: fa17 b4bc 0340 8fbc 1994 36bb dd64 a73c
00000380: da07 a83c 1f8c 83bc 2f49 a4bc 9f3f 043d
00000390: 4134 0c3c 3ff0 b8bb a8bf 0a3d 1a36 383c
000003a0: 1abd 8d3a 4869 313b b409 4fbb 9f47 a8bc
000003b0: c520 b23b 38a6 133c bc41 1f3c f306 083a
000003c0: c354 8d3c 93b6 353c 95df a33c a3ca 2fbd
000003d0: 1712 82bc f983 303c a267 a53c 8897 ce3b
000003e0: bf07 d3bb 4ba1 37bc 7cd2 833c 0283 ceb8
000003f0: 2da0 193c 4892 ae3c 9ba4 6dbc 696c 78bb

weight f4 [8]
0.9970913 0.9951666 1.0077736 1.0245674 1.0302562 1.0228875 1.0028998 0.96947473
00000000: 6041 7f3f 3dc3 7e3f bafe 803f 0625 833f
00000010: 6fdf 833f faed 823f 055f 803f 7f2f 783f

bias f4 [8]
0.01114947 0.0013903857 0.017464353 0.008383854 0.0019191591 -0.0027197907 -5.6767884e-05 0.014469875
00000000: 44ac 363c 9a3d b63a 6711 8f3c 6f5c 093c
00000010: 4b8c fb3a 843e 32bb 0d1a 6eb8 0e13 6d3c

running_mean f4 [8]
-0.12622169 -0.041605733 0.0815499 0.05967503 -0.20141321 0.057719186 0.1363871 0.023284193
00000000: 4240 01be c66a 2abd a203 a73d ce6d 743d
00000010: 443f 4ebe f46a 6c3d 0fa9 0b3e 7ebe be3c

running_var f4 [8]
0.004518987 0.0051822904 0.0053293747 0.0047995383 0.045150634 0.0058319108 0.011253249 0.003565261
00000000: 0314 943b 34d0 a93b 09a2 ae3b 7245 9d3b
00000010: dfef 383d 9d19 bf3b 8c5f 383c 27a7 693b

weight f4 [97, 8, 3, 3]
-0.011264334 0.016064413 0.04888046 -0.015685448 -0.010422624 -0.009224325 0.031601645 -0.011720685
0.02489609 0.009369383 0.035482828 -0.0015852362 -0.0026922727 0.023259018 -0.016744172 -0.004425464
0.0043046074 0.0074516297 -0.014749658 -0.00124983 0.00739217 -0.008646246 0.0095869 -0.023969404
-0.005558395 -0.028253011 0.024469703 0.0063253045 0.024036055 0.025474444 0.0048355563 0.014133689
0.0163468 0.041676715 0.011395729 -0.02728985 0.023443418 0.061648913 -0.010772909 0.013196781
0.027301453 -0.01583136 0.0041286848 0.0051493426 -0.01560485 0.016930787 -0.021186398 -0.028710458
0.005468794 -0.0066133244 0.0031850643 0.018450994 0.027903395 0.010301525 -0.054940257 -0.008339215
0.008844543 0.022669533 -0.009639576 0.040338542 0.03426214 0.0075214365 0.04399373 -0.0129805
0.015499029 0.025576046 -0.0034561441 -0.009205346 0.013312603 0.0042124307 0.022115892 0.01094941
0.030926686 0.03605854 -0.014240924 -0.03876538 -0.04448013 0.0122862505 0.049103163 0.030469824
0.008127922 0.018900797 -0.019591942 0.0044207517 0.0090051 -0.021134239 0.033356454 -0.01925437
-0.02941138 -0.017556997 0.013800984 0.0023007754 0.022292549 -0.022970773 -0.0017550194 0.04760245
-0.0009771701 -0.0036625622 0.01335791 -0.004806169 -0.0065343184 -0.028014608 0.01610275 -0.05593461
-0.0033788346 0.04587398 0.017852489 0.0043165116 0.05461942 0.031532805 0.0042923163 -0.037867673
0.03344131 -0.021964375 0.010035305 0.007236603 0.01398329 -0.03252132 0.026307462 -0.022531658
0.006448823 -0.010510417 -0.0030844829 0.021972967 0.061781842 0.0050174417 -0.0043076435 -0.014328909
0.013340658 0.0029518441 -0.006722848 0.008789599 -0.03841359 0.012942648 0.029819353 -0.021398969
-0.06160074 -0.044039585 0.017608771 0.016180871 0.0032623042 0.029890237 0.01324317 -0.028025396
-0.014733516 0.014067063 -0.03803276 -0.007818357 0.023959627 0.007049028 -0.0210154 0.021084184
0.014952645 0.013415534 0.014308967 -0.033919204 0.028359858 -0.015455293 0.0069987997 0.0058014123
-0.00856122 -0.001172976 -0.029273745 -0.0067035947 0.0040125577 0.022796838 -0.005273228 0.0060980013
0.019096354 -0.0038015256 0.016159335 -0.0033462981 0.01324033 -0.020053837 0.0117641995 -0.007776295
-0.025676135 0.054556333 0.0009911541 0.022394015 0.009486615 -0.026654692 -0.0023622322 -0.003036873
0.0018891388 -0.002419606 0.002270479 -0.014945906 0.010188667 -0.0025423574 -0.010460511 0.027835153
0.009802491 -0.00073027844 0.020146398 -0.017105496 0.014318321 0.008903288 -0.0115337055 -0.0005144678
0.02121193 -0.005262279 -0.03553287 0.015129077 0.02742038 -0.0030445645 -0.052224193 -0.035565805
0.023766113 0.018689323 -0.041383397 0.014388736 0.0035713394 0.029039005 -0.012154181 0.021810587
-0.029851653 -0.0023778207 -0.030531088 -0.0002636388 4.5120454e-05 0.037095312 -0.02930607 0.014455354
-0.0054220865 0.030720811 0.028896254 -0.024421433 -0.007200092 -0.0046859584 -0.002171489 0.004769968
0.009587821 0.015403498 0.023519672 0.006115394 -0.035140745 0.028713256 0.005942054 0.008496138
-0.00044231987 -0.016126152 0.005057378 0.0037446455 0.0071511436 -0.018551042 0.014024641 0.00045350194
-0.012938464 0.021421613 -0.013591539 -0.020780748 -0.019110054 -0.044143807 0.029873429 0.0107851345
00000000: 0b8e 38bc 8499 833c e136 483d c57e 80bc
00000010: a7c3 2abc a021 17bc ba70 013d 1e08 40bc
00000020: e3f2 cb3c 0a82 193c 7156 113d b3c7 cfba
00000030: d770 30bb b289 be3c 132b 89bc 7c03 91bb
00000040: aa0d 8d3b cd2c f43b 8da8 71bc 56d1 a3ba
00000050: 043a f23b fca8 0dbc 5f12 1d3c 7c5b c4bc
00000060: 3223 b6bb dc72 e7bc b074 c83c 8044 cf3b
00000070: 43e7 c43c c8af d03c 9673 9e3b fd90 673c
00000080: b9e9 853c 34b5 2a3d 27b5 3a3c f78e dfbc
00000090: 690c c03c 9283 7c3d db80 30bc 5037 583c
000000a0: 4ca7 df3c c5b0 81bc eb49 873b d1bb a83b
000000b0: 7cab 7fbc 6fb2 8a3c 198f adbc 3232 ebbc
000000c0: 9233 b33b 96b4 d8bb 83bc 503b 8a26 973c
000000d0: a995 e43c bac7 283c 0909 61bd 34a1 08bc
000000e0: b4e8 103c 75b5 b93c 50ef 1dbc 073a 253d
000000f0: 7556 0c3d 6276 f63b c532 343d 2aac 54bc
00000100: a4ef 7d3c db84 d13c 7a80 62bb 05d2 16bc
00000110: 1b1d 5a3c 6e08 8a3b 632c b53c 2765 333c
00000120: f659 fd3c 1fb2 133d c452 69bc 72c8 1ebd
00000130: cc30 36bd 454c 493c 6620 493d da9b f93c
00000140: fa2a 053c d8d5 9a3c 487f a0bc f4db 903b
00000150: 208a 133c b621 adbc c7a0 083d 57bb 9dbc
00000160: 22f0 f0bc b1d3 8fbc 861d 623c 9bc8 163b
00000170: dd9e b63c 342d bcbc ae08 e6ba c9fa 423d
00000180: 6314 80ba 9907 70bb 23db 5a3c 117d 9dbb
00000190: d61d d6bb e47e e5bc eae9 833c b11b 65bd
000001a0: 706f 5dbb 5be6 3b3d 623f 923c 8671 8d3b
000001b0: 9db8 5f3d 8b28 013d 8fa6 8c3b 221b 1bbd
000001c0: c1f9 083d a2ee b3bc 1f6b 243c 0721 ed3b
000001d0: 2b1a 653c 1335 05bd bf82 d73c 5094 b8bc
000001e0: a650 d33b e233 2cbc 0925 4abb a700 b43c
000001f0: f50e 7d3d 5a69 a43b 2227 8dbb cdc3 6abc
00000200: c692 5a3c ba73 413b 564b dcbb 4002 103c
00000210: 9257 1dbd 660d 543c b747 f43c e44c afbc
00000220: 0f51 7cbd da62 34bd 4540 903c bf8d 843c
00000230: 62cc 553b 5fdc f43c e2f9 583c 8495 e5bc
00000240: d864 71bc 8a79 663c 3dc8 1bbd 9118 00bc
00000250: fb46 c43c 88fb e63b 7d28 acbc bdb8 ac3c
00000260: f0fb 743c d4cc 5b3c 2870 6a3c ddee 0abd
00000270: ef52 e83c 3238 7dbc 3056 e53b c619 be3b
00000280: 5c44 0cbc 8bbe 99ba 7ecf efbc d4a9 dbbb
00000290: c67b 833b 6fc0 ba3c 0bcb acbb bed1 c73b
000002a0: f56f 9c3c 0423 79bb 9560 843c 914d 5bbb
000002b0: f8ed 583c f247 a4bc a1be 403c 4ad0 febb
000002c0: c256 d2bc 7676 5f3d 9de9 813a a773 b73c
000002d0: bf6d 1b3c f15a dabc aecf 1abb 4606 47bb
000002e0: fb9c f73a 4192 1ebb 51cc 143b acdf 74bc
000002f0: 5eee 263c ae9d 26bb 9062 2bbc 8c06 e43c
00000300: a19a 203c 2870 3fba 0f0a a53c d320 8cbc
00000310: 6497 6a3c 19df 113c def7 3cbc 5add 06ba
00000320: a4c4 ad3c 326f acbb ea8a 11bd f3df 773c
00000330: b4a0 e03c 5187 47bb 09e9 55bd 73ad 11bd
00000340: 27b1 c23c 5a1a 993c a381 29bd bcbe 6b3c
00000350: 220d 6a3b 35e3 ed3c 5422 47bc 1eac b23c
00000360: 748b f4bc 36d5 1bbb 551c fabc 0039 8ab9
00000370: b83f 3d38 41f1 173d 4913 f0bc 26d6 6c3c
00000380: c2ab b1bb 36aa fb3c d6b7 ec3c 750f c8bc
00000390: c0ee ebbb ab8c 99bb 8a4f 0ebb 644d 9c3b
000003a0: 3c16 1d3c f45e 7c3c 54ac c03c a563 c83b
000003b0: beef 0fbd 1038 eb3c 90b5 c23b 6333 0b3c
000003c0: 2be7 e7b9 fe1a 84bc 5db8 a53b ba68 753b
000003d0: 2454 ea3b 5bf8 97bc 9cc7 653c 00c4 ed39
000003e0: dafb 53bc 617c af3c 0caf 5ebc 633c aabc
000003f0: b08c 9cbc 23d0 34bd 1fb9 f43c 22b4 303c

bias f4 [97]
0.025520174 -0.036288418 -0.063790075 0.058204245 -0.084655754 -0.011861818 0.055251423 0.11356707
0.023377232 -0.06621248 -0.051028643 -0.016325308 -0.029632559 0.11861228 0.061607506 -0.031028284
-0.06265693 0.08729032 0.09121581 -0.04740438 -0.10924759 0.104191005 -0.06963192 0.07710796
-0.038309604 0.12167571 0.09236822 0.008892088 0.012922701 0.07915032 0.015346019 0.124070585
-0.042907853 0.02839576 0.039422505 0.041409735 0.04878906 -0.06538331 -0.026356947 -0.06686261
-0.023431133 0.099948496 0.04574725 -0.011350866 -0.06276916 0.034638256 0.094441324 0.061257765
-0.08430988 -0.071237534 0.10548663 -0.0031563898 0.11113068 0.106713206 -0.062377006 0.052328516
0.07340469 -0.010032326 0.054836027 0.12370818 -0.000590214 0.027733516 0.081811294 0.059753947
0.020558013 0.016512461 0.043346286 0.076414235 0.103527874 -0.056274712 -0.042333767 -0.08668273
-0.02282178 -0.005500219 -0.0019192814 0.02303618 -0.048523434 -0.03454391 -0.04810248 0.018818166
-0.07140589 -0.033548214 -0.10359469 -0.038050592 -0.06661291 0.035088312 -0.0036877939 -0.104605146
0.10022706 -0.022995379 -0.0362507 0.0067579434 -0.06227398 0.11070672 0.080420844 0.07013655
-0.06383947
00000000: af0f d13c 2aa3 14bd 5fa4 82bd 9367 6e3d
00000010: ff5f adbd 1258 42bc 514f 623d da95 e83d
00000020: 9c81 bf3c 699a 87bd 6903 51bd a7bc 85bc
00000030: fbbf f2bc ffea f23d 2758 7c3d 072f febc
00000040: 4752 80bd 44c5 b23d 5bcf ba3d 182b 42bd
00000050: 33bd dfbd 1862 d53d 2e9b 8ebd c7ea 9d3d
00000060: 88ea 1cbd 1d31 f93d 8d2b bd3d 1fb0 113c
00000070: bdb9 533c 9019 a23d de6d 7b3c b818 fe3d
00000080: 25c0 2fbd 3a9e e83c 7e79 213d 419d 293d
00000090: 0ad7 473d afe7 85bd 86ea d7bc 44ef 88bd
000000a0: a6f2 bfbc ccb1 cc3d 7861 3b3d fcf8 39bc
000000b0: 1e8d 80bd d8e0 0d3d 746a c13d 6ce9 7a3d
000000c0: a9aa acbd fce4 91bd 6009 d83d 6fdb 4ebb
000000d0: 7b98 e33d 748c da3d 087f 7fbd 6d56 563d
000000e0: 3355 963d a05e 24bc be9b 603d b75a fd3d
000000f0: 97b8 1aba 6631 e33c ae8c a73d 8ec0 743d
00000100: 4769 a83c 2445 873c e08b 313d 117f 9c3d
00000110: 6c06 d43d 5080 66bd 2c66 2dbd b786 b1bd
00000120: bef4 babc 2e3b b4bb 6690 fbba 5fb6 bc3c
00000130: 82c0 46bd ea7d 0dbd 1b07 45bd 8e28 9a3c
00000140: 403d 92bd da69 09bd 7429 d4bd f0da 1bbd
00000150: 596c 88bd c3b8 0f3d eaae 71bb 393b d6bd
00000160: d843 cd3d ce60 bcbc 9d7b 14bd bd71 dd3b
00000170: 0013 7fbd 34ba e23d afb3 a43d c0a3 8f3d
00000180: 45be 82bd
