loggers/h256_w256_bs20_in_channel1_lr0.0003/0512_0106/models/BasicModel_80.pth (torch, 40207 bytes, 17 tensors)

weight f4 [2, 1, 3, 3]
000000 a9 ba 4a ba 00 3f 71 bc 9d 39 e5 bb 9e 4e e2 3c
       -0.0007733503 -0.014724493 -0.0069953934 0.027625378
000010 17 7a 22 3a d6 d2 8c 3b e2 e5 aa 3c f4 e9 22 bc
       0.00061980024 0.0042975945 0.02086157 -0.009943474
000020 a9 1a 58 bc ef c0 b6 3b d0 99 dc 38 2e 78 e1 3c
       -0.01318995 0.0055771987 0.00010519067 0.027523126
000030 22 04 05 bd fc 46 26 3c 1d 98 c8 bb cf 33 cc 3c
       -0.032474644 0.01014876 -0.006121649 0.024927048
000040 a2 01 8f bc 03 18 ad bc
       -0.017456833 -0.021129614

weight f4 [2]
000000 f1 cd 7d 3f 8c 5d 80 3f
       0.99142367 1.0028548

bias f4 [2]
000000 0c 8f bc bb 49 15 95 bc
       -0.005754357 -0.018198626

running_mean f4 [2]
000000 eb 53 d5 3d 1f c7 e7 bd
       0.10416397 -0.11317276

running_var f4 [2]
000000 c6 83 d2 3d 23 9d 0e 3e
       0.1027904 0.1392713

weight f4 [4, 2, 3, 3]
000000 e8 af 9e bc 01 d3 e2 bc eb 67 6f 3b 3e d9 0f bc
       -0.019370988 -0.027688505 0.0036530446 -0.008779822
000010 82 2e 08 bd e5 1d 8e 3b 5e a6 6b 3b ef 0a 5f 3c
       -0.03324748 0.00433706 0.0035957317 0.013613447
000020 11 17 bf 3b a2 c1 75 bc cc 9b b8 bc 38 26 18 bb
       0.005831607 -0.014999779 -0.022535227 -0.002321614
000030 de 0c 2f 3d 9b 82 65 bc 54 56 38 3c 57 6d b0 3b
       0.04273688 -0.01400819 0.011251051 0.005384128
000040 5d 05 d7 bb 32 ad 45 bc c3 04 15 bd 15 2e 2a 3c
       -0.0065619186 -0.012065219 -0.036381494 0.010386963
000050 d1 de 83 3a bd 0b 20 3c 5a 4f 14 bb 4e 7c 6e bc
       0.0010060911 0.009768424 -0.0022630305 -0.014556004
000060 ed 21 37 3c ac 01 64 bd 1e 99 2b bc 80 77 fc bb
       0.011177522 -0.055665657 -0.010473518 -0.007704675
000070 ef fc f9 bb 42 c0 7e 3c 20 9e 45 3c 13 99 41 3d
       -0.007629029 0.0155487675 0.012061626 0.047265124
000080 65 93 f2 3c 7e c0 19 3d 02 fa 2d 3c 3f 2c 5e 39
       0.029611299 0.03753709 0.010618689 0.00021188053
000090 65 be ce 3c 84 e0 20 bc 07 0a e3 bb fc c6 28 3d
       0.025237272 -0.009819154 -0.0069286856 0.04120539
0000a0 b0 bc 88 bc c6 f2 9a bc eb b9 c6 bb 9d c3 3a 3c
       -0.016691536 -0.018914592 -0.0060646436 0.011399177
0000b0 6b a8 b0 3c 1f 24 73 3c 54 46 65 3c ea ae ec 3c
       0.021564683 0.014840155 0.013993818 0.028892
0000c0 2a 6b 0f 3c 72 e4 bf 3c 53 e9 9e 3c 18 cf f0 bb
       0.008753577 0.02342436 0.019398367 -0.0073489062
0000d0 cb ab 9a 3c 8b 2c 04 3c e0 4f 26 bd f8 05 db 3b
       0.018880745 0.0080672605 -0.04060352 0.006684061
0000e0 a0 4b 37 3c a6 3f ce 3b d1 af 4d bd 86 1b df bb
       0.011187464 0.0062942086 -0.0502165 -0.006808701
0000f0 da ad c1 bc be 0c a0 3c 5d 01 ed bc e1 d2 ea bb
       -0.02364247 0.019537326 -0.028931314 -0.007166252
000100 a1 14 c8 3b c7 f3 9e ba 62 aa 52 bd c5 6a 45 bb
       0.006105975 -0.0012127095 -0.05143202 -0.0030123454
000110 0b 9f ef 3b f7 c1 08 3c fe 3b 96 3a e0 7a 5a bc
       0.0073126606 0.008347026 0.0011461971 -0.01333496

weight f4 [4]
000000 7f 3d 84 3f 21 7b 7f 3f 8b e4 80 3f 0a 57 82 3f
       1.0331267 0.99797255 1.0069746 1.0182812

bias f4 [4]
000000 12 5f ab bb 02 76 b9 bb 03 f0 a1 3c 2c b1 80 3c
       -0.005229839 -0.0056598196 0.019767767 0.015709482

running_mean f4 [4]
000000 c8 0c 97 bd c5 41 4a 3d e8 fe 30 3e 5e 09 29 be
       -0.07375485 0.04937913 0.17284739 -0.1650748

running_var f4 [4]
000000 6c 3d e3 3b 3f 87 5f 3c 38 7c 49 3c db e8 65 3c
       0.0069348123 0.013643085 0.012297682 0.014032568

weight f4 [8, 4, 3, 3]
000000 4d d3 02 3c 16 5c ae 3c 48 e8 87 bc 89 18 d9 ba
       0.007984948 0.021284144 -0.016590253 -0.0016563098
000010 32 5b 23 bd f5 3b e5 3a 6e 13 e7 3c f8 f6 96 bc
       -0.039881893 0.0017489182 0.028207507 -0.01842831
000020 75 2f a5 3c 5d 0c 5c bc 98 b0 23 3d 90 1e 9b 3c
       0.02016423 -0.013430682 0.039963335 0.018935472
000030 53 08 32 bd d6 37 d6 3c 03 57 f5 3b 38 36 d2 3c
       -0.04346497 0.026149672 0.0074871792 0.02566062
000040 73 68 2e bc 6b 7a c0 bb ef 08 41 3c 64 09 c0 bc
       -0.01064502 -0.0058739684 0.011781915 -0.023441978
000050 d0 b0 d6 bc 71 0c ee bb da 3d 02 3b 15 40 32 bc
       -0.026207358 -0.0072646667 0.0019873292 -0.010879536
000060 5e 4f 63 3a df 65 ae 3c f9 a8 0d bd c3 a7 84 bb
       0.00086711894 0.02128881 -0.034584973 -0.004048319
000070 9e 9a 1a bd 00 d9 8c 3b 56 6c 8c bc 11 75 90 ba
       -0.03774511 0.0042983294 -0.017141502 -0.0011021217
000080 cd 31 d3 bc f9 89 13 bb 1d cc 82 bc 89 a3 2b bd
       -0.025780583 -0.0022512658 -0.01596647 -0.041904006
000090 15 97 be 3b 0c 03 be bc 54 4d f9 39 c9 18 9d 3c
       0.00581635 -0.023194812 0.00047550595 0.019176858
0000a0 4a 52 96 3c c5 ab 85 3c d1 85 27 3c a5 88 16 3d
       0.018349785 0.016317258 0.010224775 0.036751408
0000b0 71 00 61 3b 32 29 3a bc 5b df d2 3b 0a 05 2b bc
       0.0034332538 -0.011362361 0.0064353175 -0.010438213
0000c0 ff 21 1a 3c ef cb 48 bb 5b 06 61 3c ed dd 60 bc
       0.009407519 -0.0030639132 0.013734425 -0.013724786
0000d0 e5 b3 93 bc 42 44 1b 3c 8c 86 06 bb d9 e6 da bc
       -0.018030116 0.009476723 -0.0020526974 -0.026721405
0000e0 c1 24 d0 3b 3b a7 b0 3c a2 37 7d bb 67 62 bf bb
       0.0063520377 0.021564117 -0.0038637896 -0.005840588
0000f0 8b 3a d1 bc 1c b9 f1 3c 8f 59 fa bc 63 ad b2 bc
       -0.02554061 0.029507212 -0.030560283 -0.021811193
000100 2a 1b d2 bc d2 92 2a bc ee fd b8 3c 07 4f 97 3c
       -0.025647718 -0.010410981 0.02258202 0.0184703
000110 66 f5 8e bc 86 76 19 3c d7 52 9c bc 8c 33 26 bd
       -0.017451 0.009366637 -0.01908247 -0.040576503
000120 b4 50 03 3d 2f 79 86 3c 90 bc aa 3c e8 0e e8 bc
       0.032059386 0.016415207 0.020841867 -0.02832742
000130 73 80 91 bc b4 4e 66 bc 54 4b 16 3b aa e7 55 bc
       -0.017761445 -0.01405685 0.0022933083 -0.013055721
000140 4c 2c c7 3c 7f 1d 09 bd ee eb 6e bb be b6 7d 3b
       0.024313115 -0.033475395 -0.0036456543 0.003871366
000150 0e 05 b0 3c a8 da d3 bc b6 2e a2 3c 7d 3b 4f 3c
       0.021486785 -0.0258611 0.019797664 0.01264846
000160 99 a1 18 3a a0 76 a2 3b ce 8f f6 bc 6e 3d 8a ba
       0.000582242 0.004957989 -0.030097868 -0.0010546872
000170 86 d4 22 3c 84 47 c2 3c de 2d 1d 3d 07 34 50 bc
       0.009938365 0.023715742 0.03837382 -0.012707717
000180 d7 23 a2 bc 87 90 6f 3b 2c f4 4f bc 67 64 72 3c
       -0.01979248 0.003655465 -0.012692492 0.014794446
000190 77 88 2c bc 98 f6 c8 3b f8 d1 5d 3d 10 9b 71 bc
       -0.010530583 0.006132912 0.05415532 -0.014746442
0001a0 c9 a6 80 39 2c de 9e 3c 4f cc bf 3c e6 49 b9 3b
       0.00024538327 0.01939305 0.023412852 0.0056545613
0001b0 7f 17 4c bc 1d 0b 89 bb ee ba 85 bc b2 ac 12 3d
       -0.012456774 -0.004182233 -0.016324487 0.035809226
0001c0 bb a7 f0 bc 0f 67 8d bb 94 a6 a3 3b 3a 4f 78 3c
       -0.029376855 -0.004315264 0.004994223 0.015155608
0001d0 5d 39 d5 bc 85 4b 10 3c 20 00 a3 bb c8 96 50 3c
       -0.02602833 0.008807068 -0.00497438 0.012731262
0001e0 91 19 29 ba 8d 82 ac bc 5f 8d e3 3c 29 0c c3 3c
       -0.0006450648 -0.021058345 0.027777372 0.02380951
0001f0 98 06 57 bc 7b 88 83 ba 6e b4 94 3c 62 51 69 bb
       -0.013124131 -0.0010035181 0.018152442 -0.0035601486
000200 89 bd ed 3b 5e 39 b1 3c 08 8b 0e bd ec 37 26 bc
       0.0072552604 0.0216338 -0.03480056 -0.010145169
000210 e6 07 90 3c 8e da 7d bc c8 80 18 3b 22 4d 40 3b
       0.017581891 -0.015494002 0.002327012 0.002934285
000220 e6 05 1f 3c ea a1 29 3d 22 2e 14 bc c0 0f f6 3c
       0.009705996 0.04141418 -0.009044202 0.030036807
000230 32 e4 a3 3b d8 ee 32 3c f2 da 3b 3d a3 f6 08 bd
       0.0050015682 0.010921203 0.0458631 -0.033438336
000240 22 57 16 bc 15 63 af bc 04 ab 56 bc 60 2a c6 3c
       -0.0091760475 -0.02140955 -0.013102297 0.024190128
000250 1d 40 70 39 3c 80 6a 3a 30 a8 16 3d ad e6 db 3c
       0.00022912068 0.00089455 0.03678149 0.026843393
000260 e9 16 58 3c 5c 67 15 3c 01 fc 13 39 82 cf 6f bc
       0.013189056 0.009118881 0.00014112891 -0.014636876
000270 b8 c3 dd bc 03 7c 1e bd 8d a9 a0 bc ce 6b 3a 3b
       -0.027070865 -0.038692486 -0.019612098 0.0028445604
000280 53 4d fc bc 9c e1 ce 3b 30 23 b1 bc 9f 05 19 3c
       -0.03079859 0.006313516 -0.021623224 0.009339719
000290 14 1b 6e bc 48 a7 6a bb 6e 61 23 bd 21 f8 af 3c
       -0.014532823 -0.0035805274 -0.039887838 0.021480622
0002a0 6c 39 c9 bc 4a 48 d6 bc 18 71 ad bc 0a ff 10 bc
       -0.024563514 -0.026157517 -0.021172091 -0.008849869
0002b0 e3 1a 95 3c 21 bf a7 bc db c8 15 3c b2 71 ad bc
       0.018201297 -0.02047688 0.009142126 -0.021172378
0002c0 32 1a bc 3c 3e d5 48 3c c9 83 74 3b 9a d8 50 3b
       0.02296171 0.012257872 0.0037309995 0.0031867386
0002d0 52 7f b4 3b f3 68 77 3c 23 1f d9 bc 5d 95 5f bd
       0.005508342 0.015100705 -0.026504105 -0.054585803
0002e0 15 95 7f bc e7 51 cc bb 16 d1 30 3d 11 fe 92 bc
       -0.015599509 -0.0062353495 0.04316815 -0.017943414
0002f0 fe 00 66 3d 2b f0 3a 3c 71 f8 a6 ba 1b d4 04 3c
       0.05615329 0.0114098 -0.0012738836 0.0081072105
000300 67 3a 43 bc 6b 55 10 3b 34 92 1d bd 25 06 ec 3c
       -0.01191578 0.002202357 -0.03846951 0.028811524
000310 f4 63 00 3c 3f 75 06 3a 30 02 84 3c 37 23 29 3c
       0.007836331 0.00051291654 0.016114324 0.010323337
000320 1b de be bc 71 9f 19 bd 5e c3 0a 3c f0 75 0d 3d
       -0.023299268 -0.03750557 0.008469431 0.034536302
000330 36 7c 9f 3c 92 af e4 bb d6 6a 23 3c ed 9c 87 3b
       0.019468408 -0.0069789374 0.009974202 0.00413858
000340 82 0c 84 ba 2f 10 62 3b 90 82 4e 3c 0c 2e 8e 3b
       -0.0010074528 0.003449451 0.012604371 0.0043389853
000350 53 d5 15 3c 3f 13 71 3c 8c c8 ec bb ca d1 3e 3c
       0.009145099 0.014714061 -0.0072260555 0.011646697
000360 24 c6 06 3c ac ad ee 3c 8c 9f a8 bc 24 6f a6 3c
       0.008225951 0.029135548 -0.02058389 0.020316668
000370 e9 a1 c4 bc f4 35 a5 bc 27 b0 0c bc 9f 02 90 3c
       -0.024002986 -0.020167328 -0.00858692 0.017579375
000380 61 51 a5 3c 64 0a 57 bc 54 31 cc bc 57 ea 09 3d
       0.020180406 -0.013125036 -0.024925865 0.03367075
000390 d7 65 1c 3c d9 95 26 bc 89 6e 0a 3d 71 73 d3 3b
       0.009545765 -0.010167562 0.03379682 0.0064529707
0003a0 c5 86 4d 3b 76 ab c8 b9 10 2b 7a ba 23 a1 b0 bc
       0.0031360846 -0.0003827472 -0.000954316 -0.021561211
0003b0 f5 a9 5c 3b 15 35 69 3b 74 7f 0c 3c 5f 96 ac 3a
       0.0033670638 0.0035584618 0.008575309 0.0013167373
0003c0 da 1a 56 3c 55 a8 4e 3c 3e 54 98 3c ec 6e 18 bd
       0.013067925 0.012613376 0.018594857 -0.03721516
0003d0 99 d3 b2 bc 90 a6 21 3c 84 80 c4 3c ea eb d1 3b
       -0.021829413 0.009866372 0.023987062 0.006406297
0003e0 a5 4c 13 bc 38 6f 4c bb dc ac 46 3c 91 74 47 3b
       -0.008990441 -0.0031194221 0.012126174 0.003043447
0003f0 3e 48 2a 3c 3c 05 a9 3c 83 8f 2e bc d7 2a 81 bb
       0.0103932 0.020632379 -0.010654333 -0.0039418745

weight f4 [8]
000000 37 31 81 3f e1 52 80 3f d8 87 82 3f 5b 5d 84 3f
       1.0093144 1.0025293 1.0197706 1.034099
000010 57 b9 84 3f b0 1a 84 3f e8 8f 81 3f f5 11 7b 3f
       1.0369061 1.0320644 1.0122042 0.98074275

bias f4 [8]
000000 a5 84 90 3c 55 2a ea 3a 4c 14 b6 3c 18 9d 3b 3c
       0.017641375 0.0017865399 0.022226475 0.011451028
000010 fe 71 96 3b 57 7e 73 39 a1 f5 6d 39 86 cf a0 3c
       0.0045912256 0.00023221351 0.00022693585 0.019630205

running_mean f4 [8]
000000 b4 c6 02 be 07 e3 14 bd 50 3d a8 3d da 27 8c 3d
       -0.12771112 -0.036349323 0.082148194 0.068435386
000010 20 81 45 be 37 69 92 3d ac 4b e1 3d ba 2c e6 3c
       -0.19287539 0.071489744 0.110007614 0.0280975

running_var f4 [8]
000000 50 01 92 3b d4 b6 9e 3b e1 f4 a4 3b 11 ca 91 3b
       0.004455723 0.004843572 0.0050340747 0.004449137
000010 12 d6 2f 3d b1 42 bb 3b ff 07 08 3c 6d b5 5f 3b
       0.042928763 0.0057147373 0.008302688 0.0034135238

weight f4 [97, 8, 3, 3]
000000 94 65 40 bc 35 6b 82 3c 76 33 53 3d ba 54 8d bc
       -0.011742968 0.01592026 0.05156275 -0.017252315
000010 ae 30 7d bc 36 96 58 bc f7 13 07 3d fa 0a 5e bc
       -0.015453501 -0.013219407 0.032978024 -0.013552422
000020 10 c8 ac 3c c4 9d fe 3b 82 33 0e 3d 35 56 fd ba
       0.021091491 0.007770272 0.03471709 -0.001932806
000030 f7 e3 1d bb c1 b2 bc 3c 94 4b 82 bc ff aa e1 bb
       -0.0024092176 0.023034455 -0.01590518 -0.0068868394
000040 4a 5d 4b 3b ed cd d2 3b e3 38 a9 bc a8 47 32 bb
       0.0031030946 0.0064332397 -0.020657009 -0.0027203355
000050 cd 9f 19 3c 4a 3d 40 bc ed cf 0e 3c c3 9c aa bc
       0.009376478 -0.011733362 0.008716566 -0.020826703
000060 60 19 da bb 9b 1d e6 bc 75 8f ca 3c 71 a0 2e 3b
       -0.006655857 -0.028090289 0.024726609 0.0026645923
000070 bf 53 c6 3c af 4a ca 3c ce df 0c 3b f2 c9 87 3c
       0.024209855 0.024693815 0.0021495703 0.016575787
000080 1b ef 8e 3c 6e 35 22 3d a7 51 59 3c c5 e9 c5 bc
       0.017447999 0.039601736 0.013264096 -0.024159322
000090 55 4e c5 3c 48 f1 7d 3d 43 71 28 bc cc 50 53 3c
       0.024085203 0.06199768 -0.01028091 0.012897681
0000a0 84 bd df 3c b8 b9 63 bc c9 4a a6 3b f7 b1 a2 3b
       0.027312048 -0.013899259 0.005074833 0.0049650627
0000b0 de 2b 8f bc e4 64 96 3c dc fd a6 bc 0f d5 f3 bc
       -0.017476972 0.018358655 -0.020384721 -0.02976468
0000c0 13 7f b7 3b c8 12 19 bc 9b f3 88 ba e5 5a 96 3c
       0.005599865 -0.009342857 -0.0010448577 0.018353889
0000d0 21 03 dd 3c ca d7 1d 3c 0a b8 78 bd 25 44 2c bc
       0.026979031 0.009633968 -0.06072239 -0.010514294
0000e0 77 1d 05 3c b1 26 be 3c 06 20 0a bc 96 b6 2a 3d
       0.008124701 0.023211809 -0.008430487 0.041678034
0000f0 f6 28 1a 3d a6 39 30 3c ab 6f 3d 3d 40 f4 52 bc
       0.03763672 0.010755932 0.046249073 -0.012875617
000100 f4 ae 7b 3c 29 ea ca 3c bd e8 42 ba c6 e1 01 bc
       0.015361536 0.02476986 -0.00074351934 -0.007927364
000110 fc 4d 10 3c e0 62 2f 3b d0 c9 ca 3c 54 cf 5a 3c
       0.008807655 0.0026761815 0.024754435 0.013355095
000120 49 2b 04 3d 9f 93 1d 3d 10 e2 28 bc d8 7d 21 bd
       0.032267842 0.03847086 -0.010307804 -0.039426655
000130 21 b7 4b bd b9 90 41 3c 56 8d 62 3d 13 8e d7 3c
       -0.049735192 0.01181429 0.05531057 0.026312863
000140 a9 33 ef 3b 5b 8f 93 3c c6 f0 ad bc 5e 10 2f 3b
       0.0072998595 0.018012693 -0.021232974 0.0026712636
000150 b9 2d fe 3b 90 d4 ad bc bf 03 15 3d 2c b3 bb bc
       0.0077569154 -0.021219522 0.036380526 -0.022912584
000160 2e e0 07 bd 00 60 8d bc 9e a0 53 3c 9a 78 2a 3b
       -0.03317278 -0.01725769 0.012916712 0.0026011826
000170 50 3b ca 3c 3d 42 ce bc 44 ac 49 bb 2d cc 4d 3d
       0.024686486 -0.02517807 -0.0030772844 0.050243545
000180 12 81 c1 ba 98 b0 a9 bb 74 84 25 3c 10 d2 d7 bb
       -0.0014763197 -0.0051785223 0.01010238 -0.0065863207
000190 fb e9 f6 bb 57 10 01 bd cf 2e 83 3c 48 b9 70 bd
       -0.007535217 -0.031509724 0.016013531 -0.058770448
0001a0 1b 93 92 bb 8d b3 3b 3d a8 6c 94 3c 03 95 c7 3b
       -0.0044731027 0.04582553 0.018118218 0.0060907616
0001b0 89 53 61 3d a9 4b ff 3c d9 45 6c 3b 3f 62 20 bd
       0.055011306 0.031164007 0.0036052375 -0.039156195
0001c0 98 fd 05 3d 3d 90 ad bc 23 cf 2b 3c d7 90 bf 3b
       0.03271255 -0.021186942 0.010486397 0.0058461237
0001d0 3c cd 53 3c 14 88 be bc cf 24 0e 3d ee 5d 7e bc
       0.01292735 -0.023258246 0.034703072 -0.015525324
0001e0 05 63 45 3c 64 4d e8 bb 82 5a 5e bb 87 f0 f9 3c
       0.012047534 -0.007089304 -0.0033928459 0.0305102
0001f0 f9 18 89 3d 5f ec 8e 3b 28 cd 13 bc 92 97 9d bc
       0.06694216 0.0043616737 -0.009021081 -0.019237313
000200 04 48 72 3c 5c fb 88 bb a5 97 39 bc f4 cd 0f 3c
       0.014787678 -0.004180355 -0.011327659 0.00877713
000210 18 38 1b bd af 6e 3d 3c 52 13 f0 3c 5d f7 d9 bc
       -0.037895292 0.011562034 0.029306088 -0.02660721
000220 7f 5d 86 bd 57 47 4e bd 1f a2 b2 3c d5 33 76 3c
       -0.06560802 -0.050361004 0.021805821 0.015027006
000230 fb c0 b8 3a 37 eb 04 3d 50 61 87 3c ee f9 cc bc
       0.0014095599 0.03245088 0.016525894 -0.02502152
000240 5f df ae bc 85 80 19 3c bb 78 19 bd 06 1b 6d bc
       -0.021346746 0.00936902 -0.037468653 -0.014471775
000250 99 b8 d6 3c b3 38 1b 3c dd 6a aa bc bc 9c e6 3c
       0.02621107 0.009473967 -0.02080291 0.028150909
000260 77 2d 85 3c 0d 1b 2e 3c c8 b8 6e 3c 36 1a 15 bd
       0.01625703 0.010626567 0.0145704225 -0.03640195
000270 09 7b 04 3d 6e 9c 95 bc 99 31 c1 3b 8c d3 08 3c
       0.032343898 -0.018263068 0.005895805 0.008351218
000280 a0 72 70 bb 18 17 d1 bb 41 04 08 bd df f2 93 bb
       -0.0036689416 -0.006380927 -0.03320718 -0.0045150365
000290 e3 c7 b7 3a e1 37 da 3c 03 f6 4b bb 93 db 3c 3b
       0.0014021363 0.026637973 -0.0031121976 0.00288174
0002a0 f1 57 b5 3c 77 d5 d6 ba e3 0c 8e 3c 23 5f ef ba
       0.02213666 -0.0016390522 0.01734013 -0.0018262606
0002b0 e0 72 53 3c 37 bd ab bc ae 73 94 3c 60 fd b5 bb
       0.012905806 -0.020964248 0.018121567 -0.0055538863
0002c0 b6 a0 c4 bc 62 29 71 3d cd 96 37 3a 56 42 9f 3c
       -0.024002414 0.058877356 0.0007003367 0.019440811
0002d0 34 b2 00 3c 18 93 e0 bc 9a cd 2b bb 61 d7 14 bb
       0.007854987 -0.02741389 -0.0026215077 -0.0022711384
0002e0 79 af 29 3b 33 57 2a bb f4 0b 59 3b ec 2f 59 bc
       0.0025891943 -0.0025991916 0.0033118697 -0.013256054
0002f0 79 83 34 3c b7 f2 cf ba 3a ec 70 bc af 99 f9 3c
       0.011017674 -0.0015865181 -0.014704758 0.03046879
000300 cf 2c 4f 3c bf db 28 3b d0 26 a7 3c 03 94 98 bc
       0.012644961 0.0025765745 0.02040425 -0.018625265
000310 7f f9 6c 3c 1e f8 c4 3b b0 53 2a bc 78 d3 59 bb
       0.014463781 0.006011023 -0.010395929 -0.0033237617
000320 33 ae a2 3c ef 37 b7 bb 6c f9 21 bd 75 61 40 3c
       0.019858455 -0.0055913846 -0.039544508 0.011741986
000330 69 be d1 3c dd 6d c7 bb 62 87 58 bd 45 47 1d bd
       0.02560349 -0.006086095 -0.052863486 -0.038398046
000340 d7 7a a9 3c b7 54 a1 3c a6 e7 40 bd be f5 87 3c
       0.020688457 0.019693715 -0.047095917 0.016596671
000350 29 1d d8 3b 5e 6b fc 3c 29 96 3f bc 89 0e ad 3c
       0.006595273 0.030812915 -0.011693516 0.021125095
000360 74 a6 ee bc bf bf e0 39 79 ce 17 bd 98 ec 0e bb
       -0.029132105 0.0004286747 -0.037062142 -0.0021808501
000370 a9 05 a5 3a f3 9f 22 3d 92 42 03 bd a1 9a 36 3c
       0.0012590188 0.03970332 -0.03204591 0.011145265
000380 0c e8 74 bb e6 97 0b 3d 48 bf fe 3c 31 a7 e1 bc
       -0.0037369756 0.03408041 0.03109707 -0.027545543
000390 ac 54 a1 3a 19 fc f6 ba 53 a3 95 bb 60 d0 27 3b
       0.0012308559 -0.0018843442 -0.004566589 0.002560638
0003a0 cb ba fa 3b cf 99 ab 3c 19 79 cf 3c e5 13 d0 3b
       0.007651662 0.020947365 0.025326299 0.006350028
0003b0 e8 57 27 bd 70 c4 db 3c 56 d9 b5 3b 5f 93 8f 3b
       -0.04085532 0.026827067 0.00554959 0.0043815817
0003c0 40 e3 24 bb f0 c5 8e bc fd d4 c0 3b 22 b0 4c 3b
       -0.0025159866 -0.017428368 0.005884765 0.0031232913
0003d0 14 87 18 3c 8f 01 9f bc 7a a1 8c 3c 71 78 9a 3b
       0.009309549 -0.019409923 0.017166842 0.0047140648
0003e0 b3 27 37 bc 4b 96 ca 3c 48 ca f6 bb 8a 56 b2 bc
       -0.011178899 0.024729868 -0.007531438 -0.02176978
0003f0 8a 9c ae bc 44 f8 43 bd 8c 92 07 3d 42 08 07 3c
       -0.021314878 -0.047844186 0.033098742 0.008241715

bias f4 [97]
000000 e6 6a cf 3c 6d bc 18 bd 03 f2 83 bd 17 ff 71 3d
       0.025319528 -0.03728907 -0.064426444 0.059081163
000010 61 c1 aa bd c0 8b 26 bc 49 23 5f 3d 0d 41 e8 3d
       -0.08337665 -0.010165155 0.05447701 0.113405325
000020 73 ce c0 3c d2 c4 83 bd d7 e0 50 bd d4 a8 7b bc
       0.023535943 -0.06434025 -0.050995674 -0.015360076
000030 de ce e9 bc 8d 22 f2 3d 05 c9 82 3d 51 61 fe bc
       -0.028541025 0.11822996 0.06385998 -0.031052263
000040 a2 2a 80 bd 45 c6 b3 3d c0 34 bd 3d 09 06 42 bd
       -0.062581316 0.08778051 0.09238577 -0.047369037
000050 e9 ba df bd 36 52 d4 3d c0 a6 8b bd 7e fb 97 3d
       -0.10924322 0.10367243 -0.068189144 0.07421015
000060 83 25 1a bd c6 a6 fa 3d cb 5f be 3d 55 b4 27 3c
       -0.03763343 0.12238841 0.09295615 0.010235866
000070 d7 cf 66 3c df 17 a1 3d 41 3d 78 3c c0 f9 fd 3d
       0.014087639 0.07865881 0.015151323 0.12401152
000080 92 88 2f bd 85 0e f4 3c 01 78 1e 3d bc 17 2c 3d
       -0.042854853 0.02979208 0.038688663 0.042014822
000090 cb 06 53 3d b2 37 84 bd 44 54 e6 bc 5f 35 86 bd
       0.05152015 -0.064559355 -0.028116353 -0.065531485
0000a0 9a b9 c0 bc fc 48 cf 3d b8 3c 3c 3d 28 19 44 bc
       -0.023526002 0.101213425 0.045956343 -0.011968888
0000b0 27 54 78 bd 2a f6 12 3d c5 24 c2 3d 85 e1 82 3d
       -0.06062713 0.03587929 0.094796695 0.06390671
0000c0 57 76 ad bd 91 79 90 bd ed 83 db 3d 71 9e 61 bb
       -0.08469837 -0.07054437 0.10718522 -0.0034426714
0000d0 39 7b e5 3d 68 fb d9 3d b9 cf 7a bd a5 79 54 3d
       0.112051435 0.10643655 -0.061233256 0.05187382
0000e0 d4 ce 96 3d 57 69 26 bc 22 21 61 3d 4d ef fd 3d
       0.07363668 -0.010156951 0.05496324 0.123991586
0000f0 30 25 82 ba 75 88 ea 3c 03 dd b0 3d cd ea 7d 3d
       -0.0009929296 0.02862952 0.08635905 0.0619915
000100 c3 19 b1 3c 68 a1 83 3c 35 7e 2f 3d 92 4f 9c 3d
       0.02161873 0.016068175 0.04284497 0.07632364
000110 9b e6 d2 3d f0 7c 63 bd 84 20 29 bd 80 9b b2 bd
       0.10297891 -0.05553907 -0.041290775 -0.087210655
000120 01 7c d1 bc 65 ce f0 bb 4a 94 e0 ba e7 e4 c3 3c
       -0.025571825 -0.007348823 -0.0017134037 0.02391286
000130 f6 b1 4a bd 88 a4 11 bd 28 bf 46 bd 77 34 a1 3c
       -0.049486123 -0.0355573 -0.048522145 0.019678337
000140 cb b4 90 bd 61 f1 03 bd 1c 11 d4 bd d4 db 19 bd
       -0.070657335 -0.03221262 -0.10354826 -0.03756316
000150 88 eb 88 bd 68 f9 12 3d 55 07 52 bb 66 01 d5 bd
       -0.06685549 0.035882384 -0.0032047827 -0.10400657
000160 54 c8 cd 3d 9e 80 c3 bc 1b 18 18 bd f9 eb f5 3b
       0.10047975 -0.02386504 -0.037132364 0.007504937
000170 bf c6 7b bd 04 06 e2 3d a1 63 a5 3d df c9 87 3d
       -0.061468836 0.11036304 0.08075643 0.06630301
000180 92 71 80 bd
       -0.06271662
