loggers/h256_w256_bs20_in_channel1_lr0.0003/0512_0106/models/BasicModel_79.pth (torch, 40207 bytes, 17 tensors)

weight f4 [2, 1, 3, 3]
0	0xba5d0c35	-0.00084323
1	0xbc72311f	-0.014782219
2	0xbbe38183	-0.0069429292
3	0x3ce1f663	0.027583307
4	0x3a0d389e	0.000538716
5	0x3b8ec2d2	0.0043567205
6	0x3caaa53c	0.020830743
7	0xbc232968	-0.0099586025
8	0xbc58d97c	-0.013235446
9	0x3bb740ac	0.0055924263
10	0x389e3aae	7.544957e-05
11	0x3ce1f7d4	0.027583994
12	0xbd053eaa	-0.032530464
13	0x3c2562d5	0.010094364
14	0xbbc4aaae	-0.006001792
15	0x3ccb8725	0.024844715
16	0xbc8e4f4c	-0.017371796
17	0xbcad8d35	-0.021185497

weight f4 [2]
0	0x3f7dd11e	0.9914721
1	0x3f805d06	1.0028389

bias f4 [2]
0	0xbbb32b20	-0.0054677874
1	0xbc91aa5f	-0.017781435

running_mean f4 [2]
0	0x3dd76569	0.10517389
1	0xbde27260	-0.110569715

running_var f4 [2]
0	0x3dd2be96	0.10290258
1	0x3e0ec5b3	0.13942604

weight f4 [4, 2, 3, 3]
0	0xbc9fbba4	-0.019498654
1	0xbce3264f	-0.027728228
2	0x3b6e0ed7	0.0036324763
3	0xbc117d01	-0.008879901
4	0xbd082603	-0.033239376
5	0x3b8d589b	0.004313541
6	0x3b720374	0.0036928328
7	0x3c5e3150	0.013561562
8	0x3bc06fbc	0.005872695
9	0xbc74903c	-0.014926966
10	0xbcb9a9e0	-0.02266401
11	0xbb121fb1	-0.0022296722
12	0x3d2eb8cf	0.042656716
13	0xbc672b0e	-0.014109386
14	0x3c3734d7	0.011182032
15	0x3bafb1b5	0.0053617605
16	0xbbd7fbfc	-0.006591318
17	0xbc441498	-0.011967801
18	0xbd155586	-0.036458515
19	0x3c283146	0.010265654
20	0x3a750db2	0.0009348049
21	0x3c20c339	0.00981217
22	0xbb0f33b2	-0.0021850881
23	0xbc6fb6bd	-0.014630971
24	0x3c36d03c	0.011158045
25	0xbd642531	-0.05569953
26	0xbc2aee3a	-0.010432774
27	0xbbfe5715	-0.007761846
28	0xbbf58ae1	-0.0074933623
29	0x3c7cbc44	0.015425745
30	0x3c46ad7d	0.012126324
31	0x3d40ffa1	0.047118787
32	0x3cf4a92b	0.029865822
33	0x3d1a0395	0.037601072
34	0x3c2dc387	0.010605699
35	0x38fadc4b	0.00011961962
36	0x3cce34a7	0.025171591
37	0xbc227863	-0.009916398
38	0xbbe68b53	-0.0070356517
39	0x3d28d925	0.04122271
40	0xbc8aa7b4	-0.01692567
41	0xbc9aa196	-0.018875878
42	0xbbc5f9b4	-0.00604173
43	0x3c3cdbc7	0.011527008
44	0x3caee271	0.02134821
45	0x3c72625a	0.014793957
46	0x3c649a8e	0.013952864
47	0x3cecd8da	0.028911997
48	0x3c0d609d	0.008628991
49	0x3cc13f53	0.023589766
50	0x3c9d42d8	0.019196913
51	0xbbeb9656	-0.0071895523
52	0x3c9b3bf9	0.018949496
53	0x3c048390	0.008088008
54	0xbd256fdc	-0.04038988
55	0x3bd4bc8e	0.006492204
56	0x3c3a800e	0.01138307
57	0x3bcc4e27	0.0062349024
58	0xbd4dbf52	-0.050231285
59	0xbbe07887	-0.0068503055
60	0xbcc0ecae	-0.023550358
61	0x3c9f966e	0.01948091
62	0xbcedfab2	-0.029050205
63	0xbbe73441	-0.0070557897
64	0x3bca7d0d	0.006179458
65	0xbaaca46c	-0.001317156
66	0xbd52ad4b	-0.051434796
67	0xbb41dac1	-0.002957985
68	0x3bf76547	0.007549915
69	0x3c0c7413	0.008572596
70	0x3a89930a	0.0010496092
71	0xbc58b45c	-0.013226595

weight f4 [4]
0	0x3f843d62	1.0331233
1	0x3f7f8344	0.9980967
2	0x3f80e61d	1.0070225
3	0x3f824db5	1.0179964

bias f4 [4]
0	0xbb8f0183	-0.004364194
1	0xbbb20b0d	-0.0054334463
2	0x3ca2e9b2	0.019886825
3	0x3c80dc75	0.015730122

running_mean f4 [4]
0	0xbd96e30b	-0.07367524
1	0x3d49b65e	0.049246185
2	0x3e30b8df	0.17258023
3	0xbe28e090	-0.16491914

running_var f4 [4]
0	0x3be3d9bc	0.006953446
1	0x3c60648f	0.01369585
2	0x3c4a322e	0.012341065
3	0x3c66b383	0.014080885

weight f4 [8, 4, 3, 3]
0	0x3c005ebb	0.0078350855
1	0x3cad2e93	0.021140372
2	0xbc872437	-0.01649676
3	0xbad9a5c5	-0.0016605189
4	0xbd22b43f	-0.039722677
5	0x3ad62adf	0.0016339681
6	0x3ce7100c	0.028205894
7	0xbc94c7e0	-0.018161714
8	0x3ca429ee	0.020039525
9	0xbc582151	-0.013191537
10	0x3d23ab54	0.039958313
11	0x3c9b62f9	0.018968092
12	0xbd32e181	-0.04367209
13	0x3cd522dd	0.0260176
14	0x3bf28871	0.007401519
15	0x3cd28839	0.025699722
16	0xbc2da321	-0.010597975
17	0xbbc202af	-0.00592073
18	0x3c421d96	0.011847874
19	0xbcbee701	-0.02330351
20	0xbcd840ab	-0.026398024
21	0xbbee1068	-0.0072651394
22	0x3b082973	0.0020776659
23	0xbc350563	-0.011048648
24	0x3a76f0ae	0.00094200193
25	0x3cae4e24	0.021277495
26	0xbd0d6f43	-0.034529936
27	0xbb85a137	-0.004078056
28	0xbd1a8525	-0.037724633
29	0x3b8e23a0	0.004337743
30	0xbc89cc7e	-0.016821142
31	0xbaa65e58	-0.0012692912
32	0xbcd3702e	-0.025810327
33	0xbb20bfc9	-0.0024528375
34	0xbc821672	-0.015879843
35	0xbd2bf959	-0.041985843
36	0x3bc7d46e	0.0060983216
37	0xbcbfa89c	-0.023395829
38	0x39cd257e	0.0003912858
39	0x3c9f60bb	0.019455304
40	0x3c94ba78	0.018155321
41	0x3c8475a2	0.016169373
42	0x3c2673b5	0.010159423
43	0x3d15a4a5	0.03653397
44	0x3b7665eb	0.003759737
45	0xbc3a7280	-0.011379838
46	0x3bd0736c	0.0063614156
47	0xbc2e0c96	-0.010623118
48	0x3c180844	0.009279314
49	0xbb4472f7	-0.002997575
50	0x3c60e85a	0.013727272
51	0xbc61f42d	-0.013791126
52	0xbc93c0b9	-0.018036233
53	0x3c1ae2f7	0.009453527
54	0xbb09706b	-0.0020971547
55	0xbcdd4444	-0.02701009
56	0x3bce1a7a	0.0062897773
57	0x3cafc395	0.021455565
58	0xbb69a923	-0.0035653792
59	0xbbbf70cc	-0.005842304
60	0xbcd1f5c7	-0.025629891
61	0x3cf01215	0.029305497
62	0xbcf9da3b	-0.030499568
63	0xbcb19096	-0.02167539
64	0xbcd4c204	-0.02597142
65	0xbc28b7ae	-0.010297699
66	0x3cb8684f	0.022510676
67	0x3c990295	0.018677989
68	0xbc8cdbba	-0.017194618
69	0x3c1a9f51	0.009437398
70	0xbc9c60ae	-0.01908907
71	0xbd25d5fa	-0.040487267
72	0x3d03d57d	0.03218602
73	0x3c86c0c3	0.016449338
74	0x3caa38e8	0.020779088
75	0xbce81621	-0.028330864
76	0xbc92c361	-0.01791543
77	0xbc6ac39a	-0.014328862
78	0x3b0c0b3f	0.0021369008
79	0xbc564417	-0.013077757
80	0x3cc8aed4	0.024497427
81	0xbd093162	-0.03349436
82	0xbb7d7d79	-0.0038679524
83	0x3b818f92	0.0039538825
84	0x3caf95c3	0.021433717
85	0xbcd349b7	-0.025791986
86	0x3ca2ba85	0.01986433
87	0x3c4ec82b	0.012620966
88	0x3a17b177	0.0005786637
89	0x3ba2018d	0.0049440325
90	0xbcf571ea	-0.029961545
91	0xba9ae9cf	-0.0011818948
92	0x3c24d88d	0.010061395
93	0x3cc1de0a	0.023665447
94	0x3d1cf48a	0.038319148
95	0xbc4dc2b6	-0.01255863
96	0xbca44bf4	-0.020055749
97	0x3b67b84f	0.003535766
98	0xbc50f2a2	-0.012753161
99	0x3c751108	0.014957674
100	0xbc268561	-0.010163636
101	0x3bc95f99	0.0061454293
102	0x3d5d84c1	0.054081682
103	0xbc73b942	-0.014875712
104	0x39dd08ff	0.00042159107
105	0x3c9d3e0a	0.019194622
106	0x3cbd7e3c	0.023131482
107	0x3bb87f75	0.0056304284
108	0xbc489cee	-0.012244446
109	0xbb8c16dc	-0.004275186
110	0xbc85026e	-0.01623651
111	0x3d11c641	0.03558946
112	0xbcf03e48	-0.029326573
113	0xbb8bf197	-0.004270743
114	0x3b9998a0	0.004687384
115	0x3c7a5c34	0.015280772
116	0xbcd6f775	-0.026241044
117	0x3c105b3c	0.0088108145
118	0xbb9c4c5d	-0.0047698454
119	0x3c4ff4fc	0.012692686
120	0xb9ab8da3	-0.0003272119
121	0xbcad7c04	-0.0211773
122	0x3ce5180a	0.027965564
123	0x3cc3c474	0.023897387
124	0xbc545106	-0.012958771
125	0xba7aa593	-0.00095614156
126	0x3c93a678	0.018023714
127	0xbb5f23fc	-0.0034048548
128	0x3bee4f73	0.0072726547
129	0x3cb017a4	0.021495648
130	0xbd0f1d81	-0.034940246
131	0xbc28b0f0	-0.010296091
132	0x3c8f932a	0.017526228
133	0xbc7e649e	-0.015526919
134	0x3b0f0ff9	0.0021829589
135	0x3b3b8330	0.002861213
136	0x3c1d8b86	0.0096157845
137	0x3d28d370	0.041217268
138	0xbc1694d9	-0.0091907615
139	0x3cf43ddc	0.029814653
140	0x3ba3667f	0.0049865837
141	0x3c307055	0.01076897
142	0x3d3b0da8	0.04566732
143	0xbd087e4b	-0.033323567
144	0xbc196435	-0.00936227
145	0xbcae2f1c	-0.021262698
146	0xbc543302	-0.012951614
147	0x3cc5c306	0.024140846
148	0x378808c2	1.6216542e-05
149	0x3a456da7	0.0007531293
150	0x3d15f7b3	0.036613178
151	0x3cdcdbaa	0.026960213
152	0x3c5a7a4c	0.013334822
153	0x3c13bc05	0.009016995
154	0x3987ced9	0.0002590332
155	0xbc6f6944	-0.0146125
156	0xbcdcd24c	-0.026955746
157	0xbd1e83c5	-0.038699884
158	0xbca077ed	-0.019588435
159	0x3b39baff	0.0028340218
160	0xbcfb6c88	-0.0306914
161	0x3bd12cd0	0.006383516
162	0xbcb1019c	-0.021607213
163	0x3c16908a	0.009189734
164	0xbc6eeb04	-0.014582399
165	0xbb6aefca	-0.0035848492
166	0xbd255fc6	-0.04037454
167	0x3caf3974	0.0213897
168	0xbcc8c153	-0.024506247
169	0xbcd76f0f	-0.026298074
170	0xbcae2e36	-0.02126227
171	0xbc167796	-0.009183785
172	0x3c95c2d9	0.018281387
173	0xbca68277	-0.020325882
174	0x3c0f9a6b	0.008764843
175	0xbcac00fd	-0.020996565
176	0x3cba4b92	0.022741113
177	0x3c431e17	0.011909029
178	0x3b79c59d	0.0038112171
179	0x3b4b512c	0.0031023724
180	0x3bbab6bb	0.0056980527
181	0x3c77a392	0.015114682
182	0xbcdb344f	-0.026758341
183	0xbd60586c	-0.054771826
184	0xbc7b8e7d	-0.015353796
185	0xbbd2815a	-0.0064241113
186	0x3d3141e0	0.043275714
187	0xbc932712	-0.017962966
188	0x3d64c303	0.05585004
189	0x3c3b3d38	0.01142817
190	0xbaa001c3	-0.0012207556
191	0x3c049a07	0.008093364
192	0xbc416032	-0.01180272
193	0x3b09277d	0.0020928078
194	0xbd1d602b	-0.03842179
195	0x3cec57a8	0.028850392
196	0x3c03dac8	0.008047767
197	0x3a3475be	0.0006884
198	0x3c837fdc	0.016052179
199	0x3c29f611	0.010373608
200	0xbcbe831d	-0.023255879
201	0xbd195ce2	-0.037442096
202	0x3c0ca7f8	0.008584969
203	0x3d0d9c17	0.034572687
204	0x3c9f10b0	0.019417137
205	0xbbe61666	-0.007021713
206	0x3c257dd8	0.010100804
207	0x3b8837e8	0.004157055
208	0xba98560c	-0.0011622324
209	0x3b61ea53	0.0034471944
210	0x3c4e7e73	0.01260339
211	0x3b869f92	0.0041083777
212	0x3c13ecdb	0.009028639
213	0x3c70fc73	0.014708626
214	0xbbec2b03	-0.007207276
215	0x3c3cab37	0.01151543
216	0x3c0a279e	0.008432297
217	0x3ced40e7	0.028961612
218	0xbca80f60	-0.020515144
219	0x3ca4ab74	0.020101286
220	0xbcc37020	-0.023857176
221	0xbca3df9c	-0.020004086
222	0xbc05c1c8	-0.008163877
223	0x3c924163	0.017853444
224	0x3ca68fe5	0.020332286
225	0xbc5afe79	-0.013366335
226	0xbcc909d2	-0.024540816
227	0x3d09bfc4	0.033630148
228	0x3c1abd52	0.009444552
229	0xbc21e698	-0.009881638
230	0x3d0b385b	0.03398929
231	0x3bd95ab4	0.006633127
232	0x3b40689d	0.002935923
233	0xb94c6d49	-0.00019495668
234	0xba91788b	-0.0011098547
235	0xbcb0634a	-0.02153172
236	0x3b6205e1	0.0034488367
237	0x3b81689a	0.003949237
238	0x3c0be472	0.008538352
239	0x3aa486e6	0.001255241
240	0x3c5533dc	0.0130128525
241	0x3c4d0bd6	0.012515029
242	0x3c984ee4	0.018592305
243	0xbd1a8a62	-0.03772963
244	0xbcafb3e2	-0.02144808
245	0x3c23ae7e	0.009990333
246	0x3cc269f6	0.023732167
247	0x3bd0e4a7	0.0063749137
248	0xbc0f7e73	-0.008758175
249	0xbb682dc1	-0.0035427662
250	0x3c4d76b1	0.012540505
251	0x3b435862	0.002980732
252	0x3c290970	0.0103171915
253	0x3ca9eeeb	0.020743808
254	0xbc3223aa	-0.010872761
255	0xbb819eb9	-0.003955689

weight f4 [8]
0	0x3f8114e7	1.0084504
1	0x3f803fde	1.0019491
2	0x3f826be4	1.0189176
3	0x3f844667	1.0333985
4	0x3f84a8e2	1.0364039
5	0x3f840409	1.0313731
6	0x3f817886	1.0114906
7	0x3f7adc3e	0.9799231

bias f4 [8]
0	0x3c8c75fd	0.017146105
1	0x3ae3838d	0.0017357931
2	0x3cb356be	0.021891948
3	0x3c37e563	0.011224124
4	0x3b8febb3	0.004392111
5	0xb7a3e080	-1.9535655e-05
6	0x39865605	0.0002562256
7	0x3c9d9dd9	0.019240307

running_mean f4 [8]
0	0xbe02ae78	-0.12761867
1	0xbd1506e4	-0.036383525
2	0x3da7b523	0.08188846
3	0x3d89df3f	0.06732034
4	0xbe463d60	-0.1935935
5	0x3d9117b3	0.070845984
6	0x3de64023	0.11242702
7	0x3ce35eaa	0.0277551

running_var f4 [8]
0	0x3b923c0f	0.004462726
1	0x3b9fcef1	0.0048769643
2	0x3ba5a620	0.005055204
3	0x3b925d0c	0.0044666585
4	0x3d30c744	0.043158785
5	0x3bbba648	0.0057266094
6	0x3c0b02a0	0.008484513
7	0x3b6061c7	0.0034237967

weight f4 [97, 8, 3, 3]
0	0xbc3ffaf1	-0.011717544
1	0x3c82591d	0.015911633
2	0x3d5261a2	0.05136264
3	0xbc8ca8ab	-0.01717027
4	0xbc771c7e	-0.015082477
5	0xbc53aca5	-0.01291958
6	0x3d069262	0.032854445
7	0xbc5b5ba3	-0.013388547
8	0x3caf177c	0.021373503
9	0x3c013afb	0.007887597
10	0x3d0e6bfb	0.034770947
11	0xbaf90261	-0.0018997901
12	0xbb1efb3d	-0.0024258636
13	0x3cbcef62	0.023063365
14	0xbc82a800	-0.01594925
15	0xbbdbdcd0	-0.0067096725
16	0x3b51abe3	0.0031993322
17	0x3bd54541	0.0065085
18	0xbca5ead2	-0.020253573
19	0xbb2c4f6a	-0.0026292452
20	0x3c16cddc	0.009204354
21	0xbc3ca6a2	-0.011514338
22	0x3c0fc454	0.008774836
23	0xbcaca69d	-0.021075541
24	0xbbd7820d	-0.0065767826
25	0xbce64870	-0.028110713
26	0x3cca6941	0.024708392
27	0x3b4080d4	0.0029373663
28	0x3cc64799	0.024204062
29	0x3ccadf19	0.024764584
30	0x3b19a72c	0.002344559
31	0x3c864171	0.016388627
32	0x3c8e3f38	0.01736413
33	0x3d22c3a8	0.039737374
34	0x3c5723fb	0.013131137
35	0xbcc7cf42	-0.02439082
36	0x3cc4d710	0.024028331
37	0x3d7dce3c	0.06196426
38	0xbc2928cd	-0.010324669
39	0x3c537ae4	0.012907717
40	0x3cdfad12	0.027304206
41	0xbc666be4	-0.014063809
42	0x3ba39a5b	0.004992766
43	0x3ba31533	0.0049768924
44	0xbc8e363c	-0.017359845
45	0x3c95ab2e	0.018270101
46	0xbca79c51	-0.02046028
47	0xbcf36e5e	-0.029715713
48	0x3bb6edba	0.0055825384
49	0xbc15c7df	-0.009141891
50	0xba40f4c1	-0.000736069
51	0x3c968571	0.018374177
52	0x3cdd842f	0.02704057
53	0x3c1eb0fd	0.009685752
54	0xbd76ef32	-0.06028671
55	0xbc29b4f9	-0.010358089
56	0x3c058fb1	0.0081519345
57	0x3cbdb458	0.023157284
58	0xbc0b961b	-0.008519675
59	0x3d2a3ded	0.041562963
60	0x3d192b6a	0.03739492
61	0x3c2c4e3b	0.0105166985
62	0x3d3cacc6	0.046063207
63	0xbc528a63	-0.012850377
64	0x3c7bd5ec	0.015370827
65	0x3ccb989d	0.024853045
66	0xba73301d	-0.0009276884
67	0xbc036656	-0.008020004
68	0x3c159f1b	0.009132172
69	0x3b360311	0.0027772824
70	0x3cc91641	0.024546744
71	0x3c57af17	0.013164303
72	0x3d03cc93	0.03217752
73	0x3d1d04f9	0.03833482
74	0xbc2da1f1	-0.010597692
75	0xbd21608f	-0.039398726
76	0xbd4a2da4	-0.049359933
77	0x3c41fff6	0.011840811
78	0x3d60c400	0.05487442
79	0x3cda3724	0.026637621
80	0x3bf0d7b4	0.0073499326
81	0x3c941c02	0.018079761
82	0xbcad1133	-0.021126365
83	0x3b37240f	0.0027945077
84	0x3c0032d6	0.00782462
85	0xbcadb3c0	-0.021203876
86	0x3d1437fe	0.03618621
87	0xbcb9cf0c	-0.022681735
88	0xbd06dbda	-0.03292451
89	0xbc8e1692	-0.017344747
90	0x3c546d0b	0.012965451
91	0x3b29374f	0.002582032
92	0x3cc8d813	0.024517095
93	0xbccd22b5	-0.025040964
94	0xbb42f436	-0.0029747612
95	0x3d4d1216	0.050066076
96	0xbac06eac	-0.001468142
97	0xbba61e28	-0.005069513
98	0x3c297dab	0.010344903
99	0xbbd5d6a9	-0.0065258336
100	0xbbf3e3a5	-0.007442909
101	0xbd0012b6	-0.031267844
102	0x3c82fc26	0.015989374
103	0xbd6ff656	-0.058584534
104	0xbb90e917	-0.0044223177
105	0x3d3bd1c7	0.045854356
106	0x3c948a40	0.018132329
107	0x3bc3c943	0.00597492
108	0x3d612b88	0.054973155
109	0x3cff7a5c	0.031186275
110	0x3b6f00df	0.0036469025
111	0xbd1ffe9b	-0.03906117
112	0x3d063390	0.032764018
113	0xbcae0418	-0.021242186
114	0x3c2b3062	0.010448547
115	0x3bc294bd	0.005938141
116	0x3c54d6fe	0.012990711
117	0xbcc3c8a0	-0.023899376
118	0x3d0bb4d5	0.034108
119	0xbc834b5b	-0.016027143
120	0x3c3f0fce	0.011661483
121	0xbbf1231f	-0.007358923
122	0xbb5dfc3a	-0.0033872263
123	0x3cf55ca4	0.029951401
124	0x3d886a70	0.06660926
125	0x3b90ceb2	0.0044191713
126	0xbc0e4f29	-0.008685865
127	0xbc9afeda	-0.01892035
128	0x3c6ee58a	0.014581094
129	0xbb76d396	-0.0037662736
130	0xbc34b580	-0.011029601
131	0x3c0f82d2	0.008759217
132	0xbd1ba045	-0.03799464
133	0x3c3edd86	0.011649495
134	0x3cf04a40	0.02933228
135	0xbcd75171	-0.026283951
136	0xbd85eb07	-0.065389685
137	0xbd4c827f	-0.04992914
138	0x3cb0011d	0.021484906
139	0x3c76779c	0.015043166
140	0x3aca4e66	0.0015434742
141	0x3d046076	0.032318555
142	0x3c8571df	0.01628965
143	0xbcce4be6	-0.025182676
144	0xbcab3f96	-0.020904344
145	0x3c1e90e7	0.009678102
146	0xbd19c386	-0.03753998
147	0xbc659745	-0.014013116
148	0x3cd63124	0.026146479
149	0x3c1968c4	0.009363357
150	0xbcaab481	-0.020838024
151	0x3ce2ccc7	0.027685536
152	0x3c84dfa4	0.016219921
153	0x3c31e566	0.0108579155
154	0x3c6ead30	0.014567658
155	0xbd146f1c	-0.036238775
156	0x3d035ea1	0.032072667
157	0xbc9411bf	-0.018074868
158	0x3bc2dcbb	0.0059467233
159	0x3c05fe15	0.008178254
160	0xbb83c08d	-0.0040207566
161	0xbbc4b9e5	-0.0060036057
162	0xbd06c8e3	-0.032906424
163	0xbb994660	-0.004677579
164	0x3acd2a9f	0.0015652961
165	0x3cd80eac	0.026374184
166	0xbb55b8c8	-0.003261136
167	0x3b4b2aba	0.0031000809
168	0x3cb3a08b	0.021927139
169	0xbaeba533	-0.001797831
170	0x3c8d5e0a	0.017256755
171	0xbb004b7d	-0.0019576245
172	0x3c5375be	0.01290649
173	0xbcab53a0	-0.020913899
174	0x3c908d75	0.017645577
175	0xbbbcca0e	-0.0057613915
176	0xbcc5c541	-0.02414191
177	0x3d7006c0	0.058600187
178	0x3a2c1947	0.0006565046
179	0x3ca0beb0	0.019622177
180	0x3c02accf	0.007975771
181	0xbce02aac	-0.027364098
182	0xbb2adaa5	-0.0026070264
183	0xbb1863ad	-0.002325277
184	0x3b263d6d	0.0025366202
185	0xbb278596	-0.00255618
186	0x3b54ea7b	0.0032488394
187	0xbc5b4751	-0.013383702
188	0x3c33c4b0	0.010972187
189	0xbad71833	-0.001641041
190	0xbc6c8cff	-0.014437913
191	0x3cf84d98	0.030310437
192	0x3c4b91f8	0.012424938
193	0x3b1b50ce	0.0023699286
194	0x3ca76bd4	0.020437159
195	0xbc97e252	-0.018540535
196	0x3c6daca5	0.014506494
197	0x3bcd4d66	0.00626533
198	0xbc2bc468	-0.010483839
199	0xbb4dc989	-0.0031400642
200	0x3ca36542	0.019945744
201	0xbbb5b5a2	-0.005545334
202	0xbd20e7b7	-0.03928348
203	0x3c4399e4	0.011938546
204	0x3cd239c8	0.025662318
205	0xbbc1bd59	-0.0059124646
206	0xbd58a112	-0.052887984
207	0xbd1c6f55	-0.038192112
208	0x3cab34ef	0.020899264
209	0x3ca098a5	0.019604037
210	0xbd3f561d	-0.046712983
211	0x3c86c248	0.016450062
212	0x3bd25b86	0.006419602
213	0x3cfbb01c	0.030723624
214	0xbc404e7f	-0.011737465
215	0x3cad7e36	0.021178346
216	0xbceecb3f	-0.02914965
217	0x397c4898	0.00024059636
218	0xbd15f10e	-0.03660684
219	0xbb031b7c	-0.0020005396
220	0x3aa73759	0.0012757584
221	0x3d21eeda	0.039534427
222	0xbd0271c0	-0.03184676
223	0x3c3a2c09	0.011363038
224	0xbb7ad2b1	-0.0038272555
225	0x3d0aaf30	0.033858478
226	0x3cfd80e7	0.030945254
227	0xbce03a69	-0.027371602
228	0x3a17eaaa	0.00057951605
229	0xbb0e7805	-0.0021739018
230	0xbb8fb540	-0.0043856204
231	0x3b33b00e	0.002741817
232	0x3bff1e08	0.0077855624
233	0x3ca88d9a	0.020575333
234	0x3cce7aa2	0.02520496
235	0x3bcff559	0.0063463864
236	0xbd25ad33	-0.04044838
237	0x3cdce310	0.02696374
238	0x3bb76eba	0.0055979164
239	0x3b9a0e85	0.004701438
240	0xbb19f7ac	-0.0023493571
241	0xbc8dff79	-0.017333733
242	0x3bbeb9be	0.005820482
243	0x3b50c007	0.0031852738
244	0x3c149237	0.009068063
245	0xbc9ea96f	-0.019367902
246	0x3c8ac172	0.016937945
247	0x3b90ae00	0.0044152737
248	0xbc397f30	-0.011321828
249	0x3cc8dbc4	0.024518855
250	0xbc024522	-0.007951053
251	0xbcb2371d	-0.021754796
252	0xbcadb31d	-0.021203572
253	0xbd430d07	-0.047619846
254	0x3d06796c	0.03283064
255	0x3c09b73d	0.008405504

bias f4 [97]
0	0x3ccf7efc	0.025329106
1	0xbd1879d6	-0.037225567
2	0xbd83dd07	-0.06438642
3	0x3d71a57f	0.05899572
4	0xbdaaf3b7	-0.08347266
5	0xbc285a1d	-0.010275391
6	0x3d5f608d	0.054535437
7	0x3de84a8d	0.113423444
8	0x3cc0bcef	0.02352759
9	0xbd84092a	-0.064470604
10	0xbd50e62d	-0.051000763
11	0xbc7ce924	-0.015436444
12	0xbcea6a31	-0.02861509
13	0x3df23163	0.11825826
14	0x3d827578	0.06370062
15	0xbcfe6ba6	-0.03105719
16	0xbd80343b	-0.06259962
17	0x3db3b1b2	0.08774127
18	0x3dbd062d	0.092296936
19	0xbd420736	-0.047370158
20	0xbddfbdf9	-0.10924906
21	0x3dd46473	0.10370722
22	0xbd8bd984	-0.06828597
23	0x3d986b9b	0.07442399
24	0xbd1a57ca	-0.03768138
25	0x3dfa8e32	0.12234153
26	0x3dbe46f4	0.09290877
27	0x3c2618e1	0.0101377675
28	0x3c656075	0.014000048
29	0x3da12954	0.07869211
30	0x3c7878dd	0.015165535
31	0x3dfdfb02	0.124013916
32	0xbd2f865b	-0.04285274
33	0x3cf34a25	0.02969844
34	0x3d1eab78	0.038737744
35	0x3d2beb64	0.041972533
36	0x3d5233a5	0.051318783
37	0xbd84542b	-0.06461366
38	0xbce5501c	-0.0279923
39	0xbd8665fc	-0.06562421
40	0xbcc0a96f	-0.023518292
41	0x3dcf194a	0.101122454
42	0x3d3c2ec8	0.04594305
43	0xbc435a33	-0.011923361
44	0xbd78e0cc	-0.060761258
45	0x3d129759	0.035788868
46	0x3dc2150a	0.09476669
47	0x3d827f16	0.06371896
48	0xbdad6777	-0.08467
49	0xbd90924e	-0.070591554
50	0x3ddb41f8	0.10705942
51	0xbb608324	-0.0034257853
52	0x3de558df	0.111985914
53	0x3dda0309	0.1064511
54	0xbd7b2b09	-0.06132034
55	0x3d549b20	0.05190575
56	0x3d96c715	0.07362191
57	0xbc268bfb	-0.01016521
58	0x3d611b8b	0.054957908
59	0x3dfde2b1	0.123967536
60	0xba7a5d7a	-0.0009550672
61	0x3cea080b	0.028568288
62	0x3db0354c	0.086039156
63	0x3d7d35de	0.06181895
64	0x3cb07e68	0.02154465
65	0x3c83e45e	0.016100105
66	0x3d2fa10d	0.0428782
67	0x3d9c53b5	0.07633153
68	0x3dd2fdaf	0.103022926
69	0xbd63b163	-0.05558909
70	0xbd2970b9	-0.041367266
71	0xbdb2864d	-0.08717022
72	0xbccff058	-0.02538316
73	0xbbec53e3	-0.0072121485
74	0xbae1b9cb	-0.0017221508
75	0x3cc351ed	0.023842776
76	0xbd4a66d2	-0.049414463
77	0xbd1151d7	-0.03547844
78	0xbd469c5b	-0.048488956
79	0x3ca0cbc9	0.019628422
80	0xbd90ce14	-0.07070556
81	0xbd04525e	-0.032305114
82	0xbdd412b8	-0.10355133
83	0xbd19f13d	-0.03758358
84	0xbd88e15e	-0.066836104
85	0x3d12bc15	0.0358239
86	0xbb54c6a1	-0.0032467025
87	0xbdd51a36	-0.1040539
88	0x3dcdbaad	0.10045371
89	0xbcc30de9	-0.023810344
90	0xbd17cf54	-0.037062958
91	0x3bf3ced0	0.0074404255
92	0xbd7c0192	-0.061524935
93	0x3de21469	0.11039049
94	0x3da557aa	0.08073361
95	0x3d885b83	0.066580795
96	0xbd809ebb	-0.062802754
