loggers/h256_w256_bs20_in_channel1_lr0.0003/0512_0053/models/BasicModel_63.pth (torch, 40207 bytes, 17 tensors)

weight f4 [2, 1, 3, 3]
-0.0007888281 -0.015234896 -0.0058847154 0.028348228 -0.00021304374 0.0051431693 0.020527886 -0.0094658155
-0.0131328115 0.0070119128 -0.00047492777 0.028701404 -0.035050962 0.008912107 -0.0038493993 0.023364361
-0.015411733 -0.020202233
00000000: 5cc9 4eba c99b 79bc 92d4 c0bb 8b3a e83c
00000010: 7e64 5fb9 0888 a83b 192a a83c 8216 1bbc
00000020: 012b 57bc 30c4 e53b baff f8b9 351f eb3c
00000030: 9991 0fbd 1604 123c 3446 7cbb 9e66 bf3c
00000040: 7e81 7cbc 277f a5bc

weight f4 [2]
0.994736 1.0000883
00000000: 05a7 7e3f e502 803f

bias f4 [2]
-0.0009817837 -0.010971417
00000000: 32af 80ba 75c1 33bc

running_mean f4 [2]
0.121525414 -0.08497482
00000000: 51e2 f83d 4707 aebd

running_var f4 [2]
0.107049875 0.15241379
00000000: f73c db3d 5c12 1c3e

weight f4 [4, 2, 3, 3]
-0.020727113 -0.026161395 0.0037573683 -0.011891528 -0.034100965 0.0055501657 0.006047632 0.013256076
0.006864304 -0.012849279 -0.024422672 -0.0018249006 0.04212635 -0.013886656 0.009625848 0.004732108
-0.0062956843 -0.010122844 -0.03807965 0.007899848 -0.00055262895 0.012126656 0.0019106705 -0.01720298
0.010055229 -0.05784236 -0.009032137 -0.008603308 -0.0046535973 0.013585105 0.01346729 0.04243819
0.0345699 0.036429517 0.010056147 -0.0011969864 0.026111163 -0.009825805 -0.007409993 0.040751096
-0.0196202 -0.018122274 -0.0060271667 0.014122578 0.018770687 0.013415162 0.014189648 0.028540723
0.006785876 0.025897382 0.014852259 -0.0057423306 0.020381182 0.008294106 -0.036278725 0.0005230598
0.014503414 0.008757489 -0.04952268 -0.014431059 -0.023598945 0.022184908 -0.030257585 -0.0064111794
0.004624546 -0.00037025468 -0.05071519 -0.00403898 0.0072968667 0.009365941 -0.0010697575 -0.010057708
00000000: e8cb a9bc 6c50 d6bc 2e3e 763b afd4 42bc
00000010: 74ad 0bbd 2ade b53b 372b c63b 0330 593c
00000020: f5ed e03b c885 52bc 0e12 c8bc 8131 efba
00000030: ae8c 2c3d db84 63bc bcb5 1d3c cd0f 9b3b
00000040: 074c cebb 49da 25bc 68f9 1bbd 5d6e 013c
00000050: 4dde 10ba e2ae 463c 776f fa3a 44ed 8cbc
00000060: b0be 243c 1cec 6cbd 87fb 13bc e4f4 0cbc
00000070: 347d 98bb 0f94 5e3c e9a5 5c3c abd3 2d3d
00000080: 2b99 0d3d 1e37 153d 8ac2 243c 33e4 9cba
00000090: 14e7 d53c 6afc 20bc 87cf f2bb 9fea 263d
000000a0: 8bba a0bc 2a75 94bc 8a7f c5bb 6362 673c
000000b0: fcc4 993c 45cb 5b3c b37b 683c 3cce e93c
000000c0: 0e5c de3b bf26 d43c e456 733c 292a bcbb
000000d0: 70f6 a63c 01e4 073c 0099 14bd f31d 093a
000000e0: ba9f 6d3c 927b 0f3c 4bd8 4abd 4070 6cbc
000000f0: 9352 c1bc 20bd b53c c1de f7bc df14 d2bb
00000100: 8189 973b be1e c2b9 bbba 4fbd 6c59 84bb
00000110: 8e1a ef3b 9b73 193c 1b37 8cba 16c9 24bc

weight f4 [4]
1.0344594 0.9978267 1.0081317 1.0145079
00000000: 2a69 843f 9271 7f3f 760a 813f 65db 813f

bias f4 [4]
0.01038172 -0.00079577806 0.020566255 0.012855778
00000000: 1718 2a3c c39b 50ba 907a a83c 0ba1 523c

running_mean f4 [4]
-0.0729995 0.04552019 0.16877575 -0.17276071
00000000: c380 95bd 6173 3a3d 8dd3 2c3e 2fe8 30be

running_var f4 [4]
0.0073405458 0.014108358 0.01259889 0.016345907
00000000: f688 f03b be26 673c 936b 4e3c dae7 853c

weight f4 [8, 4, 3, 3]
0.0022574896 0.021377757 -0.014857028 -0.0024951515 -0.038193036 0.0018736011 0.028771713 -0.013874432
0.021105535 -0.010287167 0.041284256 0.018707788 -0.044800654 0.024631502 0.008582312 0.026277646
-0.013069355 -0.0068717636 0.011168876 -0.020616148 -0.030723171 -0.007976914 0.0028395094 -0.012303013
0.0026729023 0.019414283 -0.033389997 -0.003299632 -0.034456477 0.005275288 -0.011432106 -0.0044763032
-0.025916338 -0.0050402586 -0.015704252 -0.042710423 0.009079459 -0.026848203 0.00029951116 0.021347757
0.015059522 0.014306908 0.0072496543 0.034742422 0.009471759 -0.01109188 0.0067313886 -0.012847731
0.007215064 -0.0015761615 0.014172274 -0.014950439 -0.017028347 0.008978567 -0.002590684 -0.02983185
0.007856951 0.021083208 -0.0008779968 -0.008844819 -0.024544459 0.025676006 -0.029353864 -0.018746424
-0.032047935 -0.00889541 0.020407615 0.0235025 -0.016680188 0.009149917 -0.020769186 -0.037452273
0.03343705 0.016259119 0.018869665 -0.026809381 -0.019798514 -0.0199373 0.001673248 -0.013808639
0.027932681 -0.032907195 -0.0068802903 0.0049461685 0.020439541 -0.023836121 0.019207863 0.011854994
0.0009610627 0.008097629 -0.02806356 -0.0034497995 0.012154684 0.02271326 0.039075002 -0.010771764
-0.02295381 0.0016702871 -0.013051212 0.018800545 -0.0025777537 0.008527083 0.052762795 -0.016502757
0.0029209252 0.017353373 0.019134816 0.004683835 -0.0076748976 -0.0072896034 -0.016126279 0.03487039
-0.026319588 -0.003375632 -0.00035961525 0.016676016 -0.03040856 0.010093416 -0.0016417712 0.011821763
0.0032867172 -0.02591018 0.029539585 0.025261808 -0.01008126 -0.0016259553 0.014365185 -0.0027511374
0.0076897633 0.019551342 -0.03579772 -0.01308575 0.016369766 -0.0140035 -0.0013885287 0.0037531017
0.011259965 0.03859366 -0.010700647 0.027230931 0.008044473 0.00800866 0.04001282 -0.030396976
-0.011159317 -0.01880248 -0.010773935 0.023508923 -0.0025132461 -0.0016969965 0.034519807 0.028559685
0.015349996 0.0076376335 0.0018994892 -0.015727788 -0.02428414 -0.03643853 -0.019982759 0.0034784237
-0.029341804 0.00741325 -0.02181642 0.007813919 -0.014775446 -0.0029826986 -0.04679715 0.02064792
-0.023696315 -0.027296685 -0.022260204 -0.013736501 0.019461643 -0.018286007 0.0035182214 -0.01719718
0.021645438 0.0065008355 0.0045994767 0.004395596 0.0073491107 0.014384537 -0.03302337 -0.057482522
-0.012817224 -0.012616392 0.042658556 -0.018018547 0.053306006 0.010989419 -0.0008921706 0.009919093
-0.009719562 -0.00031834928 -0.036868993 0.028580446 0.010695527 0.0022178846 0.014126507 0.011964085
-0.022642925 -0.03692678 0.00864907 0.031728595 0.018090565 -0.008236776 0.0109731965 0.0036427088
-0.0030195634 0.004142748 0.013540222 -0.0004399245 0.007065319 0.01531943 -0.008600419 0.009298205
0.009546982 0.024541164 -0.018293958 0.01928531 -0.020225149 -0.01731503 -0.0010792284 0.019916493
0.018927338 -0.017321652 -0.018553585 0.032588962 0.008761203 -0.0036652747 0.033045568 0.013877295
0.001411199 0.0018885705 -0.0050910865 -0.020633843 0.0061113 0.01021066 0.01195844 -0.0007485049
0.020383997 0.01150789 0.01969287 -0.043210655 -0.014164538 0.009676972 0.01907715 0.00631111
-0.007195741 -0.013483408 0.01739418 -0.0011504566 0.009140171 0.021236625 -0.01479112 -0.003375492
00000000: 64f2 133b 6820 af3c e46a 73bc b285 23bb
00000010: 4d70 1cbd 9f93 f53a a8b2 eb3c 9651 63bc
00000020: 84e5 ac3c 818b 28bc ae19 293d 1341 993c
00000030: e480 37bd 01c8 c93c d39c 0c3c 3844 d73c
00000040: d920 56bc 882c e1bb a9fd 363c 32e3 a8bc
00000050: 29af fbbc 9ab1 02bc 1017 3a3b 9492 49bc
00000060: dc2b 2f3b b40a 9f3c f3c3 08bd a43e 58bb
00000070: 3c22 0dbd 53dc ac3b ba4d 3bbc f4ad 92bb
00000080: 804e d4bc c128 a5bb 34a6 80bc 20f1 2ebd
00000090: 03c2 143c c3f0 dbbc b507 9d39 7ee1 ae3c
000000a0: 37bc 763c 8567 6a3c 828e ed3b 124e 0e3d
000000b0: 702f 1b3c b7ba 35bc fb92 dc3b 4a7f 52bc
000000c0: 586c ec3b 3497 ceba d332 683c b0f2 74bc
000000d0: 087f 8bbc d71a 133c 77c8 29bb ed61 f4bc
000000e0: 71ba 003c b1b6 ac3c 5e29 66ba dce9 10bc
000000f0: 7611 c9bc 7d56 d23c 8477 f0bc 1a92 99bc
00000100: b244 03bd 0ebe 11bc df2d a73c 5188 c03c
00000110: e4a4 88bc 89e9 153c 2424 aabc 8e67 19bd
00000120: 4af5 083d d831 853c 8e94 9a3c 599f dbbc
00000130: 7e30 a2bc 8c53 a3bc e350 db3a a13d 62bc
00000140: 14d3 e43c b2c9 06bd 0f74 e1bb 7813 a23b
00000150: d370 a73c f843 c3bc cf59 9d3c 733b 423c
00000160: d3ef 7b3a ebab 043c 8de5 e5bc 0816 62bb
00000170: 7124 473c 2911 ba3c 1c0d 203d 0e7c 30bc
00000180: a109 bcbc 89ed da3a c0d4 55bc 9a03 9a3c
00000190: 88ef 28bb 2eb5 0b3c cd1d 583d ca30 87bc
000001a0: fe6c 3f3b a928 8e3c 9ec0 9c3c db7a 993b
000001b0: b57d fbbb a0dd eebb 421b 84bc 41d4 0e3d
000001c0: 2d9c d7bc b539 5dbb be8a bcb9 249c 883c
000001d0: 5f1b f9bc db5e 253c b330 d7ba 11b0 413c
000001e0: f765 573b 9641 d4bc 00fd f13c daf1 ce3c
000001f0: df2b 25bc 021e d5ba f45b 6b3c 6d4c 34bb
00000200: 69fa fb3b 232a a03c a1a0 12bd 9d65 56bc
00000210: e319 863c f06e 65bc 4bff b5ba 99f6 753b
00000220: b77b 383c 6314 1e3d c451 2fbc 6713 df3c
00000230: f7cc 033c c136 033c 7ce4 233d 1403 f9bc
00000240: 91d5 36bc a907 9abc 2985 30bc c995 c03c
00000250: 46b5 24bb c16d deba a464 0d3d 00f6 e93c
00000260: 8d7e 7b3c 1d45 fa3b 48f8 f83a 90d7 80bc
00000270: 88ef c6bc 9140 15bd e2b2 a3bc 44f6 633b
00000280: 395e f0bc d9ea f23b 59b8 b2bc f405 003c
00000290: b614 72bc 6179 43bb 5eae 3fbd d425 a93c
000002a0: c61e c2bc 4c9d dfbc 085b b6bc 100f 61bc
000002b0: 066e 9f3c 89cc 95bc f691 663b 1ae1 8cbc
000002c0: c651 b13c f604 d53b 35b7 963b ef08 903b
000002d0: cfd0 f03b 1fad 6b3c 8343 07bd cb72 6bbd
000002e0: 55ff 51bc fcb4 4ebc bdba 2e3d a29b 93bc
000002f0: 6657 5a3d f70c 343c 8ee0 69ba b183 223c
00000300: cc3e 1fbc 1ee8 a6b9 f103 17bd 8a21 ea3c
00000310: 4b3c 2f3c ee59 113b dd72 673c 0205 443c
00000320: a87d b9bc 8940 17bd d4b4 0d3c d8f5 013d
00000330: aa32 943c 8bf3 06bc ecc8 333c 83ba 6e3b
00000340: dee3 45bb e4bf 873b cfd7 5d3c aba5 e6b9
00000350: 3184 e73b 59fe 7a3c c6e8 0cbc 8057 183c
00000360: f26a 1c3c 8d0a c93c 36dd 95bc 3afc 9d3c
00000370: 36af a5bc 40d8 8dbc e574 8dba ea27 a33c
00000380: 810d 9b3c 23e6 8dbc b0fd 97bc 017c 053d
00000390: 268b 0f3c 1b35 70bb ca5a 073d 985d 633c
000003a0: fbf7 b83a e989 f73a 21d3 a6bb 4e08 a9bc
000003b0: 4d41 c83b 9d4a 273c 55ed 433c 5037 44ba
000003c0: 57fc a63c 978b 3c3c f152 a13c a8fd 30bd
000003d0: 6112 68bc 2a8c 1e3c af47 9c3c 6ecd ce3b
000003e0: 40ca ebbb 83e9 5cbc 3d7e 8e3c ebca 96ba
000003f0: a8c0 153c 6ef8 ad3c 7456 72bc 5c37 5dbb

weight f4 [8]
0.9946241 0.9938902 1.0051297 1.0225618 1.0288566 1.0212799 1.0011655 0.9671834
00000000: af9f 7e3f 976f 7e3f 17a8 803f 4ee3 823f
00000010: 93b1 833f 4db9 823f 3126 803f 5599 773f

bias f4 [8]
0.010895531 0.0011059736 0.016619299 0.007001497 0.0011451006 -0.0024459858 -0.0001706203 0.013149762
00000000: 2b83 323c 51f6 903a 3225 883c d06c e53b
00000010: 3317 963a d54c 20bb 8ae8 32b9 1972 573c

running_mean f4 [8]
-0.12428866 -0.04513389 0.08035838 0.057399336 -0.19947772 0.055880237 0.1394148 0.019677019
00000000: 0e8b febd 50de 38bd ef92 a43d 911b 6b3d
00000010: e343 4cbe ade2 643d c1c2 0e3e b331 a13c

running_var f4 [8]
0.004574296 0.0052557625 0.005377758 0.0049025174 0.044490844 0.005843124 0.011999474 0.003608728
00000000: fae3 953b 8838 ac3b e737 b03b 4ca5 a03b
00000010: 083c 363d ad77 bf3b 7199 443c 6980 6c3b

weight f4 [97, 8, 3, 3]
-0.011124339 0.016510863 0.04845071 -0.01519394 -0.00898189 -0.008906397 0.030606179 -0.011677484
0.025364015 0.00980609 0.035713036 -0.0015646294 -0.0029263485 0.02336786 -0.016627783 -0.0040831817
0.004387722 0.007455293 -0.012907731 -0.0007505047 0.007111346 -0.008121796 0.009681976 -0.024502903
-0.0053884373 -0.028498057 0.024402548 0.0071915784 0.023969792 0.025475437 0.005711973 0.013432022
0.015887355 0.042186487 0.010824054 -0.027990181 0.023363736 0.06161287 -0.010753374 0.013379647
0.02713812 -0.016045542 0.004004806 0.0050347 -0.015145384 0.016759755 -0.021327045 -0.028359342
0.0056647127 -0.006024001 0.004071203 0.018232327 0.028099539 0.010501938 -0.053849213 -0.007813559
0.009249035 0.022836864 -0.009727228 0.04020654 0.03359317 0.0069193547 0.043755196 -0.013011438
0.016417958 0.026036104 -0.0039698724 -0.009343678 0.014489192 0.004428613 0.02158998 0.010565396
0.03141803 0.036331285 -0.013948026 -0.03751232 -0.043087214 0.012380932 0.047443666 0.030647317
0.007969233 0.019255875 -0.019442795 0.004571345 0.009057002 -0.021075454 0.03299676 -0.019424783
-0.028812442 -0.017377146 0.013951596 0.002154336 0.021727357 -0.022941213 -0.001274398 0.047152065
-0.0007614514 -0.0033535126 0.01389187 -0.0037287152 -0.006137746 -0.02758927 0.016198257 -0.055248022
-0.0033064247 0.045589443 0.017469976 0.0041009663 0.05462288 0.031680245 0.0044943024 -0.037528615
0.03350498 -0.022225656 0.00984342 0.007399439 0.014110735 -0.035060436 0.024038794 -0.025186652
0.005067681 -0.011313377 -0.0035248213 0.019952124 0.06050939 0.0049593165 -0.0034143662 -0.012866121
0.013721171 0.005150462 -0.0056162574 0.008726662 -0.03869042 0.0131757585 0.030206336 -0.019195551
-0.060202636 -0.042556986 0.01699173 0.017368903 0.0036783048 0.028964113 0.012498523 -0.0293166
-0.013022636 0.015160532 -0.037707325 -0.00711176 0.022002194 0.006824453 -0.019240271 0.020509927
0.015836965 0.013859047 0.014109019 -0.033358525 0.027153153 -0.015192836 0.0070312396 0.0045320243
-0.010063134 -0.00021937415 -0.028757947 -0.0078078946 0.004314147 0.022066785 -0.0057718935 0.0064094244
0.018578338 -0.0041453345 0.01619086 -0.003172398 0.013255384 -0.01987389 0.0101965275 -0.007876359
-0.025723923 0.053671163 0.00051890506 0.023198694 0.009666772 -0.0268044 -0.002687288 -0.0034251476
0.0019756225 -0.0026858733 0.0018478492 -0.015503453 0.009660989 -0.0013829231 -0.008605653 0.027326928
0.009584639 -0.0016325243 0.019680249 -0.016505538 0.014245934 0.009395784 -0.011666256 2.2433e-05
0.021278456 -0.005490955 -0.034836352 0.015859919 0.028189858 -0.0020107268 -0.051774826 -0.035310566
0.023719855 0.017866133 -0.040116582 0.013742253 0.0024798731 0.028579758 -0.012252439 0.021752845
-0.03050295 -0.003588692 -0.02935848 -2.1883401e-05 -0.0019887255 0.03709618 -0.02881568 0.014090536
-0.005710586 0.029481968 0.028309848 -0.023400052 -0.008986268 -0.005000512 -0.0020439252 0.0048895427
0.009959799 0.01405505 0.023124332 0.00631563 -0.033894777 0.029576413 0.0063749705 0.009565771
0.00044238946 -0.015486091 0.0049271793 0.0034841236 0.008618618 -0.018525157 0.012972867 -0.00063956797
-0.013371208 0.02080227 -0.015135346 -0.02018964 -0.018954402 -0.0434243 0.029000118 0.01125633
00000000: dc42 36bc ca41 873c 4074 463d 01f0 78bc
00000010: c728 13bc 23ec 11bc cfb9 fa3c eb52 3fbc
00000020: 32c8 cf3c b9a9 203c d547 123d 4014 cdba
00000030: fbc7 3fbb f46d bf3c fd36 88bc 36cc 85bb
00000040: e1c6 8f3b 884b f43b f37a 53bc 85bd 44ba
00000050: 4b06 e93b 4811 05bc 27a1 1e3c 50ba c8bc
00000060: 7d91 b0bb c274 e9bc dae7 c73c 55a7 eb3b
00000070: 4c5c c43c ddb1 d03c 812b bb3b fc11 5c3c
00000080: 3326 823c bdcb 2c3d 5f57 313c aa4b e5bc
00000090: 4e65 bf3c c75d 7c3d eb2e 30bc 4f36 5b3c
000000a0: c350 de3c f171 83bc bf3a 833b 20fa a43b
000000b0: 5824 78bc c14b 893c 0eb6 aebc da51 e8bc
000000c0: 0e9f b93b fc64 c5bb ba67 853b f65b 953c
000000d0: 0131 e63c 5210 2c3c fe90 5cbd 7104 00bc
000000e0: 4489 173c 6014 bb3c f45e 1fbc 9daf 243d
000000f0: fe98 093d c1bb e23b a638 333d ed2d 55bc
00000100: f47e 863c ab49 d53c b415 82bb 3a16 19bc
00000110: 1364 6d3c e61d 913b 78dd b03c 7c1a 2d3c
00000120: 31b0 003d 1dd0 143d 4386 64bc 85a6 19bd
00000130: 387c 30bd 65d9 4a3c 4a54 423d 1510 fb3c
00000140: 6391 023c 7fbe 9d3c 7f46 9fbc 39cb 953b
00000150: d263 143c 6ea6 acbc 9c27 073d b920 9fbc
00000160: 1208 ecbc 845a 8ebc 3c95 643c c32f 0d3b
00000170: 92fd b13c 36ef bbbc b309 a7ba 8622 413d
00000180: 239c 47ba 9bc6 5bbb ba9a 633c 765d 74bb
00000190: 251f c9bb e502 e2bc 35b2 843c c04b 62bd
000001a0: 9ab0 58bb ffbb 3a3d 321d 8f3c 6661 863b
000001b0: 3ebc 5f3d 25c3 013d f144 933b 9bb7 19bd
000001c0: 853c 093d 9412 b6bc 4c46 213c fe76 f23b
000001d0: b630 673c 889b 0fbd 01ed c43c 3d54 cebc
000001e0: ca0e a63b be5b 39bc b000 67bb a372 a33c
000001f0: b2d8 773d c381 a23b 8fc3 5fbb 6ccc 52bc
00000200: c3ce 603c 35c5 a83b 9508 b8bb 46fa 0e3c
00000210: d979 1ebd 23df 573c 4773 f73c fd3f 9dbc
00000220: 0a97 76bd 3c50 2ebd 3e32 8b3c 3b49 8e3c
00000230: b70f 713b 2646 ed3c 9bc6 4c3c 5e29 f0bc
00000240: e55c 55bc e163 783c ff72 1abd c409 e9bb
00000250: f23d b43c a99f df3b c69d 9dbc 6f04 a83c
00000260: 86bc 813c 0e11 633c 8429 673c f3a2 08bd
00000270: 4a70 de3c 5feb 78bc 5066 e63b 6081 943b
00000280: d8df 24bc cd07 66b9 c995 ebbc 5ed9 ffbb
00000290: b05d 8d3b 67c5 b43c 2722 bdbb 2606 d23b
000002a0: 9931 983c 96d5 87bb b2a2 843c 02e8 4fbb
000002b0: 1c2d 593c 91ce a2bc 560f 273c d80b 01bc
000002c0: faba d2bc 4bd6 5b3d 2107 083a 300b be3c
000002d0: 6161 1e3c e794 dbbc 361d 30bb 7178 60bb
000002e0: 7279 013b 7a05 30bb 8833 f23a 3202 7ebc
000002f0: 2049 1e3c 3343 b5ba bafe 0cbc b9dc df3c
00000300: e408 1d3c 6dfa d5ba 7938 a13c 9f36 87bc
00000310: c767 693c c6f0 193c d323 3fbc 802e bc37
00000320: 2850 ae3c 78ed b3bb 90b0 0ebd a9ec 813c
00000330: 6bee e63c 66c6 03bb d711 54bd d0a1 10bd
00000340: 2450 c23c ff5b 923c 4951 24bd 3027 613c
00000350: 5e85 223b 1920 ea3c 74be 48bc 0633 b23c
00000360: 53e1 f9bc 4330 6bbb 3281 f0bc 3f92 b7b7
00000370: 4755 02bb 2af2 173d dc0e ecbc fedb 663c
00000380: de1f bbbb 2b84 f13c 0eea e73c 77b1 bfbc
00000390: 243b 13bc 56db a3bb 60f3 05bb 7538 a03b
000003a0: 6d2e 233c 2747 663c 3d6f bd3c 58f3 ce3b
000003b0: 40d5 0abd 3c4a f23c 21e5 d03b c0b9 1c3c
000003c0: 82f0 e739 60b9 7dbc 2d74 a13b e555 643b
000003d0: 1b35 0d3c 12c2 97bc 268c 543c aea8 27ba
000003e0: e912 5bbc 8669 aa3c 3efa 77bc be64 a5bc
000003f0: 4346 9bbc aedd 31bd a891 ed3c 786c 383c

bias f4 [97]
0.025624534 -0.036150318 -0.06394195 0.057781074 -0.084857844 -0.012414663 0.055336997 0.113453895
0.023422167 -0.06653443 -0.051021915 -0.016449532 -0.029871032 0.118819065 0.06119431 -0.031041404
-0.062589355 0.08712525 0.09098104 -0.047456436 -0.10928466 0.10431841 -0.06984232 0.07748507
-0.0384182 0.12149872 0.092349 0.008649341 0.012644786 0.079253614 0.015431569 0.12407358
-0.043113723 0.028055545 0.039513953 0.04137242 0.048288994 -0.065533735 -0.026082546 -0.06708707
-0.02339737 0.09952518 0.045698628 -0.011261841 -0.06324365 0.034375332 0.094486386 0.060684122
-0.084237345 -0.071364865 0.1054717 -0.0031485537 0.11106201 0.10678594 -0.062691435 0.052284148
0.07321425 -0.01007482 0.054797776 0.12366573 -0.0006065895 0.027367938 0.08078517 0.059147656
0.020426488 0.016531529 0.04333345 0.07645452 0.10356055 -0.05636421 -0.04245019 -0.086580195
-0.021761904 -0.0052524065 -0.0020518908 0.022850737 -0.04834933 -0.034348585 -0.047954325 0.01866482
-0.07159805 -0.03382759 -0.10353947 -0.038331877 -0.06662759 0.03490515 -0.0035228408 -0.10476318
0.10017786 -0.022792114 -0.03592688 0.006770747 -0.062379103 0.11071739 0.08033284 0.0708811
-0.064047545
00000000: 8bea d13c 5b12 14bd fff3 82bd d9ab 6c3d
00000010: f3c9 adbd df66 4bbc 0ca9 623d 845a e83d
00000020: d8df bf3c 3443 88bd 5bfc 50bd 2bc1 86bc
00000030: 18b4 f4bc 6957 f33d e3a6 7a3d 8b4a febc
00000040: d92e 80bd b96e b23d 4454 ba3d ae61 42bd
00000050: a3d0 dfbd e4a4 d53d 7e09 8fbd 7eb0 9e3d
00000060: 675c 1dbd 52d4 f83d 7921 bd3d f7b5 0d3c
00000070: 142c 4f3c b84f a23d b1d4 7c3c 4a1a fe3d
00000080: 0498 30bd bed4 e53c 62d9 213d 2076 293d
00000090: aeca 453d 8d36 86bd 10ab d5bc f264 89bd
000000a0: d7ab bfbc dcd3 cb3d 7c2e 3b3d 9683 38bc
000000b0: e385 81bd 26cd 0c3d 1482 c13d ea8f 783d
000000c0: a184 acbd be27 92bd 8c01 d83d f757 4ebb
000000d0: 7b74 e33d 96b2 da3d 5e64 80bd e727 563d
000000e0: 5af1 953d dc10 25bc a273 603d 7544 fd3d
000000f0: 8803 1fba ba32 e03c b272 a53d d044 723d
00000100: 7355 a73c 216d 873c 6a7e 313d 3094 9c3d
00000110: 8e17 d43d 28de 66bd 40e0 2dbd f550 b1bd
00000120: 0546 b2bc 611c acbb 0479 06bb 7831 bb3c
00000130: f209 46bd 1ab1 0cbd c16b 44bd f7e6 983c
00000140: 00a2 92bd cd8e 0abd 800c d4bd e301 1dbd
00000150: 0c74 88bd b4f8 0e3d 76df 66bb 148e d6bd
00000160: 0d2a cd3d 87b6 babc 1028 13bd 24dd dd3b
00000170: 3b81 7fbd cdbf e23d 8b85 a43d 1c2a 913d
00000180: 5c2b 83bd
