loggers/h256_w256_bs20_in_channel1_lr0.0003/0512_0053/models/BasicModel_59.pth (torch, 40207 bytes, 17 tensors)

weight f4 [2, 1, 3, 3]
0	0xba3ca384	-0.00071959966
1	0xbc7a44ea	-0.015275219
2	0xbbc4815e	-0.005996867
3	0x3ce80d02	0.028326515
4	0xb9a7dfbb	-0.00032019414
5	0x3babb000	0.0052394867
6	0x3ca83e11	0.020537408
7	0xbc1813d3	-0.00928207
8	0xbc57bfcb	-0.013168286
9	0x3bef85a3	0.007309632
10	0xba0a9d7f	-0.0005287751
11	0x3cee7b39	0.029111492
12	0xbd0f97f1	-0.035057012
13	0x3c0e78fc	0.008695837
14	0xbb7bf263	-0.0038444034
15	0x3cbddf96	0.023177903
16	0xbc74c513	-0.014939564
17	0xbca4ee3d	-0.020133132

weight f4 [2]
0	0x3f7ec7ba	0.9952351
1	0x3f7fecca	0.99970686

bias f4 [2]
0	0xba4e70f2	-0.00078751065
1	0xbc06c8f5	-0.008226623

running_mean f4 [2]
0	0x3df81ba8	0.1211465
1	0xbd9991bb	-0.07498499

running_var f4 [2]
0	0x3dd6e3d4	0.104926735
1	0x3e1b1d96	0.15148005

weight f4 [4, 2, 3, 3]
0	0xbcadf25e	-0.021233734
1	0xbccf355c	-0.025293998
2	0x3b831dfe	0.004001378
3	0xbc468dd1	-0.012118773
4	0xbd0bde65	-0.03414764
5	0x3bb0417a	0.005378899
6	0x3bccb54e	0.006247199
7	0x3c54be60	0.012984842
8	0x3be856d7	0.0070904302
9	0xbc4d7d1f	-0.012542038
10	0xbcc9adbe	-0.02461898
11	0xbad036f3	-0.0015885517
12	0x3d2dc11e	0.0424205
13	0xbc641148	-0.013920136
14	0x3c19b2e0	0.009381026
15	0x3b8160f8	0.003948327
16	0xbbc3b84b	-0.005972897
17	0xbc1fb29f	-0.009747176
18	0xbd19e22e	-0.037569217
19	0x3be9bc65	0.007133054
20	0xba19b328	-0.0005863183
21	0x3c4b2ad8	0.012400351
22	0x3b1918a3	0.0023360632
23	0xbc8e63bb	-0.01738154
24	0x3c29e07c	0.010368463
25	0xbd6f425a	-0.058412887
26	0xbc0dd7dc	-0.008657422
27	0xbc0ddebb	-0.00865906
28	0xbb95c634	-0.004570747
29	0x3c5d046d	0.013489825
30	0x3c610dc4	0.013736192
31	0x3d2b3cc5	0.041806
32	0x3d115559	0.035481784
33	0x3d12f76b	0.035880487
34	0x3c298c2f	0.010348364
35	0xbabd3de3	-0.0014437999
36	0x3cd9a2a2	0.026566807
37	0xbc1e6d71	-0.009669648
38	0xbc00dcb6	-0.007865122
39	0x3d27b1c2	0.040941007
40	0xbca6258b	-0.020281574
41	0xbc905d2b	-0.017622551
42	0xbbbe1d5c	-0.0058018398
43	0x3c7195ee	0.014745219
44	0x3c9433a8	0.018091038
45	0x3c4e5c86	0.0125953015
46	0x3c6898dd	0.014196602
47	0x3ce85ac9	0.028363602
48	0x3bc94d22	0.006143228
49	0x3cd6563e	0.02616417
50	0x3c647a66	0.013945198
51	0xbbb7193c	-0.005587725
52	0x3ca6ec0a	0.020376224
53	0x3c0932b1	0.008373902
54	0xbd104add	-0.035227645
55	0x39ca2506	0.00038556027
56	0x3c81b2a5	0.015832255
57	0x3bd6c468	0.006554175
58	0xbd484a8f	-0.04889923
59	0xbc8be157	-0.017075224
60	0xbcce642a	-0.025194246
61	0x3cacc57d	0.021090264
62	0xbcf68afc	-0.03009557
63	0xbbd697c6	-0.0065488545
64	0x3ba402c0	0.0050052106
65	0xb9cf9510	-0.00039593177
66	0xbd4c3635	-0.049856383
67	0xbb8416b0	-0.004031025
68	0x3bdfa693	0.006825277
69	0x3c207b2b	0.0097949905
70	0xbad7bb18	-0.0016458957
71	0xbc23f480	-0.010007024

weight f4 [4]
0	0x3f8467fc	1.0344234
1	0x3f7f341b	0.9968888
2	0x3f8127a4	1.0090222
3	0x3f81ce8d	1.0141159

bias f4 [4]
0	0x3c49ff80	0.012328982
1	0x39b03d70	0.0003361511
2	0x3ca544b0	0.020174354
3	0x3c4817ae	0.012212677

running_mean f4 [4]
0	0xbd960a39	-0.073261686
1	0x3d3affb3	0.04565401
2	0x3e2bfe6a	0.1679627
3	0xbe366f0c	-0.17815799

running_var f4 [4]
0	0x3bf0399a	0.0073310854
1	0x3c68dab5	0.0142123
2	0x3c4e58e1	0.012594433
3	0x3c8de25c	0.01731985

weight f4 [8, 4, 3, 3]
0	0x3a7a2d4e	0.0009543494
1	0x3caa8db5	0.020819524
2	0xbc73dbac	-0.014883917
3	0xbb46e3f2	-0.0030348268
4	0xbd19fea3	-0.037596356
5	0x3a979fa1	0.0011567959
6	0x3ce696b9	0.028148042
7	0xbc71a5b2	-0.0147489775
8	0x3ca980fd	0.02069139
9	0xbc1c4c7e	-0.0095397215
10	0x3d2a2d7c	0.041547284
11	0x3c92ee3f	0.01793587
12	0xbd38f6b3	-0.045157146
13	0x3cc86883	0.024463898
14	0x3c0bf505	0.008542304
15	0x3cd71204	0.026253708
16	0xbc5294df	-0.012852876
17	0xbbdfbfeb	-0.0068282983
18	0x3c3f0544	0.01165897
19	0xbca6687d	-0.020313496
20	0xbd02b906	-0.031914733
21	0xbc016943	-0.0078986315
22	0x3b49e83e	0.0030808593
23	0xbc571600	-0.013127804
24	0x3b381b0c	0.0028092293
25	0x3c9ca78b	0.01912286
26	0xbd089471	-0.03334469
27	0xbb2bfb7f	-0.0026242433
28	0xbd0c358b	-0.03423075
29	0x3bbe1ab6	0.005801524
30	0xbc273086	-0.01020444
31	0xbba6d2f4	-0.0050910655
32	0xbcd0d014	-0.025489844
33	0xbba9cb25	-0.0051816874
34	0xbc78b07c	-0.015178796
35	0xbd2cc1c6	-0.042176984
36	0x3c1af856	0.009458622
37	0xbce00404	-0.027345665
38	0x39d3297e	0.0004027597
39	0x3cb34099	0.021881389
40	0x3c691ee7	0.014228559
41	0x3c5d88aa	0.013521353
42	0x3bdbb609	0.00670505
43	0x3d0d145f	0.034443256
44	0x3c289646	0.010289734
45	0xbc350974	-0.011049617
46	0x3bd176c6	0.0063923327
47	0xbc52cdba	-0.012866432
48	0x3be7263e	0.0070541194
49	0xba4bdb32	-0.0007776498
50	0x3c678003	0.0141296415
51	0xbc74aef2	-0.014934288
52	0xbc8b1ffa	-0.016983021
53	0x3c15d632	0.009145306
54	0xbb3df984	-0.0028987834
55	0xbd007bd2	-0.031368084
56	0x3c0287a5	0.0079669105
57	0x3ca921a7	0.02064593
58	0xba233d16	-0.0006227059
59	0xbc221788	-0.009893306
60	0xbcc08a88	-0.023503557
61	0x3cc95c31	0.024580093
62	0xbcebac5e	-0.028768715
63	0xbc9b0414	-0.018922843
64	0xbd0a37be	-0.033744566
65	0xbc12046a	-0.008912185
66	0x3ca647aa	0.020297844
67	0x3cc2229e	0.023698147
68	0xbc8d5e4e	-0.017256882
69	0x3c15c521	0.0091412375
70	0xbcaea22e	-0.021317568
71	0xbd168148	-0.036744386
72	0x3d08da84	0.033411518
73	0x3c854edb	0.016272953
74	0x3c939233	0.01801405
75	0xbcd48851	-0.025943907
76	0xbca57ac1	-0.020200135
77	0xbcacbcf1	-0.021086188
78	0x3add5c05	0.0016888386
79	0xbc61706f	-0.013759716
80	0x3cee05fb	0.029055586
81	0xbd064c15	-0.0327874
82	0xbbf77071	-0.007551246
83	0x3ba97280	0.00517112
84	0x3ca44a3b	0.020054927
85	0xbcbec0ed	-0.023285354
86	0x3c9a6837	0.018848522
87	0x3c4168b0	0.011804745
88	0x3a7908a0	0.00094998814
89	0x3c0ed9dd	0.008718935
90	0xbce1ad18	-0.027548358
91	0xbb7457eb	-0.0037283849
92	0x3c5231b3	0.012829232
93	0x3cb9196d	0.022595132
94	0x3d20ee12	0.03928954
95	0xbc2dff50	-0.010619953
96	0xbcbf484d	-0.023349905
97	0x3a8a842f	0.0010567958
98	0xbc5d0b38	-0.013491444
99	0x3c9d6d14	0.019217052
100	0xbaab66cd	-0.0013076902
101	0x3c146365	0.009056901
102	0x3d57c938	0.05268213
103	0xbc8a3bdd	-0.016874248
104	0x3b6362cc	0.0034696339
105	0x3c8a2fc0	0.016868472
106	0x3c9620cb	0.018326184
107	0x3b937995	0.0045005777
108	0xbbd363e8	-0.0064511187
109	0xbc06137f	-0.008183359
110	0xbc7cef68	-0.015437938
111	0x3d0dea84	0.03464748
112	0xbcca4cf6	-0.024694901
113	0xbb43ae1b	-0.0029858414
114	0xba9852d4	-0.0011621364
115	0x3c8e45ea	0.017367322
116	0xbcfd37f6	-0.030910473
117	0x3c20f1a7	0.009823239
118	0xba318831	-0.0006772308
119	0x3c373806	0.011182791
120	0x3b897e7d	0.004195987
121	0xbcddad92	-0.027060304
122	0x3cf5fd2a	0.030027945
123	0x3ccf7b8a	0.025327463
124	0xbc1f896e	-0.009737356
125	0xbaffa48b	-0.0019503994
126	0x3c6257f4	0.013814915
127	0xbb0320da	-0.0020008595
128	0x3c03fc56	0.008055767
129	0x3c9b5638	0.01896201
130	0xbd13d1a2	-0.036088593
131	0xbc6d5749	-0.014486142
132	0x3c82741a	0.015924502
133	0xbc606b29	-0.013697424
134	0xbb0de79e	-0.0021652947
135	0x3b827fc3	0.0039825155
136	0x3c3bf000	0.011470795
137	0x3d19bd11	0.037533823
138	0xbc2d3a9b	-0.010573055
139	0x3ce3adc4	0.027792819
140	0x3c0e2553	0.008675891
141	0x3bf906f8	0.0075997077
142	0x3d1e1f80	0.03860426
143	0xbcee72c1	-0.029107453
144	0xbc42316f	-0.011852606
145	0xbc9533a4	-0.0182131
146	0xbc2cb1a6	-0.010540402
147	0x3cbe032b	0.02319487
148	0xbb737df1	-0.0037153924
149	0xbb227fd7	-0.0024795437
150	0x3d0bc454	0.03412278
151	0x3ceb77cb	0.028743645
152	0x3c822a6d	0.01588937
153	0x3bf38ed1	0.0074327965
154	0x3b171183	0.002305121
155	0xbc7d0cc7	-0.015444941
156	0xbcc2bd2b	-0.023771843
157	0xbd12fc46	-0.035885118
158	0xbca44705	-0.020053396
159	0x3b62d82a	0.0034613707
160	0xbceaa244	-0.028641827
161	0x3bfd5c5b	0.007731957
162	0xbcb1b510	-0.021692783
163	0x3bf19473	0.007372433
164	0xbc72ba8f	-0.014814987
165	0xbb3c7860	-0.0028758273
166	0xbd470198	-0.048585504
167	0x3ca32165	0.019913385
168	0xbcc44fb2	-0.023963783
169	0xbcdfa12a	-0.027298529
170	0xbcb81c2e	-0.022474375
171	0xbc746a06	-0.014917856
172	0x3c9cda0a	0.019146938
173	0xbc92ca43	-0.017918712
174	0x3b1fa5ce	0.0024360302
175	0xbc86b925	-0.016445706
176	0x3caba833	0.020954227
177	0x3bbd284d	0.0057726265
178	0x3b9d5643	0.004801543
179	0x3b9dea82	0.0048192153
180	0x3c07e017	0.008293173
181	0x3c79801b	0.015228297
182	0xbd0d7cac	-0.034542724
183	0xbd696918	-0.05698499
184	0xbc41abd9	-0.011820757
185	0xbc61bb89	-0.013777622
186	0x3d2eb1df	0.0426501
187	0xbc95617c	-0.01823496
188	0x3d581da7	0.052762654
189	0x3c36871c	0.011140611
190	0xba65c8c6	-0.00087655743
191	0x3c263843	0.01014525
192	0xbc140843	-0.009035173
193	0xba87a985	-0.0010350203
194	0xbd13b757	-0.03606352
195	0x3cea53de	0.028604444
196	0x3c3adc3a	0.011405045
197	0x3b5c6126	0.003362724
198	0x3c670c18	0.0141020045
199	0x3c3d6eb8	0.011562042
200	0xbcb568b0	-0.022144645
201	0xbd16dd88	-0.036832362
202	0x3c0b2e8f	0.008494987
203	0x3d01eabb	0.031717997
204	0x3c8fe20a	0.017563839
205	0xbc0d5ef8	-0.008628599
206	0x3c3dc25a	0.011581982
207	0x3b9ee433	0.004848981
208	0xbb60f46b	-0.0034325372
209	0x3b9c100e	0.004762656
210	0x3c61dd53	0.013785678
211	0xbabbaa7a	-0.0014317774
212	0x3bc1443e	0.0058980277
213	0x3c6f168e	0.01459278
214	0xbc19ef5e	-0.0093954485
215	0x3c0baf04	0.008525614
216	0x3c21c724	0.009874139
217	0x3cc4338e	0.023950364
218	0xbc8ddbeb	-0.01731678
219	0x3ca10d2a	0.019659597
220	0xbca61888	-0.02027537
221	0xbc8e9d48	-0.017408982
222	0x3938824f	0.00017596151
223	0x3ca6d689	0.02036597
224	0x3c999fa0	0.018752873
225	0xbc8dbb4d	-0.017301226
226	0xbc8b8f3b	-0.017036071
227	0x3d057479	0.03258178
228	0x3c073f96	0.008254906
229	0xbb6cfb66	-0.0036160587
230	0x3d02a402	0.03189469
231	0x3c788085	0.01516736
232	0x3aa595ac	0.0012633107
233	0x3b44eed7	0.0030049586
234	0xbbb0883c	-0.005387334
235	0xbca70b76	-0.020391207
236	0x3bc7278b	0.006077712
237	0x3c2cd6af	0.010549231
238	0x3c48da75	0.012259115
239	0xba3bdc78	-0.0007166336
240	0x3ca9db00	0.02073431
241	0x3c2e5159	0.010639512
242	0x3ca57d29	0.020201283
243	0xbd36ac9b	-0.044598203
244	0xbc5b2883	-0.013376358
245	0x3c1730ad	0.009227914
246	0x3c906f21	0.017631115
247	0x3bcd28f7	0.006260987
248	0xbbd32b2b	-0.006444355
249	0xbc79d690	-0.01524891
250	0x3c91ea83	0.01781202
251	0xbb2b440e	-0.0026133093
252	0x3c16bc42	0.009200158
253	0x3cae4416	0.0212727
254	0xbc775a5e	-0.015097229
255	0xbb5306ff	-0.0032200215

weight f4 [8]
0	0x3f7dc15a	0.99123156
1	0x3f7dff82	0.99218
2	0x3f803b9d	1.0018193
3	0x3f829868	1.0202761
4	0x3f837a44	1.0271688
5	0x3f827182	1.019089
6	0x3f7fb870	0.99890804
7	0x3f76d45c	0.96417785

bias f4 [8]
0	0x3c1a92eb	0.009434442
1	0x3a863ce8	0.001024154
2	0x3c7a2773	0.0152681945
3	0x3bcec30e	0.0063098734
4	0x3a002d91	0.00048896024
5	0xbb45fcf9	-0.0030210598
6	0xb9e96b30	-0.00044521084
7	0x3c4312d8	0.011906348

running_mean f4 [8]
0	0xbe011de1	-0.12609054
1	0xbd4b0557	-0.04956564
2	0x3da2b409	0.07944495
3	0x3d66f6eb	0.056387823
4	0xbe51a8d8	-0.20474565
5	0x3d6a7af8	0.05724618
6	0x3e130941	0.14358999
7	0x3cb3a563	0.021929448

running_var f4 [8]
0	0x3b96fb69	0.004607607
1	0x3bb0aebd	0.005391924
2	0x3bb31546	0.0054651825
3	0x3ba70248	0.0050967075
4	0x3d38bae1	0.045100097
5	0x3bc47dbe	0.005996435
6	0x3c4b155b	0.012395228
7	0x3b7426e5	0.0037254628

weight f4 [97, 8, 3, 3]
0	0xbc32eb4c	-0.010920357
1	0x3c88fb80	0.016721487
2	0x3d439403	0.047748577
3	0xbc705b6c	-0.014670234
4	0xbbff53fb	-0.0077919937
5	0xbc01e3c8	-0.007927842
6	0x3cfa04b5	0.030519823
7	0xbc3a1f03	-0.011359933
8	0x3cd79de8	0.026320413
9	0x3c27f051	0.010250167
10	0x3d133397	0.03593787
11	0xbac9a499	-0.0015384137
12	0xbb4076f1	-0.002936777
13	0x3cbf1f0b	0.023330232
14	0xbc8b9239	-0.017037498
15	0xbb598172	-0.0033188728
16	0x3b98879f	0.004654839
17	0x3bfd7cd5	0.0077358284
18	0xbc37783f	-0.0111981025
19	0xb9a1b952	-0.00030846387
20	0x3bdcb74b	0.0067357174
21	0xbbeb6df9	-0.0071847406
22	0x3c231c35	0.009955456
23	0xbccefcd3	-0.02526704
24	0xbba5c214	-0.0050585363
25	0xbce8d2ab	-0.028420767
26	0x3cc6eab7	0.024281843
27	0x3c05713a	0.008144671
28	0x3cc3b3cb	0.023889443
29	0x3cd1e813	0.025623357
30	0x3bd4011f	0.00646986
31	0x3c5366e7	0.012902952
32	0x3c80109f	0.015632926
33	0x3d2f0185	0.04272606
34	0x3c28b8e9	0.010297992
35	0xbcebc72c	-0.028781496
36	0x3cbede08	0.023299232
37	0x3d7c5393	0.06160314
38	0xbc318e2e	-0.010837121
39	0x3c5ddb3f	0.013541042
40	0x3cdee846	0.027210366
41	0xbc867ef5	-0.01641796
42	0x3b7affae	0.003829937
43	0x3ba8a825	0.0051469975
44	0xbc6e2333	-0.014534759
45	0x3c84738f	0.016168384
46	0xbcaf3a01	-0.021389963
47	0xbce50124	-0.027954645
48	0x3bb8b393	0.0056366413
49	0xbbaf7f17	-0.0053557265
50	0x3ba8d4b5	0.00515231
51	0x3c950f3e	0.018195745
52	0x3ce7cdfa	0.02829646
53	0x3c2e7245	0.010647361
54	0xbd56d2bc	-0.052447066
55	0xbbec3a8b	-0.0072091273
56	0x3c1d71c8	0.009609647
57	0x3cb9e0fc	0.022690289
58	0xbc2566e1	-0.010095329
59	0x3d23bcee	0.0399751
60	0x3d05d66c	0.03267519
61	0x3bc78fca	0.006090139
62	0x3d315745	0.043296117
63	0xbc588c85	-0.013217096
64	0x3c85ff51	0.016357096
65	0x3cd601c9	0.026123898
66	0xbb9c4fa8	-0.004770238
67	0xbc1ec2cc	-0.009689998
68	0x3c806ea1	0.015677752
69	0x3ba2c94a	0.004967843
70	0x3cac124f	0.021004824
71	0x3c234841	0.009965957
72	0x3cfd0860	0.030887783
73	0x3d104446	0.03522136
74	0xbc79787f	-0.015226482
75	0xbd1931d0	-0.03740102
76	0xbd2b33b4	-0.041797355
77	0x3c4b89df	0.012423008
78	0x3d3a7bec	0.045528337
79	0x3cff880b	0.0311928
80	0x3c020586	0.007935887
81	0x3c9ed11f	0.019386826
82	0xbc9b5ab5	-0.01896415
83	0x3ba41e27	0.0050084773
84	0x3c1b7550	0.009488419
85	0xbcadac56	-0.02120034
86	0x3d025847	0.03182247
87	0xbc93bf1a	-0.01803546
88	0xbce2b04a	-0.027671952
89	0xbc8aea98	-0.016957566
90	0x3c6a5d62	0.014304491
91	0x3aff895c	0.0019495892
92	0x3cabff9b	0.020995906
93	0xbcb4a96c	-0.022053443
94	0xba8bbe97	-0.0010661659
95	0x3d3d72a8	0.046251923
96	0xb9e012df	-0.0004273867
97	0xbb3cbc43	-0.0028798736
98	0x3c71c492	0.014756339
99	0xbb41de08	-0.0029581804
100	0xbbcfdbf2	-0.006343358
101	0xbcd98436	-0.0265523
102	0x3c873fdf	0.016509948
103	0xbd5e9c41	-0.054348234
104	0xbb3adb78	-0.0028512161
105	0x3d39dc11	0.045375887
106	0x3c8cffce	0.01721182
107	0x3b63dad0	0.0034767874
108	0x3d5f9f50	0.05459529
109	0x3d023244	0.03178622
110	0x3b9948ac	0.0046778526
111	0xbd1843dc	-0.03717409
112	0x3d0a2e31	0.033735458
113	0xbcb8202e	-0.022476282
114	0x3c1fdd6a	0.009757379
115	0x3c004b18	0.007830404
116	0x3c6d3cf5	0.014479865
117	0xbd198756	-0.037482582
118	0x3cb23ca8	0.021757439
119	0xbcdd4713	-0.02701143
120	0x3b5e2f44	0.0033902684
121	0xbc49ab76	-0.012308946
122	0xbb59ebc8	-0.003325211
123	0x3c8ca4b7	0.017168386
124	0x3d700d8d	0.058606673
125	0x3b9e653b	0.004833845
126	0xbb02598a	-0.0019889795
127	0xbc3cabab	-0.011515538
128	0x3c625aa6	0.013815558
129	0x3bef3388	0.007299844
130	0xbb896a21	-0.0041935598
131	0x3c127a02	0.008940222
132	0xbd1c4317	-0.03814992
133	0x3c619261	0.01376781
134	0x3cf7a579	0.03023027
135	0xbc9102fc	-0.017701618
136	0xbd70efc7	-0.05882242
137	0xbd26fcb2	-0.040768333
138	0x3c81aafe	0.015828606
139	0x3c91450e	0.017733123
140	0x3b87ba76	0.004142101
141	0x3ce4f24f	0.027947573
142	0x3c3cc931	0.011522577
143	0xbcfa1093	-0.030525481
144	0xbc330bdf	-0.010928123
145	0x3c884ad3	0.016637241
146	0xbd1a8ccf	-0.03773194
147	0xbba6a2da	-0.0050853314
148	0x3cae23cb	0.021257302
149	0x3bbb6be2	0.0057196477
150	0xbc9f13d5	-0.019418636
151	0x3c95f5b7	0.018305643
152	0x3c7507c7	0.014955468
153	0x3c69d73b	0.014272506
154	0x3c63a90b	0.013895283
155	0xbd056ced	-0.032574583
156	0x3cd52b18	0.026021525
157	0xbc649cb5	-0.0139533775
158	0x3bff4022	0.0077896276
159	0x3b865037	0.004098918
160	0xbc3451e2	-0.0110058505
161	0x3aac2b72	0.0013135506
162	0xbce41123	-0.027840203
163	0xbc09edac	-0.008418482
164	0x3ba961a4	0.0051691104
165	0x3caa0c42	0.020757798
166	0xbbd5b9b1	-0.0065223803
167	0x3bf1b8f5	0.007376785
168	0x3c8f64db	0.017504146
169	0xbb9e00a9	-0.004821856
170	0x3c824296	0.015900891
171	0xbb62acfe	-0.0034587975
172	0x3c5cd9a4	0.013479624
173	0xbca0d3be	-0.019632217
174	0x3c0b0b2f	0.008486553
175	0xbc0637e0	-0.008192033
176	0xbcd6349b	-0.026148131
177	0x3d563016	0.052291952
178	0x3abb305b	0.0014281379
179	0x3cc7a64b	0.024371287
180	0x3c24b97a	0.010053987
181	0xbcd9c59f	-0.02658349
182	0xbb296896	-0.0025849692
183	0xbb6f9ead	-0.0036563084
184	0x3ae71afd	0.0017631945
185	0xbb3c9d91	-0.002878044
186	0x3abfdd0c	0.0014638021
187	0xbc82f198	-0.015984342
188	0x3c187a58	0.009306513
189	0xbb0057f1	-0.0019583667
190	0xbbf6fb15	-0.0075372555
191	0x3cd75b55	0.026288668
192	0x3c1116ea	0.008855561
193	0xbb384f20	-0.0028123334
194	0x3c9d85d5	0.019228855
195	0xbc83977c	-0.016063444
196	0x3c6224c2	0.013802709
197	0x3c20904c	0.009800028
198	0xbc442ae5	-0.0119731175
199	0x3a58b615	0.00082668784
200	0x3cb1dd2b	0.021711906
201	0xbbba0a96	-0.0056775315
202	0xbd09e332	-0.033663936
203	0x3c8ba432	0.017046068
204	0x3cefd3fd	0.029275889
205	0xba83436a	-0.0010014598
206	0xbd51a7be	-0.051185362
207	0xbd0d3961	-0.03447855
208	0x3cc970a9	0.024589853
209	0x3c91143f	0.01770985
210	0xbd1d52d2	-0.03840906
211	0x3c52f3a8	0.012875475
212	0x3aa92bd9	0.0012906744
213	0x3ce1aca0	0.027548134
214	0xbc4a5af1	-0.012350784
215	0x3cb461fe	0.022019383
216	0xbcfb12d8	-0.030648634
217	0xbb906e00	-0.0044076443
218	0xbce20977	-0.027592404
219	0x397bb097	0.0002400301
220	0xbb39d250	-0.0028354116
221	0x3d145cb3	0.036221217
222	0xbce569f4	-0.028004624
223	0x3c7ac9cc	0.015306901
224	0xbbd84533	-0.006600046
225	0x3ce8f982	0.028439287
226	0x3ce289fb	0.027653685
227	0xbcb5bdd5	-0.022185246
228	0xbc3603d1	-0.011109308
229	0xbbae077b	-0.0053109503
230	0xbaa6f3b0	-0.001273742
231	0x3bad68e5	0.0052920454
232	0x3c2c2687	0.0105072325
233	0x3c4c6ae2	0.012476655
234	0x3cb9b2fa	0.02266835
235	0x3bcca8d5	0.0062457123
236	0xbd046b61	-0.032328967
237	0x3cf5e075	0.030014256
238	0x3bce4335	0.006294633
239	0x3c2ad095	0.010425706
240	0x3a2cbb56	0.00065891945
241	0xbc78fa74	-0.015196431
242	0x3b9c7cea	0.004775633
243	0x3b5ae490	0.0033400394
244	0x3c034b75	0.008013596
245	0xbc943bb4	-0.018094875
246	0x3c45d22e	0.0120740365
247	0xbaebaa69	-0.0017979863
248	0xbc60cfee	-0.013721449
249	0x3ca1af81	0.019737007
250	0xbc895765	-0.016765306
251	0xbc9f35dd	-0.019434864
252	0xbc95da77	-0.018292649
253	0xbd2cf545	-0.042226095
254	0x3ce6c3eb	0.028169593
255	0x3c445774	0.011983741

bias f4 [97]
0	0x3cd29fd2	0.025710974
1	0xbd12d68f	-0.03584915
2	0xbd82a2df	-0.063787214
3	0x3d6bfddd	0.05761515
4	0xbdae7726	-0.085188195
5	0xbc543a51	-0.012953357
6	0x3d635c4d	0.055507947
7	0x3de8811a	0.11352749
8	0x3cbefce9	0.023313956
9	0xbd894ebd	-0.06704471
10	0xbd50f2c5	-0.051012773
11	0xbc88a6d0	-0.016681105
12	0xbcf76e79	-0.030204045
13	0x3df369df	0.11885428
14	0x3d77ea38	0.060526103
15	0xbcfedc15	-0.031110803
16	0xbd8027e5	-0.06257609
17	0x3db222f2	0.086980715
18	0x3db9a882	0.090653434
19	0xbd427747	-0.047477033
20	0xbddfcdff	-0.109279625
21	0x3dd5f72c	0.10447535
22	0xbd8ff506	-0.070291564
23	0x3da02253	0.07819047
24	0xbd1e20b2	-0.0386054
25	0x3df8513d	0.1212487
26	0x3dbcc128	0.09216529
27	0x3c07d8bd	0.0082914205
28	0x3c4a65ce	0.012353374
29	0x3da283e6	0.07935314
30	0x3c7e1d1e	0.015509872
31	0x3dfe1f5c	0.12408325
32	0xbd30a3e8	-0.043125063
33	0x3ce22f9e	0.027610596
34	0x3d22c39f	0.03973734
35	0x3d2870b4	0.041123107
36	0x3d4282b8	0.047487944
37	0xbd86c74f	-0.06580984
38	0xbcd17769	-0.025569635
39	0xbd8a2794	-0.0674583
40	0xbcbf57d2	-0.023357306
41	0x3dcb15c1	0.099162586
42	0x3d3aea8b	0.045633834
43	0xbc357be4	-0.011076901
44	0xbd82eba5	-0.06392602
45	0x3d0b7cd0	0.034054577
46	0x3dc15483	0.094399475
47	0x3d756c0d	0.0599175
48	0xbdac5586	-0.0841475
49	0xbd92a537	-0.071604185
50	0x3dd726c3	0.1050544
51	0xbb49a5fb	-0.0030769098
52	0x3de2dd94	0.11077419
53	0x3ddae690	0.106885076
54	0xbd80efff	-0.062957756
55	0x3d56df95	0.05245932
56	0x3d95af99	0.07308883
57	0xbc24b0a0	-0.010051876
58	0x3d603dc8	0.05474642
59	0x3dfd2575	0.1236066
60	0xba0609f1	-0.0005113176
61	0x3cde569c	0.027140908
62	0x3da2acf9	0.07943148
63	0x3d701fc4	0.058624044
64	0x3ca4e993	0.020130908
65	0x3c889464	0.01667232
66	0x3d323ab0	0.043513
67	0x3d9ca31e	0.076483
68	0x3dd4700a	0.10372932
69	0xbd67a855	-0.05655702
70	0xbd2efe11	-0.042722765
71	0xbdb0fd97	-0.086421184
72	0xbcab76f6	-0.020930748
73	0xbb9fe30e	-0.004879362
74	0xbb0a22cd	-0.0021077872
75	0x3cb8f56c	0.022577964
76	0xbd44cc77	-0.048046555
77	0xbd0b9a38	-0.03408262
78	0xbd43b860	-0.047783256
79	0x3c9716f4	0.018443562
80	0xbd93194f	-0.071825616
81	0xbd0c289d	-0.03421842
82	0xbdd40d34	-0.10354081
83	0xbd1d88ed	-0.03846066
84	0xbd884e66	-0.06655578
85	0x3d0e0ba2	0.034679063
86	0xbb6d2bb4	-0.003618938
87	0xbdd6cbc5	-0.10488085
88	0x3dcd0b7a	0.100119546
89	0xbcb8ae4c	-0.022544049
90	0xbd123f3b	-0.035704833
91	0x3bd5727a	0.006513891
92	0xbd80443e	-0.06263016
93	0x3de3010f	0.11084186
94	0x3da45023	0.08023097
95	0x3d9362c1	0.0719657
96	0xbd83bd39	-0.06432576
