loggers/h256_w256_bs20_in_channel1_lr0.0003/0512_0053/models/BasicModel_96.pth (torch, 40207 bytes, 17 tensors)

weight f4 [2, 1, 3, 3]
0	0xba36fd7f	-0.0006980523
1	0xbc6bbd3e	-0.014388381
2	0xbbf0e93e	-0.0073520234
3	0x3ce72a24	0.028218336
4	0x3a2efd14	0.0006675285
5	0x3b83969b	0.0040157563
6	0x3caa6da0	0.020804226
7	0xbc3028ad	-0.010751885
8	0xbc4aac20	-0.012370139
9	0x3bae4482	0.0053182254
10	0x39c7b799	0.0003809303
11	0x3cda6bd9	0.026662754
12	0xbd070920	-0.032967687
13	0x3c345bc4	0.011008207
14	0xbbe56d71	-0.007001572
15	0x3cd0c47d	0.025484318
16	0xbc9f0063	-0.019409364
17	0xbc9ec759	-0.019382166

weight f4 [2]
0	0x3f7dd226	0.99148786
1	0x3f804b17	1.0022916

bias f4 [2]
0	0xbc0c79c7	-0.008573956
1	0xbcc47a44	-0.023984082

running_mean f4 [2]
0	0x3de2f5de	0.11082052
1	0xbe06f8fd	-0.13180919

running_var f4 [2]
0	0x3dd7c653	0.10535874
1	0x3e0e4fbe	0.13897607

weight f4 [4, 2, 3, 3]
0	0xbc94546b	-0.01810666
1	0xbcec4998	-0.028843686
2	0x3b74147b	0.0037243653
3	0xbc24a2fa	-0.010048622
4	0xbd042c6f	-0.032268938
5	0x3b848bb1	0.004044973
6	0x3b990075	0.004669244
7	0x3c57c8a0	0.013170391
8	0x3bc5017c	0.00601214
9	0xbc8513c2	-0.016244773
10	0xbcae2229	-0.021256523
11	0xbabfe9ba	-0.00146418
12	0x3d302a37	0.04300901
13	0xbc607dc5	-0.013701861
14	0x3c1925ac	0.009347361
15	0x3be836b3	0.007086599
16	0xbbf43e50	-0.0074537173
17	0xbc472fa0	-0.012157351
18	0xbd189fbb	-0.037261706
19	0x3c3d0f89	0.011539348
20	0x3a16dcb0	0.0005754931
21	0x3c39c0dd	0.011337486
22	0xba578894	-0.0008221951
23	0xbc7fa168	-0.015602447
24	0x3c2b7655	0.010465224
25	0xbd5ea65e	-0.05435788
26	0xbc4bf727	-0.012449062
27	0xbbe70b38	-0.007050898
28	0xbbe6286d	-0.007023862
29	0x3c75c549	0.01500065
30	0x3c3bac41	0.011454643
31	0x3d4695fa	0.048482873
32	0x3cead425	0.028665612
33	0x3d15a188	0.036531
34	0x3c3e30ff	0.011608361
35	0xba276706	-0.0006385896
36	0x3ccf19c1	0.025280835
37	0xbc3ba2d6	-0.011452397
38	0xbb8f7610	-0.004378088
39	0x3d232d4c	0.03983812
40	0xbc617ecf	-0.013763144
41	0xbca14d17	-0.01969008
42	0xbb8a2470	-0.0042157695
43	0x3c1eb036	0.009685567
44	0x3cbb430e	0.022859123
45	0x3c6b4902	0.014360668
46	0x3c676644	0.014123503
47	0x3cfa151f	0.03052765
48	0x3c23e28e	0.010002745
49	0x3cc0d027	0.023536755
50	0x3c9fda33	0.019513225
51	0xbbc9a43e	-0.0061536124
52	0x3cb08efa	0.021552552
53	0x3b70986e	0.003671195
54	0xbd2be6b2	-0.041968055
55	0x3beb7036	0.0071850074
56	0x3c1ae7bc	0.009454664
57	0x3c2e81b5	0.010651042
58	0xbd513773	-0.05107827
59	0xbbdf82cc	-0.006821012
60	0xbcd5c8d2	-0.026096735
61	0x3cb51366	0.022103976
62	0xbcead9c2	-0.028668288
63	0xbc02a5c0	-0.007974088
64	0x3b5b3be7	0.0033452453
65	0x3b07466d	0.0020641342
66	0xbd4cd1e9	-0.050004873
67	0xbb248250	-0.0025102086
68	0x3b817b34	0.0039514545
69	0x3b5c1f4a	0.0033587986
70	0x3b633a29	0.0034672117
71	0xbc4282c5	-0.011871998

weight f4 [4]
0	0x3f8441de	1.0332601
1	0x3f7f2b6a	0.9967562
2	0x3f80c1d7	1.0059155
3	0x3f82dead	1.0224205

bias f4 [4]
0	0xbc67b781	-0.014142872
1	0xbc16b66e	-0.009198768
2	0x3c77e651	0.015130595
3	0x3c3c1567	0.011479712

running_mean f4 [4]
0	0xbd969ab4	-0.07353726
1	0x3d460b66	0.048350714
2	0x3e365249	0.17804827
3	0xbe2ab4b2	-0.16670492

running_var f4 [4]
0	0x3be3fceb	0.0069576404
1	0x3c59e32c	0.013298791
2	0x3c4c729b	0.012478496
3	0x3c6541a4	0.013992701

weight f4 [8, 4, 3, 3]
0	0x3be2c800	0.0069208145
1	0x3cdd7843	0.027034884
2	0xbc9180f7	-0.01776169
3	0xba485c6e	-0.00076431676
4	0xbd3590fb	-0.044327717
5	0x3bbac619	0.0056998846
6	0x3cec164b	0.028819224
7	0xbc953369	-0.01821299
8	0x3cbff7ca	0.023433585
9	0xbc80b2bb	-0.015710225
10	0x3d31951a	0.043355085
11	0x3c9ec307	0.019380106
12	0xbd21a18c	-0.039460704
13	0x3ccb6258	0.024827167
14	0x3c08e101	0.008354426
15	0x3cce38a9	0.025173502
16	0xbc439219	-0.011936688
17	0xbbd1e44f	-0.0064053903
18	0x3c277088	0.010219701
19	0xbcc106c3	-0.023562795
20	0xbcc995d2	-0.024607573
21	0xbbfcc908	-0.0077143945
22	0xba6f0015	-0.00091171387
23	0xbc0d5adf	-0.008627622
24	0x3a3d448d	0.00072199927
25	0x3ca37f64	0.019958206
26	0xbd0bf797	-0.034171667
27	0xbbdce450	-0.006741084
28	0xbd18a247	-0.037264135
29	0x3b9970f8	0.0046826564
30	0xbca37390	-0.019952565
31	0xbaafe619	-0.0013420015
32	0xbce0869e	-0.02740794
33	0xba058562	-0.0005093423
34	0xbca2d228	-0.019875601
35	0xbd2ac5b8	-0.041692466
36	0x3b7dbf1e	0.003871865
37	0xbcaa8668	-0.020816043
38	0x3ade37ca	0.0016953882
39	0x3c780d59	0.015139901
40	0x3cb8824a	0.022523064
41	0x3ca092ab	0.019601187
42	0x3c0214fe	0.007939575
43	0x3d1df88c	0.03856711
44	0xbacef22c	-0.0015788726
45	0xbc3f4d47	-0.011676139
46	0x3bd6fe1b	0.0065610535
47	0xbc070544	-0.0082410015
48	0x3c29da18	0.010366939
49	0xbb5f5dc9	-0.0034083
50	0x3c6bf85e	0.014402477
51	0xbc4af86a	-0.012388328
52	0xbc917b0d	-0.01775887
53	0x3c115ab7	0.008871726
54	0xbac90102	-0.0015335383
55	0xbcb3c6b9	-0.021945344
56	0x3b9fef10	0.0048807934
57	0x3cba9fdf	0.02278131
58	0xbbcc4abb	-0.0062344945
59	0xbbd1f13e	-0.006406932
60	0xbceda489	-0.02900912
61	0x3cfd1b55	0.030896822
62	0xbcf74dfb	-0.030188551
63	0xbccd9655	-0.025096098
64	0xbca7d8bc	-0.02048909
65	0xbc1e4328	-0.009659566
66	0x3cbd93ec	0.023141824
67	0x3c8d22ba	0.017228473
68	0xbc98ef4a	-0.01866879
69	0x3c029150	0.0079692155
70	0xbcadeaf6	-0.021230202
71	0xbd20ed43	-0.03928877
72	0x3d009d9d	0.03140031
73	0x3c65b6d4	0.01402064
74	0x3cc6345d	0.02419489
75	0xbcf50b35	-0.02991257
76	0xbc8f0791	-0.017459663
77	0xbc43d478	-0.011952512
78	0x3ba5c913	0.0050593703
79	0xbc5a5084	-0.0133248605
80	0x3cabb389	0.020959632
81	0xbd09a08a	-0.033600368
82	0xba9e1469	-0.0012060526
83	0x3b31cce0	0.0027130172
84	0x3cb18d0e	0.021673705
85	0xbce02947	-0.027363433
86	0x3ca522e0	0.020158231
87	0x3c3a095c	0.0113547705
88	0x3a94b4cc	0.0011345386
89	0x3b13bf41	0.0022544416
90	0xbd036ac1	-0.03208423
91	0x3aee6e17	0.0018190768
92	0x3c1b2d7c	0.009471294
93	0x3cba7fce	0.02276602
94	0x3d1abb9a	0.037776567
95	0xbc6072d8	-0.013699256
96	0xbca1a64d	-0.019732619
97	0x3b883e2e	0.004157803
98	0xbc2d1ec4	-0.010566417
99	0x3c61ca1f	0.0137811
100	0xbc5640db	-0.013076986
101	0x3bd161fa	0.0063898535
102	0x3d5bfc39	0.053707335
103	0xbc6a7c60	-0.01431188
104	0xbb7f20e2	-0.0038929512
105	0x3c8f8918	0.017521426
106	0x3cd70e2e	0.026251879
107	0x3b0c19a7	0.0021377595
108	0xbc871fac	-0.016494595
109	0xbb2d2f4e	-0.00264259
110	0xbc930ad1	-0.017949494
111	0x3d16e884	0.036842838
112	0xbcf886b2	-0.030337665
113	0xbbc2061b	-0.005921138
114	0x3c063512	0.008191364
115	0x3c611d31	0.01373987
116	0xbccd1209	-0.025033014
117	0x3c1f6721	0.009729178
118	0xbc04e05e	-0.008110134
119	0x3c6b15ac	0.014348429
120	0xbb7060a2	-0.0036678691
121	0xbc9e1e57	-0.019301577
122	0x3ccbe9ae	0.0248917
123	0x3cb9f4f6	0.022699814
124	0xbc598189	-0.0132755125
125	0xba4a916e	-0.0007727359
126	0x3ca495ca	0.020090956
127	0xbbb9b11d	-0.0056668655
128	0x3c119068	0.008884527
129	0x3cc6bef9	0.024260985
130	0xbd049800	-0.03237152
131	0xbbd545fd	-0.0065085874
132	0x3c8d6071	0.0172579
133	0xbc88d072	-0.016700957
134	0x3b0320ce	0.0020008567
135	0x3ba5637a	0.005047259
136	0x3c54d5bd	0.012990412
137	0x3d358a45	0.044321317
138	0xbc0c4689	-0.008561739
139	0x3cf15b93	0.029462611
140	0x3b88792b	0.004164835
141	0x3c3476b7	0.011014632
142	0x3d3f6ecd	0.046736527
143	0xbd1232d6	-0.035693012
144	0xbb8d687b	-0.0043154336
145	0xbcbf4985	-0.023350487
146	0xbc7355ec	-0.014852028
147	0x3cd0d143	0.025490409
148	0x3b92c399	0.0044788835
149	0x3ac9b4e2	0.001538899
150	0x3d1e332c	0.03862302
151	0x3cca4db5	0.024695257
152	0x3c1b3d8f	0.009475126
153	0x3c1d7241	0.00960976
154	0xba9b2563	-0.0011836704
155	0xbc8b9b6a	-0.01704188
156	0xbce7521e	-0.028237399
157	0xbd1edb81	-0.038783554
158	0xbca80876	-0.020511847
159	0x3acc688d	0.0015595123
160	0xbd06bd57	-0.032895412
161	0x3bb5ffc8	0.005554173
162	0xbcc07912	-0.02349523
163	0x3c57a10b	0.013160954
164	0xbc4e87f6	-0.012605658
165	0xbac9394a	-0.0015352156
166	0xbcf817d1	-0.030284794
167	0x3cd09275	0.025460461
168	0xbccc2a21	-0.024922432
169	0xbcb73463	-0.022363847
170	0xbc946600	-0.018115044
171	0xbb91b5af	-0.004446707
172	0x3c9f7017	0.019462628
173	0xbcbd3a41	-0.023099067
174	0x3c7e7864	0.015531633
175	0xbcc7c893	-0.024387633
176	0x3cd994ea	0.026560266
177	0x3c7acce4	0.015307639
178	0x3b89d934	0.004206801
179	0x3b4ec629	0.0031551218
180	0x3bb71961	0.005587742
181	0x3c3216d4	0.0108697
182	0xbcc4e015	-0.024032632
183	0xbd5296a0	-0.05141318
184	0xbc825221	-0.015908303
185	0xbbb60cb7	-0.005555715
186	0x3d23e62c	0.04001443
187	0xbc89c45c	-0.016817264
188	0x3d73aa0e	0.05948835
189	0x3c1b6d27	0.009486473
190	0xbb3d18b5	-0.0028853838
191	0x3c13b134	0.0090144165
192	0xbc5c2705	-0.013437037
193	0x3b569355	0.0032741625
194	0xbd1a435a	-0.037661888
195	0x3ce71530	0.028208345
196	0x3bafccf6	0.0053650094
197	0x3a958aba	0.0011409142
198	0x3c89ea0d	0.016835237
199	0x3c40fff0	0.01177977
200	0xbcd1bec4	-0.02560366
201	0xbd19416c	-0.037415907
202	0x3c1c001e	0.009521512
203	0x3d0d0140	0.03442502
204	0x3cad65c3	0.021166688
205	0xbbb9dbe4	-0.005671965
206	0x3c068dc6	0.008212512
207	0xba15d228	-0.00057152146
208	0xb8238c26	-3.899275e-05
209	0x3b0bef11	0.0021352211
210	0x3c47b242	0.012188496
211	0x3be80357	0.0070804763
212	0x3c593d59	0.013259255
213	0x3c911b07	0.017713083
214	0xbc0acc64	-0.008471582
215	0x3c51e7b4	0.01281159
216	0x3b9a5089	0.0047093076
217	0x3cfa9f3b	0.030593505
218	0xbca9cfe6	-0.020729017
219	0x3cce1f9a	0.025161553
220	0xbcc09bfd	-0.023511881
221	0xbc9bda2f	-0.019024936
222	0xbc564722	-0.013078483
223	0x3c80a3ff	0.0157032
224	0x3c89d7ac	0.016826473
225	0xbc49cccd	-0.012316895
226	0xbcd93f40	-0.026519418
227	0x3d0c46f5	0.034247357
228	0x3c27020c	0.010193359
229	0xbc2e2474	-0.010628808
230	0x3d0a0a4a	0.03370122
231	0x3bcaab3b	0.006184963
232	0x3ba6ba38	0.005088117
233	0xbb389667	-0.0028165819
234	0xba4f23ad	-0.00079017394
235	0xbcb6b57e	-0.02230334
236	0x3b5389a2	0.003227808
237	0x3a7668ba	0.0009399761
238	0x3c242294	0.01001801
239	0x3b187d7c	0.0023268154
240	0x3c3df526	0.0115940925
241	0x3c571f3d	0.013130006
242	0x3ca7276a	0.020404536
243	0xbce8c94b	-0.028416296
244	0xbccffd82	-0.025389437
245	0x3c0f60ee	0.008751137
246	0x3ce55518	0.027994677
247	0x3c12142c	0.008915942
248	0xbc6e69c8	-0.014551587
249	0x39456c56	0.00018827742
250	0x3c158768	0.009126522
251	0x3b8d9b43	0.004321487
252	0x3c23b6a4	0.009992275
253	0x3c90ddb1	0.017683836
254	0xbc0fc53c	-0.008775052
255	0xbb07176e	-0.002061333

weight f4 [8]
0	0x3f82e928	1.0227404
1	0x3f81a218	1.0127592
2	0x3f843d70	1.0331249
3	0x3f85d136	1.0454471
4	0x3f85c8a1	1.0451852
5	0x3f858beb	1.0433325
6	0x3f830acd	1.0237671
7	0x3f7e7eae	0.9941205

bias f4 [8]
0	0x3ccd302c	0.025047384
1	0x3b3c3332	0.0028717038
2	0x3ce067f4	0.027393319
3	0x3c79690e	0.015222801
4	0x3bf2eea7	0.0074137035
5	0x3b892f5f	0.0041865553
6	0xba47f297	-0.0007627396
7	0x3ccfb654	0.025355496

running_mean f4 [8]
0	0xbe005f55	-0.12536366
1	0xbd08c393	-0.03338964
2	0x3d9bdb64	0.07610205
3	0x3d9720ac	0.073792785
4	0xbe277197	-0.16351925
5	0x3d9f233c	0.07770392
6	0x3dc6d39c	0.0970833
7	0x3cdcd8d0	0.026958853

running_var f4 [8]
0	0x3b918d89	0.004441921
1	0x3b8b2666	0.004246521
2	0x3b983d1b	0.004645956
3	0x3b8bd31e	0.0042671105
4	0x3d13cb3b	0.036082488
5	0x3bb0e264	0.0053980816
6	0x3bf5f246	0.007505688
7	0x3b527215	0.0032111455

weight f4 [97, 8, 3, 3]
0	0xbc3f73eb	-0.011685352
1	0x3c845e77	0.016158326
2	0x3d638cfd	0.05555438
3	0xbc8d1528	-0.017222002
4	0xbca2de91	-0.019881519
5	0xbc9333fb	-0.017969122
6	0x3d085693	0.03328569
7	0xbc87ea5e	-0.016591247
8	0x3c853744	0.016261704
9	0x3bc2d759	0.0059460816
10	0x3d0a8321	0.03381646
11	0xbb25cbb8	-0.0025298428
12	0xbb2baa28	-0.002619395
13	0x3cb9d5ed	0.022685016
14	0xbc704ffb	-0.014667506
15	0xbc2a0d70	-0.01037918
16	0x3abcddb5	0.0014409336
17	0x3b974a2b	0.004616996
18	0xbcce5883	-0.02518869
19	0xbb76e965	-0.0037675735
20	0x3c442be6	0.011973357
21	0xbc7a1686	-0.015264159
22	0x3bf43f7c	0.007453857
23	0xbc86a3c5	-0.016435513
24	0xbc05590c	-0.008138906
25	0xbce7e41e	-0.028307017
26	0x3cce42e5	0.025178382
27	0xbb0a996b	-0.0021148573
28	0x3cd165d1	0.025561245
29	0x3cbdaa50	0.0231525
30	0xba580127	-0.0008239918
31	0x3c9d7cbb	0.019224515
32	0x3c982039	0.018570052
33	0x3d1bfffb	0.03808592
34	0x3c7a5d9b	0.015281106
35	0xbca4a33b	-0.020097366
36	0x3ccdc708	0.02511932
37	0x3d804b9d	0.06264422
38	0xbc1a33f9	-0.009411805
39	0x3c571df5	0.013129701
40	0x3cde3cb3	0.027128553
41	0xbc2e1c1e	-0.010626821
42	0x3be67c7c	0.0070338827
43	0x3b94e60c	0.0045440253
44	0xbc9c8260	-0.019105136
45	0x3ca8fd87	0.020628704
46	0xbc968ffc	-0.018379204
47	0xbcf6ee23	-0.03014285
48	0x3bc567bf	0.0060243304
49	0xbc4747d0	-0.0121631175
50	0xbbb3eb22	-0.0054906765
51	0x3c8e310c	0.017357372
52	0x3cd72296	0.026261609
53	0x3c195f47	0.009361095
54	0xbd898904	-0.06715587
55	0xbc571e1f	-0.01312974
56	0x3c04696f	0.008081778
57	0x3ccad0c1	0.024757745
58	0xbbdaa3d4	-0.006672362
59	0x3d320541	0.04346204
60	0x3d27606d	0.040863443
61	0x3c6cb6e6	0.014447903
62	0x3d4ac9fe	0.04950904
63	0xbc5e51db	-0.013569321
64	0x3c89fd94	0.016844548
65	0x3cc687bb	0.024234643
66	0x3b1c2604	0.002382637
67	0xbbcbdb48	-0.0062212087
68	0x3b894891	0.004189559
69	0x3a4bd1fa	0.00077751244
70	0x3ce4983b	0.02790462
71	0x3c8bceee	0.017066445
72	0x3d11a0ee	0.035553865
73	0x3d2bb179	0.041917298
74	0xbb62e6c0	-0.00346224
75	0xbd16b863	-0.03679694
76	0xbd621c76	-0.055202924
77	0x3c434800	0.011919022
78	0x3d7e8d6b	0.062146585
79	0x3cad5e06	0.021162998
80	0x3bde75d4	0.0067889486
81	0x3c8c076e	0.017093387
82	0xbcbdf1c6	-0.023186576
83	0x3a45512f	0.0007527051
84	0x3bcf0612	0.0063178623
85	0xbcb34318	-0.021882579
86	0x3d201ac7	0.039088037
87	0xbceb0eff	-0.028693674
88	0xbd18bf0c	-0.03729157
89	0xbc8389d7	-0.016056938
90	0x3c4d1f5c	0.012519684
91	0x3b54d2ac	0.0032474203
92	0x3ce0c2e9	0.02743669
93	0xbce75a4b	-0.028241297
94	0xbb8c5b57	-0.0042833495
95	0x3d5aa5cd	0.053380776
96	0xbad2b89e	-0.0016076749
97	0xbbf0e430	-0.007351421
98	0x3bb3cf2b	0.005487343
99	0xbbd67381	-0.006544531
100	0xbb95021c	-0.0045473706
101	0xbd13a7b9	-0.036048625
102	0x3c8050c8	0.01566352
103	0xbd7c7803	-0.06163789
104	0xbbbd835a	-0.0057834806
105	0x3d32d96a	0.043664373
106	0x3c8a4e08	0.016882911
107	0x3c0e9671	0.00870286
108	0x3d637c7e	0.055538647
109	0x3cfb2556	0.030657452
110	0x3b375610	0.0027974881
111	0xbd275e7c	-0.04086159
112	0x3d002a33	0.031290244
113	0xbca8fc2d	-0.02062806
114	0x3c2e104b	0.010624002
115	0x3b8028c7	0.003911111
116	0x3c374653	0.0111862
117	0xbc79d946	-0.015249556
118	0x3d37fead	0.044920612
119	0xbc04694e	-0.008081747
120	0x3c9050b5	0.01761661
121	0xbb2f94ba	-0.0026791529
122	0xbb8f0a19	-0.0043652174
123	0x3d1c4452	0.038151093
124	0x3d93a75a	0.07209654
125	0x3b541c4e	0.0032365504
126	0xbc61bff7	-0.013778678
127	0xbcb1a153	-0.02168337
128	0x3c9ff407	0.019525541
129	0xbc0661eb	-0.008202056
130	0xbc7b01b9	-0.015320235
131	0x3c1c6bac	0.009547155
132	0xbd1be1fd	-0.038057316
133	0x3c18f28c	0.009335171
134	0x3cef8404	0.029237755
135	0xbcf286e7	-0.029605342
136	0xbd8a6bd6	-0.06758849
137	0xbd67b942	-0.05657316
138	0x3cdda504	0.027056225
139	0x3c89dfcc	0.016830347
140	0xba2c8a83	-0.0006581919
141	0x3d084789	0.033271346
142	0x3c9e79c0	0.019345164
143	0xbcbfa838	-0.023395643
144	0xbce2e1b2	-0.02769551
145	0x3bae6d79	0.0053231088
146	0xbd13ec54	-0.036114052
147	0xbcb8ddf2	-0.02256677
148	0x3cbc31e5	0.02297301
149	0x3c36b415	0.011151333
150	0xbc893426	-0.0167485
151	0x3d0ff80d	0.03514867
152	0x3c958793	0.018253123
153	0x3bfa1030	0.007631324
154	0x3c6d2d25	0.014476095
155	0xbd1bebed	-0.038066793
156	0x3d135051	0.035965268
157	0xbca95895	-0.020672122
158	0x3b85fc40	0.0040889084
159	0x3c1d1d44	0.009589497
160	0x3a94f85f	0.0011365524
161	0xbc6da656	-0.01450499
162	0xbd22175b	-0.039573055
163	0xbb1f4365	-0.0024301645
164	0xb9fa4866	-0.00047737657
165	0x3cfd958b	0.030955097
166	0xb9cb51ef	-0.00038780223
167	0xba39c31b	-0.0007086263
168	0x3cd46f0c	0.025931858
169	0x3a9c716e	0.001193566
170	0x3c9fa605	0.019488344
171	0x3a1e5ca3	0.00060410256
172	0x3c45a011	0.012062089
173	0xbcb1a147	-0.021683348
174	0x3cc74132	0.02432308
175	0xbaf70b0d	-0.0018847898
176	0xbcaf4ed6	-0.021399897
177	0x3d823d77	0.0635938
178	0xb9f59e4f	-0.0004684799
179	0x3c8bef01	0.01708174
180	0x3bb6d5a6	0.005579668
181	0xbce99b78	-0.028516516
182	0xbb5be5b1	-0.0033553655
183	0xbad6e338	-0.0016394621
184	0x3b878110	0.0041352585
185	0xbb78d5ec	-0.0037969304
186	0x3b7dedd3	0.003874649
187	0xbc38edbc	-0.011287149
188	0x3c392a0d	0.01130153
189	0x3aad49ba	0.0013220825
190	0xbc8c0720	-0.017093241
191	0x3d0511ee	0.032487802
192	0x3c888bd1	0.016668232
193	0x3b9f0fe8	0.004854191
194	0x3c9bd38e	0.019021776
195	0xbc999a9b	-0.01875048
196	0x3c5af607	0.013364322
197	0x3af208ca	0.0018465754
198	0xbbfd4d61	-0.0077301716
199	0xbba8c281	-0.00515014
200	0x3c95d8af	0.0182918
201	0xbba82f63	-0.005132602
202	0xbd2f5a0b	-0.04281048
203	0x3c1d255a	0.009591425
204	0x3cd067d5	0.025440136
205	0xbbf524ca	-0.0074811922
206	0xbd535bf4	-0.051601365
207	0xbd2c3f9a	-0.042052843
208	0x3c89d948	0.01682724
209	0x3c9a93be	0.018869277
210	0xbd566d8b	-0.052350562
211	0x3ca26d1d	0.01982742
212	0x3c065c4b	0.008200715
213	0x3d038df8	0.032117814
214	0xbc2d3dbf	-0.010573803
215	0x3ca3c552	0.01999155
216	0xbcfa2de3	-0.030539459
217	0x3b17faf7	0.0023190358
218	0xbd322845	-0.043495435
219	0xbbbce4a9	-0.005764563
220	0xbb2df846	-0.0026545688
221	0x3d2f98ba	0.04287026
222	0xbd12a738	-0.035804003
223	0x3bb377d4	0.005476931
224	0x399cbaba	0.0002989376
225	0x3d156d80	0.03648138
226	0x3d081db1	0.03323144
227	0xbcec2b53	-0.028829252
228	0x3c4fd842	0.012685837
229	0x3ba130a5	0.004919129
230	0xbc0aad5e	-0.0084641855
231	0xb9790082	-0.0002374668
232	0x3ba7d724	0.0051220823
233	0x3ccd2030	0.025039762
234	0x3cd83aed	0.026395286
235	0x3bd6e67b	0.006558237
236	0xbd3eb1ad	-0.046556164
237	0x3cd1616c	0.02555915
238	0x3bb14a10	0.0054104403
239	0x38bd25cf	9.019265e-05
240	0xbb7b9e4c	-0.0038393913
241	0xbc98c105	-0.018646726
242	0x3be17d43	0.0068813874
243	0x3b3d84e8	0.002891833
244	0x3c8aae2b	0.016928753
245	0xbca61c0f	-0.020277051
246	0x3ca69197	0.020333095
247	0x3c16513e	0.009174643
248	0xbc18ecfd	-0.009333846
249	0x3cdcea75	0.026967267
250	0xbb0dfefa	-0.002166687
251	0xbcab3e81	-0.020903828
252	0xbcc94fde	-0.024574216
253	0xbd5464fb	-0.051854115
254	0x3d176e8a	0.036970653
255	0x3bb41943	0.0054961755

bias f4 [97]
0	0x3ccf9642	0.025340203
1	0xbd1e18e4	-0.038597956
2	0xbd85aa1b	-0.06526586
3	0x3d75547f	0.059895035
4	0xbda76ea0	-0.08175397
5	0xbc15a986	-0.009134656
6	0x3d5b4055	0.05352815
7	0x3de81771	0.11332596
8	0x3cc2e551	0.023790987
9	0xbd7fc692	-0.06244523
10	0xbd50a957	-0.050942745
11	0xbc6922f7	-0.014229528
12	0xbcdffae5	-0.027341316
13	0x3df19119	0.11795253
14	0x3d884abb	0.06654879
15	0xbcfea098	-0.031082436
16	0xbd7ef792	-0.06224782
17	0x3db4a7bf	0.088210575
18	0x3dc0a3c4	0.09406236
19	0xbd42d0b7	-0.047562327
20	0xbddf2fc7	-0.10897785
21	0x3dd3109a	0.10305901
22	0xbd88363b	-0.06650969
23	0x3d90537e	0.07047175
24	0xbd16d2f2	-0.036822267
25	0x3dfc56f4	0.123212725
26	0x3dc06668	0.093945324
27	0x3c424ff7	0.011859885
28	0x3c7fc9bb	0.015612061
29	0x3d9f109d	0.077668406
30	0x3c758661	0.014985652
31	0x3dfe032c	0.12402949
32	0xbd300277	-0.0429711
33	0x3d0055a1	0.031331662
34	0x3d1b2616	0.03787812
35	0x3d2f536a	0.04280416
36	0x3d5e298b	0.054238837
37	0xbd82a455	-0.06379
38	0xbcf53d5b	-0.029936483
39	0xbd82df95	-0.06390301
40	0xbcc14144	-0.023590691
41	0x3dd2341c	0.10263845
42	0x3d3cfd5b	0.046140056
43	0xbc53ee0f	-0.012935176
44	0xbd6e1fa9	-0.058135662
45	0x3d1956ab	0.03743617
46	0x3dc3df3a	0.095640615
47	0x3d88d42f	0.06681096
48	0xbdadf8dd	-0.084947325
49	0xbd8ecc42	-0.06972553
50	0x3de13624	0.10996655
51	0xbb727f31	-0.0037002082
52	0x3de7efa2	0.11325003
53	0x3dd9b263	0.10629728
54	0xbd76ca14	-0.06025131
55	0x3d516171	0.051118318
56	0x3d976ae3	0.07393434
57	0xbc272d6a	-0.010203699
58	0x3d6160e4	0.055024043
59	0x3dfed3e8	0.12442762
60	0xbad86370	-0.0016509127
61	0x3cefeb32	0.029286955
62	0x3dbaa9ff	0.091144554
63	0x3d838a3f	0.06422853
64	0x3cba97e2	0.022777501
65	0x3c7c39eb	0.015394668
66	0x3d2c7596	0.042104326
67	0x3d9c3b83	0.076285385
68	0x3dd170bc	0.102265805
69	0xbd5fd233	-0.05464382
70	0xbd2323c9	-0.03982905
71	0xbdb3e9f5	-0.08784858
72	0xbce7140d	-0.028207803
73	0xbc1e0010	-0.00964357
74	0xbaf194e7	-0.0018431217
75	0x3ccd7268	0.025078967
76	0xbd4f4c39	-0.0506098
77	0xbd175a33	-0.036951255
78	0xbd48cf6b	-0.049025934
79	0x3ca81397	0.020517154
80	0xbd8ef525	-0.06980351
81	0xbcfa6605	-0.030566225
82	0xbdd3fb81	-0.10350705
83	0xbd1be0ed	-0.038056303
84	0xbd899913	-0.0671865
85	0x3d16b8df	0.0367974
86	0xbb275f59	-0.002553901
87	0xbdd37574	-0.10325137
88	0x3dcec62c	0.10096392
89	0xbccb8aa5	-0.024846384
90	0xbd1c1d7a	-0.03811405
91	0x3c0c4d94	0.008563418
92	0xbd7826be	-0.060583822
93	0x3de09b12	0.10967077
94	0x3da61c08	0.08110815
95	0x3d7f6ecb	0.06236152
96	0xbd7b74b9	-0.061390612
