loggers/h256_w256_bs20_in_channel1_lr0.0003/0512_0053/models/BasicModel_69.pth (torch, 40207 bytes, 17 tensors)

weight f4 [2, 1, 3, 3]
0	0xba758a04	-0.0009366574
1	0xbc7804d0	-0.015137866
2	0xbbc2eddc	-0.005948765
3	0x3ce82f0e	0.02834275
4	0xb95088b8	-0.00019887357
5	0x3ba251f7	0.0049536186
6	0x3ca8bd06	0.020597946
7	0xbc1f0671	-0.009706126
8	0xbc547c51	-0.0129690925
9	0x3bda597e	0.0066635003
10	0xb98ccec6	-0.0002685694
11	0x3ce7ff92	0.028320108
12	0xbd0e0e7f	-0.034681793
13	0x3c1b5f30	0.009483144
14	0xbb86a28f	-0.004108734
15	0x3cc239a0	0.023709118
16	0xbc845ea0	-0.016158402
17	0xbca5be6f	-0.020232407

weight f4 [2]
0	0x3f7e6218	0.9936843
1	0x3f801f68	1.0009584

bias f4 [2]
0	0xba6e19fb	-0.0009082851
1	0xbc681ad5	-0.0141665535

running_mean f4 [2]
0	0x3df89bdc	0.12139103
1	0xbdc124f6	-0.09430878

running_var f4 [2]
0	0x3dd6da99	0.10490913
1	0x3e16758c	0.14693278

weight f4 [4, 2, 3, 3]
0	0xbca6b24e	-0.020348694
1	0xbcdd97b6	-0.02704988
2	0x3b87a8f6	0.0041400148
3	0xbc38cf5a	-0.011279905
4	0xbd092fc2	-0.03349281
5	0x3bad7297	0.005293201
6	0x3bc1f18a	0.0059186863
7	0x3c5d30a7	0.013500369
8	0x3bcf8697	0.006333183
9	0xbc5b7bfb	-0.0133962585
10	0xbcc24fb1	-0.02371964
11	0xbacc275e	-0.0015575697
12	0x3d2cae37	0.04215833
13	0xbc655193	-0.0139965
14	0x3c24b168	0.010052063
15	0x3bbc2cf1	0.005742662
16	0xbbdca3a8	-0.0067333765
17	0xbc2bf4c5	-0.010495369
18	0xbd1bf5b1	-0.038076106
19	0x3c188453	0.009308892
20	0xb98aa819	-0.00026446654
21	0x3c3ebbc2	0.011641445
22	0x3a95631e	0.0011397337
23	0xbc8a5f7c	-0.016891234
24	0x3c234f20	0.009967595
25	0xbd6a38ad	-0.057182956
26	0xbc1af1e1	-0.0094570825
27	0xbc096c06	-0.008387571
28	0xbb9f0d41	-0.004853875
29	0x3c603544	0.0136845745
30	0x3c532d75	0.012889256
31	0x3d31cd24	0.043408528
32	0x3d09c0a3	0.03363098
33	0x3d17d02e	0.03706377
34	0x3c20bd8d	0.009810817
35	0xba7cedd3	-0.00096484757
36	0x3cd3c478	0.02585052
37	0xbc266ee0	-0.010158271
38	0xbbe5e7b4	-0.0070161466
39	0x3d26e09f	0.04074156
40	0xbc95d7c2	-0.018291358
41	0xbc964201	-0.01834202
42	0xbbccc1b7	-0.0062486785
43	0x3c5122b1	0.012764619
44	0x3ca476f6	0.020076256
45	0x3c5ec0ab	0.01359574
46	0x3c66affb	0.014080043
47	0x3cecff44	0.028930314
48	0x3bfe046d	0.0077519924
49	0x3cd0ddc8	0.025496379
50	0x3c811ea8	0.015761688
51	0xbbc5f997	-0.0060417163
52	0x3ca7cb57	0.020482702
53	0x3bfd3853	0.0077276616
54	0xbd182ea6	-0.037153862
55	0x3af5995a	0.0018737719
56	0x3c54a41a	0.012978578
57	0x3c2b1421	0.010441811
58	0xbd4b5c74	-0.049648717
59	0xbc3b7010	-0.011440292
60	0xbcc4444e	-0.023958351
61	0x3cb6c995	0.022312919
62	0xbcf0c5d0	-0.0293912
63	0xbbdba57c	-0.006703077
64	0x3b953c1f	0.004554286
65	0x391c89f6	0.00014928714
66	0xbd55c410	-0.052188933
67	0xbb838e72	-0.0040147835
68	0x3bfc01a5	0.0076906257
69	0x3c14a67b	0.009072895
70	0x3a02a542	0.0004983732
71	0xbc2545f8	-0.010087483

weight f4 [4]
0	0x3f846473	1.0343155
1	0x3f7fb9eb	0.99893063
2	0x3f80e2c2	1.0069201
3	0x3f8200b6	1.0156467

bias f4 [4]
0	0x3bf0b5e2	0.007345901
1	0xbb2519c0	-0.002519235
2	0x3ca874af	0.020563452
3	0x3c60ceb3	0.013721156

running_mean f4 [4]
0	0xbd94d1aa	-0.07266553
1	0x3d392ca7	0.0452086
2	0x3e2f3d39	0.17113198
3	0xbe2ab23b	-0.16669552

running_var f4 [4]
0	0x3bececbc	0.0072303694
1	0x3c657796	0.014005562
2	0x3c4e3396	0.012585541
3	0x3c7590dc	0.01498815

weight f4 [8, 4, 3, 3]
0	0x3b6ab2fc	0.003581225
1	0x3cb6f8b0	0.02233538
2	0xbc722f92	-0.014781849
3	0xbae1fd0e	-0.0017241554
4	0xbd20078a	-0.03906969
5	0x3b482a17	0.0030542666
6	0x3cf27ee4	0.029601522
7	0xbc583eb2	-0.0131985415
8	0x3cb17667	0.021662904
9	0xbc3a1205	-0.011356835
10	0x3d2781d0	0.040895283
11	0x3c9f8eb2	0.019477222
12	0xbd33c14e	-0.04388552
13	0x3ccbc08a	0.024872083
14	0x3c0a114e	0.008426977
15	0x3cd7229f	0.026261626
16	0xbc5731ba	-0.013134414
17	0xbbd5a296	-0.006519626
18	0x3c2f0732	0.010682868
19	0xbcacd63b	-0.021098247
20	0xbcf03d9a	-0.029326249
21	0xbc07950f	-0.008275284
22	0x3b18448a	0.0023234212
23	0xbc36fa1c	-0.011168029
24	0x3b1f4391	0.0024301747
25	0x3ca1e806	0.019763958
26	0xbd08ca02	-0.033395775
27	0xbb8812a1	-0.0041526114
28	0xbd0dd869	-0.034630213
29	0x3ba19566	0.0049311398
30	0xbc544d6e	-0.012957914
31	0xbb7e61ea	-0.0038815686
32	0xbcd91b01	-0.026502134
33	0xbba8504a	-0.0051365243
34	0xbc8a184a	-0.016857285
35	0xbd32c333	-0.043643188
36	0x3bff5378	0.0077919327
37	0xbcd70e79	-0.026252018
38	0x3982c86b	0.00024944855
39	0x3ca3ddcd	0.020003224
40	0x3c84edf9	0.016226755
41	0x3c771eab	0.015082995
42	0x3c03234a	0.008004019
43	0x3d10b14b	0.03532533
44	0x3bf6fd81	0.0075375442
45	0xbc376518	-0.011193536
46	0x3bd74ef4	0.0065706912
47	0xbc4bf694	-0.0124489255
48	0x3bfe319b	0.0077573783
49	0xbb047f73	-0.0020217567
50	0x3c6cefcc	0.014461469
51	0xbc6c64c5	-0.014428322
52	0xbc8e5897	-0.017376227
53	0x3c0d10af	0.008609935
54	0xbb2dfae8	-0.0026547257
55	0xbce56e4f	-0.0280067
56	0x3bf5915f	0.007494136
57	0x3caeda3d	0.021344298
58	0xbadf611f	-0.0017042494
59	0xbc002611	-0.007821576
60	0xbcd31b2a	-0.025769789
61	0x3cdbc966	0.026829433
62	0xbcf7f0b6	-0.030266147
63	0xbca08dcf	-0.01959887
64	0xbcf64637	-0.030062778
65	0xbc18f84a	-0.0093365405
66	0x3ca83e16	0.020537417
67	0x3cba794e	0.02276292
68	0xbc8a0a58	-0.016850635
69	0x3c11f2d5	0.008907993
70	0xbca667ef	-0.020313231
71	0xbd1dfdf2	-0.03857226
72	0x3d07afb3	0.033126544
73	0x3c833d44	0.016020425
74	0x3ca4d2fa	0.020120133
75	0xbce70eb4	-0.028205253
76	0xbc9b59e8	-0.01896377
77	0xbc96dc78	-0.018415675
78	0x3b0665ed	0.002050753
79	0xbc5ffcb7	-0.013671092
80	0x3cd81037	0.02637492
81	0xbd0894d7	-0.03334507
82	0xbbbf09b2	-0.005830013
83	0x3b9af4bc	0.0047288816
84	0x3caaae40	0.020835042
85	0xbcc9a502	-0.024614815
86	0x3ca2637b	0.019822827
87	0x3c464d19	0.012103342
88	0x3a9674a0	0.0011478849
89	0x3be3d93c	0.0069533866
90	0xbcecddd5	-0.028914372
91	0xbb409491	-0.0029385427
92	0x3c39ec26	0.011347806
93	0x3cba8f97	0.022773547
94	0x3d1da85f	0.03849065
95	0xbc349388	-0.011021502
96	0xbcb732aa	-0.022363026
97	0x3b1de1a0	0.0024090782
98	0xbc4c27a2	-0.012460621
99	0x3c92f2ba	0.017938007
100	0xbb9befdf	-0.0047588195
101	0x3bfb5bed	0.0076708705
102	0x3d59201c	0.053009138
103	0xbc81a8c8	-0.015827551
104	0x3b00a983	0.0019632287
105	0x3c92ce99	0.017920779
106	0x3ca8b2e3	0.020593112
107	0x3bab4369	0.005226542
108	0xbc1d37e8	-0.009595849
109	0xbbd5b8a6	-0.006522256
110	0xbc8b0f82	-0.016975168
111	0x3d1000b9	0.03515694
112	0xbce94523	-0.02847535
113	0xbb82f6bd	-0.0039966987
114	0x3a8be603	0.0010673407
115	0x3c821219	0.01587777
116	0xbcf36777	-0.029712422
117	0x3c2adb12	0.010428207
118	0xbb38838d	-0.0028154582
119	0x3c4c7daf	0.012481137
120	0x3ac3439c	0.0014897468
121	0xbcc62da4	-0.024191685
122	0x3ced1d13	0.028944528
123	0x3ccb185d	0.02479189
124	0xbc2f5480	-0.010701299
125	0xba7d7681	-0.00096688425
126	0x3c756c71	0.014979468
127	0xbb752189	-0.0037404022
128	0x3be811e6	0.007082212
129	0x3ca519cd	0.020153904
130	0xbd102144	-0.035187975
131	0xbc3bfc76	-0.011473766
132	0x3c89eb8d	0.016835952
133	0xbc72ab47	-0.0148113435
134	0xb93930b9	-0.00017661125
135	0x3b703a3a	0.00366558
136	0x3c2cb2ad	0.0105406465
137	0x3d2239a3	0.039605748
138	0xbc24f971	-0.010069237
139	0x3cdd6d6c	0.027029715
140	0x3becc218	0.007225286
141	0x3c112023	0.00885776
142	0x3d2d625f	0.042330142
143	0xbd01d368	-0.031695753
144	0xbc253c7a	-0.0100852195
145	0xbca113c9	-0.019662755
146	0xbc34f61a	-0.011045003
147	0x3cc28e35	0.02374945
148	0xba5b139f	-0.0008357111
149	0xba08dc02	-0.0005220772
150	0x3d0f431a	0.034976102
151	0x3ce5aa11	0.028035196
152	0x3c6dc235	0.014511635
153	0x3c04ec37	0.008112959
154	0x3ac0ef7e	0.0014719812
155	0xbc825bbf	-0.015912889
156	0xbccde4d3	-0.025133526
157	0xbd180310	-0.037112296
158	0xbca2b536	-0.019861799
159	0x3b498014	0.0030746507
160	0xbcf963f2	-0.030443165
161	0x3be40b6a	0.0069593685
162	0xbcb2bf0d	-0.021819616
163	0x3c0ffe39	0.008788639
164	0xbc6ced4a	-0.014460871
165	0xbb3c6038	-0.0028743874
166	0xbd34cc90	-0.0441404
167	0x3cb31ca0	0.021864235
168	0xbcc4973c	-0.023997895
169	0xbcdf008f	-0.027221946
170	0xbcb1dcc0	-0.021711707
171	0xbc40fbba	-0.011778766
172	0x3ca3a4a1	0.019975962
173	0xbc9b6e0a	-0.01897337
174	0x3bb0ac6a	0.005391647
175	0xbc94f294	-0.018182077
176	0x3cb7ada7	0.022421671
177	0x3bfc967c	0.007708369
178	0x3b989215	0.004656086
179	0x3b70e8aa	0.0036759772
180	0x3bd8ad9c	0.0066124927
181	0x3c60cff5	0.013721456
182	0xbcfad51d	-0.030619198
183	0xbd6a6e4a	-0.057234086
184	0xbc57a974	-0.013162959
185	0xbc2c3565	-0.010510777
186	0x3d2faf23	0.042891633
187	0xbc8edd01	-0.017439367
188	0x3d5e397c	0.05425404
189	0x3c313629	0.010816135
190	0xba8085b4	-0.0009805472
191	0x3c1ffcfa	0.009764904
192	0xbc2f8a4e	-0.010714127
193	0x3a08c480	0.0005217269
194	0xbd182051	-0.037140194
195	0x3cea9856	0.028637093
196	0x3c25ab46	0.010111636
197	0x3af20ed3	0.0018467553
198	0x3c6a0e1f	0.014285593
199	0x3c41f50a	0.011838207
200	0xbcc03d5e	-0.023466762
201	0xbd16ada7	-0.0367867
202	0x3c124d60	0.00892958
203	0x3d055c9e	0.03255903
204	0x3c9a832e	0.01886138
205	0xbbf0451d	-0.0073324577
206	0x3c2da8c2	0.010599317
207	0x3b12f2f7	0.002242265
208	0xbb2388a7	-0.0024953277
209	0x3b5c5737	0.003362132
210	0x3c573324	0.0131347515
211	0x3a959d2b	0.0011414638
212	0x3c1076de	0.008817403
213	0x3c85f3ef	0.016351668
214	0xbc000dfe	-0.007815836
215	0x3c29ac2f	0.010355993
216	0x3c16f2f3	0.009213197
217	0x3cd4c833	0.025974369
218	0xbca19413	-0.019723928
219	0x3c9bca0f	0.019017247
220	0xbcaae14a	-0.02085938
221	0xbc8e9923	-0.017407006
222	0xbb4e244d	-0.0031454742
223	0x3c9eab92	0.01936892
224	0x3c9e28cc	0.019306563
225	0xbc8a8367	-0.01690836
226	0xbca808c8	-0.020512
227	0x3d055f57	0.032561626
228	0x3c11eedf	0.008907049
229	0xbb9b49a2	-0.0047390023
230	0x3d0edb92	0.034877367
231	0x3c41b5c1	0.011823119
232	0x3b1ee436	0.002424491
233	0x3a9f477e	0.0012152044
234	0xbb8d0c28	-0.0043044277
235	0xbcacbeec	-0.021087132
236	0x3bc32874	0.00595575
237	0x3c0c9596	0.008580586
238	0x3c2c750e	0.010525955
239	0xb9f8db99	-0.0004746586
240	0x3c992126	0.018692564
241	0x3c4f5009	0.012653359
242	0x3c9bf187	0.019036068
243	0xbd26f621	-0.04076207
244	0xbc81078c	-0.015750669
245	0x3c26e43a	0.010186249
246	0x3cac9f2e	0.021071997
247	0x3bd42a90	0.0064748004
248	0xbc0c73a6	-0.008572495
249	0xbc270084	-0.010192994
250	0x3c864f2f	0.01639518
251	0x3a408f36	0.0007345559
252	0x3c1bad9a	0.009501839
253	0x3cad515f	0.021156965
254	0xbc5e6298	-0.013573311
255	0xbb6942f8	-0.0035592895

weight f4 [8]
0	0x3f7ff4c2	0.99982846
1	0x3f7f2b60	0.9967556
2	0x3f814e22	1.0101969
3	0x3f835ddd	1.026302
4	0x3f840a64	1.0315671
5	0x3f832f1d	1.0248753
6	0x3f809ef1	1.0048505
7	0x3f78cf3e	0.97191226

bias f4 [8]
0	0x3c58cb05	0.013231997
1	0x3aa1e883	0.0012352619
2	0x3c989cbf	0.01862943
3	0x3c065d68	0.008200981
4	0x3b11ac23	0.0022227846
5	0xbababbb8	-0.0014246618
6	0x39505340	0.00019867439
7	0x3c78cf4d	0.015186143

running_mean f4 [8]
0	0xbdfa8a88	-0.12233454
1	0xbd2c46e3	-0.04205979
2	0x3da788ef	0.08180415
3	0x3d6fc944	0.05854155
4	0xbe462081	-0.19348337
5	0x3d710f03	0.058852207
6	0x3e0aa77f	0.13540457
7	0x3c9f121a	0.019417811

running_var f4 [8]
0	0x3b94edfe	0.0045449724
1	0x3ba64e5a	0.005075258
2	0x3bacef8b	0.005277579
3	0x3b9a3df5	0.004707093
4	0x3d2fc3fe	0.042911522
5	0x3bbe6c48	0.005811248
6	0x3c372f0c	0.01118065
7	0x3b676771	0.0035309459

weight f4 [97, 8, 3, 3]
0	0xbc3a24b9	-0.011361294
1	0x3c856024	0.016281195
2	0x3d4b1401	0.049579624
3	0xbc81f0a2	-0.015861813
4	0xbc32515e	-0.010883657
5	0xbc2b5cf7	-0.010459176
6	0x3cfcd1f2	0.030861828
7	0xbc4948bb	-0.012285407
8	0x3cc35968	0.023846343
9	0x3c160956	0.009157499
10	0x3d10f5f5	0.035390813
11	0xbad652b6	-0.0016351554
12	0xbb3cafcb	-0.0028791304
13	0x3cbfb833	0.023403263
14	0xbc8379c1	-0.016049268
15	0xbbaaa67a	-0.005207834
16	0x3b8113b0	0.0039391145
17	0x3be61a25	0.0070221596
18	0xbc7bf568	-0.015378334
19	0xbab66629	-0.0013915944
20	0x3bfdc20c	0.0077440795
21	0xbc1b1836	-0.009466222
22	0x3c1794dc	0.009251799
23	0xbcbe7f4c	-0.02325406
24	0xbbc0a6bd	-0.0058792518
25	0xbce9f649	-0.02855982
26	0x3cc987e8	0.024600938
27	0x3bb9e9ea	0.0056736367
28	0x3cc62e06	0.024191868
29	0x3cce6fb5	0.02519975
30	0x3b9545af	0.004555426
31	0x3c6ade18	0.014335178
32	0x3c855aba	0.016278613
33	0x3d2983f1	0.041385595
34	0x3c3e852f	0.011628433
35	0xbcda9a24	-0.026684828
36	0x3cc0efb0	0.023551792
37	0x3d7cb036	0.061691485
38	0xbc2d60eb	-0.010582189
39	0x3c588038	0.0132141635
40	0x3cddcc54	0.02707497
41	0xbc7bb201	-0.015362264
42	0x3b8ef802	0.004363061
43	0x3ba0ae4b	0.00490359
44	0xbc834653	-0.016024744
45	0x3c8ff875	0.017574528
46	0xbcacc0fa	-0.021088112
47	0xbced2f1a	-0.028953124
48	0x3bbc2362	0.0057415226
49	0xbbe79548	-0.0070673563
50	0x3b1c6a5a	0.0023867101
51	0x3c9548af	0.018223135
52	0x3ce37550	0.0277659
53	0x3c28a36b	0.010292868
54	0xbd65752f	-0.056019958
55	0xbc0eead0	-0.008722976
56	0x3c0fd98d	0.0087798955
57	0x3cbd13a5	0.023080656
58	0xbc15a12a	-0.009132663
59	0x3d26890a	0.040658034
60	0x3d0f3a16	0.034967504
61	0x3c06a11e	0.008217124
62	0x3d367325	0.044543404
63	0xbc513d4b	-0.012770961
64	0x3c87db48	0.016584054
65	0x3cd4197a	0.025891054
66	0xbb34b876	-0.0027575768
67	0xbc0fecac	-0.008784454
68	0x3c4fab87	0.012675173
69	0x3b70aa17	0.0036722475
70	0x3cb8dc11	0.022565873
71	0x3c3d1b0d	0.011542094
72	0x3d0411d8	0.03224358
73	0x3d1aebdc	0.03782259
74	0xbc47531b	-0.01216581
75	0xbd19e59c	-0.03757249
76	0xbd394314	-0.045229986
77	0x3c497f81	0.012298466
78	0x3d4df1df	0.050279494
79	0x3cf0aa95	0.029378215
80	0x3bffddb1	0.00780841
81	0x3c9bdf8c	0.019027494
82	0xbca53385	-0.020166168
83	0x3b7cd96e	0.0038581747
84	0x3c08f863	0.008360001
85	0xbcabcbc2	-0.020971183
86	0x3d0ddde9	0.03463546
87	0xbcaffec9	-0.021483796
88	0xbcfa20db	-0.030533245
89	0xbc90c48c	-0.017671846
90	0x3c5d5022	0.013507875
91	0x3b202621	0.002443679
92	0x3cbadcd6	0.02281038
93	0xbcc5bf18	-0.024138972
94	0xbad5ad8e	-0.0016302334
95	0x3d46919e	0.048478715
96	0xba94f77d	-0.0011365261
97	0xbb848c86	-0.004045072
98	0x3c4da14e	0.012550665
99	0xbb998dc8	-0.004686091
100	0xbbbad880	-0.0057020783
101	0xbceec847	-0.029148234
102	0x3c822826	0.015888285
103	0xbd6783ef	-0.056522306
104	0xbb81af5d	-0.0039576725
105	0x3d3b2717	0.045691576
106	0x3c916f4b	0.017753264
107	0x3ba49e2c	0.0050237384
108	0x3d602ed5	0.054732163
109	0x3d01228c	0.031527087
110	0x3b8a7984	0.0042259116
111	0xbd1bcba0	-0.03803599
112	0x3d07d5c7	0.03316286
113	0xbcb31529	-0.021860676
114	0x3c23f2d5	0.010006626
115	0x3bdd83d2	0.006760099
116	0x3c5ec833	0.013597536
117	0xbcfff245	-0.031243453
118	0x3ce3c59a	0.027804185
119	0xbcb59873	-0.02216742
120	0x3bf8a5c1	0.007588119
121	0xbc1fa5bc	-0.009744104
122	0xbb779420	-0.0037777498
123	0x3cc38d67	0.023871137
124	0x3d814391	0.063117154
125	0x3b9fde28	0.004878778
126	0xbbaea809	-0.00533009
127	0xbc71afe2	-0.014751406
128	0x3c643096	0.013927599
129	0x3aff22fe	0.0019465385
130	0xbbfbd149	-0.007684861
131	0x3c0ce689	0.008599886
132	0xbd20a09e	-0.039215676
133	0x3c4a778f	0.012357607
134	0x3cf682e1	0.030091705
135	0xbcb046c4	-0.021518119
136	0xbd7e7a36	-0.06212827
137	0xbd392908	-0.045205146
138	0x3c99a87e	0.018757101
139	0x3c8a2010	0.016860992
140	0x3b414d2c	0.002949546
141	0x3cf8c3a8	0.030366734
142	0x3c64dc0b	0.013968478
143	0xbce311b1	-0.027718397
144	0xbc83e3f6	-0.016099911
145	0x3c560de0	0.0130648315
146	0xbd1aaba1	-0.037761334
147	0xbc2641fe	-0.01014757
148	0x3cbde590	0.023180753
149	0x3c070a6c	0.008242231
150	0xbc9cfccb	-0.01916351
151	0x3cc2364b	0.02370753
152	0x3c8aa07b	0.016922226
153	0x3c556824	0.013025317
154	0x3c6a763e	0.014310418
155	0xbd0d200c	-0.03445439
156	0x3cec6372	0.028856013
157	0xbc88f67a	-0.016719092
158	0x3bc780dd	0.0060883597
159	0x3bb036fe	0.0053776493
160	0xbc0786c5	-0.008271878
161	0xbb2ee82f	-0.0026688685
162	0xbcf8c660	-0.03036803
163	0xbbe22d1d	-0.0069023506
164	0x3b4ca602	0.0031226878
165	0x3cc3c707	0.023898615
166	0xbb9901a8	-0.004669387
167	0x3ba252eb	0.0049537322
168	0x3ca46692	0.02006844
169	0xbb4f78b6	-0.0031657643
170	0x3c88b186	0.016686212
171	0xbb32961e	-0.0027250121
172	0x3c528d51	0.012851075
173	0xbca59885	-0.020214329
174	0x3c502c4b	0.012705873
175	0xbbf078e9	-0.0073386324
176	0xbccce643	-0.025012141
177	0x3d646e53	0.055769276
178	0xba0fe9e5	-0.000548987
179	0x3cb072de	0.021539148
180	0x3c135a51	0.008993701
181	0xbcdea9ae	-0.027180519
182	0xbb3c9f08	-0.0028781313
183	0xbb49e7cd	-0.003080833
184	0x3b16948b	0.0022976722
185	0xbb27424e	-0.0025521698
186	0x3b1ac689	0.0023616871
187	0xbc725305	-0.014790301
188	0x3c25ca4a	0.01011903
189	0xb9f3fae3	-0.00046535497
190	0xbc28fbc2	-0.01031393
191	0x3ceb6000	0.0287323
192	0x3c2eb691	0.010663644
193	0xb8a8a723	-8.041996e-05
194	0x3ca52617	0.020159764
195	0xbc8cd073	-0.01718924
196	0x3c7029f0	0.014658436
197	0x3c09ed03	0.008418324
198	0xbc356783	-0.011072042
199	0xba90bc82	-0.0011042508
200	0x3ca94c56	0.020666283
201	0xbbac2ae7	-0.005254138
202	0xbd15c60c	-0.036565825
203	0x3c68613c	0.014183339
204	0x3cdbc1cc	0.026825808
205	0xbb6044e0	-0.003422074
206	0xbd5713d6	-0.05250915
207	0xbd15c38b	-0.036563437
208	0x3cb6c116	0.022308867
209	0x3c93f76a	0.018062312
210	0xbd2ebcf8	-0.042660683
211	0x3c754c64	0.014971826
212	0x3b85cd88	0.004083339
213	0x3cf44c57	0.029821558
214	0xbc4578d3	-0.0120527325
215	0x3caf8cc3	0.021429425
216	0xbcf865ec	-0.030322038
217	0xbb22d56a	-0.0024846443
218	0xbd034e34	-0.032057002
219	0xba3a8153	-0.0007114608
220	0xba9682a1	-0.0011483022
221	0x3d1d0bdb	0.038341384
222	0xbcf70e66	-0.030158233
223	0x3c490c69	0.012271025
224	0xbb9506db	-0.0045479364
225	0x3cfcbd28	0.030851915
226	0x3cef3ecc	0.029204749
227	0xbccd4aa2	-0.025060002
228	0xbbb3a432	-0.00548222
229	0xbb8f1a9e	-0.0043671867
230	0xbb53f8e0	-0.0032344386
231	0x3b88231e	0.004154577
232	0x3c15728b	0.009121547
233	0x3c85ce4c	0.016333722
234	0x3cc31d61	0.02381772
235	0x3bd1333d	0.006384282
236	0xbd14efad	-0.036361385
237	0x3cec29ec	0.028828584
238	0x3bd1e593	0.006405541
239	0x3c041fc7	0.008064217
240	0xb9012597	-0.00012316402
241	0xbc833a34	-0.016018964
242	0x3ba8c2ff	0.0051501985
243	0x3b6763b5	0.0035307233
244	0x3c1a81f2	0.009430395
245	0xbc9b542b	-0.018961033
246	0x3c6a4168	0.014297821
247	0x3a9841e6	0.0011616319
248	0xbc50ba6e	-0.012739761
249	0x3cb661cf	0.022263436
250	0xbc4edf34	-0.012626458
251	0xbcac4c4e	-0.021032479
252	0xbca53922	-0.020168845
253	0xbd397219	-0.045274828
254	0x3cf710ec	0.030159436
255	0x3c23d917	0.010000489

bias f4 [97]
0	0x3cd11d8e	0.025526788
1	0xbd15de4e	-0.03658896
2	0xbd838ea1	-0.06423689
3	0x3d6d69f8	0.057962388
4	0xbdacbd4f	-0.08434545
5	0xbc3f5875	-0.011678805
6	0x3d6170ff	0.055039402
7	0x3de84784	0.113417655
8	0x3cc0fc6f	0.02355787
9	0xbd86b111	-0.065767415
10	0xbd51090b	-0.051034015
11	0xbc83d831	-0.016094299
12	0xbcf07920	-0.029354632
13	0x3df32957	0.11873119
14	0x3d7ecbe2	0.062206157
15	0xbcfdbce9	-0.030973868
16	0xbd802239	-0.062565275
17	0x3db2ebb2	0.087363616
18	0x3dbb5ae3	0.09148195
19	0xbd42789a	-0.047478296
20	0xbddfc816	-0.10926835
21	0x3dd530b2	0.104096785
22	0xbd8daebd	-0.06918094
23	0x3d9c5951	0.07634223
24	0xbd1c3749	-0.03813866
25	0x3df991ed	0.12186036
26	0x3dbdaf2b	0.09261926
27	0x3c16f095	0.009212633
28	0x3c56b403	0.013104442
29	0x3da1db07	0.07903104
30	0x3c7ae4d9	0.015313351
31	0x3dfe0914	0.12404075
32	0xbd30760b	-0.043081325
33	0x3ceb3080	0.02870965
34	0x3d209322	0.039202817
35	0x3d2aecfa	0.041729905
36	0x3d4aac5a	0.049480774
37	0xbd8561c1	-0.06512786
38	0xbcdc29ec	-0.026875459
39	0xbd883181	-0.06650067
40	0xbcc03230	-0.023461431
41	0x3dcce7ba	0.10005136
42	0x3d3b9432	0.045795627
43	0xbc3d357d	-0.011548397
44	0xbd7ec90f	-0.062203463
45	0x3d0ecc2f	0.034862693
46	0x3dc1dc1c	0.09465811
47	0x3d7d5708	0.061850578
48	0xbdaccc17	-0.084373645
49	0xbd9178a5	-0.07103089
50	0x3dd93bef	0.106071346
51	0xbb54e300	-0.0032483935
52	0x3de446eb	0.11146339
53	0x3dda6e18	0.1066553
54	0xbd7f7fc1	-0.062377695
55	0x3d551a23	0.05202688
56	0x3d9633e6	0.073341176
57	0xbc25cdba	-0.01011985
58	0x3d60c1b3	0.054872226
59	0x3dfd7c6a	0.12377246
60	0xba4c3054	-0.0007789184
61	0x3ce3331f	0.027734337
62	0x3da96e04	0.08272937
63	0x3d75ac1c	0.05997859
64	0x3cab08fe	0.020878311
65	0x3c859ae4	0.01630921
66	0x3d3080b3	0.043091487
67	0x3d9c8e72	0.07644357
68	0x3dd396f6	0.10331528
69	0xbd658e68	-0.056044012
70	0xbd2c1f7a	-0.042022206
71	0xbdb1c587	-0.086802535
72	0xbcbcbc8b	-0.023039123
73	0xbbc200d3	-0.0059205084
74	0xbb00e5ed	-0.0019668296
75	0x3cbe6c3a	0.023244966
76	0xbd47cc0c	-0.04877858
77	0xbd0e81ed	-0.034791876
78	0xbd45424e	-0.048158936
79	0x3c9c0103	0.019043451
80	0xbd91e6bc	-0.07124087
81	0xbd082803	-0.033241283
82	0xbdd41015	-0.1035463
83	0xbd1c7b35	-0.038203437
84	0xbd88b204	-0.06674579
85	0x3d1065f2	0.035253473
86	0xbb5cb839	-0.0033679141
87	0xbdd62a23	-0.10457256
88	0x3dcd66b3	0.10029354
89	0xbcbdd6cc	-0.023173712
90	0xbd14ac6d	-0.03629725
91	0x3be9a453	0.0071301847
92	0xbd7e16fc	-0.06203364
93	0x3de251ed	0.11050782
94	0x3da4c912	0.080461636
95	0x3d8e01ee	0.06933962
96	0xbd82373a	-0.0635819
