loggers/h256_w256_bs20_in_channel1_epo100_lr0.0003/0512_0147/models/BasicModel_39.pth (torch, 40207 bytes, 17 tensors)

weight f4 [2, 1, 3, 3]
00000000: a58b 57bb 979f 98bc dde3 0b3b 3635 1b3d
00000010: 4174 abb9 dba0 49bb 8cd8 a93c 169c 1fbc
00000020: 1863 7fbc 68bf d73b 1305 79bb 8f0d ca3c
00000030: b913 3abd 6318 23b9 eecf 2ebc 2f9c c43c
00000040: 1ac7 0abc 008d b6bc
-0.003288963 -0.018630786 0.0021345534 0.037892543 -0.00032702278 -0.0030766043 0.02073314 -0.009741804
-0.015587591 0.0065840967 -0.003799741 0.024664668 -0.045428965 -0.00015553976 -0.0106696915 0.024000255
-0.008470321 -0.02228403

weight f4 [2]
00000000: 0a41 7b3f 84bc 803f
0.98146117 1.005753

bias f4 [2]
00000000: 5f97 823d 241d aeba
0.06376528 -0.0013283831

running_mean f4 [2]
00000000: 7ba7 003e 3a6a ffbe
0.12563889 -0.49885732

running_var f4 [2]
00000000: 0ed0 013e f46e d53e
0.12677023 0.41686213

weight f4 [4, 2, 3, 3]
00000000: a130 13bd e8db c5bc 757f 503c 11fe 3238
00000010: d321 dcbc 4c0a e5b9 ad1c 183c 337f 243c
00000020: e832 1e3c 6fb8 8fbc 5e8e 2ebd dad9 663b
00000030: 8704 273d dfad 6bbc 5831 553b c8ce 853b
00000040: a84a d3ba eeb0 203c 8ebf 10bd a808 973c
00000050: cbca 2c3c dbaa 5b3c ee43 45bb 48b6 bfbc
00000060: 5c89 713c 0dc7 78bd fcf0 3cbb 7148 afbb
00000070: 85c1 f4bb fb10 cbbb 06fe da3c dbcd 053d
00000080: 08bd 563c c75a 233d 7af1 c43c 13a4 e7bb
00000090: cc09 bc3c c718 19bc b778 66bc ad0e 303d
000000a0: 3c10 8ebc c822 723b 46cd a7bb d7c6 f1ba
000000b0: 646f 863c e502 8fbc 2fe2 42bc 37b9 823c
000000c0: 2819 c1bc be94 c23c 617e 2e3c ea8f 8f3b
000000d0: ce0b 173d ebd0 d63b 635d f0bc 2f9c f5bb
000000e0: f2c4 bd3c c6b5 52ba 2eaa 2ebd d6b1 afbc
000000f0: 3cf1 f5bc 0830 693c 5217 adbc c519 82bc
00000100: a301 8cbc d7e1 debb 5ae9 42bd 8d27 5dbb
00000110: aa51 82bc 27a3 a03c ec2d 2f3c afea e6bb
-0.035935048 -0.024152711 0.012725701 4.2675125e-05 -0.026871597 -0.00043685955 0.009284181 0.010040092
0.009655692 -0.017544 -0.04261624 0.0035225064 0.040775802 -0.014384716 0.0032530632 0.004083488
-0.0016120272 0.009807808 -0.03533893 0.018436745 0.0105463965 0.013407434 -0.0030100304 -0.023402348
0.014742222 -0.060736705 -0.0028830161 -0.005349212 -0.0074693584 -0.0061970926 0.026732456 0.032667022
0.013106592 0.039881494 0.024040926 -0.0070691197 0.02295389 -0.009344286 -0.014066867 0.042982746
-0.017341726 0.0036947 -0.005120906 -0.00184461 0.016410537 -0.017457435 -0.011894747 0.015957458
-0.023571566 0.023752566 0.010650248 0.0043811696 0.036876492 0.0065556667 -0.029341405 -0.007495425
0.0231652 -0.00080379506 -0.042642765 -0.021447103 -0.030022256 0.014232643 -0.021129284 -0.015881428
-0.017090624 -0.0068018246 -0.047585823 -0.0033745498 -0.015908081 0.019609047 0.010692101 -0.0070470194

weight f4 [4]
00000000: 76b3 883f 75bd 7b3f 90a3 793f aec6 853f
1.0679767 0.98335963 0.975152 1.0451257

bias f4 [4]
00000000: 00f6 123c 32bf 9dbc 01a7 0e3d cfce 74bd
0.008969784 -0.019256208 0.034827236 -0.05976754

running_mean f4 [4]
00000000: 050a 77bd e13c 373c 81f5 a43d 818b 46be
-0.06031229 0.011183948 0.08054639 -0.19389154

running_var f4 [4]
00000000: 3608 bb3b 381a 203c 071a 723b 7d9b 603c
0.005707766 0.009771876 0.0036941783 0.013708946

weight f4 [8, 4, 3, 3]
00000000: 6da8 9bbc 6ff3 833c 043f dfbc adee c939
00000010: dc47 2abd 02c5 63bc c32a e93c cbb4 c2bc
00000020: 5e8d 453b 850c a03c 8b19 be3c 819d 67bb
00000030: 191e 3ebd 0219 063d 7220 993c 5224 be3c
00000040: ad2a a8bc 40dc 313c 5c0f a6bb 3b8e 92bc
00000050: 3b66 ccbc 227d 2a3c 6a42 bfba f7d5 b7bc
00000060: f147 b439 bcfe 903b ac52 c1bc 8fcf e8bb
00000070: 249b 2bbd ab94 b1bb defa b73c e7fa 5f3c
00000080: 102d 5abc 5003 26bb 8659 08bd d8a3 68bd
00000090: 8448 6a3c 48be 1abd 4382 263b 3dab 063c
000000a0: 3955 febc 3eed 1fba c3e8 febc 0a6b fcba
000000b0: 7c2f 2b3c 593f 783b 5958 3f3c f722 52bd
000000c0: f891 263b 2bb7 813c 4576 1a3c 7a2a 57bc
000000d0: 9c6a d2ba fbe4 bf3b b77c 2b39 f4cb 75bc
000000e0: 6467 f5bb 1b06 e93c 39ee 15bc 56bd 82bc
000000f0: a9f5 f9bb 756c 263c 2fe8 2db9 1a5c 27bd
00000100: 4c46 14bd 2e62 933c 0e14 9e3c 2161 353d
00000110: a504 02bd 3b4e 053c 56b9 c5bc 553c 34bd
00000120: 21a8 833c 08c7 eebb cd8c 08bc de96 f7bc
00000130: 9a1a 2fbd 44c4 b4bc 30f3 183c 022f 40bd
00000140: 3ba0 113d cefb 68bc 3e32 10bd 0c53 05bb
00000150: 2cc3 f43b 8ed2 a7bc b8e8 1a3d 8d8c dabb
00000160: 12fe 323c a5e9 363c 9e8a 61bc 4e2a 38bc
00000170: 9f85 b03c 32fd 603c 0f43 8c3c 89aa 75bb
00000180: 4b53 c9bc 2f9a 34bb 84e0 73bc 47b3 9ebb
00000190: ae8d 31bc d16e 8d3c 8551 583d 81c1 1abd
000001a0: 969d 20bc 1a9b eb3b cd12 f8bb 4c7a a03c
000001b0: 01a6 b0bc a2a1 67bb a966 863c 840a 023d
000001c0: 7509 02bc fc54 3d3c 950c b8bc a165 613b
000001d0: 1c63 d8bc 848f 553c b2d9 05bc b95c 693c
000001e0: 39cb 44ba 4623 45bd 1c64 623b ec84 003d
000001f0: 69e8 9a3b 5a87 45bc 9fa1 ec3b 0e53 80ba
00000200: 6821 0b3c b2c0 f33b 034d 9ebc 75b2 b6bc
00000210: c3c2 bc3c 90e3 4ebc e745 d4bb 2995 703c
00000220: 12ab 8d3c beb2 193d 6cae 7b3c 832d aa3a
00000230: 1f45 be3b ced5 1d3d 46a4 283d 29c6 d3bc
00000240: 6b1a 1a3c e175 71bc c1f3 36bc 87af 373c
00000250: d73a acba 0f9c c33c f2b1 b73c 5b33 283d
00000260: 0145 3a3c cde4 4f3b e70d 59bc 905d 27bd
00000270: daa0 51bd f92d dbbc f2d2 9cbc 842d 87ba
00000280: 9f9d 13bd 7815 39bc 9331 8abc 8672 223d
00000290: 8df5 2bbc 479b 33bc e1c5 15bd 46b9 0c3c
000002a0: 5ac5 acbc 0a8e 4b3b b628 1839 9995 25bd
000002b0: 0442 433b 70b0 02bc 71b4 a2b9 9e40 6f3c
000002c0: 9e7c 073d 9d89 bdbc 6e40 1ebb b2f8 00bc
000002d0: 9028 933c 9015 db3c de34 84bd 10d9 dabc
000002e0: 0485 1f3c 0218 92bc 0edd 673d e5cd efbc
000002f0: 4a50 053d c4d8 63bb 749a 413b 924c 773c
00000300: 378a 453c 6ac9 efba a935 d7bc 97be 0f3d
00000310: f716 4f3c fe14 103c 5c5e 403c ba0a 013c
00000320: eed6 a8bc 1f8d febb a91e a63a 6327 ab3c
00000330: 8232 053b d1e8 9cbc d731 2e3c 1319 2a3d
00000340: 8693 323c c60c ff3c a831 203c c314 8ebc
00000350: ba2f ce3b d27b 9c3b 3f29 b4bc 3982 aeb9
00000360: a7d1 2ebb 5a90 323d 2dc4 95bc 52e6 9d3c
00000370: 36f2 a13c cfc0 0abd acec 8b3b e87e 6bbb
00000380: a14c 053d d92d e5b9 f081 d73b e4f3 bc3c
00000390: 882c c3bb 5cba 1a3c 2ccb 753c 9912 4e3c
000003a0: 78aa 16b9 3a52 6e3b 4d24 01bb 4296 9dbc
000003b0: 0be2 883c 61ee 2d3c 48fd 1e3b 68ef 1cbd
000003c0: 4d5d 7c3b 8164 c03a 88cc 693c bd52 07bd
000003d0: 81f4 5abb 59ff 783c aaf7 f23a dcac 02bc
000003e0: c406 b5bc 02b3 3cbd a736 0cbc dfc7 d9bb
000003f0: 749b 793b 53e9 c23c 7eb7 5fbc 3620 74bc
-0.01900121 0.01610729 -0.027251728 0.00038515535 -0.041572437 -0.013901951 0.028462773 -0.02376785
0.0030144076 0.01953722 0.02320554 -0.0035341682 -0.046415422 0.032738693 0.018692229 0.023210678
-0.020528162 0.010855734 -0.005067749 -0.017890086 -0.024951091 0.010405811 -0.0014591936 -0.022440894
0.00034385876 0.004424898 -0.023598991 -0.007104821 -0.041896 -0.005419334 0.02245849 0.01367066
-0.013316408 -0.0025331564 -0.0332885 -0.05679688 0.014299516 -0.037779123 0.0025407232 0.008219537
-0.031046497 -0.00061007205 -0.031116849 -0.0019257974 0.010448333 0.0037879555 0.011678779 -0.051302876
0.0025416594 0.015834412 0.009427612 -0.013132686 -0.0016053501 0.005856154 0.0001635429 -0.0150022395
-0.0074891318 0.028445294 -0.009151035 -0.015959423 -0.007628162 0.010157694 -0.00016585061 -0.04085932
-0.036199853 0.017991152 0.019296672 0.044282082 -0.03174271 0.008136327 -0.024136227 -0.04400285
0.016071381 -0.00728691 -0.008334351 -0.030223306 -0.04274998 -0.022066243 0.009335324 -0.04691983
0.0355532 -0.014220191 -0.035204165 -0.002034369 0.0074695554 -0.020486142 0.037819594 -0.006669587
0.010924833 0.011164104 -0.013765959 -0.011240555 0.02154809 0.0137322415 0.01712182 -0.003748568
-0.02457585 -0.002755772 -0.014885072 -0.004843149 -0.010837002 0.017264755 0.052812118 -0.037782196
-0.009803196 0.0071901204 -0.0075706006 0.019589566 -0.021563532 -0.0035344143 0.016406374 0.03174831
-0.007936825 0.011555906 -0.022466937 0.003439285 -0.026414447 0.013034705 -0.008169578 0.014243298
-0.0007507089 -0.048129342 0.0034544533 0.031376764 0.0047274125 -0.012056196 0.007221415 -0.0009790377
0.008491851 0.0074387426 -0.019323831 -0.022301892 0.023042088 -0.012627497 -0.0064780596 0.014684
0.017293487 0.037523977 0.01536141 0.0012983534 0.0058065797 0.03853398 0.04117229 -0.025851326
0.009405713 -0.014737577 -0.011166514 0.011211283 -0.0013140094 0.023878125 0.022423718 0.0410646
0.011368991 0.003172207 -0.0132479435 -0.040860713 -0.05117879 -0.02675532 -0.019143555 -0.0010313247
-0.03603899 -0.011296622 -0.016869342 0.03966 -0.010495556 -0.010962314 -0.036565665 0.0085890945
-0.021090198 0.0031060004 0.00014511016 -0.04042587 0.0029793987 -0.007976636 -0.00031033487 0.014602808
0.03307783 -0.023136908 -0.002414729 -0.007871794 0.017963678 0.02674368 -0.06455396 -0.026714832
0.009736303 -0.017833713 0.0566073 -0.029272983 0.032547273 -0.0034766654 0.0029541524 0.015093939
0.012056879 -0.0018294279 -0.026270704 0.03509387 0.012639753 0.008794067 0.011741247 0.007876093
-0.020610299 -0.007768288 0.0012673932 0.020892804 0.0020324294 -0.019153984 0.010632 0.04152782
0.01089943 0.03113402 0.009777464 -0.017343884 0.0062923105 0.0047755027 -0.021992324 -0.0003328489
-0.0026675256 0.043594696 -0.01828202 0.019274864 0.019768815 -0.033875283 0.004270157 -0.0035933796
0.032543782 -0.00043712443 0.006576769 0.023065515 -0.0059562363 0.009443846 0.015002053 0.012577676
-0.0001436862 0.0036364929 -0.0019705475 -0.019236688 0.016709348 0.010615916 0.0024259854 -0.038314253
0.003850776 0.001467839 0.014269955 -0.03303789 -0.0033409896 0.015197598 0.0018536944 -0.007975783
-0.022097953 -0.046069153 -0.008557952 -0.006646141 0.0038087042 0.023792898 -0.013654588 -0.014900258

weight f4 [8]
00000000: 8561 7d3f ebef 813f f60d 7b3f 762c 853f
00000010: 8527 833f f25c 813f f6f5 7a3f f030 7a3f
0.9897693 1.0151342 0.9806818 1.0404193 1.0246435 1.010649 0.98031557 0.9773092

bias f4 [8]
00000000: 4255 10bb 9edf e63b 6752 473c 92b6 223c
00000010: c303 833b ce5f 00bb db2c a0bb 2d09 b73c
-0.0022023474 0.0070457 0.012165642 0.0099312235 0.003998251 -0.0019588354 -0.0048881597 0.022343243

running_mean f4 [8]
00000000: 6ac0 5bbe 7b17 25be c610 f1bd db1d 563d
00000010: d04b 22be c828 b93d 73ab ca3c 58f0 46be
-0.21460119 -0.16122238 -0.117707774 0.052274566 -0.15849233 0.090409815 0.024739956 -0.19427621

running_var f4 [8]
00000000: 19d3 0c3c 8530 be3b b96b c83b 9128 ff3b
00000010: 9d7d 853c 6122 e03b 8223 853b 6ff9 ad3b
0.0085952515 0.005804124 0.006116357 0.0077868183 0.016295249 0.006840036 0.0040630708 0.005309276

weight f4 [97, 8, 3, 3]
00000000: 8975 bdbc d2f3 be3b 8b02 073d a99b 98bc
00000010: d9db c3bc 4f97 33bc da0a a83c 66d2 dabc
00000020: 6c91 a33b 4272 7f3c fc17 0e3d 6fda 9ab9
00000030: 6902 e6bb 30b7 25bb 9e3b 15bd fc73 aa3c
00000040: 5cf8 c5b7 80da e83b 6b16 e53c d6f7 593c
00000050: cebd 213c 124e 603c f2c5 263c 9231 1bbd
00000060: 394a 4d3c 11da 93bc ed91 ed3c cd3a 223d
00000070: c5c3 313d b67b 593d 9308 e33c 3106 073d
00000080: 302a 763d c118 433d 981b 823b 916d e6bc
00000090: 286a 003d 8418 8f3d 142f 03bb 6736 9c3c
000000a0: f526 a03c 900e ba3c 5adc d23b 1569 dd3b
000000b0: 294c 8ebb d8a7 b13c fab7 61bb 422f aabc
000000c0: f3ab a23b 895c 75bb 844c 533b 4baa a639
000000d0: 99a3 fe3c 3a44 1a3b 2f1b aabc 73bf 08bc
000000e0: 9046 e63b e657 ca3c bafa 34bc f738 063d
000000f0: 3c6b 8abb 5a37 23bc 4963 f43c dfb9 ddbc
00000100: 09ac e73b be38 9e3c 5c06 3bbd 64bd 0dbd
00000110: fc96 6cba 023d 0bbd 99a9 d4bb 82b8 dbbc
00000120: e04c d23c 0468 b83c 7c2d b5bc 3ea9 79bd
00000130: 2a9b 53bd ae94 8dbb 4e1f 1e3c 605f 9f3b
00000140: 89ab 913b 340b cf3c a817 87bb 748d 843c
00000150: 773e e03c b1ef 87bc 316a eabb a57e 9ebb
00000160: 02f8 c6bb 8fa1 21bb 214a 2e3d 56fa aebc
00000170: 41ef 7b39 5afa d03b 1aa5 3bbc 1c3b 0c3c
00000180: 6d4e 7d3c 7094 9dbb 8034 fb3b ff0e 9d3c
00000190: 114e 973c d0ae b8bc e9c4 dd3c 8fb6 07bd
000001a0: b950 7d3a 6b19 5c3d 9673 083c 97cb bcbc
000001b0: 0ca3 403d 240d 0b3d 7884 823c b772 81bc
000001c0: d644 353d dfd8 083b 2d90 a33c 03dc f13b
000001d0: 904d af3c b1f4 74bc 2aaa 413d 3ed5 82bb
000001e0: 031b 933c eb9b 5cbc 0b28 fdbb fa6b 13bd
000001f0: adc4 cb3c 1497 663b 8608 eb3a 8e49 ccbc
00000200: 6334 ae3c 07ef da3c a1d6 a7bb 57c1 1bbc
00000210: 7866 acbc 9133 943b 1cef 94bb aed6 71bb
00000220: 3177 d4bc 1f25 df3b 41d5 0cbb b0a6 cf3c
00000230: 8025 b1bb b541 33bd 2501 2fbc c5c8 6cbd
00000240: 608f 7e3c a540 fc3c 5f3f bcbc a964 9e3c
00000250: 194d 3a3c d542 273a fba0 bcbc 1093 283d
00000260: 1e38 923c 20d5 913c a459 843c 6adf 93bc
00000270: ef3c a13b 4485 d63c 5767 063d 703d 17bc
00000280: 2ad5 9aba 0ad8 85bb 0221 c4bc 8b6d 60bc
00000290: a6f3 82bb b2f0 0ebb a763 853c 1b7c 5f3c
000002a0: 3322 b63b 142f cabb 5e13 c7bc b299 2cba
000002b0: 36f3 623c 02e5 71bc 584c d03a a7df 3abc
000002c0: 2d7e cabc 6db2 c03c 81e9 dfbb 855d 2c3c
000002d0: f9d8 d23c bda0 22bc 5f43 e03b 72c1 4d3b
000002e0: 24d4 cb3a 75e3 02bc c4d2 edbb 44c7 cfbc
000002f0: 25dd 16b9 b13e 833b ea69 8bbb abe2 b2bc
00000300: 7a45 8cbc 4dd1 3aba b421 223c ce64 283b
00000310: 81c8 263c 0e88 a73b 6188 f8bb 7336 cdbb
00000320: 3e88 6a3b 424e 74bc cc1a e3bc 6832 303c
00000330: e7b0 cc3c f7e2 e5b9 9f83 1bbd 1ca7 a3bb
00000340: 5090 d13c a514 3d3c e750 1a3c a0e9 cd3c
00000350: f975 13bc aa96 833c 3360 473b 045b 0c3d
00000360: 4cdc 98bc 4c4b 60bc f658 7bbc 5760 243c
00000370: 6e4c 80bc a03a 1b3c 9746 c23c 3b62 373d
00000380: e911 31bb dc9d bc3c 9cde d13c bdbc 41bb
00000390: 1eb8 a4ba 8902 46bc 65cc 643a 4805 c939
000003a0: b098 89bc cd9a 8abc f98f e6bb c76a 403c
000003b0: 9275 d9bc e78d 953a 4efb 4d3c 31bf d03c
000003c0: b8c6 cbba af14 afba 40df c13c d9f8 0b3c
000003d0: 6bdf d33c 3928 0dbc d425 d3bb 6123 49bc
000003e0: c258 adbc 8bd9 7eb9 326f b9bb 4947 073d
000003f0: 7e0b 7ebc 8728 acbc f62d ca3c 78dd 023d
-0.023127334 0.0058274055 0.03296141 -0.018628912 -0.023908542 -0.010961368 0.020512987 -0.026711654
0.004991701 0.015591206 0.034690842 -0.00029535915 -0.0070193303 -0.002528619 -0.03643381 0.020807259
-2.3599881e-05 0.0071061254 0.027964791 0.013303718 0.009871913 0.013690488 0.01017903 -0.03788907
0.012529903 -0.018048318 0.029000247 0.039606858 0.04339959 0.053096496 0.02771405 0.03296489
0.060098827 0.04763103 0.0039705746 -0.028128417 0.03135124 0.06987098 -0.0020017074 0.01906891
0.019549826 0.022712022 0.0064349594 0.0067569115 -0.004342575 0.02168648 -0.0034441934 -0.020774487
0.0049643456 -0.0037439188 0.0032241652 0.00031788865 0.031083869 0.0023539201 -0.020764915 -0.008346426
0.0070274547 0.024700116 -0.011046106 0.03276917 -0.004224209 -0.009961927 0.0298325 -0.02706617
0.0070700687 0.019314166 -0.04566036 -0.034604445 -0.0009025184 -0.03399373 -0.006489944 -0.026821379
0.025671422 0.022510536 -0.022116415 -0.060952418 -0.051661648 -0.0043207025 0.009651018 0.0048636645
0.0044454974 0.025273897 -0.004122693 0.016180731 0.027373536 -0.016593786 -0.0071537723 -0.0048368745
-0.0060720453 -0.0024662947 0.042551164 -0.021359604 0.00024026354 0.0063775005 -0.0114529375 0.008559015
0.015460593 -0.004808955 0.0076661706 0.01917219 0.018469842 -0.022544295 0.027071433 -0.033133086
0.00096632127 0.053735178 0.008328339 -0.023046298 0.047030494 0.03394808 0.015932307 -0.01580177
0.0442551 0.0020881218 0.01996621 0.007380964 0.02139929 -0.014950917 0.04728142 -0.0039927056
0.017957216 -0.013464908 -0.0077257208 -0.035991646 0.024874056 0.0035185264 0.0017931617 -0.024937417
0.021265214 0.026725305 -0.0051220213 -0.009506545 -0.021044955 0.0045227488 -0.0045451056 -0.003690164
-0.025935741 0.006809845 -0.0021489414 0.025348037 -0.0054060817 -0.043763835 -0.010681425 -0.057808656
0.015537113 0.030792544 -0.022979436 0.019335108 0.011370921 0.0006380503 -0.02302598 0.041155875
0.017849024 0.017801821 0.016156025 -0.018050868 0.004920594 0.026186593 0.032813396 -0.009230956
-0.0011812795 -0.0040845918 -0.02394152 -0.013697992 -0.0039963303 -0.0021810946 0.01628287 0.013640429
0.005558276 -0.006170163 -0.024301227 -0.00065841817 0.013851931 -0.014764072 0.0015891893 -0.011405862
-0.024718368 0.02352258 -0.0068332558 0.010520344 0.025738226 -0.009926018 0.0068439688 0.003139582
0.0015550894 -0.0079888 -0.0072577912 -0.025363572 -0.00014387498 0.004005276 -0.0042545693 -0.0218366
-0.017122973 -0.0007126525 0.009895731 0.002569485 0.01017964 0.0051126545 -0.007584617 -0.0062625944
0.0035786773 -0.014911236 -0.027722739 0.010754205 0.024986697 -0.00043847386 -0.03796732 -0.004994286
0.025581509 0.011540567 0.009418703 0.025135815 -0.009000295 0.016063053 0.003042233 0.034266487
-0.018659733 -0.013689827 -0.015341034 0.010032735 -0.015661445 0.0094744265 0.0237153 0.044771414
-0.0027018732 0.023024492 0.025618844 -0.002956196 -0.0012567078 -0.012085565 0.0008727967 0.00038341642
-0.01679644 -0.016919518 -0.007036206 0.011744208 -0.02654532 0.0011410088 0.012572123 0.025481792
-0.0015546894 -0.0013357605 0.023666024 0.008543217 0.02586337 -0.008615547 -0.0064437184 -0.012276501
-0.021160487 -0.00024304369 -0.0056590075 0.033026967 -0.01550567 -0.021015419 0.024680119 0.03194949

bias f4 [97]
00000000: 0667 043d c357 c5bc f49e 78bd 216b 873d
00000010: 7635 a7bd c724 9abc 23de 643d 21ad df3d
00000020: ed9a f23c f2e1 9abd f08b 22bd f84a 0abc
00000030: d122 0dbd 0a3e f33d 5688 533d 513b 05bd
00000040: 6491 7dbd a00e b13d 49c0 c13d a0fb 25bd
00000050: dac1 cbbd 012e d53d c89e 93bd 1ffb 9e3d
00000060: 381f eebc 36da ef3d 8f24 b83d 07c6 443c
00000070: 4c12 433c c687 a23d 941c 953c a77b 003e
00000080: 3347 41bd 489d eb3c 787a 473d 5d76 313d
00000090: ca6a 373d 55db 70bd 3f4b 91bc 8072 89bd
000000a0: 0977 c6bc 43a3 cf3d 30f7 463d 110a 1abc
000000b0: 4adc 81bd 7a47 0f3d 7391 d53d eeed 583d
000000c0: 522d a8bd 7960 8ebd c34b d03d 99b0 453b
000000d0: 592e f43d eed8 d73d 2919 69bd ec64 663d
000000e0: 3e0e 9e3d 300f 54bc ed26 5d3d d944 0c3e
000000f0: 4b98 4e3b cb86 ed3c 6c31 9f3d 87eb 793d
00000100: cae3 a13c 1c82 4f3c b7f4 2e3d 8137 a93d
00000110: 7f10 d83d be1a 60bd dea8 2cbd b640 a9bd
00000120: 7097 86bc 6123 02bc 5e0a 243b 840a d83c
00000130: 0e10 2dbd f1bf f6bc 11a6 41bd 55b4 ab3c
00000140: 47b2 88bd b10f 1abd 9c64 bebd c086 28bd
00000150: 55e0 8ebd 28a9 2e3d ceae 7e3b 3c0a cebd
00000160: 1c0e c73d 7dda 77bc f982 05bd cc8f ee3b
00000170: 767a 76bd 53c2 ed3d dad8 a63d dee5 bf3d
00000180: 12be 80bd
0.032324813 -0.0240897 -0.060698465 0.0661223 -0.08164494 -0.018816365 0.05587591 0.109216936
0.02961489 -0.07562627 -0.039684236 -0.0084407255 -0.03445703 0.118770674 0.051643692 -0.03252727
-0.061906233 0.086453676 0.094605036 -0.04052317 -0.099490836 0.10409165 -0.072080195 0.07762741
-0.02906762 0.11711542 0.08991348 0.012010104 0.011906218 0.07936053 0.018202104 0.1254717
-0.04718704 0.028761521 0.04870078 0.04332577 0.044779576 -0.05880292 -0.017736075 -0.06711292
-0.024226682 0.101385616 0.04857558 -0.009401814 -0.06340845 0.034980275 0.10428133 0.052961282
-0.08211769 -0.069519944 0.101707004 0.0030165075 0.119229026 0.10539423 -0.05690876 0.05624859
0.0771756 -0.012943074 0.0539922 0.13698138 0.003152388 0.028994938 0.07773098 0.061015632
0.019761939 0.012665298 0.042713847 0.0826254 0.105500214 -0.054713003 -0.04215323 -0.08264296
-0.016429633 -0.007943005 0.0025030593 0.026372202 -0.04225164 -0.030120822 -0.047277514 0.020960012
-0.06674629 -0.03761262 -0.092965335 -0.041144133 -0.06976382 0.04264179 0.0038861516 -0.10060546
0.09719488 -0.015127775 -0.03259561 0.0072803255 -0.06017538 0.1160933 0.0814683 0.093700156
-0.06286253
