loggers/h256_w256_bs20_in_channel1_epo100_lr0.0003/0512_0147/models/BasicModel_36.pth (torch, 40207 bytes, 17 tensors)

weight f4 [2, 1, 3, 3]
000000 ea 1d 7b bb 80 af 96 bc f3 7a fe 3a 96 92 1a 3d
       -0.003831739 -0.018394232 0.0019415304 0.03773745
000010 78 d8 de b9 c5 eb 63 bb 73 aa a4 3c 51 e7 1d bc
       -0.0004250442 -0.003477798 0.020100808 -0.00963767
000020 99 61 81 bc b6 d8 da 3b 1b 8f 6a bb e4 3b c7 3c
       -0.015793609 0.006678666 -0.0035790864 0.02432055
000030 1a 6d 36 bd 94 d9 50 3a 54 e6 20 bc e4 86 c3 3c
       -0.04453764 0.0007966992 -0.0098205395 0.023868032
000040 b0 c5 03 bc 10 c5 b2 bc
       -0.008042738 -0.021822482

weight f4 [2]
000000 ae 5f 7b 3f 81 c5 80 3f
       0.9819287 1.0060273

bias f4 [2]
000000 a5 1b 73 3d aa cd 66 bb
       0.059352536 -0.00352178

running_mean f4 [2]
000000 2f f5 ef 3d f1 f2 f9 be
       0.11716687 -0.48818162

running_var f4 [2]
000000 0f d6 01 3e 19 c3 d2 3e
       0.12679313 0.41164473

weight f4 [4, 2, 3, 3]
000000 79 59 0f bd 87 d3 c2 bc 39 17 4d 3c 0e ca 80 38
       -0.034997437 -0.023782505 0.012517744 6.141151e-05
000010 62 47 de bc 89 0c 0b ba 2d da 0c 3c 1e 5b 2c 3c
       -0.027133647 -0.0005304297 0.008596939 0.010519771
000020 49 5b 1e 3c 4d 13 93 bc 32 0b 30 bd 84 79 47 3b
       0.009665319 -0.01795354 -0.042979427 0.003043742
000030 fd 68 25 3d 5b a6 6e bc 67 67 4b 3b 2a ee 98 3b
       0.040383328 -0.014566029 0.0031036974 0.0046670632
000040 9d 6b fe b9 3e b4 1c 3c a1 c5 10 bd 69 2d 95 3c
       -0.00048526833 0.009564457 -0.035344724 0.01821013
000050 90 fd 23 3c d6 83 59 3c 6a 51 42 bb 53 1f b8 bc
       0.0100091845 0.013276061 -0.0029650577 -0.022475874
000060 88 d5 80 3c 6a 81 77 bd 28 33 3d bb b0 43 cc bb
       0.01572682 -0.060426153 -0.0028869603 -0.006233655
000070 0d 3f e9 bb 5e 92 ae bb 57 78 d2 3c f2 1f 03 3d
       -0.007118112 -0.005327507 0.025692148 0.032012887
000080 18 b5 48 3c e8 21 26 3d fa 2d c3 3c 8e 3e d9 bb
       0.012250207 0.04055968 0.023825634 -0.0066297716
000090 1a 61 ba 3c 92 c2 19 bc 7a 91 5d bc c7 4a 2d 3d
       0.02275138 -0.009384768 -0.013523454 0.04230764
0000a0 67 3a 8a bc b8 3d 7b 3b b8 31 b0 bb b1 bc ee ba
       -0.016873552 0.0038336348 -0.0053770207 -0.0018214193
0000b0 c4 62 88 3c 73 94 8a bc 9b aa 39 bc 39 4a 89 3c
       0.016648658 -0.01691649 -0.011332179 0.016759025
0000c0 f1 69 c5 bc f4 0e c4 3c a6 8e 1b 3c 5d 59 8c 3b
       -0.024098368 0.023932911 0.009494459 0.004283114
0000d0 da e2 16 3d 0c da ee 3b 21 a3 f0 bc fa 69 ff bb
       0.036837436 0.007289177 -0.02937466 -0.007794616
0000e0 51 73 bb 3c 69 1e a1 ba b7 4c 28 bd bc ac ac bc
       0.022882136 -0.0012292388 -0.041088786 -0.02107846
0000f0 1c 42 fd bc 6d 14 69 3c 1b 73 b2 bc 88 c7 86 bc
       -0.030915312 0.014226061 -0.021783402 -0.016452566
000100 2b b9 85 bc c7 87 d0 bb 58 61 42 bd bb 68 59 bb
       -0.016323647 -0.006363842 -0.047456115 -0.0033173996
000110 e2 f6 80 bc f4 a5 98 3c 68 5c 33 3c 74 e9 e4 bb
       -0.015742723 0.01863382 0.010947324 -0.0069858376

weight f4 [4]
000000 06 58 88 3f 47 d5 7b 3f 00 25 7a 3f c6 c7 85 3f
       1.0651863 0.9837231 0.9771271 1.0451591

bias f4 [4]
000000 12 25 09 3c dc 44 4b bc f2 00 0a 3d 98 b7 5a bd
       0.008370655 -0.012406554 0.033692308 -0.053397745

running_mean f4 [4]
000000 8a 0b 73 bd eb c7 17 3c 95 28 a6 3d 86 49 45 be
       -0.059337176 0.009263973 0.08113209 -0.19266328

running_var f4 [4]
000000 4d 43 b5 3b 7a 56 1e 3c 96 56 6d 3b 58 1a 5e 3c
       0.0055317045 0.009664172 0.003621494 0.0135560855

weight f4 [8, 4, 3, 3]
000000 3a f0 97 bc 99 64 7b 3c d6 2e eb bc 41 64 82 ba
       -0.018547166 0.015343809 -0.028708857 -0.0009948091
000010 48 2c 24 bd 34 d6 5a bc 9c 12 dd 3c c6 8e c8 bc
       -0.040081292 -0.013356734 0.026986413 -0.024482142
000020 4e 92 80 3b 72 5a 97 3c 40 37 c5 3c 83 68 5e bb
       0.003923691 0.018475745 0.024074197 -0.0033936806
000030 d8 48 33 bd 74 cf 06 3d 03 6f 9a 3c 4b 90 b9 3c
       -0.04377064 0.032912686 0.018851763 0.022651812
000040 a9 3b 9b bc d1 73 1e 3c 88 b0 96 bb 90 cc 9b bc
       -0.018949347 0.0096711675 -0.004598681 -0.019018441
000050 fc f3 db bc d6 8e 33 3c 66 12 a0 ba 6f ae b7 bc
       -0.02684974 0.010959348 -0.0012212514 -0.022422044
000060 5d 8f 13 3a 73 91 a2 3b bd b1 bd bc a2 f6 e1 bb
       0.0005628968 0.0049611866 -0.023156041 -0.006895856
000070 9f 5b 2d bd d6 cf 94 bb d3 16 b0 3c 27 14 39 3c
       -0.042323705 -0.0045413775 0.021495258 0.011296309
000080 92 c0 5f bc d9 82 a2 bb ab 0a 09 bd 56 64 67 bd
       -0.013656752 -0.004959446 -0.03345744 -0.056492172
000090 73 33 49 3c 3c 0b 23 bd a1 97 27 3b 75 7f 15 3c
       0.012280333 -0.039805636 0.0025572556 0.009124626
0000a0 05 7a ee bc a5 08 9a ba e2 e5 f2 bc 9f 95 bf ba
       -0.029110918 -0.0011751844 -0.029650632 -0.0014616734
0000b0 1b 80 20 3c 45 e8 cb 3a db ce 35 3c 82 d3 4d bd
       0.009796168 0.0015556893 0.0110966815 -0.050250538
0000c0 fe 64 95 3b 77 53 69 3c 49 10 1e 3c ac e8 4f bc
       0.0045591583 0.014241091 0.009647437 -0.012689751
0000d0 80 7d 56 bb 58 d2 be 3b 62 ff db b8 f6 19 88 bc
       -0.0032728612 0.005823415 -0.000104903025 -0.016613942
0000e0 ce f7 f7 bb b9 de e6 3c a6 58 15 bc bc f7 81 bc
       -0.0075673824 0.028182374 -0.009115374 -0.0158652
0000f0 0b ad f9 bb 1b 98 2c 3c 6b 52 69 ba 79 bd 27 bd
       -0.0076195053 0.010534312 -0.0008900526 -0.04095218
000100 47 a9 21 bd ed 0a 81 3c 59 9c 99 3c 04 0e 26 3d
       -0.039468076 0.01575228 0.01875131 0.04054071
000110 56 f2 f3 bc 49 14 06 3c ad ec c8 bc ca 0d 2d bd
       -0.02977864 0.008183547 -0.024526918 -0.04224948
000120 a8 4a 6d 3c ad 0d 02 bc 54 4b e5 bb 3f ec fa bc
       0.0144831315 -0.007937831 -0.006997505 -0.030630229
000130 47 70 2c bd 11 72 b9 bc a4 7c e7 3b b3 2a 3f bd
       -0.042099264 -0.022637399 0.007064419 -0.04667158
000140 7c 95 10 3d 56 74 85 bc c7 22 0c bd dc 66 49 bb
       0.03529881 -0.016290825 -0.034212854 -0.0030731475
000150 c4 2d 01 3c 29 c8 a8 bc f6 27 1b 3d 34 41 c7 bb
       0.0078844465 -0.020603256 0.037879907 -0.006080771
000160 d2 c2 2b 3c 32 2b 35 3c 2b ae 61 bc 9f d9 33 bc
       0.0104834605 0.011057662 -0.013774435 -0.010977178
000170 8f c5 b2 3c 58 f8 6b 3c be 4c 90 3c f2 d5 97 bb
       0.021822719 0.0144024715 0.017614719 -0.0046336586
000180 12 1b c4 bc 23 da 0a bb 27 d7 72 bc 7d b0 75 bb
       -0.02393869 -0.0021187149 -0.014821804 -0.0037489228
000190 1c e6 2c bc 8a b9 85 3c a2 7e 58 3d e3 64 18 bd
       -0.010552909 0.016323823 0.05285514 -0.037205588
0001a0 fa ff 18 bc cc cb ec 3b 72 41 e0 bb 33 ee 99 3c
       -0.009338373 0.007226443 -0.006843739 0.01879034
0001b0 f9 06 ac bc ec 67 72 bb c4 21 82 3c 67 c5 00 3d
       -0.020999419 -0.0036988212 0.015885241 0.031438258
0001c0 b9 6c 14 bc b5 78 33 3c b4 d6 ab bc ae 9e ab 3b
       -0.009059125 0.010954072 -0.020976402 0.005237422
0001d0 f6 86 de bc 84 a0 51 3c 29 fd 04 bc ca d9 53 3c
       -0.027163964 0.012794618 -0.008116999 0.012930343
0001e0 14 e5 ac ba 9e ae 43 bd dc bb 90 3b 50 80 00 3d
       -0.0013190829 -0.04777395 0.004416926 0.03137237
0001f0 6c 28 aa 3b 07 99 43 bc 5a 3e eb 3b 98 14 fe b9
       0.005192807 -0.01193834 0.0071790637 -0.00048462
000200 84 d6 09 3c 68 f3 ed 3b 9d 5d 9a bc 87 e7 b8 bc
       0.008412961 0.0072616823 -0.018843466 -0.022571338
000210 9f 29 bc 3c 09 36 50 bc 1c 04 d3 bb 29 40 5e 3c
       0.022969065 -0.0127081955 -0.006439699 0.013565102
000220 0f 12 90 3c a8 79 1e 3d 21 20 74 3c c0 1c 19 3b
       0.017586736 0.03869024 0.014900238 0.0023363084
000230 87 40 b5 3b c4 33 1c 3d 0b 17 27 3d 70 73 d3 bc
       0.005531374 0.038135305 0.04079346 -0.02581188
000240 54 d6 bb 3b 4d ae 5b bc 4c fe 1d bc c3 95 49 3c
       0.005732337 -0.013408256 -0.009643149 0.012303772
000250 e7 7e eb ba 6e 6a c5 3c e5 1c c4 3c ab 37 25 3d
       -0.0017966897 0.024098601 0.02393956 0.040336292
000260 42 c4 4c 3c 76 3b 9f 3a c8 5b 5d bc 07 8e 21 bd
       0.012497963 0.0012148458 -0.013510652 -0.03944209
000270 b0 50 52 bd 96 09 e3 bc 68 40 9c bc 83 c1 93 b9
       -0.05134648 -0.027714532 -0.01907368 -0.00028182202
000280 7b 07 0f bd 01 18 50 bc a7 0d 87 bc 47 ba 1a 3d
       -0.034919243 -0.0127010355 -0.016486002 0.037775304
000290 ed 38 38 bc 2b 64 36 bc 45 30 1e bd ef 5d 02 3c
       -0.011244041 -0.01113228 -0.038620252 0.007956966
0002a0 c1 e3 b0 bc 8b 97 02 3b 11 80 5c ba f2 0b 21 bd
       -0.021592977 0.0019926752 -0.00084114174 -0.039318033
0002b0 11 0c 56 3b 5e 33 0a bc 89 7a 26 3a 2d 2b 83 3c
       0.0032661 -0.008435098 0.00063506566 0.016011799
0002c0 db 42 05 3d dc a7 bb bc 94 13 78 ba 48 e3 bd bb
       0.03253446 -0.02290719 -0.00094633666 -0.0057949163
0002d0 62 73 92 3c d6 e1 d9 3c 0e 33 85 bd 8b 5a d3 bc
       0.017877284 0.026596945 -0.065038785 -0.02580001
0002e0 de 64 2d 3c ec be 92 bc 28 2d 62 3d 4c 42 f0 bc
       0.010583131 -0.017913304 0.055218846 -0.029328488
0002f0 8d db 03 3d f8 5d 7b ba a8 7c 75 3b e6 8f 73 3c
       0.0321918 -0.00095888926 0.0037458334 0.014865851
000300 15 20 55 3c f6 3e c8 ba f7 18 d4 bc 68 45 10 3d
       0.013008137 -0.0015277553 -0.02589081 0.03522244
000310 3b 29 3b 3c 8e 2b f7 3b 15 0f 46 3c 66 b4 0a 3c
       0.011423404 0.007543034 0.012088557 0.008465862
000320 9c 00 a7 bc ce 78 03 bc 29 d0 b8 3a f2 81 aa 3c
       -0.020386033 -0.008024408 0.0014100122 0.020813916
000330 3f 3d 3a 3b 70 27 9d bc 51 99 2a 3c 9d b3 27 3d
       0.0028417853 -0.019183844 0.01041253 0.040942777
000340 69 28 1e 3c 57 ac fc 3c 5c ff 18 3c 06 86 8f bc
       0.009653189 0.030843897 0.009338226 -0.017519962
000350 8c 11 e9 3b 1b 57 cb 3b 26 7e bc bc 58 9f 1f ba
       0.0071126875 0.006205452 -0.023009371 -0.0006089113
000360 db 91 21 bb 82 14 30 3d c5 cb 95 bc 77 9f 9f 3c
       -0.0024653587 0.042988308 -0.018285641 0.019485218
000370 52 24 8e 3c f7 bc 0b bd df 45 82 3b da 7f a0 ba
       0.017351303 -0.034115758 0.0039756144 -0.0012245134
000380 45 e2 fd 3c dd b8 2e 3a f9 59 03 3c 77 05 bf 3c
       0.030991683 0.000666512 0.008017057 0.023318036
000390 87 87 9f bb 63 4e 11 3c 8f 11 81 3c 98 5d 67 3c
       -0.004868451 0.0088687865 0.015755443 0.014121436
0003a0 90 a1 c2 ba 99 81 6b 3b 9c 68 35 bb 73 4b 99 bc
       -0.0014849175 0.00359354 -0.002768076 -0.018712735
0003b0 e1 4c 8d 3c 4d 48 36 3c fb 8a 0e 3b 75 7f 1a bd
       0.017248573 0.011125636 0.002175032 -0.03771921
0003c0 86 8e 7a 3b 30 7f 8d 3a d0 29 6f 3c 86 60 04 bd
       0.0038231923 0.0010795351 0.014597371 -0.032318614
0003d0 8d 0c 74 bb 3e 21 66 3c 94 a0 0a 3b c2 67 fd bb
       -0.0037238926 0.0140460115 0.002115284 -0.007733316
0003e0 00 93 ae bc 57 80 3c bd 9b 96 e7 bb 46 b8 ff bb
       -0.02131033 -0.046020832 -0.007067514 -0.0078039495
0003f0 ee be 9e 3b ab 5d c1 3c 2e f5 5f bc 66 ca 65 bc
       0.004844538 0.023604235 -0.013669295 -0.014025306

weight f4 [8]
000000 dd 2a 7c 3f 50 56 81 3f 61 6c 79 3f 1a c8 84 3f
       0.98502904 1.0104465 0.97431 1.0373566
000010 b8 bf 82 3f 0a ea 80 3f e6 f2 79 3f ba 83 79 3f
       1.0214758 1.0071423 0.9763626 0.97466624

bias f4 [8]
000000 9c 91 f5 ba eb d5 de 3b f8 94 4e 3c 5d 71 21 3c
       -0.0018735412 0.0068004034 0.012608759 0.009853688
000010 c1 4f 3f 3b c2 04 f4 ba 31 ae 93 bb de d7 b8 3c
       0.0029191824 -0.0018617141 -0.004506849 0.022563871

running_mean f4 [8]
000000 3d 02 63 be ab 96 2d be 0e 65 f3 bd 46 88 5f 3d
       -0.22168823 -0.16952007 -0.11884509 0.05457332
000010 5a 17 25 be ff 7d b8 3d 1d 72 de 3c 73 89 4b be
       -0.16122189 0.09008407 0.027154023 -0.19876651

running_var f4 [8]
000000 f7 98 15 3c 78 58 cf 3b 35 55 ca 3b 4a 1b fe 3b
       0.009130708 0.006327685 0.0061747083 0.007754718
000010 c0 95 8c 3c ee 3e e7 3b 15 48 86 3b 7d 63 b0 3b
       0.01716125 0.0070570624 0.0040979483 0.0053829537

weight f4 [97, 8, 3, 3]
000000 2f da b8 bc b3 cc d1 3b ac ff 07 3d b7 89 95 bc
       -0.022564976 0.006402576 0.033202812 -0.018254144
000010 24 d2 b2 bc 5d 45 20 bc 7b f5 af 3c 79 b6 d0 bc
       -0.021828718 -0.0097821625 0.021479359 -0.025477635
000020 5e e4 ea 3b 12 7c 7d 3c 91 fc 0e 3d b5 60 dd b9
       0.007168337 0.015471475 0.034908835 -0.00042224457
000030 0b 4f f8 bb 7c e2 26 ba 03 3a 12 bd 10 68 9a 3c
       -0.007577782 -0.0006366146 -0.035699856 0.018848449
000040 05 46 e6 39 6c ea c6 3b 02 17 da 3c 11 10 50 3c
       0.00043921187 0.0060704257 0.0266223 0.012699143
000050 d8 8e 1d 3c 23 2f 51 3c 46 b2 22 3c 4d 17 19 bd
       0.009616576 0.012767586 0.009930199 -0.037375737
000060 be 8b 38 3c 94 a3 9c bc c0 e7 e7 3c 64 c1 1c 3d
       0.011263786 -0.019120969 0.02830875 0.03827037
000070 4a 5d 2f 3d ce a4 53 3d e7 81 df 3c fc f7 00 3d
       0.042813577 0.051670842 0.027283622 0.031486496
000080 ce ec 68 3d b8 9d 44 3d aa ab 9e 3b 0d 00 e2 bc
       0.05686646 0.048001975 0.0048422413 -0.027587915
000090 91 03 fe 3c 3b 0d 8e 3d 8c 5d 24 bb 3b ca 9f 3c
       0.03100756 0.06936117 -0.0025080172 0.01950561
0000a0 9d 47 b5 3c 74 bc 98 3c b6 21 d1 3b 27 ed 07 3c
       0.022128874 0.018644549 0.0063821925 0.008296288
0000b0 80 2e 9d bb c2 43 a9 3c c3 d4 8d bb 53 cc a7 bc
       -0.004796803 0.020662192 -0.0043283417 -0.020483172
0000c0 63 59 98 3b fa 84 37 bb 67 b6 8b 3b de a2 74 3a
       0.0046493276 -0.0028002844 0.0042636874 0.00093321304
0000d0 1c bd fe 3c c0 96 4d 3b 14 29 c5 bc 72 4c 13 bc
       0.031096034 0.0031370372 -0.02406744 -0.008990394
0000e0 aa d2 ec 3b 15 17 ba 3c c5 cb 4b bc 13 88 00 3d
       0.0072272616 0.022716084 -0.012438719 0.03137977
0000f0 c4 e0 2c bb 93 74 24 bc 1d f3 f1 3c 56 4d db bc
       -0.0026379088 -0.010037559 0.02953487 -0.026770275
000100 58 ce e7 3b e9 db 9c 3c e3 27 34 bd 3c d9 09 bd
       0.0070741586 0.01914783 -0.04398335 -0.033654436
000110 f4 33 08 ba fe 94 fb bc 33 d7 9d bb 54 45 cf bc
       -0.000519573 -0.030710693 -0.0048169135 -0.025301613
000120 be 1f cb 3c 86 a7 b3 3c 56 aa ba bc b3 c5 78 bd
       0.02479541 0.021930467 -0.0227863 -0.060735416
000130 1f 22 54 bd 1d 7d 26 bb 13 ab 10 3c 26 6b a7 3b
       -0.051790353 -0.0025404163 0.00882985 0.0051092086
000140 4d 3e 70 3b b9 61 cf 3c 32 dd 8c bb fa d5 80 3c
       0.0036658228 0.025315152 -0.0042988295 0.015727032
000150 74 92 dc 3c 60 ce 7f bc 7f d0 4a bb 47 6a da bb
       0.026925303 -0.0156131685 -0.0030947027 -0.0066655013
000160 f4 a2 0a bc 94 e3 54 bb 1d 8c 28 3d 80 5a a7 bc
       -0.008461703 -0.003248428 0.041149247 -0.020428896
000170 82 cc a9 3a 3c bd b5 3b dd 42 30 bc 9d d3 25 3c
       0.0012954625 0.00554624 -0.010758129 0.010121253
000180 d8 a2 76 3c bb 0c a3 bb f2 40 01 3c c4 d3 9a 3c
       0.015053473 -0.004975883 0.007889019 0.018899806
000190 ac dc 8b 3c f7 9c b2 bc 8a c7 db 3c 9a 7b 09 bd
       0.017072998 -0.021803362 0.026828546 -0.03356514
0001a0 1a 03 9d 3a 2d d6 5a 3d ff 50 24 3c bf 39 ae bc
       0.0011979074 0.05342691 0.010029077 -0.02126777
0001b0 46 34 45 3d d5 9c 0b 3d 55 82 7c 3c 42 6b 8b bc
       0.048145555 0.034085114 0.015411933 -0.017018918
0001c0 7c 1b 32 3d ee ac 31 ba 7d 22 95 3c ac cb fa 3b
       0.043483242 -0.00067777827 0.018204922 0.007653674
0001d0 81 f7 b7 3c 53 7f 81 bc 37 f1 3a 3d f1 4e b7 bb
       0.022456886 -0.015807783 0.045640197 -0.0055941273
0001e0 69 f1 80 3c 47 8a 5b bc 4b 3a ff bb ff d8 11 bd
       0.015740113 -0.013399667 -0.0077889315 -0.035607334
0001f0 fd 13 d7 3c 9e 20 f9 3a 53 c7 49 3b 34 00 c9 bc
       0.026254648 0.0019006913 0.0030788973 -0.02453623
000200 aa 4a 9d 3c ed d5 da 3c 91 06 af bb 05 07 1f bc
       0.019200642 0.026713336 -0.005341359 -0.009706263
000210 83 59 b0 bc ec 2c a2 3b 7f be 62 bb 42 12 4f bb
       -0.021527058 0.0049492028 -0.0034598408 -0.0031596576
000220 ce 84 dd bc 0a 9e a0 3b 45 63 99 ba 79 47 cc 3c
       -0.027040865 0.004901652 -0.0011702558 0.024936425
000230 c1 ec 9b bb 7b da 26 bd 41 3e 1e bc ed af 67 bd
       -0.004758448 -0.040735703 -0.009658397 -0.05656426
000240 f0 cb 89 3c 0e ba 00 3d 4f 39 bd bc fd 7a a5 3c
       0.016820878 0.031427436 -0.023098616 0.020200247
000250 61 e5 59 3c 05 c2 7c 3a e5 26 bf bc bd fe 1e 3d
       0.013299317 0.0009641948 -0.023333976 0.038817156
000260 3f 7d 8d 3c 49 03 98 3c 86 11 86 3c 76 95 98 bc
       0.017271636 0.018556254 0.016365778 -0.018625956
000270 2a 02 95 3b 03 10 c7 3c 0c 0e 00 3d 20 16 29 bc
       0.004547377 0.024299627 0.031263396 -0.010320216
000280 40 3e 9d ba 69 0b 1c bb d0 2d c3 bc cd 73 70 bc
       -0.0011996701 -0.0023810512 -0.023825556 -0.014676047
000290 19 4c 21 bb 7e 07 df ba be 43 5f 3c a1 37 5f 3c
       -0.0024612008 -0.0017015783 0.013626991 0.013624103
0002a0 ea e7 b9 3b cd 03 cd bb 34 13 af bc 33 c2 30 ba
       0.0056733983 -0.0062565566 -0.021371461 -0.0006742805
0002b0 43 1e 57 3c ed f2 80 bc 9c fd c9 3a 6a d3 2f bc
       0.013129774 -0.015740836 0.0015410664 -0.010731557
0002c0 cd 22 cb bc 94 99 cb 3c 31 89 ae bb 8f 11 53 3c
       -0.024796868 0.024853505 -0.005326413 0.012882604
0002d0 e6 20 cf 3c 2c 59 39 bc 1d 3c d8 3b 7f dc 0a 3b
       0.025284242 -0.011312764 0.006598963 0.0021188555
0002e0 72 10 39 3b a7 8b f4 bb cf 23 f4 bb 97 27 db bc
       0.0028238562 -0.007462937 -0.007450558 -0.026752276
0002f0 3c 84 8c 38 e1 7c 45 3b 6f 57 9b bb e4 07 ab bc
       6.700351e-05 0.0030134248 -0.0047406475 -0.020877786
000300 5e 6d 85 bc f7 a1 32 bb d2 55 1f 3c b7 03 24 3a
       -0.016287502 -0.0027257183 0.009725051 0.0006256657
000310 cb 02 25 3c 5d 35 bc 3b db 29 17 bc e3 99 a7 bb
       0.010071467 0.005743666 -0.009226288 -0.0051147803
000320 8c 72 55 3b 66 3a 5f bc 82 51 e2 bc ce c2 3f 3c
       0.0032569496 -0.013624763 -0.027626757 0.01170416
000330 00 d2 d4 3c cd aa ee 39 b8 6a 1d bd cd de b8 bb
       0.025979042 0.00045522154 -0.038431853 -0.0056417943
000340 51 6b d7 3c 11 73 35 3c b2 62 0a 3c 86 e6 cb 3c
       0.02629629 0.011074797 0.008446382 0.024890196
000350 fe e2 10 bc c8 a3 8a 3c 8a ab 6f 3b 58 4c 11 3d
       -0.008843182 0.0169238 0.003657075 0.035473198
000360 2a 7b 9b bc 33 36 55 bc a2 87 6b bc b6 4a 2b 3c
       -0.018979628 -0.01301341 -0.014375599 0.010454824
000370 bd 12 7c bc 5a bd 1f 3c 29 b0 b4 3c f1 65 37 3d
       -0.015385327 0.009749735 0.022056656 0.044774953
000380 54 fb 67 bb 63 5f b7 3c 76 8c d2 3c bc b7 0e bb
       -0.0035397606 0.022384351 0.025701743 -0.0021776995
000390 10 bb c4 ba 5f 6f 51 bc 3d a7 56 ba 0b 3e c8 b8
       -0.0015009362 -0.012782901 -0.00081883726 -9.5482996e-05
0003a0 91 d1 7d bc 5e 7c 8f bc 63 c8 ce bb 2b 18 39 3c
       -0.015491859 -0.017515358 -0.006310509 0.011297266
0003b0 63 98 ca bc 61 76 71 3b 32 2f 44 3c 32 17 c6 3c
       -0.024730867 0.003684424 0.011974143 0.024180982
0003c0 6d de 74 ba f6 ba d9 ba 29 67 ba 3c e1 07 f6 3b
       -0.00093410054 -0.0016611505 0.022754269 0.0075082635
0003d0 d6 93 c9 3c 54 1a 16 bc 99 2f cb bb e0 1d 49 bc
       0.024606626 -0.009161551 -0.0062007424 -0.012275189
0003e0 b4 80 a7 bc f3 f5 2e 38 d2 1b e2 bb ef 93 00 3d
       -0.020447113 4.171389e-05 -0.006900289 0.03139108
0003f0 1e 4f 71 bc 27 48 ad bc 66 d7 ce 3c ad 00 fe 3c
       -0.014728336 -0.021152569 0.025249194 0.031006182

bias f4 [97]
000000 24 96 01 3d f6 c7 cb bc 88 1b 78 bd 6b 30 87 3d
       0.031637326 -0.024875622 -0.06057313 0.06601032
000010 58 3a a8 bd 6c f1 9a bc 2c 4f 66 3d d1 0c e0 3d
       -0.08214253 -0.018913947 0.056227848 0.109399445
000020 14 17 ef 3c 06 2e 9a bd d9 a8 26 bd f6 4a 17 bc
       0.02918581 -0.075283095 -0.04068837 -0.009234181
000030 3c e1 0c bd 31 09 f3 3d 7d 93 53 3d 6c 5e 05 bd
       -0.034394488 0.118669875 0.051654328 -0.03256075
000040 d2 f1 7c bd b4 41 b1 3d 38 52 c1 3d 45 52 28 bd
       -0.061754055 0.0865511 0.0943951 -0.041094083
000050 a3 13 cd bd e7 cd d5 3d 1a fb 93 bd 65 16 9f 3d
       -0.10013511 0.104396634 -0.07225628 0.07767943
000060 da 51 f5 bc aa a8 ef 3d 09 73 b8 3d f6 df 3a 3c
       -0.029946256 0.11702092 0.09006316 0.0114059355
000070 b8 f4 45 3c a9 c4 a1 3d ab 45 94 3c df 82 00 3e
       0.012082271 0.07898838 0.018099627 0.12549923
000080 6a 64 40 bd 7c 01 ea 3c fa 9a 44 3d 4a ae 2f 3d
       -0.046970762 0.02856516 0.04799936 0.042890824
000090 60 91 35 3d c1 f3 73 bd 7f 7f 90 bc a0 08 8a bd
       0.044328094 -0.059558634 -0.01763892 -0.06739926
0000a0 fb 58 c4 bc e5 1b cf 3d 61 32 47 3d 14 a0 18 bc
       -0.02396821 0.10112742 0.04863203 -0.009315509
0000b0 39 e1 82 bd 10 61 0d 3d 8f 4b d4 3d b4 18 58 3d
       -0.06390614 0.034516394 0.10365974 0.052757934
0000c0 38 4f a8 bd f0 f3 8e bd f0 1c d1 3d 06 fe 33 3b
       -0.08218235 -0.06980121 0.102105975 0.0027464642
0000d0 44 40 f3 3d 03 3c d8 3d 8c 91 6a bd 98 d8 66 3d
       0.11877492 0.10558321 -0.05726771 0.056358904
0000e0 8c aa 9d 3d 36 6c 51 bc 28 4a 5d 3d 54 79 0b 3e
       0.07698545 -0.012782147 0.0540258 0.13620502
0000f0 2e 26 49 3b ac 0f ec 3c dd 1e 9e 3d 52 54 78 3d
       0.0030692923 0.028816067 0.077207305 0.06062729
000100 d2 6b a0 3c cf 37 59 3c 35 a9 2e 3d 39 28 a8 3d
       0.019582663 0.013257935 0.042641837 0.08210797
000110 0f a6 d7 3d 00 f2 60 bd 15 af 2d bd 77 9d a9 bd
       0.1052972 -0.05491829 -0.0424033 -0.08281987
000120 0c 3e 84 bc a3 51 f3 bb 0c ec 03 3b 29 d0 d5 3c
       -0.016142868 -0.0074255033 0.0020129709 0.026100235
000130 e9 d4 2c bd a0 91 fa bc 9b ba 40 bd 01 15 a9 3c
       -0.042195234 -0.030587018 -0.04705296 0.020639898
000140 2d 6a 89 bd 48 d2 1a bd 17 71 bf bd 86 fc 29 bd
       -0.067097045 -0.037798196 -0.09347742 -0.04150059
000150 c1 2d 8e bd 4b 3c 2c 3d 49 94 5b 3b 9b fe ce bd
       -0.069423206 0.042049687 0.0033505133 -0.10107156
000160 1d 6f c7 3d e6 3e 80 bc ec 9c 05 bd ef d6 eb 3b
       0.0973799 -0.015654992 -0.032620355 0.007197253
000170 f0 44 77 bd f7 6e ed 3d 35 d7 a6 3d da 0d be 3d
       -0.06036848 0.115934305 0.08146516 0.09279986
000180 13 f2 81 bd
       -0.06345
