loggers/h256_w256_bs20_in_channel1_epo100_lr0.0003/0512_0147/models/BasicModel_92.pth (torch, 40207 bytes, 17 tensors)

weight f4 [2, 1, 3, 3]
0	0xbb78e4d3	-0.0037978187
1	0xbcacc104	-0.02108813
2	0x3a01c29e	0.00049499597
3	0x3d361af3	0.044459295
4	0xba293637	-0.0006454917
5	0xbb578616	-0.0032886318
6	0x3cb7e71e	0.022449072
7	0xbc1dde0e	-0.0096354615
8	0xbc946431	-0.018114181
9	0x3c130c74	0.008975137
10	0xbba1ca22	-0.004937426
11	0x3ce745e4	0.028231569
12	0xbd3f5d78	-0.046719998
13	0xbabb79c4	-0.0014303257
14	0xbc46e266	-0.0121389385
15	0x3cd99ed6	0.026564997
16	0xbc27fe88	-0.010253556
17	0xbcb20e07	-0.021735204

weight f4 [2]
0	0x3f78ab3c	0.9713628
1	0x3f800676	1.0001972

bias f4 [2]
0	0x3e058b66	0.13041458
1	0x3d87f971	0.06639374

running_mean f4 [2]
0	0x3e1a86d2	0.15090492
1	0xbf009f8d	-0.50243455

running_var f4 [2]
0	0x3e3586d5	0.17727216
1	0x3efa2747	0.4885809

weight f4 [4, 2, 3, 3]
0	0xbd2d9455	-0.04237779
1	0xbcd8f5a4	-0.026484318
2	0x3c661815	0.014043828
3	0x3aed9654	0.0018126466
4	0xbcf60c8b	-0.030035278
5	0xbb1f6ed4	-0.0024327533
6	0x3c165b85	0.009177093
7	0x3c12e7ae	0.00896637
8	0x3c3e3c43	0.011611047
9	0xbc8e0542	-0.017336491
10	0xbd3d4b8e	-0.046214633
11	0x3b162e27	0.0022915693
12	0x3d335639	0.0437834
13	0xbc8986c1	-0.016787888
14	0x3bb619d9	0.0055572805
15	0x3b8f85eb	0.004379978
16	0xbb42c404	-0.0029718885
17	0x3bf3591d	0.0074263946
18	0xbd2a34a2	-0.0415541
19	0x3cbc1a2c	0.022961698
20	0x3c334237	0.01094108
21	0x3c8986ca	0.016787905
22	0xbb9cdabe	-0.0047868183
23	0xbcc1d699	-0.023661898
24	0x3c57e14d	0.0131762745
25	0xbd7a01a8	-0.061036736
26	0xbbb7086f	-0.005585722
27	0xbb2ec01c	-0.00266648
28	0xbc03d52d	-0.008046431
29	0xbc507c24	-0.01272491
30	0x3d01db85	0.03170349
31	0x3cf3e069	0.029770093
32	0x3ca0b9c2	0.019619826
33	0x3d1883a4	0.037234917
34	0x3cfc17ec	0.030773126
35	0xbc171af3	-0.009222734
36	0x3cd050ae	0.025429096
37	0xbc60b34e	-0.013714625
38	0xbc6e62dd	-0.014549938
39	0x3d436ea3	0.047712933
40	0xbc943058	-0.018089458
41	0x3b45c361	0.003017627
42	0xbbc07b38	-0.005874064
43	0x3b016267	0.001974249
44	0x3c690dec	0.014224511
45	0xbc8b1f22	-0.016982619
46	0xbc751fd7	-0.0149612045
47	0x3c49a5b2	0.012307571
48	0xbc853d1a	-0.016264487
49	0x3c648fed	0.01395033
50	0x3cafad5c	0.021444969
51	0x3bb3396b	0.0054694912
52	0x3d31b230	0.043382823
53	0x3bfcae3b	0.0077111996
54	0xbd03d084	-0.032181278
55	0xbc147232	-0.009060429
56	0x3cd822c5	0.026383767
57	0x3c092a74	0.008371938
58	0xbd449269	-0.04799119
59	0xbcc41d15	-0.023939649
60	0xbd0b2c67	-0.033977892
61	0x3c465257	0.012104592
62	0xbc5b9d2c	-0.013404172
63	0xbc69a7b5	-0.014261176
64	0xbcacf0b4	-0.02111087
65	0xbb41c1b0	-0.002956491
66	0xbd3c187f	-0.0459218
67	0xbbefe2dd	-0.0073207454
68	0xbc8a748e	-0.01690128
69	0x3cab5860	0.020916164
70	0x3c2ec6e3	0.0106675355
71	0xbba817bd	-0.005129783

weight f4 [4]
0	0x3f8a2293	1.0791801
1	0x3f78dece	0.9721497
2	0x3f744b59	0.9542747
3	0x3f868500	1.0509338

bias f4 [4]
0	0x3d8860fd	0.06659124
1	0xbda6ffab	-0.081542335
2	0x3d2f2b1e	0.04276573
3	0xbdeb35f6	-0.114849016

running_mean f4 [4]
0	0xbda2dc15	-0.079521336
1	0x3c61447e	0.01374924
2	0x3dc68863	0.096939825
3	0xbe4f5de9	-0.20250668

running_var f4 [4]
0	0x3bf7804c	0.007553136
1	0x3c3d1e84	0.01154292
2	0x3b9b1ad5	0.0047334232
3	0x3c680528	0.014161386

weight f4 [8, 4, 3, 3]
0	0xbce461e4	-0.02787871
1	0x3c9e8f6f	0.019355504
2	0xbc56825c	-0.013092604
3	0x3bfed66e	0.007777027
4	0xbd4bc466	-0.049747847
5	0xbbd10b5e	-0.006379529
6	0x3cda89e1	0.026677074
7	0xbcbc7397	-0.023004336
8	0xbb1f9c71	-0.002435472
9	0x3c669437	0.014073423
10	0x3ce72d1f	0.028219758
11	0x3c2c415d	0.010513631
12	0xbd60d4ed	-0.05489056
13	0x3d019039	0.031631682
14	0x3c8ec34b	0.017427107
15	0x3cd76ee6	0.026297998
16	0xbce5f6bc	-0.028071754
17	0x3c8a4113	0.016876733
18	0xbbf55351	-0.0074867387
19	0xbc8a3948	-0.016873017
20	0xbc9cb4fb	-0.019129267
21	0x3b9fd969	0.004878212
22	0x3beee4b0	0.0072904453
23	0xbcc2d20f	-0.023781804
24	0x3b29e303	0.0025922663
25	0x3bab00ff	0.0052186246
26	0xbccfb480	-0.025354624
27	0xbc4369b5	-0.011927058
28	0xbd24f808	-0.040275604
29	0xbcc74526	-0.024324965
30	0x3ccfde23	0.025374478
31	0x3c8f6973	0.017506337
32	0xbada1d50	-0.0016640816
33	0x3cb34b19	0.021886395
34	0xbd04312f	-0.032273468
35	0xbd6ecf97	-0.05830344
36	0x3c601b41	0.013678373
37	0xbcbcc5e9	-0.02304359
38	0xbbd0195e	-0.0063506803
39	0x3c2990fe	0.01034951
40	0xbd26ab96	-0.04069098
41	0x3aed596e	0.0018108317
42	0xbd21c4dc	-0.03949438
43	0xbbe70d61	-0.0070511554
44	0x3c90d6e2	0.01768059
45	0x3cb0683e	0.021534082
46	0x3bfecdb5	0.007775987
47	0xbd44c82f	-0.048042472
48	0xbc17a088	-0.009254582
49	0x3c97bc30	0.018522352
50	0x3c32ec29	0.010920563
51	0xbc7977a2	-0.015226277
52	0xbbaf6fb7	-0.0053538936
53	0x3c242be3	0.010020229
54	0xbb07a3ab	-0.002069692
55	0xbc1494d5	-0.009068687
56	0xbc02bc19	-0.007979416
57	0x3d0af191	0.033921782
58	0xbbe7c786	-0.0070733456
59	0xbc9252bb	-0.017861715
60	0xbc0929d7	-0.008371792
61	0x3c2e18eb	0.010626058
62	0x3a223541	0.0006187745
63	0xbd31edef	-0.0434398
64	0xbcdf6207	-0.027268423
65	0x3cedbf3a	0.029021848
66	0x3cadb2f3	0.021203494
67	0x3d911182	0.070834175
68	0xbd48874a	-0.048957147
69	0x3cc2afca	0.023765463
70	0xbc8782e5	-0.016541908
71	0xbd74035c	-0.059573516
72	0x3ce25509	0.027628439
73	0xbbf452ab	-0.007456144
74	0xbcb7909f	-0.022407828
75	0xbcaf68fc	-0.021412365
76	0xbd4f733e	-0.050647013
77	0xbc6a292c	-0.014292043
78	0x3c870354	0.01648108
79	0xbd2fea56	-0.04294809
80	0x3d2a6eed	0.041609693
81	0xbab746eb	-0.0013982927
82	0xbd819a85	-0.063283004
83	0x3c352efa	0.011058563
84	0x3bb10d6d	0.005403212
85	0xbca7786f	-0.02044317
86	0x3d0532a0	0.032518983
87	0xbbf821fa	-0.0075724097
88	0x3bcaedb9	0.0061928895
89	0x3c41bca2	0.011824759
90	0xbca31a0b	-0.01990988
91	0xbbf62321	-0.007511512
92	0x3c9aca89	0.018895404
93	0x3c5d6589	0.013512977
94	0x3c888551	0.016665133
95	0x3b603d08	0.0034216065
96	0xbce3890c	-0.02777531
97	0xbbce6cff	-0.0062996144
98	0xbc60974d	-0.013707948
99	0xbcc95165	-0.024574945
100	0xbbd34ad9	-0.0064481315
101	0x3ce46462	0.027879898
102	0x3d448c66	0.047985457
103	0xbd22368c	-0.0396028
104	0xbc6e947f	-0.014561771
105	0x3be24490	0.006905146
106	0xbc97f326	-0.01854856
107	0x3c9f72c4	0.019463904
108	0xbcf08e14	-0.029364623
109	0x3b074502	0.0020640497
110	0x3c9275f9	0.01787852
111	0x3cc58fe4	0.024116464
112	0xb85c7b88	-5.2567135e-05
113	0x3c1d1a5d	0.009588805
114	0xbcde1d2a	-0.027113516
115	0xbbcd8516	-0.0062719686
116	0xbd1185fc	-0.035528168
117	0x3c68afa2	0.01420203
118	0xbc127dcc	-0.008941125
119	0x3c33eeee	0.010982258
120	0xbb2ab6e9	-0.0026048964
121	0xbd443f21	-0.047911767
122	0x3b3d58ef	0.002889212
123	0x3d03a055	0.032135326
124	0x3b29299e	0.002581216
125	0xbc404c10	-0.011736885
126	0x3bd74f6b	0.0065707467
127	0x3a0b4598	0.00053127995
128	0x3c4a1225	0.012333428
129	0x3c40b587	0.0117620295
130	0xbcdbee87	-0.026847137
131	0xbc994e80	-0.01871419
132	0x3cbdc2c5	0.023164162
133	0xbc56433d	-0.013077554
134	0xbc06ac36	-0.008219769
135	0x3d00712f	0.03135794
136	0x3c8c349c	0.01711493
137	0x3d0cf0d2	0.03440935
138	0x3c9ba168	0.018997863
139	0xbbe15a12	-0.0068771923
140	0x3b17fba2	0.0023190756
141	0x3d0c8ae7	0.034312155
142	0x3d32a7a1	0.043616895
143	0xbcf55376	-0.029947024
144	0x3cc6c962	0.024265949
145	0xbcee95b8	-0.029124126
146	0xbb27f29b	-0.0025626782
147	0x3ca3b302	0.019982819
148	0xbb1e9bf8	-0.0024201851
149	0x3cc31f39	0.023818599
150	0x3c045118	0.008075975
151	0x3d3cfe1d	0.04614078
152	0x3c281241	0.010258258
153	0x3c7a1f4e	0.015266253
154	0xbb2ffda4	-0.0026854062
155	0xbd878192	-0.066165105
156	0xbd3b997e	-0.04580068
157	0xbc98eb34	-0.018666841
158	0xbc85268f	-0.016253738
159	0x3b47d443	0.0030491508
160	0xbd1462b3	-0.03622694
161	0xbc46cff2	-0.012134539
162	0xbc91d542	-0.017801885
163	0x3d31c7be	0.04340338
164	0xbbcef8ad	-0.0063162656
165	0xbc385618	-0.011250995
166	0xbcd43f4e	-0.025909092
167	0x3c054417	0.00813391
168	0xbcc70747	-0.024295462
169	0x3b3693fd	0.0027859204
170	0x3aa52c53	0.0012601711
171	0xbd500b68	-0.050792128
172	0x3c351719	0.01105287
173	0xbbc0c4ca	-0.005882834
174	0xbc1dcf19	-0.009631895
175	0x3c8001a7	0.015625788
176	0x3d2c371c	0.042044744
177	0xbc65a542	-0.014016451
178	0xb9ebd07f	-0.00044978035
179	0xbcef1566	-0.029185008
180	0x3cf8790f	0.030331163
181	0x3c8ba512	0.017046485
182	0xbd9882dd	-0.07446835
183	0xbcd5e31a	-0.026109267
184	0x3be96a57	0.0071232724
185	0xbc3383e8	-0.010956742
186	0x3d7ad3ae	0.06123703
187	0xbd154c54	-0.036449745
188	0x3d1516a0	0.03639853
189	0xbc804e27	-0.015662266
190	0x3bc35190	0.0059606507
191	0x3c8e45ab	0.017367205
192	0x3bf5ca73	0.0075009405
193	0xbafbcac6	-0.0019210211
194	0xbcca57bd	-0.02470004
195	0x3ce1086d	0.027469838
196	0x3c8d6252	0.017258797
197	0x3be1b573	0.0068880855
198	0x3c2b904f	0.010471418
199	0x3c23e418	0.010003112
200	0xbcb437dd	-0.021999294
201	0xbc3ce86f	-0.011530026
202	0x3b5e6025	0.0033931818
203	0x3cb75fc5	0.022384534
204	0x3be68740	0.007035166
205	0xbcb106a2	-0.021609608
206	0x3c3a4ff2	0.0113715995
207	0x3d4e1726	0.050315045
208	0x3ccf918d	0.025337959
209	0x3cbd24f6	0.023088913
210	0x3c04ac3d	0.008097705
211	0xbb9d2d9d	-0.0047966973
212	0xba5a2c23	-0.0008322617
213	0xbc33f328	-0.010983266
214	0xbc270e00	-0.010196209
215	0x3ae5eb14	0.0017541372
216	0x38c4cc51	9.384065e-05
217	0x3d3ca63c	0.04605697
218	0xbc23e8ad	-0.010004205
219	0x3cd04a31	0.025426002
220	0x3cb67a17	0.022275014
221	0xbd356963	-0.044289958
222	0x3bbcd93f	0.0057632024
223	0xbc87415c	-0.016510658
224	0x3d511097	0.051041212
225	0xbb70bf1b	-0.0036735001
226	0x3b3b10e6	0.0028544008
227	0x3ca056c0	0.019572616
228	0xbc36482e	-0.011125607
229	0x3c2092dc	0.009800639
230	0x3c8af195	0.016960898
231	0x3ba0272a	0.004887481
232	0x3b2ea78c	0.0026650159
233	0x3b4c357c	0.003115981
234	0xbb51cada	-0.0032011778
235	0xbc796a60	-0.015223116
236	0x3c4bc296	0.01243653
237	0x3c3ec3b2	0.011643337
238	0x3b3b9d05	0.0028627526
239	0xbd1fd604	-0.03902246
240	0x3a52511b	0.000802295
241	0x3b9e9381	0.004839361
242	0x3c4fcd0c	0.012683164
243	0xbd432cf5	-0.047650296
244	0x3b22962c	0.0024808748
245	0x3c8d4462	0.017244522
246	0x3c863e37	0.016387088
247	0xbc7bf7ad	-0.015378875
248	0xbc780d4e	-0.015139891
249	0xbd3c6bfe	-0.046001427
250	0xbcc73aee	-0.024320092
251	0xbb4011ff	-0.0029307602
252	0xba55f2ac	-0.0008161466
253	0x3d040cf2	0.032238908
254	0xbc81e18b	-0.015854618
255	0xbbdbf287	-0.006712261

weight f4 [8]
0	0x3f8954ff	1.0729064
1	0x3f8a4fa4	1.0805554
2	0x3f8cbcee	1.0995157
3	0x3f8be523	1.0929302
4	0x3f8c5736	1.0964115
5	0x3f8ec29f	1.1153144
6	0x3f863ab4	1.0486665
7	0x3f8303af	1.0235499

bias f4 [8]
0	0xbc85d53a	-0.016337026
1	0x3be042d8	0.006843906
2	0x3c5cff5d	0.013488618
3	0x3cba912e	0.022774305
4	0x3cae1bfa	0.021253575
5	0xbc7a78d7	-0.0152875995
6	0xbb1fe8f2	-0.002440032
7	0x3c36f975	0.011167874

running_mean f4 [8]
0	0xbe374012	-0.17895535
1	0xbdf88348	-0.12134415
2	0xbe0d42a9	-0.1379496
3	0x3c9d02c2	0.019166354
4	0xbde3bc04	-0.111198455
5	0x3dbd02ee	0.092290744
6	0x3cbbafaa	0.022910912
7	0xbe1f2c80	-0.15544319

running_var f4 [8]
0	0x3bdf4db1	0.0068146815
1	0x3b9b8378	0.004745897
2	0x3bd4f457	0.006498854
3	0x3c000097	0.007812641
4	0x3c550543	0.013001743
5	0x3bbc1dd1	0.005740859
6	0x3b80c719	0.0039299843
7	0x3ba738dc	0.0051032137

weight f4 [97, 8, 3, 3]
0	0xbcfaa832	-0.03059778
1	0xbbd7d513	-0.0065866797
2	0x3d220c6a	0.03956262
3	0x3b0ba60d	0.002130869
4	0xbcf47968	-0.029843047
5	0xbca695bb	-0.020335069
6	0x3c14f1f7	0.009090892
7	0xbd30ae25	-0.043134827
8	0xbcbb8564	-0.022890754
9	0x3c7e2d5d	0.015513745
10	0x3cd98951	0.026554735
11	0xbb08f443	-0.0020897544
12	0xbca85b1c	-0.020551257
13	0xbcc7b30b	-0.024377367
14	0xbd3e6382	-0.046481617
15	0x3ceadd4a	0.028669972
16	0xbc6b6a5a	-0.014368618
17	0x3ca77501	0.020441534
18	0x3d00ed4f	0.031476315
19	0x3cc1f701	0.023677351
20	0x3c6e5c7f	0.01454842
21	0x3c808316	0.015687507
22	0x3bd38086	0.00645453
23	0xbd1b0b6d	-0.037852693
24	0x3ce96b2c	0.028493486
25	0x3bcc811b	0.0062409765
26	0x3d0130c5	0.03154065
27	0x3d61d817	0.05513772
28	0x3d3c0591	0.045903746
29	0x3d81eca1	0.063439615
30	0x3ca900df	0.020630298
31	0x3d35fc45	0.044430036
32	0x3dc71b2a	0.09721978
33	0x3d4bac50	0.049724877
34	0xbc608f33	-0.013706016
35	0xbd28581d	-0.041099656
36	0x3d322995	0.043496687
37	0x3da1188f	0.07866012
38	0x3aac2e0e	0.0013136284
39	0x3c83d227	0.01609142
40	0xbcb8e1b1	-0.022568556
41	0x3d8bc1d8	0.06824082
42	0x3c2d81be	0.010590015
43	0xbcd9e279	-0.026597248
44	0x3c3ffeac	0.011718433
45	0xbb019aa6	-0.0019776016
46	0xbae8358f	-0.0017716157
47	0xbcc6bf37	-0.0242611
48	0x3c8aa2db	0.016923359
49	0xbcb067f1	-0.021533938
50	0xbc49662d	-0.012292427
51	0xbb028e88	-0.001992138
52	0x3cf1eee2	0.029532854
53	0xbc48ffa2	-0.012267979
54	0x3b8a595d	0.0042220787
55	0x3b39661d	0.0028289624
56	0xb970a1fe	-0.0002294853
57	0x3d284ce9	0.041088972
58	0x3c2605a1	0.010133178
59	0x3d636d72	0.055524297
60	0xbc45a8b5	-0.012064149
61	0x3b51d950	0.0032020397
62	0x3d16065f	0.03662717
63	0xbcecbdd9	-0.02889912
64	0x3a1c00b0	0.000595103
65	0x3c84cf7f	0.016212223
66	0xbd67fdfb	-0.0566387
67	0xbd39bb24	-0.045344487
68	0xbb5bc3cf	-0.003353346
69	0xbd95d959	-0.073168464
70	0xbcf0d8af	-0.029400198
71	0xbd1b6236	-0.037935458
72	0x3d131999	0.035913084
73	0x3ccd8955	0.0250899
74	0xbc93a785	-0.018024215
75	0xbd29db8b	-0.041469138
76	0xbd140644	-0.036138788
77	0xbccb23e8	-0.024797395
78	0x3cff33be	0.031152602
79	0xbc346d5e	-0.011012403
80	0x3b49ce40	0.00307931
81	0x3c535f94	0.012901206
82	0xbc359d5f	-0.0110848835
83	0x3c81fb19	0.015866803
84	0x3c671b0c	0.01410557
85	0xbd227694	-0.039663866
86	0xbd21ca18	-0.039499372
87	0x3b4797af	0.00304554
88	0x3c277ca3	0.010222587
89	0x3c6663b6	0.014061859
90	0x3d343836	0.04399892
91	0xbccf67c9	-0.025318043
92	0x3aa2ce87	0.0012421169
93	0x3c1b93b5	0.009495665
94	0xbc3dd4fa	-0.011586422
95	0xbc3f7540	-0.011685669
96	0x3c632e4c	0.0138660185
97	0x3ba5695c	0.00504796
98	0x3b2e1df2	0.0026568142
99	0x3c3492c5	0.011021321
100	0x3cf523ee	0.02992436
101	0xbcd8cca9	-0.026464777
102	0x3cac5037	0.021034343
103	0xbcfdc311	-0.030976804
104	0x3bdb314d	0.0066892267
105	0x3d833c38	0.0640797
106	0xbc8aeee1	-0.01695961
107	0xbd06efe7	-0.032943632
108	0x3cee271c	0.029071383
109	0x3cd54d60	0.026037872
110	0x3caa0c9a	0.020757962
111	0xbbf756db	-0.007548196
112	0x3d0fa512	0.035069533
113	0x3d1af155	0.03782781
114	0x3d2c6943	0.042092573
115	0x3b965c53	0.0045886426
116	0x3c8c37d9	0.017116474
117	0xbcf43ceb	-0.029814204
118	0x3d4a923b	0.049455862
119	0xbb638604	-0.003471733
120	0x3d53e924	0.051736012
121	0xbcbb1e9d	-0.022841746
122	0xbb891768	-0.0041836984
123	0xbcf5a95c	-0.029987983
124	0x34990724	2.8503666e-07
125	0x3ccf2368	0.025285438
126	0xbbd15614	-0.006388435
127	0xbce495e6	-0.027903508
128	0x3d458b88	0.04822877
129	0x3ca8a037	0.020584209
130	0xba88ce36	-0.0010437432
131	0xbb7a086f	-0.0038152
132	0xbc72ed5c	-0.014827099
133	0x3b3bf016	0.0028677038
134	0xbc6089b3	-0.013704705
135	0xbb798af6	-0.0038077212
136	0xbc99096d	-0.018681252
137	0x3cc8f105	0.02452899
138	0xbc992c2b	-0.018697819
139	0x3ce6a636	0.028155427
140	0xbaef7e8c	-0.0018271967
141	0xbd8406bd	-0.06446598
142	0xbc7ca41b	-0.015419985
143	0xbd730cf3	-0.05933852
144	0x3b631830	0.0034651868
145	0x3d040bf5	0.032237966
146	0xbc3e502d	-0.011615795
147	0x3bbe2f28	0.0058039613
148	0xbcbc992e	-0.02302226
149	0xbc72ac7d	-0.014811632
150	0xb9a4893a	-0.0003138276
151	0x3d8ab794	0.06773296
152	0x3ca1f3a4	0.019769497
153	0xbaad7703	-0.0013234321
154	0x3c74ddf9	0.0149455005
155	0xbc091fdc	-0.008369412
156	0x3bac33a4	0.0052551795
157	0x3d317129	0.04332081
158	0x3d607639	0.054800246
159	0xbba7df9a	-0.005123091
160	0x3c2f95a8	0.010716833
161	0xbb9816ae	-0.0046413755
162	0xbcb925bf	-0.022601007
163	0xbc133372	-0.0089844335
164	0xbcc83fbb	-0.024444452
165	0xbbf6eb52	-0.0075353766
166	0x3d5cdd2a	0.053921856
167	0x3c9be680	0.01903081
168	0x3b52e530	0.0032180063
169	0xbc3cc5fa	-0.011521811
170	0xbd4d5e35	-0.05013867
171	0xbc804000	-0.015655518
172	0x3c869b60	0.01643151
173	0x397f286f	0.00024333758
174	0x3be64a38	0.0070278905
175	0xbc96b9a5	-0.01839907
176	0xbc54848a	-0.012971053
177	0x3ca1760a	0.019709606
178	0xbc521d86	-0.012824422
179	0xbc84e06b	-0.016220292
180	0x3c5874a1	0.0132114
181	0x3b55636c	0.003256048
182	0x3b55d8b9	0.0032630397
183	0x3bd57324	0.00651397
184	0xbcc41ce4	-0.023939557
185	0x3a12261a	0.00055751356
186	0xbc4d57d5	-0.012533148
187	0x3c422348	0.011849232
188	0x3be6d672	0.007044607
189	0x3c92ec57	0.017934961
190	0x3b2f9cf5	0.0026796435
191	0xbcaa63dc	-0.02079957
192	0xbcb658e1	-0.022259178
193	0x3cc06983	0.023487812
194	0x3c1844ee	0.009293778
195	0x3c99eb0f	0.018788842
196	0x3b770725	0.0037693467
197	0x3a9b1ed3	0.0011834748
198	0x3b84f02f	0.0040569524
199	0xbcc23e36	-0.023711305
200	0x3c3755ab	0.011189858
201	0xbd1c579f	-0.0381695
202	0xbcbf097d	-0.023319954
203	0xbb6133d4	-0.0034363167
204	0x3ca6dc3b	0.020368686
205	0xbbd67c3a	-0.0065455707
206	0xbceb2485	-0.028703937
207	0x3bd6c067	0.006553698
208	0x3ca68966	0.020329189
209	0x3bb8a59a	0.0056349756
210	0x3cb0a180	0.021561384
211	0x3d1377b4	0.03600283
212	0xbcaed921	-0.02134377
213	0x3a00a5b2	0.0004907503
214	0xbab4c3dc	-0.0013791281
215	0x3c7b8e50	0.015353754
216	0xbc3ea596	-0.011636158
217	0xbcbfc2d0	-0.023408324
218	0xbca54596	-0.020174783
219	0x3a24a1da	0.0006280221
220	0xbc944b4c	-0.01810231
221	0x3c01a750	0.007913426
222	0x3d2d4d9f	0.042310353
223	0x3d08abee	0.03336709
224	0x3c4734ff	0.012158631
225	0x3d0b348e	0.033985667
226	0x3c8ba947	0.017048491
227	0xbc9b4cc2	-0.0189575
228	0x3c49b781	0.012311817
229	0xbc624a1e	-0.013811616
230	0x3ca5e0cc	0.020248793
231	0x3c499ddb	0.012305702
232	0xbcd4c561	-0.025973024
233	0x3ba0b035	0.004903818
234	0x3c0dbd92	0.008651154
235	0x3c6b6788	0.0143679455
236	0xbd135666	-0.035971068
237	0xbccdef48	-0.025138512
238	0x3cab600a	0.020919818
239	0x3cfa34fa	0.03054284
240	0xbc130c20	-0.008975059
241	0xbb0fdf01	-0.002195299
242	0x3cb9130d	0.022592092
243	0x3c9528b2	0.018207882
244	0x3d04535c	0.03230606
245	0xbbd90159	-0.006622475
246	0xbc12c721	-0.008958609
247	0xbc5ff67b	-0.013669605
248	0xbcf9cfd6	-0.030494612
249	0xbba80db9	-0.005128589
250	0x3c12d691	0.008962289
251	0x3d51f497	0.05125865
252	0xbcb88a15	-0.02252678
253	0xbc61aafb	-0.013773675
254	0x3ca2b598	0.019861981
255	0x3d12dfde	0.035858028

bias f4 [97]
0	0x3d4185d2	0.04724676
1	0xbc36231a	-0.011116767
2	0xbd8114ee	-0.0630282
3	0x3d8fac94	0.070153385
4	0xbd977d1e	-0.07396911
5	0xbc6ee1ab	-0.014580171
6	0x3d3e6911	0.046486918
7	0x3dda2ae1	0.1065271
8	0x3d0411a9	0.032243405
9	0xbda07738	-0.07835239
10	0xbcb766ca	-0.02238788
11	0x3b823293	0.003973314
12	0xbd1ea7f6	-0.0387344
13	0x3df766a4	0.12080124
14	0x3d4cae43	0.049970876
15	0xbd06fc42	-0.032955416
16	0xbd8580cb	-0.06518706
17	0x3daee124	0.08539036
18	0x3dc39f52	0.09551872
19	0xbcfff9ee	-0.031247105
20	0xbdb4aa88	-0.08821589
21	0x3dcd1a0f	0.10014736
22	0xbd8fd895	-0.070237316
23	0x3d9c2741	0.076246746
24	0xbc73b0f5	-0.014873733
25	0x3de845ca	0.11341436
26	0x3db3b564	0.08774832
27	0x3c992838	0.018695936
28	0x3c5d4c19	0.013506913
29	0x3db0afd0	0.086272836
30	0x3cacb70a	0.021083374
31	0x3dfe3d51	0.12414039
32	0xbd52aa43	-0.051431905
33	0x3d0036a4	0.03130211
34	0x3d5df66e	0.05419009
35	0x3d5477ce	0.051872067
36	0x3d58ab9f	0.052898046
37	0xbd352aac	-0.04423015
38	0xbccda592	-0.025103364
39	0xbd743036	-0.05961629
40	0xbcd9ff6e	-0.026611056
41	0x3dd35cb2	0.103204146
42	0x3d3e9f9e	0.04653894
43	0xbc318788	-0.010835536
44	0xbd67cf1f	-0.05659401
45	0x3d2a78c4	0.041619077
46	0x3deb4265	0.11487273
47	0x3d610e88	0.0549455
48	0xbdab9b01	-0.08379174
49	0xbd78f2fb	-0.0607786
50	0x3dbba928	0.09163123
51	0x3c124506	0.008927589
52	0x3e011e87	0.12609302
53	0x3dced28a	0.10098751
54	0xbd34b502	-0.044117935
55	0x3d6daaaa	0.058024086
56	0x3da54ad7	0.08070915
57	0xbc79fa8b	-0.015257488
58	0x3d5c3fd7	0.05377182
59	0x3e1b67e1	0.15176345
60	0x3ba3cc89	0.0049987477
61	0x3d0a038e	0.033694796
62	0x3daae223	0.083439134
63	0x3d8e4080	0.06945896
64	0x3cc36552	0.023852024
65	0x3b39733c	0.0028297445
66	0x3d425f03	0.04745389
67	0x3dba61f3	0.091007136
68	0x3de9ea3c	0.1142163
69	0xbd53fec9	-0.051756654
70	0xbd197f27	-0.037474778
71	0xbda8e75c	-0.08247253
72	0xbcd4153f	-0.025889037
73	0xbc9b6122	-0.018967215
74	0x3c77fca1	0.015135915
75	0x3d090168	0.033448607
76	0xbd23f211	-0.040025774
77	0xbcc040ff	-0.023468493
78	0xbd5e252c	-0.05423467
79	0x3ce81b75	0.028333405
80	0xbd80c84e	-0.06288205
81	0xbcf4fed1	-0.029906662
82	0xbdab22f8	-0.08356279
83	0xbd0d75fb	-0.034536343
84	0xbd994425	-0.07483701
85	0x3d609923	0.054833543
86	0x3c14053f	0.009034454
87	0xbdb87298	-0.09006232
88	0x3dba8951	0.09108222
89	0xbba4d38f	-0.0050301026
90	0xbd00c7cf	-0.031440552
91	0x3c238670	0.009980783
92	0xbd6b01a5	-0.057374615
93	0x3df32618	0.118725
94	0x3da8c6d8	0.082410514
95	0x3dd17327	0.10227042
96	0xbd4f0d89	-0.050550018
