loggers/h256_w256_bs20_in_channel1_epo100_lr0.0003/0512_0147/models/BasicModel_67.pth (torch, 40207 bytes, 17 tensors)

weight f4 [2, 1, 3, 3]
00000000: 70c5 6bbb ddbc aebc d34a b23a 1b68 283d
00000010: 671c e0b9 8c29 7cbb 5750 ae3c c6a2 1fbc
00000020: ab57 93bc 8e40 0f3c b819 96bb d611 d83c
00000030: f271 3dbd 72d5 dcba 1665 3cbc 480b d03c
00000040: c859 16bc 11c5 b2bc
-0.0035975836 -0.021330291 0.0013602622 0.041114908 -0.0004274577 -0.0038476912 0.021278543 -0.009743398
-0.01798614 0.008743418 -0.0045807026 0.026375692 -0.046251245 -0.001684828 -0.01149871 0.025396004
-0.009176679 -0.021822484

weight f4 [2]
00000000: c914 7a3f 415c 803f
0.97687966 1.0028154

bias f4 [2]
00000000: bfe5 cd3d 173c d63c
0.10053586 0.0261517

running_mean f4 [2]
00000000: c757 073e 9c9e fbbe
0.13217078 -0.49144447

running_var f4 [2]
00000000: 3bc9 253e c9e7 eb3e
0.16190045 0.46075276

weight f4 [4, 2, 3, 3]
00000000: c4de 22bd 245d d0bc d52a 553c 285e db3a
00000010: 6922 e8bc 9f76 c9ba 4ffb 193c 5925 1c3c
00000020: 5e39 2b3c b383 81bc 7d79 3cbd e2a9 4c3b
00000030: c8d3 283d 258a 76bc 9890 923b 7676 a43b
00000040: a63b 5fbb ec08 f63b 3e0a 1fbd 213d b03c
00000050: 3c66 2d3c c83b 6b3c 621f 65bb 53fc bcbc
00000060: ee09 6a3c d1ee 75bd 08f3 b3bb c83a 48bb
00000070: 59f1 0ebc c35e 0dbc 21d0 f23c 7555 023d
00000080: d5e3 8d3c 731f 183d 464a e53c 6904 e9bb
00000090: 09b0 c43c f229 4cbc f353 5ebc 9a17 3d3d
000000a0: 620b 94bc 43fb 703b d8a0 a7bb af90 963a
000000b0: 35f8 763c bcfe 83bc 1a78 71bc 12f8 413c
000000c0: 7bf9 97bc 73b0 8b3c d6f6 9d3c 78b6 c53b
000000d0: 51c1 2c3d 0244 c83b 23d4 f6bc c811 0cbc
000000e0: 79ce d43c d3fa d03b 0f8c 3bbd b1e5 c0bc
000000f0: 0027 06bd 7e9f 403c f8e0 7dbc 1991 4abc
00000100: 9f79 aabc e3bc 54bb 23fb 43bd 439d 46bb
00000110: a4c6 80bc 12f7 a03c abe1 463c 314b e7bb
-0.039763227 -0.025435038 0.0130107 0.0016736435 -0.02833672 -0.0015370435 0.009398296 0.009530389
0.010450689 -0.01580987 -0.046014298 0.0031229188 0.041217595 -0.015047585 0.0044728033 0.0050190045
-0.0034062653 0.007508388 -0.038828127 0.021513524 0.010583457 0.014357515 -0.0034961333 -0.023069536
0.014284594 -0.060042206 -0.005491618 -0.0030552614 -0.008724534 -0.00862855 0.02964026 0.03181978
0.017320553 0.037139367 0.027989518 -0.0071111214 0.024009721 -0.012461172 -0.01356982 0.046165086
-0.018071834 0.0036770857 -0.0051156096 0.0011487211 0.015073826 -0.016112678 -0.014738107 0.01183893
-0.018551579 0.017051911 0.01928274 0.006033715 0.04217655 0.006111623 -0.030130452 -0.008549161
0.02597736 0.006377557 -0.045787867 -0.023547025 -0.032752037 0.011756776 -0.015495531 -0.012363696
-0.020809947 -0.0032461218 -0.047846925 -0.0030306138 -0.01571972 0.019649062 0.012138764 -0.007058524

weight f4 [4]
00000000: 9fbc 893f caba 793f a0b3 763f 4131 863f
1.0760688 0.9755064 0.96367836 1.0483781

bias f4 [4]
00000000: 036e 023d f0db 80bd 3f7c 1a3d 81c3 c6bd
0.031843197 -0.0629195 0.037716147 -0.09705258

running_mean f4 [4]
00000000: 9dd3 92bd e40d 7d3c fa11 ba3d 2ec3 45be
-0.07169268 0.015445206 0.0908546 -0.19312736

running_var f4 [4]
00000000: 1d56 d93b 3633 2e3c 5908 8f3b 7817 613c
0.00663258 0.010632327 0.004365009 0.013738506

weight f4 [8, 4, 3, 3]
00000000: 40c0 c0bc 94aa 8d3c 6064 75bc bfe2 ce3b
00000010: 3c21 3cbd 4afd 3cbc 5c94 ca3c 08fb c0bc
00000020: 0134 3ebb 70e3 823c 8601 d33c 9b52 153c
00000030: 9ead 58bd 2253 063d e298 9a3c 8663 d53c
00000040: 7c3d debc 1159 893c 9d89 03bc b5e6 90bc
00000050: 7cd7 93bc 0502 e83b 7fec d53b 2452 c8bc
00000060: a54b 9d3a 1ce2 863b 0a9b ccbc 9b93 2bbc
00000070: b37e 27bd d004 b2bc c37d d73c d683 7b3c
00000080: 4b4d f5bb 051e 863c b62f ecbc 4f7d 6ebd
00000090: c76e 923c f473 e6bc feb5 01bb 7fa4 063c
000000a0: 45e5 0dbd ee00 b1ba 25d0 20bd 0027 93bb
000000b0: e429 723c 9027 903c 0def 253c 7476 4bbd
000000c0: 790a bdbb ab66 8b3c 193f 2a3c 6af2 78bc
000000d0: 9c17 b8ba 23d6 263c 41b6 c5ba c0a9 2ebc
000000e0: d302 01bc c786 023d 78c9 cabb 5b13 93bc
000000f0: 66de 04bc 1201 273c ccb9 343a cdb1 40bd
00000100: c873 f7bc c790 b13c 4fee ab3c 51c1 823d
00000110: bdfc 2fbd b762 953c 7435 a6bc 9da3 52bd
00000120: b47f b83c fa97 f0bb c12a 8dbc 6011 d0bc
00000130: 3eef 3bbd 8309 89bc e059 853c c466 2fbd
00000140: 9e8a 223d 815e 98bb bd8a 56bd 27ad b53b
00000150: 9019 9d3b 97a7 abbc acbf 0c3d 4bf1 f7bb
00000160: 389c 253c 474e 113c e8d7 98bc 0262 1ebc
00000170: fdb1 a93c 725d 5c3c 82b7 973c 6ab7 693a
00000180: 13ef d5bc 4b89 c1bb 5b46 5dbc 5d2b 89bc
00000190: 8bc5 ffbb 9532 bf3c 30dc 503d 9494 17bd
000001a0: 1282 6fbc 402a c33b a1bf 85bc cfc9 983c
000001b0: 2e24 d4bc 4138 03bb 88f1 943c 8b97 d33c
000001c0: 6178 1cbb 4494 443c 019a dabc d56d 80bb
000001d0: 48fe 07bd e311 483c a8eb e5bb 2b3d 3b3c
000001e0: fa7a 5ebb 75b2 3fbd b9c9 503b 8b05 013d
000001f0: ba17 683b e1de 54bc 5da8 e03b 74f9 5f3a
00000200: 72f1 493c 5cfc 243c 3c2c c1bc 0bbd a3bc
00000210: fcfe c43c 944e 59bc 076c f8bb ea13 d13c
00000220: 8ad2 a63c 022f 053d da4d 963c 8833 a8bb
00000230: 52a5 923b cae0 103d 5bab 313d 05a7 f1bc
00000240: cbe5 9f3c ad77 dbbc 933e a3bb 4c0a 6e3c
00000250: 157f 39bb 4516 ce3c 4561 5b3c 2583 3e3d
00000260: 3e0f f63b 887f 5f3c fb9b 0fbc 3e48 61bd
00000270: 63d7 43bd 3508 82bc 43d5 91bc 4026 8e3b
00000280: e413 1bbd b213 f2bb 1861 90bc 9ccc 263d
00000290: 4da3 bebb a19e 34bc d27c eebc b39b f63b
000002a0: 003e c6bc 9aa1 5e3b d281 ec3a d23a 42bd
000002b0: 4e30 083c 7fb9 91bb 6b64 edbb 5cfb 683c
000002c0: f434 1c3d 561c 9ebc 6b78 c1ba 36c6 c4bc
000002d0: b805 c33c 3f29 af3c 38bc 94bd fa63 dabc
000002e0: a4d2 993b 401a 34bc 0232 783d b588 02bd
000002f0: 79da 0a3d bab1 52bc 2a11 8c3b 5947 903c
00000300: 1d29 f43b a6a1 f139 29f1 dabc debb fa3c
00000310: b1e2 593c 8ef2 003c b0fb 3b3c 4399 1d3c
00000320: e103 afbc d0db 1ebc 392f 313b f5f2 b03c
00000330: 37ac 4f3b f4dd a1bc 1b46 3a3c bd32 463d
00000340: 85a5 a33c 6891 da3c fd8c 453c 301e 11bc
00000350: 3772 df3a c6d5 e8bb a83d 61bc d5ca 1c3a
00000360: b455 2ebb e064 3d3d 880c 3cbc 90af b93c
00000370: d6ca c53c 135d 27bd cbcd c93b 5d46 4dbc
00000380: 4bff 343d 3143 59bb f50a c43b 6138 b63c
00000390: e94c 1bbc f76c 0d3c 8ad3 7f3c 61b8 db3b
000003a0: ca77 073b 1595 183b fdea 3bbb deed 8abc
000003b0: 8a67 5c3c 994f 4d3c 71ca d43a 10ea 1bbd
000003c0: 8ee5 e83a 345a 8c3b a7bf 653c 8b28 22bd
000003d0: 8467 cf3a 7cb8 483c 0fd7 373c 07d8 6cbc
000003e0: f301 8ebc 7616 40bd 5db3 9bbc 8997 a0ba
000003f0: f307 ccba a1dd e93c 7301 6cbc d8dd 3fbc
-0.023529172 0.017293252 -0.014977545 0.0063136513 -0.045930132 -0.011534998 0.024728946 -0.023557201
-0.0029022696 0.015977591 0.025757562 0.009113933 -0.05289995 0.032794125 0.018871728 0.026048433
-0.027128927 0.016766103 -0.008028415 -0.017688135 -0.018047087 0.007080319 0.0065284367 -0.02445323
0.0012000693 0.00411631 -0.024976272 -0.010472204 -0.040892314 -0.02173081 0.026305085 0.015351256
-0.0074860207 0.016371736 -0.028831344 -0.058224972 0.017875088 -0.028131463 -0.0019792314 0.00821793
-0.034642477 -0.0013504305 -0.039261002 -0.004490733 0.014780495 0.01759699 0.010127795 -0.049673513
-0.0057690707 0.01701673 0.01039102 -0.015194515 -0.0014045122 0.01018289 -0.0015084223 -0.010660589
-0.0078742085 0.031866815 -0.0061885677 -0.017953565 -0.008109665 0.010193126 0.0006894141 -0.047044564
-0.030206576 0.02167548 0.020987658 0.063845284 -0.04296564 0.018235547 -0.02028916 -0.051425565
0.022521831 -0.007342336 -0.0172323 -0.02539891 -0.045882456 -0.016728168 0.016278207 -0.042822614
0.039682977 -0.0046499376 -0.052378405 0.005544323 0.004794307 -0.020953937 0.03436248 -0.007566606
0.010108046 0.00886876 -0.01865764 -0.009666922 0.020714754 0.0134500135 0.01852012 0.00089155755
-0.026114976 -0.005906259 -0.013505544 -0.01674431 -0.0078055314 0.02333955 0.050991237 -0.03700693
-0.0146184135 0.0059559643 -0.016326727 0.018650917 -0.025896158 -0.0020022544 0.018181577 0.025829097
-0.0023875462 0.01199824 -0.026684763 -0.003919343 -0.033201486 0.012211296 -0.007016618 0.011428158
-0.0033947811 -0.04680105 0.0031858517 0.031499427 0.0035414533 -0.012992592 0.006856008 0.00085439463
0.012325631 0.010069933 -0.023580663 -0.019987604 0.024047367 -0.013263363 -0.0075812372 0.025522191
0.020364065 0.032515533 0.01834767 -0.005133096 0.004475274 0.035370626 0.043376308 -0.029498586
0.019518754 -0.026790464 -0.0049818247 0.014528822 -0.0028304507 0.025157103 0.01338989 0.046511788
0.007509141 0.013641246 -0.008765216 -0.055000536 -0.04781283 -0.015873054 -0.017801886 0.004338056
-0.037860766 -0.007387602 -0.017624423 0.040722474 -0.005817807 -0.011024148 -0.029112253 0.007525885
-0.024199486 0.0033970834 0.001804406 -0.047419377 0.008312298 -0.0044471617 -0.007244637 0.014220085
0.038136438 -0.019300621 -0.0014760619 -0.024020296 0.023806438 0.021381972 -0.072624624 -0.026659
0.0046943 -0.010992587 0.060594566 -0.031868655 0.033899758 -0.012859756 0.004274507 0.017612146
0.00745119 0.0004608754 -0.026726322 0.03060716 0.013298676 0.00787033 0.011473581 0.00961906
-0.021364154 -0.009695962 0.0027036204 0.021600226 0.0031688341 -0.019759156 0.0113692535 0.04838823
0.019976387 0.026680663 0.01205754 -0.008857295 0.0017047588 -0.007105562 -0.01374761 0.0005981152
-0.0026601376 0.04623878 -0.011477597 0.022666723 0.024144571 -0.040860247 0.0061585656 -0.012528983
0.04418878 -0.0033151621 0.0059827515 0.02224368 -0.009478786 0.008631936 0.0156144 0.0067053293
0.0020670765 0.002328222 -0.0028674 -0.016959127 0.01345242 0.012531185 0.0016234649 -0.038065016
0.0017768608 0.004283214 0.014022744 -0.039589446 0.0015823697 0.012251016 0.011220708 -0.014455802
-0.017334914 -0.04689642 -0.019006426 -0.0012252192 -0.0015566334 0.028548064 -0.014404642 -0.0117106065

weight f4 [8]
00000000: ce92 843f 8a23 873f 7e17 863f 9dc0 883f
00000010: 031a 883f f765 883f af87 823f ef4a 803f
1.0357301 1.0557721 1.0475919 1.0683781 1.0632938 1.0656117 1.0197657 1.0022868

bias f4 [8]
00000000: 980f 1fbc 2c5a f03b acbb 4b3c d857 813c
00000010: c06f 763c ac4a 28bc 6ce9 56bb 9732 913c
-0.009708308 0.007334968 0.012434881 0.015788957 0.015041292 -0.010271709 -0.003279294 0.017724318

running_mean f4 [8]
00000000: b446 3ebe 9dc6 01be 6733 01be 947d ff3c
00000010: 4f6d ffbd c8de b73d 4642 cf3c a636 2cbe
-0.18581659 -0.12673421 -0.12617265 0.03118781 -0.12472021 0.08978039 0.025300156 -0.16817722

running_var f4 [8]
00000000: 5267 df3b 27d0 9f3b 3402 c53b aa7d fb3b
00000010: f788 5b3c 0a7a c23b e79b 823b fb24 a83b
0.0068177367 0.0048771086 0.0060122255 0.0076748924 0.013399354 0.0059349583 0.00398587 0.0051313615

weight f4 [97, 8, 3, 3]
00000000: 9bdf e7bc d42e dfba 1ed5 0d3d 11c6 17bc
00000010: 7397 08bd a9ee 8fbc 8d17 733c e085 1bbd
00000020: ceee 43bc f777 813c e362 023d cdef 85b7
00000030: a726 24bc ebd8 86bc 8a2d 30bd b9d0 f63c
00000040: 5455 10bc 508a 703c 96f5 033d 4763 923c
00000050: 1739 5d3c b230 923c deeb 293c 9dde 1bbd
00000060: f94c c23c f986 6fbb 6c2d 023d 8f69 473d
00000070: f2a3 353d 39f2 7b3d 444d cf3c 2d5b 253d
00000080: ebe2 ab3d d61a 453d a4ba cfbb 1293 15bd
00000090: 2b2f 183d cdf1 983d df7b 3a3a 26e6 8b3c
000000a0: 9332 b1bb 2d2c 593d bc73 f93b 8109 55bc
000000b0: feb1 513b 88ce 843c e0a5 82ba 078b c5bc
000000c0: 0e0e 263c 0fd5 57bc a6f3 b4bb 87ad c1ba
000000d0: 670d f73c eae6 d3bb 7e29 39bb 84a5 47bb
000000e0: fc54 b23b ddfd 173d bb45 523a 3893 403d
000000f0: 6843 3bbc b218 c2bb 3ba5 083d 3cf5 fbbc
00000100: b073 723b 3f06 933c b0ec 62bd 2b91 28bd
00000110: 71cf 89bb 64ab 71bd b220 adbc a7c8 12bd
00000120: 1b61 043d 2ee3 c53c fe44 9ebc 9313 47bd
00000130: 3b9b 3cbd c40e a3bc ec38 c23c dbc9 6ebb
00000140: c3fa 993b 3ed2 9e3c fb43 e9bb ec9f 923c
00000150: df1f c43c fb8a f6bc cee0 11bd a3fe be3b
00000160: 3216 c23b 05a1 ed3b 01cf 363d 43c2 d6bc
00000170: 1799 9cb9 be90 133c daed 43bc 38a2 f0ba
00000180: 07e7 893c 3606 7b3a 9dda 8d3b 60f0 883c
00000190: 52c2 d33c 63f3 d8bc 001d c53c 083c 04bd
000001a0: 795e 133b 8b81 713d 8385 f3bb b159 05bd
000001b0: b4d2 1a3d edc8 013d 3905 a53c dcf2 0fbc
000001c0: e243 2e3d 836e bb3c 85ee 093d fdbb 603b
000001d0: 7bc8 6b3c 16d9 95bc 4e7a 553d 2239 2139
000001e0: 5f8e 163d b705 94bc a1e6 d8bb 0f80 0fbd
000001f0: d8b2 2c3c fd0d 7c3c 2e3d ccbb af74 e4bc
00000200: da54 253d bdfd c03c adfd 57bb d1c9 28bb
00000210: e18d 79bc cc25 033b 3d49 23bc 5ed9 bebb
00000220: 9213 a4bc 3164 a03c 6028 58bc 25b9 d93c
00000230: 03fa e3bb ead9 79bd 9942 7abc 4ab4 7fbd
00000240: 2724 c73b 539d ff3c c1be 91bc 2e2e 053c
00000250: d8d3 12bc 7931 fabb 05da 50bc bf55 743d
00000260: 0890 ab3c fe42 ff3b e9b0 723c 4318 47bc
00000270: 5023 a63b e22b 263d cb49 423d de94 a7bb
00000280: 04a5 e93b b2ee 93bb 8972 bebc 5e06 1bbc
00000290: 0147 96bc 145e a9bb 7f9e 253d 881e 7d3c
000002a0: a04b 673b d108 febb 6c6f 2bbd 8e0e 94bb
000002b0: 336e 913c bd47 93bb d1ab 9a3b 0d13 88bc
000002c0: e207 9fbc e534 a03c d138 5dbc ad26 b8bb
000002d0: 5073 a63c 7a93 dbba e297 7c3b 14c7 c13b
000002e0: 4f73 3ebc 16e4 8cbb 1451 20bc c69f 78bb
000002f0: cfe8 e83b 744c 793c aa15 2e3a fca5 cdbc
00000300: 221f b6bc 9c90 683c 0531 403c 633c 6b3c
00000310: f9ff 063c 7242 563b 7925 cfb9 1ad4 88bc
00000320: 8390 c73b b079 f1bc b37e debc 6d88 8b3a
00000330: aec9 a03c b8b1 8cbb 04a8 06bd d85b 2d3b
00000340: e512 b43c 7512 143c 5b5f 8d3c 462f f53c
00000350: e836 89bc be29 df3b beff 8eba 7563 b13c
00000360: bb0c 68bc 8099 a4bc 86f6 a2bc 7cab 583b
00000370: 8713 a4bc 1b67 e83b 105b 163d e621 283d
00000380: 6497 c53b 6112 f23c 52c1 a83c 7533 48bc
00000390: e51d c03b d036 41bc 523a 5c3c e4fe d83b
000003a0: f4f4 b7bc 01ca 84bb 5691 a8b9 617a 6c3c
000003b0: 4f91 0ebd 3d4f 84bc adf4 8c3c 7909 fc3c
000003c0: c455 efbb 2959 39bb e100 d63c 1edd 793c
000003d0: 0770 fb3c 63de ecbb 5291 eabb dacf 4dbc
000003e0: 5519 d9bc 7f37 11bb d0f7 913b 3273 393d
000003f0: 68ea acbc 58d6 96bc cc85 ae3c acbe 0f3d
-0.028304866 -0.0017027506 0.034627073 -0.009263531 -0.03334756 -0.017569857 0.014837158 -0.03796947
-0.011958791 0.015804274 0.031832587 -1.5966501e-05 -0.010018981 -0.016460856 -0.04301218 0.030128824
-0.008809406 0.014681414 0.03221663 0.017869605 0.013502381 0.017845485 0.0103711765 -0.038054097
0.023718344 -0.0036548956 0.0317816 0.048684653 0.044345804 0.0615103 0.025305398 0.040370155
0.083928905 0.048121296 -0.006339388 -0.03651721 0.037154358 0.07467995 0.0007113795 0.017077517
-0.0054076402 0.053020645 0.0076126736 -0.013002754 0.003199696 0.016211763 -0.0009967647 -0.024114145
0.010135187 -0.013173356 -0.005522209 -0.0014776447 0.030157758 -0.006466736 -0.002825349 -0.0030463645
0.00544226 0.037107337 0.0008021255 0.0470154 -0.011429645 -0.005923354 0.0333607 -0.030756585
0.0036995225 0.017947314 -0.055401504 -0.041154068 -0.004205637 -0.05900134 -0.021133754 -0.03583589
0.03231917 0.02415618 -0.019320007 -0.04860265 -0.046046477 -0.019904502 0.023708783 -0.0036436233
0.0046990826 0.01938736 -0.0071186996 0.017898522 0.023940979 -0.030095568 -0.03561478 0.005828695
0.005923056 0.007251861 0.044631008 -0.026215678 -0.000298687 0.009006677 -0.011958564 -0.0018358892
0.016833795 0.00095758156 0.0043290392 0.016716182 0.025849495 -0.026483243 0.02406168 -0.032283813
0.002248673 0.058961432 -0.0074316873 -0.03255624 0.0377986 0.03168576 0.020144092 -0.0087859295
0.042545207 0.022879845 0.033674736 0.0034291737 0.01439106 -0.018291991 0.052118592 0.0001537544
0.03675687 -0.018069131 -0.00661929 -0.035034236 0.010540687 0.015384194 -0.006232879 -0.02788767
0.040364124 0.023558492 -0.00329576 -0.0025755058 -0.0152315805 0.0020011542 -0.009966192 -0.005824252
-0.020028863 0.019579025 -0.01319322 0.026577542 -0.006957294 -0.060998835 -0.015274667 -0.062427796
0.0060773077 0.031202948 -0.017791154 0.008128686 -0.00896164 -0.007635292 -0.012747292 0.059652086
0.020942703 0.0077899685 0.0148126865 -0.012151781 0.0050701275 0.040569194 0.047433656 -0.005114182
0.007130267 -0.0045145387 -0.023247974 -0.009461967 -0.018344404 -0.0051686857 0.040434357 0.015449174
0.0035292879 -0.007752516 -0.041854307 -0.0045183366 0.017752742 -0.004494636 0.004720189 -0.016610647
-0.019412939 0.019556472 -0.013502316 -0.005619845 0.020318657 -0.0016752325 0.0038542678 0.0059136245
-0.011624171 -0.004299651 -0.0097849555 -0.003793703 0.007107831 0.015215982 0.00066408014 -0.025103562
-0.022231642 0.014194634 0.011730437 0.014357659 0.00823974 0.0032693413 -0.00039510036 -0.0167027
0.006090225 -0.02947697 -0.027160024 0.0010645516 0.019627418 -0.0042936467 -0.032875076 0.0026452448
0.021981666 0.009037604 0.017257383 0.029929768 -0.016749814 0.006810396 -0.0010909957 0.02165387
-0.014163191 -0.020092726 -0.019892942 0.0033061197 -0.020028843 0.0070923693 0.036707938 0.041047953
0.00603001 0.02954978 0.020599995 -0.0122193 0.0058629387 -0.0117928535 0.013441639 0.006622182
-0.02245567 -0.004052401 -0.0003215174 0.014433474 -0.034806546 -0.016151065 0.017206514 0.030766236
-0.007303925 -0.0028281903 0.026123466 0.015250472 0.030693067 -0.007228659 -0.007158437 -0.012561763
-0.026501337 -0.0022158322 0.0044545904 0.045275874 -0.021107867 -0.018412754 0.021304034 0.03509395

bias f4 [97]
00000000: bc73 223d a5ce 89bc 6240 80bd 96ac 8a3d
00000010: 0588 9ebd 8f6f 8abc 1516 503d f69e dc3d
00000020: 540f 023d 7289 9ebd 3434 f8bc fae9 d7ba
00000030: 5f3c 15bd 6169 f43d efe8 513d 405c 03bd
00000040: 1361 82bd 734c af3d 6874 c33d 611d 11bd
00000050: b1e4 bebd 52b8 cf3d 81c2 90bd e7cf 9d3d
00000060: 1ff0 afbc eeee ec3d 8bed b53d 9e07 853c
00000070: 3dfa 423c 4951 aa3d 92af a43c 4adf ff3d
00000080: caf7 4abd 7b7a f73c a196 553d 20e5 433d
00000090: 9ef6 463d 4059 4fbd 0eb6 acbc c9db 81bd
000000a0: 8dae d2bc c219 d23d 7a6f 443d 7041 23bc
000000b0: 0c82 75bd e375 1e3d 5147 e13d 2365 5d3d
000000c0: ccac a9bd 6dc9 85bd 7fc2 c63d 04b9 d23b
000000d0: 9618 fc3d 8b43 d33d ec80 50bd 73a9 663d
000000e0: a083 a13d beea 6cbc 3bad 5b3d 214f 143e
000000f0: a946 8f3b b51b 003d 9ce1 a63d 075f 853d
00000100: 1f4b af3c 5b40 e83b f731 373d 9f47 b23d
00000110: 3a1b e03d 4247 58bd 0b35 22bd 7487 a7bd
00000120: a929 aabc 3e1c 61bc 38cf 073c aa0c f33c
00000130: 136e 2abd b104 d6bc f22d 4fbd dec0 cb3c
00000140: 0977 83bd db37 0dbd f8b2 b3bd b98d 19bd
00000150: eef3 94bd b5da 483d a80f f83b 745e c3bd
00000160: 0cda c03d 52cd 22bc 172f 02bd 9fb5 113c
00000170: 8a14 71bd 775c f03d 8e00 a83d dfad cb3d
00000180: dbda 67bd
0.039661154 -0.016822169 -0.0626228 0.067711994 -0.077407874 -0.016898898 0.05080231 0.10772507
0.0317529 -0.07741059 -0.03029833 -0.0016472929 -0.036434527 0.11934162 0.051247533 -0.0320704
-0.06366172 0.085595034 0.09543687 -0.03542841 -0.09320963 0.10142578 -0.07068349 0.0770567
-0.021476803 0.1156901 0.08883198 0.016238984 0.011900482 0.08316285 0.02010325 0.12493761
-0.049552716 0.03020977 0.052145604 0.047825933 0.048575036 -0.050622225 -0.021082904 -0.06340749
-0.025717998 0.10258819 0.047957875 -0.009964332 -0.059938475 0.038686644 0.10999931 0.05405153
-0.082849115 -0.065325595 0.09705066 0.006430747 0.12309377 0.10315617 -0.0509042 0.056313943
0.078864336 -0.014460264 0.053632002 0.1448331 0.004372437 0.031276423 0.081485 0.06512266
0.021398125 0.00708775 0.044725385 0.08705067 0.10942693 -0.05280233 -0.039601367 -0.081801325
-0.020771818 -0.013739644 0.008289151 0.029669125 -0.04160888 -0.026125284 -0.050580926 0.02487224
-0.064191885 -0.034477096 -0.0877437 -0.037488673 -0.072730884 0.0490367 0.0075702257 -0.095395
0.09416589 -0.0099366475 -0.03178319 0.0088933995 -0.05885748 0.11736386 0.08203231 0.09945273
-0.0566052
