loggers/h256_w256_bs20_in_channel1_epo100_lr0.0003/0512_0147/models/BasicModel_41.pth (torch, 40207 bytes, 17 tensors)

weight f4 [2, 1, 3, 3]
0	0xbb5a9b93	-0.003335689
1	0xbc9d671e	-0.01921421
2	0x3afc8dd1	0.0019268339
3	0x3d1b86dc	0.03797041
4	0xb9e250b2	-0.00043166202
5	0xbb57927c	-0.0032893708
6	0x3ca73faa	0.0204161
7	0xbc219dcd	-0.009864283
8	0xbc7f5259	-0.015583598
9	0x3bdcce93	0.0067384928
10	0xbb753e0b	-0.0037421014
11	0x3ccc8fa3	0.024970835
12	0xbd3a3a63	-0.04546584
13	0xb986effa	-0.00025737268
14	0xbc31172f	-0.01080875
15	0x3cc76b9d	0.024343306
16	0xbc0a1643	-0.008428159
17	0xbcb772b6	-0.022393566

weight f4 [2]
0	0x3f7b1712	0.9808208
1	0x3f80c0c5	1.0058829

bias f4 [2]
0	0x3d88d67e	0.06681536
1	0xba080220	-0.0005188305

running_mean f4 [2]
0	0x3de55082	0.11196996
1	0xbefdf515	-0.49601045

running_var f4 [2]
0	0x3e065551	0.13118483
1	0x3ed9f7bd	0.42571822

weight f4 [4, 2, 3, 3]
0	0xbd1417b1	-0.036155406
1	0xbcc8fa9a	-0.024533559
2	0x3c4e41fc	0.012588974
3	0x3986b39a	0.00025692285
4	0xbcda1111	-0.026619466
5	0xba297404	-0.0006464126
6	0x3c17f348	0.009274311
7	0x3c239647	0.009984559
8	0x3c1f1ed5	0.009711941
9	0xbc908f87	-0.017646564
10	0xbd3058b2	-0.043053336
11	0x3b722bca	0.003695237
12	0x3d27150d	0.04079156
13	0xbc7a82a8	-0.01528994
14	0x3b5eb594	0.003398274
15	0x3b8243aa	0.0039753513
16	0xbb164dbc	-0.0022934517
17	0x3c19e97d	0.009394047
18	0xbd12b079	-0.03581283
19	0x3c96f2fb	0.018426409
20	0x3c277834	0.01022153
21	0x3c5cb87d	0.01347172
22	0xbb3896c7	-0.0028166042
23	0xbcbba1ec	-0.022904359
24	0x3c73f3d4	0.014889676
25	0xbd7862ca	-0.060641088
26	0xbb400783	-0.0029301352
27	0xbbbb4f43	-0.005716236
28	0xbc0ac8de	-0.008470742
29	0xbbcd3245	-0.006262096
30	0x3cdd310c	0.027000926
31	0x3d08a22d	0.033357788
32	0x3c656e96	0.0140034165
33	0x3d206c04	0.03916551
34	0x3cc8f41e	0.024530467
35	0xbbfcc4b4	-0.0077138785
36	0x3cb9e5df	0.022692619
37	0xbc238809	-0.009981164
38	0xbc6187fc	-0.013765331
39	0x3d321c8d	0.04348426
40	0xbc8dd56e	-0.017313685
41	0x3b574416	0.003284698
42	0xbb8fd4f5	-0.0043894
43	0xbab1e6e5	-0.001357284
44	0x3c808913	0.015690362
45	0xbc913273	-0.017724251
46	0xbc436c52	-0.011927681
47	0x3c804ed0	0.01566258
48	0xbcc13f9e	-0.023589905
49	0x3cb933a0	0.022607625
50	0x3c4180fa	0.011810536
51	0x3b9f3b7c	0.004859386
52	0x3d1b0d87	0.037854698
53	0x3bddef69	0.0067729247
54	0xbcf42609	-0.029803293
55	0xbbfcac58	-0.0077109747
56	0x3cc18ef6	0.02362774
57	0xba128cf5	-0.0005590462
58	0xbd2ee173	-0.042695474
59	0xbcb030a3	-0.021507567
60	0xbcf6b0ad	-0.030113542
61	0x3c641a9b	0.013922359
62	0xbcabbdb4	-0.020964481
63	0xbc721c12	-0.0147772
64	0xbc896127	-0.016769959
65	0xbbd13b12	-0.0063852156
66	0xbd42a77a	-0.047523
67	0xbb571a68	-0.0032822136
68	0xbc83ae9c	-0.016074471
69	0x3ca4219f	0.020035563
70	0x3c2c71c7	0.0105251735
71	0xbbf9bced	-0.0076213987

weight f4 [4]
0	0x3f88f104	1.0698552
1	0x3f7b8792	0.9825374
2	0x3f7960fc	0.9741361
3	0x3f85c5f2	1.0451033

bias f4 [4]
0	0x3c258c93	0.010104316
1	0xbcc458c0	-0.0239681
2	0x3d13a599	0.036046598
3	0xbd8204d9	-0.06348581

running_mean f4 [4]
0	0xbd8072b2	-0.062718764
1	0x3c527460	0.012845129
2	0x3da78a4b	0.08180674
3	0xbe456d7e	-0.19280049

running_var f4 [4]
0	0x3bbb1ba2	0.005710081
1	0x3c1e4cfd	0.00966191
2	0x3b761d47	0.0037554072
3	0x3c5d61bd	0.013512072

weight f4 [8, 4, 3, 3]
0	0xbc9e28b1	-0.019306513
1	0x3c8430c5	0.016136536
2	0xbcd024ee	-0.025408234
3	0x3a44505d	0.00074887817
4	0xbd2b009d	-0.04174863
5	0xbc6b4346	-0.014359301
6	0x3cea5a9e	0.028607663
7	0xbccb8e85	-0.024848232
8	0x3b338799	0.0027394055
9	0x3c98e6b9	0.018664705
10	0x3cbc99ce	0.023022559
11	0xbb1a989e	-0.0023589502
12	0xbd423efc	-0.047423348
13	0x3d08a34a	0.03335885
14	0x3c9dad78	0.019247755
15	0x3cbf6012	0.02336124
16	0xbcb2db92	-0.021833215
17	0x3c3edcd5	0.01164933
18	0xbbb20210	-0.005432375
19	0xbc9420fc	-0.018082134
20	0xbcc175a0	-0.023615658
21	0x3c254259	0.010086619
22	0xb89d5ffb	-7.504221e-05
23	0xbcb8bd30	-0.02255115
24	0xba0a2f25	-0.00052713073
25	0x3b918333	0.004440689
26	0xbcc1306a	-0.023582656
27	0xbc00ff31	-0.007873342
28	0xbd2c8b88	-0.042125255
29	0xbbcdd1ee	-0.006281129
30	0x3cb7ee27	0.022452427
31	0x3c719246	0.014744347
32	0xbc53330f	-0.012890591
33	0xbae27b1a	-0.0017279119
34	0xbd074a00	-0.033029556
35	0xbd69c5f5	-0.057073552
36	0x3c6e5aac	0.014547985
37	0xbd166abc	-0.036722884
38	0x3b161172	0.0022898582
39	0x3c0766b4	0.008264232
40	0xbd03d45a	-0.032184936
41	0xba5ec7c6	-0.00084983965
42	0xbd0431dc	-0.032274112
43	0xbb615205	-0.0034381163
44	0x3c3a823b	0.011383588
45	0x3bbb9aac	0.0057252254
46	0x3c4b7a88	0.01241935
47	0xbd53d418	-0.05171594
48	0x3b27b678	0.0025590938
49	0x3c839c43	0.016065722
50	0x3c0549d0	0.008135274
51	0xbc57286b	-0.013132195
52	0xbaca165b	-0.0015418039
53	0x3bd02b59	0.0063528237
54	0xb81fe42d	-3.812106e-05
55	0xbc6e1768	-0.014531948
56	0xbbf7c9cf	-0.0075618993
57	0x3ce9bac2	0.028531436
58	0xbc14ff48	-0.009094067
59	0xbc87ef83	-0.0165937
60	0xbbfc02ab	-0.0076907477
61	0x3c1bfe75	0.0095211165
62	0x3a02e54b	0.0004993274
63	0xbd2d40c3	-0.04229809
64	0xbd0f898f	-0.035043295
65	0x3c9a6bc9	0.018850224
66	0x3c9e916d	0.019356454
67	0x3d3ebc33	0.0465662
68	0xbd0588a9	-0.032601032
69	0x3c0601ce	0.008179141
70	0xbcbea74f	-0.023273138
71	0xbd361d23	-0.04446138
72	0x3c8f4052	0.017486725
73	0xbbfb0916	-0.0076609952
74	0xbc1afc65	-0.00945959
75	0xbcf2ca67	-0.029637529
76	0xbd2f02d0	-0.04272729
77	0xbcacdadb	-0.021100452
78	0x3c2f17e0	0.010686845
79	0xbd3f1d7a	-0.04665897
80	0x3d140ec4	0.036146894
81	0xbc55a279	-0.013039225
82	0xbd1639aa	-0.036676086
83	0xbb0733f4	-0.0020630332
84	0x3bebc0a1	0.007194594
85	0xbca715a2	-0.020396058
86	0x3d18fe42	0.037351854
87	0xbbe7984a	-0.007067715
88	0x3c39631a	0.011315132
89	0x3c3720dd	0.011177269
90	0xbc64932d	-0.013951105
91	0xbc3ce522	-0.011529239
92	0x3caf7dbc	0.02142226
93	0x3c5edbf9	0.01360225
94	0x3c8d1cae	0.01722559
95	0xbb44b9d5	-0.003001799
96	0xbcc89261	-0.024483861
97	0xbb3c9ccb	-0.002877998
98	0xbc6ba3de	-0.014382331
99	0xbbacae0f	-0.005269773
100	0xbc3bec04	-0.011469845
101	0x3c8f2f2b	0.017478546
102	0x3d5983d8	0.05310425
103	0xbd1b3138	-0.037888736
104	0xbc22c02b	-0.009933512
105	0x3beb8fc3	0.0071887686
106	0xbc0c92e2	-0.0085799415
107	0x3c9e8459	0.019350218
108	0xbcb10052	-0.021606598
109	0xbb6c8bbd	-0.0036094033
110	0x3c8aa2c8	0.016923323
111	0x3d00d3ad	0.03145187
112	0xbc0395b7	-0.0080313
113	0x3c387862	0.01125917
114	0xbcbcdb6e	-0.023053851
115	0x3b21d45c	0.0024693226
116	0xbcd9e8cc	-0.026600264
117	0x3c55eeb1	0.013057397
118	0xbc06a479	-0.008217924
119	0x3c6a7414	0.014309902
120	0xba05bce7	-0.0005101696
121	0xbd44e800	-0.048072815
122	0x3b3372bb	0.0027381617
123	0x3d0010fe	0.031266205
124	0x3b937db0	0.004501067
125	0xbc4cd97d	-0.012503025
126	0x3bf82079	0.0075722304
127	0xba4b0daa	-0.00077458716
128	0x3c0bfb7f	0.008543848
129	0x3bfa6ae7	0.0076421383
130	0xbca314ea	-0.019907434
131	0xbcb4e0a6	-0.022079777
132	0x3cbea9dc	0.023274355
133	0xbc4dc710	-0.012559667
134	0xbbd11802	-0.006381036
135	0x3c818a4a	0.015813012
136	0x3c8cc4f6	0.017183762
137	0x3d184d86	0.037183307
138	0x3c7fa29c	0.015602734
139	0x3a0a01dd	0.000526456
140	0x3bc67ebf	0.00605759
141	0x3d1e0f7d	0.03858899
142	0x3d296886	0.041359447
143	0xbcd3ac5d	-0.025839025
144	0x3c3d592a	0.011556903
145	0xbc824a29	-0.015904503
146	0xbc365eec	-0.01113103
147	0x3c2f02f8	0.01068186
148	0xbac0eb1d	-0.0014718507
149	0x3cbe5c7b	0.023237457
150	0x3cb8f0bc	0.022575729
151	0x3d2ecd1d	0.04267608
152	0x3c39f299	0.011349344
153	0x3baa7929	0.0052024317
154	0xbc49f1d4	-0.012325723
155	0xbd28a661	-0.041174296
156	0xbd4e7bd1	-0.05041105
157	0xbcd1e8e0	-0.025623739
158	0xbc9ce8ad	-0.019153917
159	0xba0d312e	-0.00053860515
160	0xbd127da5	-0.035764355
161	0xbc1f3d6b	-0.009719233
162	0xbc8cca13	-0.0171862
163	0x3d251c4f	0.0403102
164	0xbc2a6d9d	-0.01040211
165	0xbc3cf2a0	-0.011532456
166	0xbd125f52	-0.035735436
167	0x3c0c4121	0.00856045
168	0xbcac11d4	-0.021004595
169	0x3b679c7f	0.0035341082
170	0x3a12a0f3	0.00055934413
171	0xbd280596	-0.041020952
172	0x3b6a9006	0.003579141
173	0xbbf00ce3	-0.007325755
174	0xba08f5bb	-0.0005224605
175	0x3c6e55a4	0.0145467855
176	0x3d08e704	0.03342344
177	0xbcbcf52e	-0.02306613
178	0xbb274c40	-0.0025527626
179	0xbc116353	-0.008873778
180	0x3c9445ce	0.018099692
181	0x3cd56506	0.026049148
182	0xbd86d8c7	-0.06584316
183	0xbcde7970	-0.027157515
184	0x3c1018f6	0.008795014
185	0xbc8b987e	-0.017040487
186	0x3d6b7bf9	0.057491276
187	0xbcf0090e	-0.029301193
188	0x3d04dc15	0.03243645
189	0xbb99a717	-0.004689108
190	0x3b7ab72a	0.0038256147
191	0x3c7d83e9	0.015473344
192	0x3c3f7063	0.01168451
193	0xba8dea5f	-0.0010827294
194	0xbcd6c658	-0.026217625
195	0x3d0ee009	0.034881625
196	0x3c50b545	0.0127385305
197	0x3c0b11be	0.008488117
198	0x3c40c996	0.011766812
199	0x3bfac12a	0.0076524215
200	0xbca903b2	-0.020631645
201	0xbc05228f	-0.008125915
202	0x3ab95805	0.0014140612
203	0x3cac8661	0.02106017
204	0x3a8a344b	0.0010544149
205	0xbc9ee831	-0.019397827
206	0x3c2e7806	0.010648733
207	0x3d2acae1	0.041697387
208	0x3c40dbee	0.011771185
209	0x3cf81766	0.030284595
210	0x3c26c975	0.010179867
211	0xbc886355	-0.016648928
212	0x3bc33582	0.0059573064
213	0x3b6c3302	0.0036041145
214	0xbca70fc6	-0.020393264
215	0x39684f7d	0.00022154856
216	0xbb006b33	-0.0019595146
217	0x3d335ed3	0.043791603
218	0xbc9246ef	-0.01785609
219	0x3ca0488a	0.01956584
220	0x3ca94dc8	0.020666972
221	0xbd0d44e0	-0.034489512
222	0x3bbdfa78	0.0057976805
223	0xbb8fcd96	-0.0043885214
224	0x3d0a4e46	0.033766054
225	0xba6457c5	-0.00087105884
226	0x3bd52587	0.0065047177
227	0x3cbad25e	0.022805389
228	0xbbca643a	-0.0061764987
229	0x3c1dd52a	0.009633342
230	0x3c6f4fb6	0.014606407
231	0x3c45f11f	0.0120814135
232	0xb943d4b9	-0.00018675895
233	0x3b77ec1f	0.0037829948
234	0xbaee1715	-0.0018164838
235	0xbca1abc5	-0.019735226
236	0x3c88f185	0.016716728
237	0x3c2a50b1	0.010395215
238	0x3b208c1c	0.0024497574
239	0xbd1ccc55	-0.038280804
240	0x3b5a8478	0.0033343118
241	0x3ad33b9f	0.0016115791
242	0x3c6d0669	0.01446686
243	0xbd06f98d	-0.032952834
244	0xbb48587f	-0.0030570326
245	0x3c7ebd9e	0.015548138
246	0x3b0150b8	0.001973195
247	0xbc08e804	-0.008356098
248	0xbcae8192	-0.021302018
249	0xbd3a016e	-0.04541152
250	0xbc133f92	-0.008987324
251	0xbbb14ae8	-0.005410541
252	0x3b63faba	0.0034786896
253	0x3cc6d46b	0.02427121
254	0xbc607846	-0.01370055
255	0xbc7d859e	-0.015473751

weight f4 [8]
0	0x3f7e38cb	0.9930541
1	0x3f825b4f	1.0184115
2	0x3f7c38d9	0.9852424
3	0x3f85724a	1.0425503
4	0x3f837746	1.0270774
5	0x3f81be37	1.0136174
6	0x3f7bab1d	0.98307973
7	0x3f7aa6e2	0.9791089

bias f4 [8]
0	0xbb2963b5	-0.0025846784
1	0x3bee087a	0.007264194
2	0x3c47cd4c	0.012194943
3	0x3c267e44	0.01016194
4	0x3b9dc0ad	0.0048142285
5	0xbb0d0be4	-0.002152198
6	0xbba0b188	-0.004903976
7	0x3cb602d6	0.02221815

running_mean f4 [8]
0	0xbe58a5ed	-0.21157046
1	0xbe234fa6	-0.15948352
2	0xbdee4e58	-0.11636037
3	0x3d527786	0.051383518
4	0xbe1c0f40	-0.15240192
5	0x3db8b86d	0.090195514
6	0x3cec3c10	0.028837234
7	0xbe445b9f	-0.19175576

running_var f4 [8]
0	0x3c06d9a7	0.008230603
1	0x3bbb0dff	0.0057084556
2	0x3bc40738	0.005982306
3	0x3c01306c	0.00788508
4	0x3c837aa0	0.016049683
5	0x3bdc8133	0.006729269
6	0x3b8492b8	0.0040458106
7	0x3bada917	0.005299698

weight f4 [97, 8, 3, 3]
0	0xbcc0206f	-0.023452966
1	0x3bb01f09	0.0053747934
2	0x3d067d9b	0.03283463
3	0xbc9a38a6	-0.01882584
4	0xbccea890	-0.025226861
5	0xbc3f9f7a	-0.011695737
6	0x3ca144cb	0.019686123
7	0xbce27203	-0.027642256
8	0x3b6fe0fb	0.0036602605
9	0x3c8092ad	0.01569494
10	0x3d0dc001	0.034606937
11	0xb957d395	-0.00020582818
12	0xbbdf6654	-0.0068176184
13	0xbb6b94a2	-0.0035946746
14	0xbd16e5f5	-0.036840398
15	0x3cb58473	0.022157883
16	0xb9f94aa7	-0.000475486
17	0x3c022a7d	0.0079447
18	0x3ceb965a	0.028758217
19	0x3c5ef1cc	0.013607454
20	0x3c24932a	0.010044852
21	0x3c6b4311	0.014359252
22	0x3c29babb	0.010359461
23	0xbd1c21c2	-0.03811813
24	0x3c5c5444	0.013447825
25	0xbc8d342a	-0.017236788
26	0x3cf0e910	0.029408008
27	0x3d25689a	0.04038296
28	0x3d330c8e	0.043713145
29	0x3d5cef4b	0.053939145
30	0x3ce46372	0.02787945
31	0x3d0aa1b5	0.033845622
32	0x3d7e7f79	0.062133286
33	0x3d42fa75	0.047602136
34	0x3b5ce83f	0.0033707765
35	0xbceac3ad	-0.028657759
36	0x3d01f63c	0.031728968
37	0x3d9003e0	0.07031989
38	0xbad1909e	-0.0015988534
39	0x3c9a843f	0.018861888
40	0x3c9066e0	0.01762718
41	0x3ccedb34	0.025251009
42	0x3bd68ef2	0.006547802
43	0x3bb228e4	0.0054370034
44	0xbb85faeb	-0.0040887496
45	0x3cb61dd1	0.022231014
46	0xbb4649d4	-0.0030256407
47	0xbcabccb3	-0.020971632
48	0x3ba9f761	0.0051869606
49	0xbb918234	-0.0044405703
50	0x3b234748	0.0024914313
51	0x37e5fdac	2.7417052e-05
52	0x3cfe1809	0.03101732
53	0x3aee09eb	0.0018160915
54	0xbc9818ac	-0.018566452
55	0xbc0001fd	-0.007812974
56	0x3be85b30	0.0070909485
57	0x3cd5a8c6	0.026081454
58	0xbc250482	-0.0100718755
59	0x3d0a679a	0.03379021
60	0xbba6de4d	-0.0050924183
61	0xbc21bd79	-0.009871834
62	0x3cf67d62	0.030089084
63	0xbce012cb	-0.027352711
64	0x3be64399	0.0070271012
65	0x3c9ef4b0	0.019403785
66	0xbd3f2d50	-0.046674073
67	0xbd0fe950	-0.035134614
68	0xba95f12b	-0.0011439672
69	0xbd140ae8	-0.036143214
70	0xbbfa39ef	-0.0076363008
71	0xbce3d6e1	-0.027812423
72	0x3cd78d93	0.026312625
73	0x3cbb49fb	0.022862425
74	0xbcb1a4d7	-0.021685047
75	0xbd786dae	-0.060651474
76	0xbd52e913	-0.05149181
77	0xbbb82511	-0.005619653
78	0x3c28927c	0.010288831
79	0x3b94ca65	0.004540729
80	0x3b9d932f	0.0048088054
81	0x3cce00f1	0.025146933
82	0xbb85bb70	-0.004081182
83	0x3c870bf4	0.016485192
84	0x3ce18b33	0.027532196
85	0xbc8dbd38	-0.01730214
86	0xbc231751	-0.0099542895
87	0xbb605759	-0.003423175
88	0xbb95849d	-0.004562928
89	0xbadbdf5c	-0.001677494
90	0x3d3156a5	0.04329552
91	0xbcb2f7e7	-0.021846725
92	0xb9c39d19	-0.00037310345
93	0x3bdea8a3	0.0067950054
94	0xbc408be6	-0.011752104
95	0x3bf6491c	0.0075160395
96	0x3c806b50	0.01567617
97	0xbb9599d0	-0.004565455
98	0x3bf25e39	0.007396486
99	0x3c9f1410	0.019418746
100	0x3c9e8a6a	0.01935311
101	0xbcbcc8e5	-0.023045013
102	0x3cdeac29	0.027181702
103	0xbd06b084	-0.032883182
104	0x3a59ff1e	0.00083159085
105	0x3d5d6446	0.054050706
106	0x3bebac2d	0.007192156
107	0xbcc4aca4	-0.024008103
108	0x3d3ddf24	0.04635538
109	0x3d0adbfd	0.033901203
110	0x3c852df5	0.016257266
111	0xbc7667ec	-0.015039425
112	0x3d370026	0.044677876
113	0x3b80a2ac	0.003925642
114	0x3cad6eb1	0.021170946
115	0x3be73f6d	0.0070571215
116	0x3ca81bc4	0.020521052
117	0xbc6e5c52	-0.014548378
118	0x3d458e02	0.048231132
119	0xbb4ed6b0	-0.003156107
120	0x3c9dd5f5	0.019267062
121	0xbc5f201d	-0.013618496
122	0xbbfc2855	-0.0076952376
123	0xbd149f75	-0.036284883
124	0x3cc37b35	0.02386246
125	0x3b961794	0.0045804475
126	0x3a9531c8	0.0011382634
127	0xbccecae0	-0.025243223
128	0x3cbb04ed	0.022829497
129	0x3cda6e09	0.026663797
130	0xbba41e01	-0.0050084596
131	0xbc14e2b0	-0.00908725
132	0xbca8f6e1	-0.020625534
133	0x3b89a82d	0.0042009563
134	0xbba84395	-0.0051350095
135	0xbb83dfd0	-0.0040244833
136	0xbcce5b03	-0.025189882
137	0x3c0410fb	0.008060689
138	0xbb457877	-0.0030131617
139	0x3cd04d3b	0.025427451
140	0xbbc32d2b	-0.005956312
141	0xbd3b7669	-0.04576722
142	0xbc3c63f5	-0.011498441
143	0xbd701c1e	-0.058620565
144	0x3c7127d3	0.0147189675
145	0x3cf9ec64	0.030508228
146	0xbcba54c2	-0.022745494
147	0x3c99d048	0.018776074
148	0x3c25c2bc	0.010117229
149	0x39e79b2b	0.00044175363
150	0xbcb94890	-0.022617608
151	0x3d2f7b0d	0.04284196
152	0x3c96878f	0.018375186
153	0x3c8dc9e6	0.017308187
154	0x3c83a0e1	0.016067924
155	0xbc906b0f	-0.017629175
156	0x3baccfad	0.0052737803
157	0x3ce3afb7	0.027793748
158	0x3d0b3184	0.03398277
159	0xbc0f5d35	-0.00875025
160	0xba6c59ff	-0.0009016096
161	0xbb9a5867	-0.0047102454
162	0xbcc3d308	-0.023904338
163	0xbc54a4d6	-0.012978753
164	0xbba3d022	-0.0049991766
165	0xbb120cd2	-0.0022285474
166	0x3c9473cb	0.01812162
167	0x3c60be84	0.013717297
168	0x3bb9018e	0.0056459373
169	0xbbc287c0	-0.005936593
170	0xbcd4b4b4	-0.025965072
171	0xb9d95387	-0.00041451698
172	0x3c6bda6f	0.01439534
173	0xbc63e493	-0.013909477
174	0x3aed8f19	0.0018124311
175	0xbc42b5c9	-0.011884161
176	0xbcc89821	-0.024486603
177	0x3cba36f6	0.022731286
178	0xbbffc3ed	-0.0078053386
179	0x3c17190f	0.009222283
180	0x3cd2f174	0.0257499
181	0xbc1691ae	-0.009190006
182	0x3bddf497	0.006773542
183	0x3b6a135a	0.00357171
184	0x3a4b8057	0.00077629596
185	0xbc04a017	-0.008094809
186	0xbbedb29b	-0.0072539574
187	0xbcc56372	-0.02409527
188	0x399f3dc5	0.00030372865
189	0x3b9a7443	0.0047135665
190	0xbb7b33a4	-0.003833034
191	0xbcb73ef9	-0.022368895
192	0xbc90e550	-0.01768747
193	0x3a1a9430	0.00058967154
194	0x3c24802b	0.010040323
195	0x3b76364b	0.0037568982
196	0x3c2760c2	0.01021594
197	0x3ba079a0	0.0048973113
198	0xbbdeaf81	-0.006795824
199	0xbbeb8c81	-0.00718838
200	0x3b714424	0.0036814297
201	0xbc83d242	-0.01609147
202	0xbce4cc48	-0.02792944
203	0x3c24f34c	0.010067772
204	0x3cc6d808	0.024272934
205	0xba7bd643	-0.00096068176
206	0xbd1a5dbf	-0.03768706
207	0xbb8d9418	-0.0043206327
208	0x3cceb859	0.025234388
209	0x3c3f8cbe	0.01169127
210	0x3c26f3ca	0.01018996
211	0x3cd0175c	0.025401764
212	0xbc17172a	-0.009221831
213	0x3c7bb1bd	0.0153622
214	0x3b3a0e15	0.0028389741
215	0x3d09283a	0.03348563
216	0xbc9703a5	-0.018434355
217	0xbc690dbc	-0.014224466
218	0xbc82b3e0	-0.015954912
219	0x3c1c74d9	0.009549343
220	0xbc82c423	-0.015962666
221	0x3c18f689	0.009336122
222	0x3ccb905a	0.024849106
223	0x3d37524c	0.04475622
224	0xbb0b843c	-0.0021288535
225	0x3cc018d2	0.023449335
226	0x3cd09261	0.025460424
227	0xbb699f48	-0.0035647918
228	0xba8eb764	-0.0010888395
229	0xbc415329	-0.011799612
230	0x3b00eefb	0.0019673693
231	0x3a516bf9	0.00079888065
232	0xbc8f2fc7	-0.017478837
233	0xbc871cbc	-0.016493194
234	0xbbec97f2	-0.0072202617
235	0x3c44841d	0.011994389
236	0xbce23608	-0.027613655
237	0xb9c2750c	-0.0003708977
238	0x3c555d58	0.013022743
239	0x3cd720a1	0.026260676
240	0xbb065943	-0.0020499981
241	0xbaa43848	-0.001252898
242	0x3cc710d5	0.024300018
243	0x3c1827a2	0.009286793
244	0x3cda53b8	0.026651248
245	0xbc06394b	-0.008192371
246	0xbbd3fdfd	-0.0064694867
247	0xbc47fbb1	-0.012206004
248	0xbcb072b6	-0.021539073
249	0xba05a911	-0.000509874
250	0xbb9dc7f1	-0.0048150946
251	0x3d0beac2	0.03415943
252	0xbc83d5a6	-0.016093086
253	0xbcabfbfb	-0.020994177
254	0x3cc7002d	0.024292076
255	0x3d04c528	0.032414585

bias f4 [97]
0	0x3d066926	0.03281512
1	0xbcc0c854	-0.023533024
2	0xbd78f117	-0.060776796
3	0x3d878a9a	0.06618233
4	0xbda68ecb	-0.08132704
5	0xbc99848e	-0.018739965
6	0x3d639af3	0.055567693
7	0x3ddf881e	0.10914634
8	0x3cf4a1eb	0.029862365
9	0xbd9b5174	-0.07583895
10	0xbd1fb6e0	-0.038992763
11	0xbc019228	-0.0079083815
12	0xbd0d7c36	-0.034542285
13	0x3df35662	0.118817106
14	0x3d53470a	0.05158142
15	0xbd051d50	-0.032498658
16	0xbd7dfe87	-0.062010314
17	0x3db0e76a	0.08637889
18	0x3dc1fac2	0.094716564
19	0xbd247a1a	-0.040155508
20	0xbdcabcb4	-0.098992735
21	0x3dd4b9e3	0.103870176
22	0xbd934df2	-0.07192601
23	0x3d9ef7dc	0.07762119
24	0xbce95159	-0.028481172
25	0x3defc617	0.117077045
26	0x3db8012c	0.089845985
27	0x3c4a8ce6	0.012362694
28	0x3c41bbe8	0.0118245855
29	0x3da3114f	0.07962286
30	0x3c95e651	0.0182983
31	0x3e006eb3	0.12542228
32	0xbd41e834	-0.047340587
33	0x3cecc783	0.028903728
34	0x3d491cad	0.049099613
35	0x3d329da3	0.043607365
36	0x3d38af28	0.045088917
37	0xbd6eb235	-0.05827542
38	0xbc92ad09	-0.017904775
39	0xbd89188b	-0.06694134
40	0xbcc78628	-0.024355963
41	0x3dcfffc1	0.10156203
42	0x3d46d54d	0.048543263
43	0xbc1a2359	-0.009407842
44	0xbd8146d0	-0.063123345
45	0x3d10789a	0.035271265
46	0x3dd6615a	0.10467787
47	0x3d592930	0.053017795
48	0xbda8210a	-0.08209427
49	0xbd8de8ae	-0.06929146
50	0x3dcf99fa	0.101367906
51	0x3b551e2d	0.0032519207
52	0x3df4bf4c	0.119505495
53	0x3dd790b0	0.10525644
54	0xbd67a779	-0.0565562
55	0x3d66762c	0.05626504
56	0x3d9e4def	0.077297084
57	0xbc54c13e	-0.012985526
58	0x3d5d0c79	0.053966973
59	0x3e0cded8	0.13756883
60	0x3b5167b1	0.0031952674
61	0x3cee8a1f	0.029118596
62	0x3d9fecb7	0.07808822
63	0x3d7b1755	0.061301548
64	0x3ca279c3	0.019833451
65	0x3c4966c3	0.012292567
66	0x3d2f59a7	0.04281011
67	0x3da9e980	0.0829649
68	0x3dd861f9	0.10565562
69	0xbd5f7e95	-0.054564077
70	0xbd2c3419	-0.04204187
71	0xbda8f9af	-0.08250748
72	0xbc882b27	-0.01662214
73	0xbc08c256	-0.008347115
74	0x3b3aef75	0.0028524075
75	0x3cd9de23	0.02659518
76	0xbd2d1408	-0.04225543
77	0xbcf3cdc2	-0.029761199
78	0xbd42495e	-0.04743325
79	0x3cad8bba	0.02118479
80	0xbd883b1c	-0.06651899
81	0xbd197d03	-0.037472736
82	0xbdbda7d8	-0.09260529
83	0xbd276563	-0.040868174
84	0xbd8f4699	-0.06995887
85	0x3d306eef	0.043074545
86	0x3b8a859e	0.004227354
87	0xbdcd5adc	-0.10027096
88	0x3dc6c004	0.09704593
89	0xbc71ee4c	-0.014766287
90	0xbd054daa	-0.03254477
91	0x3bf1ef87	0.00738329
92	0xbd75e1c1	-0.06002975
93	0x3dedf50e	0.11619006
94	0x3da6ea23	0.08150127
95	0x3dc11c15	0.09429184
96	0xbd7fcefc	-0.062453255
