loggers/h256_w256_bs20_in_channel1_lr0.0003/0512_0052/models/BasicModel_34.pth (torch, 40207 bytes, 17 tensors)

weight f4 [2, 1, 3, 3]
000000 04 bd 13 bb 6f 52 68 bc 0a 6d 92 bb 57 2f de 3c
       -0.0022543082 -0.01417981 -0.004468565 0.027122183
000010 3b f7 bf ba 31 bb be 3b d1 93 ab 3c de 68 15 bc
       -0.0014645824 0.005820655 0.020944508 -0.009119241
000020 22 5d 69 bc 3d 8e f5 3b 4b a5 21 bb fd df 05 3d
       -0.014243396 0.0074937628 -0.0024665173 0.032684315
000030 b6 0e 0b bd 51 63 17 3c f5 7c a2 bb 60 f6 b1 3c
       -0.033949576 0.0092399875 -0.0049587437 0.021723926
000040 e4 91 4c bc 5d 12 a2 bc
       -0.012485955 -0.019784147

weight f4 [2]
000000 a3 85 7f 3f 17 58 7f 3f
       0.9981329 0.9974379

bias f4 [2]
000000 ad 87 50 3b 7e 8e d6 3b
       0.003181915 0.006547748

running_mean f4 [2]
000000 b9 df ef 3d dc 56 0e bd
       0.117125936 -0.034750804

running_var f4 [2]
000000 a4 db c2 3d 1f f8 20 3e
       0.095145494 0.1571965

weight f4 [4, 2, 3, 3]
000000 85 b0 c2 bc a5 45 ba bc d0 08 65 3b 85 23 2e bc
       -0.023765812 -0.022738287 0.003494788 -0.010628586
000010 96 84 0c bd 1c a4 7d 3b 4c d9 df 3b 59 28 59 3c
       -0.03430613 0.0038702553 0.0068313237 0.013254249
000020 37 e6 08 3c 7d 3a 20 bc ef 47 e6 bc 24 e7 02 b8
       0.008355669 -0.00977957 -0.028110472 -3.120968e-05
000030 86 dd 2c 3d 6e 74 59 bc 0f 92 06 3c a9 6d 8f 3a
       0.04220345 -0.013272388 0.008213534 0.0010942715
000040 73 05 a2 bb e2 d6 12 bc 3f 1a 0f bd 83 61 c4 3a
       -0.0049444973 -0.008962365 -0.03493714 0.0014982674
000050 30 ba 4c b9 7a 6a 64 3c 9e 30 1c 3b 4f 63 93 bc
       -0.00019524316 0.013941402 0.002383269 -0.01799169
000060 74 aa 4c 3c df b0 77 bd d0 de b6 bb 50 a9 1a bc
       0.012491811 -0.06047141 -0.0055807605 -0.009439781
000070 6b 2c 70 bb 28 40 43 3c 8e 7d 85 3c 85 54 21 3d
       -0.003664757 0.0119171515 0.01629522 0.039387245
000080 ab f7 1a 3d ab fe 0d 3d 4f 24 0d 3c d1 1e 4c ba
       0.03783385 0.0346667 0.008614614 -0.00077865744
000090 50 64 db 3c cf 69 23 bc ae 41 d8 bb 9b 67 2d 3d
       0.026781231 -0.009973957 -0.0065996265 0.042335134
0000a0 57 30 c4 bc 10 68 60 bc be 18 e3 bb 05 12 76 3c
       -0.023948831 -0.013696685 -0.0069304397 0.015018945
0000b0 9c c8 94 3c bd 92 32 3c d5 3f 50 3c a6 03 cf 3c
       0.018162064 0.010899243 0.012710531 0.025270294
0000c0 c5 be 92 3a 18 31 e9 3c 2a 79 24 3c 81 45 c1 bb
       0.001119577 0.028465793 0.010038653 -0.005898178
0000d0 9c 44 a7 3c 12 10 00 3c 75 d3 f6 bc db 06 09 bb
       0.020418458 0.007816331 -0.030130127 -0.0020908627
0000e0 f9 6e 91 3c 23 82 f2 ba f4 61 33 bd ed bb e6 bc
       0.017753111 -0.0018501919 -0.043794587 -0.028165782
0000f0 d9 eb 1a bd 66 e0 99 3c ec a5 dd bc 48 56 a3 bb
       -0.037822578 0.01878376 -0.027056657 -0.0049846508
000100 0a 14 a4 3b 05 98 a5 b9 d1 b1 37 bd 21 00 52 bb
       0.0050072717 -0.00031584516 -0.044847313 -0.0032043534
000110 89 9b df 3b 81 1e 31 3c 43 6d 74 bb a1 35 e6 bb
       0.006823961 0.010810495 -0.003729657 -0.007025436

weight f4 [4]
000000 0e a6 83 3f f3 ef 7d 3f a8 f9 81 3f 42 36 82 3f
       1.0285051 0.9919426 1.0154314 1.0172808

bias f4 [4]
000000 ee f0 51 3c f9 8c e6 3b 3a 76 7b 3c 94 48 41 3c
       0.01281379 0.007035848 0.015348012 0.011797089

running_mean f4 [4]
000000 c6 b7 92 bd f3 f9 51 3d e8 14 26 3e b6 f5 3a be
       -0.07163958 0.05126376 0.16218913 -0.18257794

running_var f4 [4]
000000 2e 91 03 3c ed 71 7c 3c f3 26 54 3c 73 64 a8 3c
       0.008030219 0.015408021 0.012948739 0.02055571

weight f4 [8, 4, 3, 3]
000000 83 dd 43 bc 44 ff 87 3c 43 ef 9e bc 80 1e c6 bb
       -0.011954668 0.016601212 -0.019401198 -0.0060461164
000010 4f 1c 03 bd f5 54 9f 3a 6c 03 ca 3c 8f a6 a2 bc
       -0.03200942 0.0012156056 0.024659835 -0.019854812
000020 b9 2d a3 3c 40 e9 81 bb 10 91 1b 3d be 57 19 3c
       0.019919263 -0.003964573 0.03798014 0.009359298
000030 a0 c8 3c bd 45 ae cb 3c ad 65 47 3c b7 5d d1 3c
       -0.04608977 0.024863372 0.0121702375 0.025557382
000040 02 be 5f bc 87 37 18 bb 14 68 67 3c c6 d9 a0 bc
       -0.013656141 -0.0023226456 0.014123935 -0.019635092
000050 a1 d4 1e bd 1b 24 00 bc 4b f1 86 3b 30 51 8b bc
       -0.038776997 -0.007821108 0.00411812 -0.017006487
000060 ca c0 68 3b 54 f3 8a 3c 62 5d 02 bd e7 20 9b bb
       0.0035515302 0.016961731 -0.031827338 -0.004734147
000070 a9 44 19 bd 68 ea e7 3b 95 61 1f bb 1e a1 e4 bb
       -0.037418995 0.007077504 -0.0024319638 -0.0069772145
000080 5c a1 8f bc 6f 36 9a bb 38 35 81 bc 36 05 17 bd
       -0.017532997 -0.004706196 -0.015772447 -0.036870204
000090 56 19 30 3c 9b 56 dd bc 61 a8 37 3a 3e 84 aa 3c
       0.010748228 -0.027018836 0.00070059864 0.020815011
0000a0 f9 81 fe 3b fe a5 f3 3b 47 46 27 3b a2 b5 f3 3c
       0.007766959 0.0074355593 0.0025524066 0.029749695
0000b0 b5 d7 39 3c cd 10 0f bc bd bf 49 3b 43 67 93 bc
       0.0113429325 -0.008732033 0.003078445 -0.017993575
0000c0 4f 1b 05 3c 79 aa a2 3b 5a 71 51 3c c5 ac 8c bc
       0.008124187 0.0049641696 0.012783373 -0.017172227
0000d0 53 2c 95 bc ef 64 41 3c 68 ba 8d ba 41 b8 1a bd
       -0.018209612 0.01180385 -0.0010813 -0.037773374
0000e0 01 67 eb 3b 9c 4c a1 3c 56 8a 12 3a 77 71 41 bc
       0.00718391 0.01968985 0.00055900717 -0.011806837
0000f0 f3 38 b5 bc b6 af 73 3c 9c 8c c5 bc 58 a3 d3 bc
       -0.022121882 0.014873436 -0.0241149 -0.025834724
000100 c4 f2 25 bd 68 a4 e1 bb ba 08 c0 3c 3d 52 d8 3c
       -0.040514722 -0.006886054 0.023441661 0.026406402
000110 85 57 a3 bc 37 3c 42 3c e2 a2 aa bc 15 7b 06 bd
       -0.019939194 0.011855177 -0.020829622 -0.032832224
000120 8f 15 f9 3c c3 d9 70 3c 87 f8 76 3c 6a 1b b8 bc
       0.030405788 0.014700356 0.015073902 -0.02247401
000130 53 95 98 bc d0 b6 df bc e6 26 a3 3b ae 60 3b bc
       -0.01862589 -0.027308851 0.0049790023 -0.011436624
000140 ec a1 0a 3d 6a 3d f7 bc 88 43 3d bc 41 92 44 3b
       0.033845827 -0.030180652 -0.011551745 0.00299944
000150 c2 56 8a 3c f4 ff a4 bc 31 07 b1 3c 75 35 1b 3c
       0.016887072 -0.02014158 0.021609874 0.009473194
000160 91 6b 3e ba 3a a1 f2 3b 6b 91 c3 bc 97 6f b8 bb
       -0.00072639534 0.0074044736 -0.023873052 -0.005628537
000170 78 b5 6d 3c 8e b7 cf 3c 9f ec 23 3d 3b 65 12 bc
       0.014508598 0.02535608 0.04002058 -0.008935268
000180 fd c1 d8 bc e4 50 81 bb 66 6e 89 bc 27 4b 8e 3c
       -0.026459688 -0.0039464105 -0.016776275 0.01736982
000190 ca de 0d 3a 5c 7b 40 3c 8a 6c 56 3d 36 df 97 bc
       0.00054119213 0.011748161 0.052349605 -0.018539052
0001a0 35 eb df 3b d7 2b 68 3c 4c ad 8c 3c d6 85 a0 3b
       0.006833459 0.0141706085 0.017172478 0.004898767
0001b0 95 63 8b bb 75 0d 43 bc 97 4f 23 bc a0 09 0d 3d
       -0.0042538145 -0.011905064 -0.009967706 0.034433007
0001c0 14 e2 8c bc 44 c9 1c bb ea 68 bf bb 0f 4e 98 3c
       -0.017197646 -0.0023923675 -0.005841364 0.018591909
0001d0 b2 70 0a bd c9 a9 3f 3c 53 3b 0f 3b 5a 53 f2 3b
       -0.03379888 0.011698195 0.0021855428 0.00739519
0001e0 d5 a6 ea 3b 08 6a fc bc c2 95 ea 3c 72 4b d0 3c
       0.007161001 -0.030812278 0.028635863 0.0254266
0001f0 a4 21 a4 bb e4 9a fb ba 14 08 26 3c a0 ed 38 ba
       -0.005008893 -0.0019195941 0.010133762 -0.0007054452
000200 1f a1 ff 3b 3f 3a 6f 3c 67 37 16 bd 40 d7 c2 bc
       0.0078011896 0.014601289 -0.03667393 -0.02378428
000210 f0 f3 75 3c 49 cc 37 bc d3 10 d4 bb 05 8e c7 3b
       0.0150117725 -0.011218139 -0.006471732 0.006089928
000220 2f a7 53 3c cb 48 09 3d ae e0 ef bb f9 93 f9 3c
       0.012918278 0.033516686 -0.007320485 0.030466067
000230 9a c8 20 3c 14 78 d2 3b d7 80 f9 3c 49 d3 aa bc
       0.009813452 0.006423006 0.030456943 -0.020852702
000240 d2 4b 88 bc 42 1c 85 bc d6 2d 1a bc 23 22 98 3c
       -0.016637716 -0.016248826 -0.009410342 0.018570965
000250 ab 64 5c bc f1 9c bd bb f7 e3 f5 3c 39 dc d8 3c
       -0.0134517355 -0.005786531 0.030015929 0.026472198
000260 d1 8a 8d 3c e2 24 d3 3b de 6b a0 3b 49 d6 74 bc
       0.017278107 0.0064436058 0.0048956713 -0.014943668
000270 58 dd bb bc 4c d7 14 bd 1d 5a 8c bc 76 ab a4 3a
       -0.022932693 -0.036338136 -0.017132813 0.0012563306
000280 76 5a d9 bc df 88 39 3c f7 f6 b3 bc f7 8c 07 3b
       -0.026532393 0.0113241365 -0.021968348 0.0020683387
000290 ae d9 8f bc f0 f2 c5 ba e7 0d 74 bd 06 a7 8a 3c
       -0.017559852 -0.0015102308 -0.05958357 0.016925346
0002a0 c1 ae d0 bc 04 ce d0 bc 58 ef a2 bc 49 8c a2 bc
       -0.025473954 -0.02548886 -0.019889519 -0.019842284
0002b0 8b 1f 88 3c 60 f3 93 bc fb df bd bb 0c 01 64 bc
       0.016616603 -0.018060386 -0.005794523 -0.013916265
0002c0 93 17 35 3c 26 16 28 bb b1 31 8d 3b 1e 8a c0 3a
       0.011052984 -0.0025647967 0.004308902 0.00146896
0002d0 1d 0a 8c 3c e9 60 92 3c 19 5c 27 bd b5 81 32 bd
       0.017094666 0.017868476 -0.040859316 -0.04358073
0002e0 6b 5c 76 bb d1 99 a1 bc 46 7c 34 3d e7 db aa bc
       -0.0037591706 -0.019726666 0.04406383 -0.02085681
0002f0 38 fb 3b 3d 02 ff 8f 3c de b7 41 3b a9 30 29 3c
       0.045893878 0.017577652 0.0029559056 0.010326543
000300 52 d3 81 ba f0 05 22 bc de 68 04 bd c0 6d fe 3c
       -0.0009904897 -0.009889111 -0.03232657 0.031058192
000310 bc 40 2b 3c 14 b9 15 3c 74 d5 b0 3c d6 64 54 3c
       0.010452446 0.009138364 0.021586157 0.012963494
000320 8e 24 9e bc 4f 45 eb bc 06 cb db 3b 58 41 f2 3c
       -0.01930454 -0.028719572 0.006707552 0.029572174
000330 7a cb 70 3c 39 e9 48 bc 4d e9 87 3c 3f ae 8b 3c
       0.01469695 -0.012262636 0.016590739 0.01705086
000340 ce 71 55 bb 0a 70 8b 3c 6c 18 8e 3c 08 cd d8 bb
       -0.0032569054 0.017021198 0.01734563 -0.0066162385
000350 f3 78 94 3b 3b ab 76 3c f5 b6 78 bc eb c0 e8 3b
       0.00453102 0.015055473 -0.015180339 0.0071030757
000360 27 de 3f 3c c1 36 e2 3c d7 b9 29 bc 30 d1 c0 3c
       0.01171068 0.027614 -0.010359249 0.023537248
000370 16 9b a0 bc bb 2b 82 bc 6a b0 ac 3a b4 bb 92 3c
       -0.0196052 -0.015889993 0.0013175134 0.01791177
000380 37 64 88 3c 43 45 50 bc 76 b8 b4 bb 77 61 04 3d
       0.016649349 -0.012711826 -0.0055151535 0.032319512
000390 67 e5 ed 3b 82 f8 7b bb a0 2e de 3c a5 1b af 3c
       0.007260013 -0.0038447683 0.027121842 0.021375487
0003a0 3a f1 9d ba 04 66 0a 3c d8 0e c8 bb ea 37 8e bc
       -0.001205004 0.008447174 -0.006105285 -0.017360646
0003b0 5b 29 d8 3b 3d be 68 3c e0 51 83 3c c6 6f 8f 39
       0.006596727 0.014205513 0.016030252 0.00027358363
0003c0 83 71 b7 3c e3 7a a7 3b 47 6c b0 3c 62 56 3d bd
       0.022392994 0.005111085 0.021536006 -0.04622496
0003d0 51 2a c3 bb 2b 9e 0c 3c 92 9f df 3b b8 06 cb 3b
       -0.0059559722 0.008582632 0.006824442 0.0061958693
0003e0 a3 12 7f bb 5f 78 bc bc 0d 0e a0 3c bc ac 43 bc
       -0.003892102 -0.023006616 0.01953795 -0.011943039
0003f0 13 65 32 3c 2a 3d 9f 3c e4 df 82 bc c0 51 74 ba
       0.010888356 0.019438345 -0.0159759 -0.0009320043

weight f4 [8]
000000 d4 a7 79 3f 2d 58 7c 3f 8b e6 7c 3f 0d 8b 81 3f
       0.9752171 0.98572046 0.9878928 1.012056
000010 16 78 82 3f da 7e 81 3f 4d 7c 7d 3f 81 bd 73 3f
       1.0192897 1.0116837 0.9901779 0.95211035

bias f4 [8]
000000 35 89 78 3b 58 7d 1f 3a 7a 51 22 3c c2 7f 6b 3b
       0.0037923579 0.00060840463 0.009907121 0.0035934304
000010 d7 f5 fa ba a9 79 34 bb 9c 8f 31 bb 86 67 ad 3b
       -0.0019146752 -0.0027538335 -0.0027093654 0.005291882

running_mean f4 [8]
000000 e2 74 12 be 38 d6 b6 bd ab 30 98 3d e0 b1 41 3d
       -0.143024 -0.08927578 0.07431158 0.047288775
000010 e3 81 84 be 5c bc 03 3e 35 93 34 3e bb ce e6 3c
       -0.25880346 0.12864822 0.1763428 0.028174749

running_var f4 [8]
000000 37 00 b2 3b 12 b9 f5 3b 85 75 d0 3b 4c 6c e5 3b
       0.0054321545 0.0074988687 0.0063616657 0.0070014354
000010 80 af 46 3d e7 01 2a 3c d3 d6 92 3c ba 29 a1 3b
       0.048507214 0.01037643 0.017924702 0.0049183043

weight f4 [97, 8, 3, 3]
000000 cc 0d 2d bc 92 09 93 3c bf a7 33 3d c2 a6 41 bc
       -0.010562371 0.0179489 0.043861147 -0.011819543
000010 d8 1e 15 bb 56 04 6c bb 7c 1c fc 3c a9 97 39 bc
       -0.002275398 -0.0036013327 0.030775301 -0.0113276625
000020 71 70 f9 3c 87 c3 51 3c 5a 78 17 3d 0d a3 ef ba
       0.030449124 0.012802965 0.03698001 -0.0018282846
000030 21 fd 18 bb 36 92 bb 3c a6 8d a4 bc 20 ee 9d 3a
       -0.0023344236 0.022896867 -0.020087074 0.0012049116
000040 7c 9c b5 3b b9 92 10 3c ee e6 93 b9 57 63 15 3b
       0.005542336 0.008824044 -0.0002821008 0.0022794807
000050 c5 16 8a 3b 05 e4 b4 ba 4a 8c 38 3c 66 5f ef bc
       0.00421414 -0.0013800865 0.011263916 -0.029220294
000060 45 91 4e bb 34 af e3 bc eb 36 c1 3c 66 64 3e 3c
       -0.0031519693 -0.027793504 0.023585757 0.011620617
000070 f8 e3 bf 3c 10 c0 d4 3c 1c f3 1c 3c 5c e8 2c 3c
       0.023424134 0.025970489 0.009579446 0.010553446
000080 2d 8d 6a 3c c9 09 3d 3d 8e 49 f9 3b 08 b2 06 bd
       0.0143158855 0.04615191 0.0076076454 -0.032884628
000090 8c 99 c3 3c 43 68 7d 3d dd bf 37 bc 1b 5d 7e 3c
       0.023876928 0.06186701 -0.011215177 0.015525128
0000a0 a5 9c e6 3c b6 6a 8d bc b1 5c 73 3b cb de c5 3b
       0.028150866 -0.017262798 0.0037134106 0.006038522
0000b0 f1 4c 2c bc a6 a0 41 3c 17 09 b6 bc 59 ad d6 bc
       -0.010516391 0.011818087 -0.022221131 -0.026205705
0000c0 2e 68 af 3b d2 2b 3e bb 68 5d 2c 3c a3 a4 8a 3c
       0.0053529954 -0.0029017818 0.010520317 0.016924208
0000d0 0f 8f eb 3c c2 36 36 3c 05 35 3c bd 6b 5d 9e bb
       0.02875474 0.011121454 -0.045949 -0.0048329136
0000e0 6b 34 38 3c e8 b5 ad 3c b6 2c 48 bc af 15 1f 3d
       0.011242966 0.021204904 -0.012217691 0.03883904
0000f0 29 c8 de 3c 8a 73 a7 3a 54 fb 26 3d ad 5a 88 bc
       0.027195053 0.0012775522 0.04076703 -0.0166448
000100 03 fe 7e 3c 4e 11 d6 3c 4a d9 2b bc 22 66 40 bc
       0.015563491 0.026131298 -0.0104888175 -0.0117431
000110 86 c2 b4 3c e6 fc f3 3b 92 c7 95 3c 39 28 e7 3b
       0.022065412 0.0074459193 0.01828364 0.0070543555
000120 68 63 d6 3c 8a 40 da 3c 7f c3 c8 bc 50 3d 12 bd
       0.026170447 0.026642103 -0.024507282 -0.035703003
000130 e2 14 14 bd fe 53 4c 3c 3c 3b 0a 3d 13 ca f5 3c
       -0.036152728 0.012471197 0.033747897 0.030003583
000140 a8 56 91 3b 0d 4a a5 3c c0 56 80 bc b3 2f 03 3c
       0.004435379 0.020176912 -0.015666366 0.008006978
000150 09 78 44 3c 09 35 b5 bc 14 ec ce 3c 0b 3f 18 bc
       0.011991509 -0.022120016 0.025259055 -0.009292374
000160 4c 1e a9 bc 8c 5e 3c bc 46 14 8e 3c 39 21 23 3a
       -0.02064433 -0.011497151 0.017343652 0.0006222907
000170 c2 e6 81 3c bc c1 77 bc 77 23 20 39 5e 1f 21 3d
       0.015857104 -0.0151218735 0.00015272001 0.039336555
000180 7e 72 45 3b c3 08 89 3a f9 3a a8 3c cf 53 76 3b
       0.0030128057 0.0010454882 0.020535933 0.0037586575
000190 2e 8c d7 bb 9f 50 a0 bc d3 d1 a1 3c 0c 45 46 bd
       -0.00657799 -0.019569693 0.019753372 -0.048405692
0001a0 5b 43 58 3a d3 f3 29 3d a5 3b 78 3c 7a 7b 4a ba
       0.0008249783 0.041492295 0.015150939 -0.0007724088
0001b0 29 80 64 3d 9e db 06 3d f7 c7 cc 3b c9 62 0b bd
       0.055786286 0.032924287 0.0062494236 -0.034029756
0001c0 1c 5e 11 3d b2 c0 be bc 21 8a 27 3c 3b f9 31 3c
       0.03549014 -0.023285244 0.010225804 0.010862644
0001d0 98 41 92 3c 97 54 44 bd a3 e7 3b 3c c5 c8 fa bc
       0.017853543 -0.047932234 0.011468801 -0.030613312
0001e0 e5 9e f8 bb ca 8c 9a bc 54 45 b3 ba 8e 00 04 bb
       -0.007587301 -0.018865962 -0.0013677278 -0.0020141932
0001f0 b5 e5 39 3d 59 f4 ab 3a 84 1b fc 3b 65 08 bc bb
       0.04538508 0.0013119086 0.00769371 -0.0057383054
000200 bd 46 7b 3c 38 96 91 3c d4 8e 74 3b a9 51 35 3c
       0.01533669 0.017771825 0.0037316578 0.011066833
000210 8b 6f 0b bd e4 5f 89 3c ec 3b d9 3c a1 16 25 bc
       -0.034041923 0.016769357 0.02651783 -0.010076196
000220 9e e0 4e bd 83 86 f6 bc 35 fc 09 3c fe 82 a0 3c
       -0.05050718 -0.030093437 0.008421947 0.019593712
000230 c9 a7 f4 3b 33 d2 9e 3c d8 cc ca 3b f1 eb 20 bd
       0.0074662906 0.01938734 0.00618897 -0.03928751
000240 0c 1e 52 3b 31 d5 d9 3c f7 c9 1d bd 41 aa 02 3c
       0.0032061366 0.026590915 -0.038522687 0.007975162
000250 ff b5 a0 3c c2 f6 14 bb 1a bd c7 bc 74 41 d9 3b
       0.019618033 -0.0022730087 -0.024382163 0.006630117
000260 e7 d1 f6 3b 5d 7d 8b 3c 4e 5e 44 3c 26 54 da bc
       0.0075323465 0.017027551 0.011985375 -0.026651453
000270 fb 5b a4 3c 95 a4 c9 bb a8 d2 4f 3c 47 2e 4b 3b
       0.020063391 -0.006153653 0.012684502 0.0031002925
000280 ed 4a 28 bc bd e3 31 3c 1f ea cb bc 33 ea 3f bc
       -0.01027177 0.01085752 -0.024891911 -0.011713552
000290 8e 43 36 3c 54 d9 3a 3c da 2d 32 bc af 43 5d 3c
       0.011124505 0.011404354 -0.01087519 0.013504907
0002a0 27 6a 25 3c da 9f 10 bc fd 7a 78 3c cc 7c 9c bb
       0.0100961095 -0.008827174 0.015166041 -0.004775619
0002b0 0b f3 6a 3c 66 d3 97 bc a0 4f 00 3b 76 52 17 bc
       0.0143401725 -0.01853342 0.001957871 -0.009235969
0002c0 7d d8 db bc 4e 89 38 3d 9b fc 13 3c 19 1d 09 3d
       -0.026836628 0.04505282 0.009032394 0.033475015
0002d0 bc c8 4b 3c fc 3b cf bc b3 6f be ba 5f 13 94 bb
       0.0124379955 -0.025297157 -0.0014529139 -0.004518911
0002e0 3e 72 67 3a 86 69 b6 bb 5c a5 cb b9 a5 a6 97 bc
       0.0008828974 -0.0055667786 -0.0003884238 -0.01851208
0002f0 2d 16 e2 3b bc 02 a8 ba be ea 0d ba 8c 53 9b 3c
       0.006899616 -0.0012818198 -0.00054137025 0.018960737
000300 c7 ce 9a 3b bc 03 29 bc 64 dd 6d 3c 29 c4 5e bc
       0.004724357 -0.010315832 0.014518116 -0.013596573
000310 71 74 0b 3c e7 0b f8 3b 0a 8e 4d bc c8 fc cf 3b
       0.0085116485 0.0075697782 -0.012546072 0.0063472725
000320 2b 66 c9 3c bc de ef bb ab ec d9 bc 00 8c cb 3c
       0.02458485 -0.007320253 -0.02660211 0.02484703
000330 b5 78 1a 3d 94 39 b2 3b 70 fb 40 bd cf 18 e2 bc
       0.03771277 0.0054389928 -0.04711479 -0.02759972
000340 df d1 f5 3c e1 6e 86 3c c3 9f dd bc a3 b0 17 3c
       0.0300073 0.016410293 -0.02705372 0.009258422
000350 59 be e1 bb 52 36 aa 3c 9e fc 5a bc 34 73 bf 3c
       -0.0068891463 0.020777855 -0.013365893 0.023370363
000360 5f 40 00 bd 4d 76 0f bc d0 6f 8d bc 5a 66 9a b9
       -0.03131139 -0.008756232 -0.01726523 -0.00029449427
000370 f4 9c 2e bc cb d8 f6 3c 62 b4 b9 bc 24 24 c6 3c
       -0.010657538 0.030132672 -0.022669021 0.024187155
000380 ad a6 5e bc d2 65 ba 3c f6 36 ce 3c fc 3b 53 bc
       -0.013589543 0.02275363 0.025172692 -0.012892719
000390 8a 32 96 bc f4 b5 e0 bb 5e 32 67 3b 4f 61 c4 3b
       -0.018334646 -0.006857628 0.0035277824 0.0059930454
0003a0 da 82 6b 3c 8a 15 94 3b 32 33 a8 3c e5 ab bb 3b
       0.014374459 0.004519169 0.020532224 0.0057272785
0003b0 ae 88 bc bc 61 5a 05 3d b4 fc a4 3b 33 81 67 3c
       -0.023014393 0.032556895 0.0050350074 0.014129925
0003c0 15 28 e0 b9 f4 fa 67 bc 25 41 95 3b fc 5c 7c 3b
       -0.00042754473 -0.014158953 0.004554885 0.0038507571
0003d0 30 5b f6 3b e0 70 61 bc 16 9d fb 3b f7 8f a7 bb
       0.0075181946 -0.013759822 0.007678638 -0.0051135975
0003e0 66 3d 58 bc bc 98 42 3c 28 43 c6 bc 39 2e 37 bc
       -0.013198232 0.011877235 -0.024201944 -0.011180454
0003f0 d9 f3 79 bc 06 c2 0b bd 42 24 cc 3c 15 98 78 3c
       -0.015255892 -0.034120582 0.024919633 0.015172978

bias f4 [97]
000000 00 56 d6 3c 51 20 0a bd 6a d7 80 bd 4b 3e 6d 3d
       0.026164055 -0.033722226 -0.06291087 0.057920735
000010 fa ff b1 bd 6f 38 81 bc 66 df 66 3d ca db e7 3d
       -0.08691402 -0.01577398 0.056365393 0.11321218
000020 d7 65 b3 3c 54 1b 90 bd da d9 50 bd 75 87 95 bc
       0.021899147 -0.070364624 -0.05098901 -0.018253068
000030 5c 54 04 bd 8c 67 f2 3d 6c e9 65 3d 63 bb 02 bd
       -0.032307014 0.11836156 0.05613081 -0.031916987
000040 ea 39 7e bd f9 4e af 3d d8 c8 b5 3d 5f 35 41 bd
       -0.06206695 0.08559985 0.088761985 -0.04717004
000050 a8 1c df bd 8d 43 d7 3d 47 79 95 bd b9 26 a7 3d
       -0.108941376 0.10510931 -0.072985224 0.08161683
000060 fc c2 22 bd 7f 7f f4 3d 4a 46 bb 3d d9 28 d1 3b
       -0.039736733 0.119383805 0.09144266 0.0063830432
000070 ed ad 38 3c f1 44 a1 3d 30 b1 84 3c f9 26 00 3e
       0.011271936 0.07874478 0.01619777 0.12514867
000080 9e f0 30 bd 58 9c c8 3c aa b0 28 3d 0c 84 1f 3d
       -0.04319822 0.024488613 0.041184105 0.03894429
000090 3d 37 2b 3d 78 8f 8a bd c0 2e af bc 59 5a 8e bd
       0.041800726 -0.06765646 -0.021384597 -0.06950826
0000a0 da 55 be bc 21 ec c6 3d 42 92 39 3d d2 d4 26 bc
       -0.023234297 0.09713007 0.045305498 -0.010182576
0000b0 2f 0e 8b bd 1d ce 06 3d 07 54 c0 3d e6 0e 64 3d
       -0.06789815 0.03291141 0.09391027 0.05567827
0000c0 24 e1 aa bd 62 b6 95 bd 50 2e d6 3d c9 d4 1d bb
       -0.083437234 -0.073101774 0.10458052 -0.0024083129
0000d0 49 79 de 3d 55 de db 3d c2 34 81 bd 9b 28 59 3d
       0.10862977 0.10735766 -0.06308891 0.05301724
0000e0 a6 56 95 3d f2 65 27 bc 13 34 60 3d d7 ad fc 3d
       0.072919175 -0.010217177 0.05473716 0.12337845
0000f0 23 ea aa 39 e8 93 d6 3c 55 61 92 3d 9d c0 63 3d
       0.00032599372 0.026193574 0.07147471 0.055603612
000100 be f7 9a 3c b5 db 8e 3c fc bf 34 3d c6 7c 9c 3d
       0.01891696 0.017438749 0.044128403 0.07640986
000110 39 7b d7 3d 7e 3e 6c bd a5 94 34 bd cd 04 af bd
       0.1052155 -0.057676785 -0.04408707 -0.085458376
000120 1f 85 80 bc 5a d7 22 bb a8 e5 41 bb d6 2f ad 3c
       -0.015688477 -0.0024847598 -0.0029586349 0.021140974
000130 18 b0 3c bd da a1 07 bd 63 28 3f bd 4b 5c 8e 3c
       -0.046066374 -0.033113338 -0.046669375 0.017377993
000140 53 c2 95 bd 8a 50 14 bd 2b 6f d3 bd c6 fa 20 bd
       -0.07312455 -0.03620962 -0.10323938 -0.039301656
000150 26 8d 87 bd 6b 90 08 3d d8 7d 64 bb e8 7b d6 bd
       -0.06618719 0.033340853 -0.0034865048 -0.10472852
000160 c9 9b cc 3d 7f e8 ad bc cb db 0d bd 4a 34 a0 3b
       0.09990651 -0.021229027 -0.03463344 0.004889046
000170 8b 4d 83 bd 9f 42 e4 3d ff 0a a3 3d 29 80 a0 3d
       -0.064112745 0.111455195 0.07961082 0.078369446
000180 5f 5c 87 bd
       -0.06609415
