loggers/h256_w256_bs20_in_channel1_lr0.0003/0512_0052/models/BasicModel_12.pth (torch, 40207 bytes, 17 tensors)

weight f4 [2, 1, 3, 3]
0	0xbb62e4e0	-0.0034621283
1	0xbc2f2ab2	-0.010691332
2	0x3abf44fb	0.0014592701
3	0x3cf9a1b7	0.03047262
4	0xbb0ff15e	-0.0021963934
5	0x3b85218d	0.0040628375
6	0x3cac29b7	0.021015985
7	0xbc0944b8	-0.0083782
8	0xbc469162	-0.012119623
9	0x3bea0ac5	0.007142397
10	0xbb562ca3	-0.0032680414
11	0x3d05f0aa	0.03270022
12	0xbd04982a	-0.032371677
13	0x3c121bcf	0.008917763
14	0xbc0144ff	-0.007889985
15	0x3cab63a7	0.020921541
16	0xbc40e804	-0.011774067
17	0xbcab073a	-0.02087747

weight f4 [2]
0	0x3f7ece64	0.9953368
1	0x3f801373	1.0005935

bias f4 [2]
0	0x3b640c77	0.0034797469
1	0x3bb56b26	0.0055364547

running_mean f4 [2]
0	0x3e880bb4	0.2657143
1	0x3d98880e	0.07447825

running_var f4 [2]
0	0x3e228d3e	0.15874192
1	0x3e58c06e	0.21167156

weight f4 [4, 2, 3, 3]
0	0xbcd577ed	-0.026058162
1	0xbca91363	-0.020639127
2	0x3bcb8f37	0.006212141
3	0xbc136878	-0.008997075
4	0xbd0e3640	-0.034719706
5	0x3b5fb364	0.0034134025
6	0x3bfc6609	0.007702593
7	0x3c1ee065	0.0096970545
8	0x3c4b5f28	0.012412824
9	0xbc208b29	-0.009798803
10	0xbcfab9c6	-0.030606162
11	0x3ab67375	0.0013919907
12	0x3d1ed742	0.038779505
13	0xbc5f7220	-0.013638049
14	0x3bfc4a52	0.0076992894
15	0x3bbfbf54	0.0058516655
16	0x3ab25fd6	0.0013608884
17	0xb9f973bb	-0.00047579207
18	0xbd010213	-0.03149612
19	0x3bf78db7	0.0075547355
20	0x3bb58b39	0.0055402783
21	0x3c117565	0.008878087
22	0xba9af348	-0.0011821771
23	0xbcbba136	-0.02290402
24	0x3c84fa52	0.016232643
25	0xbd68d54b	-0.056844037
26	0xbaef33d8	-0.0018249704
27	0xbc3b830e	-0.01144482
28	0xbb695101	-0.003560126
29	0x3bf9a097	0.0076180208
30	0x3c8fec8f	0.017568855
31	0x3d2a3de4	0.04156293
32	0x3d18ef46	0.037337564
33	0x3d0c17b9	0.03420231
34	0x3c38f908	0.011289842
35	0x3a23cde4	0.00062486366
36	0x3cd63a19	0.02615075
37	0xbc2ebd02	-0.01066518
38	0xbb994741	-0.0046776836
39	0x3d241afb	0.040064793
40	0xbca8b452	-0.020593796
41	0xbbd71aca	-0.006564473
42	0xbc0e00fd	-0.008667228
43	0x3bbab3a7	0.0056976858
44	0x3c99a32e	0.018754568
45	0x3bcd7f20	0.006271258
46	0x3bcd6620	0.0062682778
47	0x3ccb6196	0.024826806
48	0xbb95de36	-0.0045736087
49	0x3d003e6f	0.03130954
50	0x3c344726	0.011003291
51	0x39cbcd13	0.0003887197
52	0x3cc6eddf	0.024283348
53	0x3bd33d96	0.0064465506
54	0xbcc499e5	-0.023999164
55	0xbb8bdef0	-0.0042685196
56	0x3cb30903	0.021854883
57	0xbb251e98	-0.0025195237
58	0xbd0cdf17	-0.034392443
59	0xbce7c02f	-0.028289882
60	0xbd291215	-0.04127701
61	0x3cab0d22	0.020880286
62	0xbcd1bf0b	-0.025603792
63	0xbacb05ec	-0.0015489436
64	0x3c3421b5	0.0109943645
65	0x3baf488f	0.005349226
66	0xbd16c263	-0.036806475
67	0xb9e2ae93	-0.00043236147
68	0x3bba377c	0.005682884
69	0x3c85931a	0.016305495
70	0xb980db32	-0.00024577376
71	0xbb686d56	-0.003546556

weight f4 [4]
0	0x3f82ee09	1.0228893
1	0x3f7cce03	0.9875185
2	0x3f82aa84	1.0208287
3	0x3f82aea8	1.0209551

bias f4 [4]
0	0x3b838e0b	0.0040147356
1	0x3bc63d85	0.006049814
2	0x3be08002	0.006851197
3	0x3bd78254	0.0065768156

running_mean f4 [4]
0	0xbd1fe938	-0.039040774
1	0x3d8de92c	0.0692924
2	0x3e1718a2	0.1475549
3	0xbdef2477	-0.11676877

running_var f4 [4]
0	0x3d920d4d	0.07131443
1	0x3da44b77	0.08022206
2	0x3da09d57	0.0784251
3	0x3da30d41	0.07961512

weight f4 [8, 4, 3, 3]
0	0xbc810b1f	-0.015752373
1	0x3c65c26b	0.014023404
2	0xbc97ee70	-0.018546313
3	0xbc00f61e	-0.007871179
4	0xbcff2d1b	-0.031149438
5	0xba840153	-0.0010071195
6	0x3cf6f790	0.030147344
7	0xbc567ef5	-0.013091792
8	0x3cb6592a	0.022259314
9	0x3abcfb2f	0.001441812
10	0x3d1f8256	0.038942657
11	0x3b529e2c	0.0032137735
12	0xbd338009	-0.043823276
13	0x3ca58403	0.02020455
14	0x3c11ef22	0.008907111
15	0x3cd4bf5b	0.025970152
16	0xbc6eae75	-0.014567961
17	0x3b29b3ec	0.0025894595
18	0x3c8a85d0	0.01690951
19	0xbca2a83e	-0.019855615
20	0xbd224608	-0.03961757
21	0xbc2195f2	-0.00986241
22	0xbaf64efa	-0.0018791847
23	0xbcafb66d	-0.021449292
24	0x3bbbf370	0.005735807
25	0x3c952b1b	0.01820903
26	0xbcd601ca	-0.0261239
27	0xbb5b7a85	-0.0033489775
28	0xbd1bfaea	-0.038081087
29	0x3c068faa	0.008212963
30	0x3b30a981	0.00269565
31	0xbc03ee3a	-0.008052403
32	0xbc871e40	-0.016493917
33	0xbade759f	-0.001697231
34	0xbca590e4	-0.02021069
35	0xbd127539	-0.035756323
36	0x3c2da357	0.010598025
37	0xbcc91671	-0.024546834
38	0x3b40f7d4	0.0029444592
39	0x3c918de5	0.017767856
40	0x3ba9d504	0.005182864
41	0x3bcec4d2	0.006310084
42	0xbb6429f8	-0.0034815054
43	0x3cb5e9a0	0.022206128
44	0x3c1d9129	0.009617128
45	0xbc11082a	-0.008852044
46	0xba5a493f	-0.00083269546
47	0xbccc4f52	-0.024940167
48	0x3c0aa852	0.008462982
49	0x3b1fcf32	0.0024384973
50	0x3c4605bc	0.012086328
51	0xbc8ab85f	-0.016933618
52	0xbc9c2f25	-0.019065449
53	0x3c2ccea8	0.010547318
54	0x3b1ad7ed	0.0023627237
55	0xbd292a51	-0.04130012
56	0x3ba7b470	0.0051179454
57	0x3ca18c04	0.019720085
58	0xbb509ca4	-0.0031831646
59	0xbbac7ccd	-0.005263901
60	0xbcb32f91	-0.021873267
61	0x3c24e4df	0.010064333
62	0xbc8af88a	-0.016964216
63	0xbce1cd80	-0.02756381
64	0xbd2776ad	-0.040884662
65	0xbbafac21	-0.0053610955
66	0x3cc9ba15	0.024624864
67	0x3cdd9e77	0.027053101
68	0xbcc10c8d	-0.023565555
69	0x3c627a9c	0.013823178
70	0xbcb07190	-0.021538526
71	0xbd125eda	-0.03573499
72	0x3cc02198	0.023453519
73	0x3c0f71c6	0.008755153
74	0x3c4a9120	0.012363702
75	0xbcb46612	-0.022021327
76	0xbbf4c5cc	-0.0074698683
77	0xbcbef358	-0.023309395
78	0x3bda7cbf	0.006667703
79	0xbc187ea9	-0.009307542
80	0x3d0e7a11	0.03478438
81	0xbcbe0f85	-0.02320076
82	0xbc116b42	-0.00887567
83	0x3b95b8b5	0.004569138
84	0x3c84eb5d	0.016225511
85	0xbc75f38c	-0.015011679
86	0x3cec985b	0.028881242
87	0x3baaad43	0.0052086427
88	0x3afbb331	0.0019203183
89	0x3be33491	0.0069337566
90	0xbc813c45	-0.015775809
91	0xbb34e686	-0.0027603223
92	0x3c93491c	0.017979197
93	0x3d0e265b	0.034704547
94	0x3d30cd06	0.043164276
95	0xbb849cad	-0.0040469975
96	0xbcbb5034	-0.022865392
97	0xbb8abd41	-0.0042339866
98	0xbc6c8d1e	-0.014437942
99	0x3c49dfbc	0.012321409
100	0xbb1783ae	-0.0023119259
101	0x3c13e872	0.009027587
102	0x3d4ca3a9	0.049960766
103	0xbcb7ad68	-0.022421554
104	0x3b98f02b	0.004667302
105	0x3c38eebb	0.0112873865
106	0x3c75fd8f	0.015014066
107	0x3b00fd94	0.0019682394
108	0xbc51b933	-0.012800503
109	0xbc951a56	-0.018201035
110	0xbc335f79	-0.010948055
111	0x3ce97c4b	0.02850165
112	0xbc8009c2	-0.015629653
113	0xbacd4706	-0.0015661425
114	0xbc4e316a	-0.012585023
115	0x3c947f2d	0.018127048
116	0xbd0b83b9	-0.034061167
117	0x3c5a8d84	0.013339404
118	0x3af1b325	0.001844023
119	0x3b722ad1	0.003695179
120	0x3b7c522e	0.0038501131
121	0xbd05a674	-0.032629445
122	0x3cc714aa	0.024301846
123	0x3cb809ac	0.02246555
124	0x39f2bc92	0.00046298333
125	0xbb39ab60	-0.0028330907
126	0x3c361693	0.011113781
127	0x3b6e9de6	0.0036410033
128	0x3c07b571	0.008283005
129	0x3c7581d2	0.014984565
130	0xbd02ecd9	-0.031964157
131	0xbcf80707	-0.030276788
132	0x3c6d7829	0.01449398
133	0xbc02d6a5	-0.007985746
134	0xbc311054	-0.010807116
135	0x3a813b90	0.000985967
136	0x3c396ece	0.011317922
137	0x3cd7434e	0.02627721
138	0xbbd604fd	-0.0065313564
139	0x3d21c889	0.039497886
140	0x3c1da3f9	0.009621614
141	0x3c0f4a69	0.008745768
142	0x3d151565	0.036397357
143	0xbc8992cc	-0.016793631
144	0xbc8eb690	-0.017421037
145	0xbc7637d8	-0.015027963
146	0xbbf3ebb3	-0.007443869
147	0x3c884785	0.016635666
148	0xbc8a2f62	-0.016868297
149	0xbb8eb82d	-0.0043554516
150	0x3cf0c123	0.02938897
151	0x3cdcc9e1	0.026951732
152	0x3c97c357	0.018525762
153	0x3ba2d71b	0.00496949
154	0x3c0303aa	0.007996479
155	0xbc8a0a26	-0.016850542
156	0xbcbcd8f3	-0.023052668
157	0xbd171776	-0.03688761
158	0xbc81656c	-0.015795432
159	0x3a3abff3	0.00071239396
160	0xbcc88b80	-0.024480581
161	0x3c7d5437	0.015461973
162	0xbcafedde	-0.021475729
163	0x3a73974f	0.0009292261
164	0xbca0a118	-0.019608065
165	0x3abc3031	0.0014357624
166	0xbd810a1c	-0.06300756
167	0x3c88b1f8	0.016686425
168	0xbca6873e	-0.02032816
169	0xbc9eecf1	-0.019400092
170	0xbc80e16c	-0.01573249
171	0xbcaf88fc	-0.021427624
172	0x3c873ca2	0.016508404
173	0xbca569f4	-0.020192124
174	0xbc5a3a72	-0.0133195985
175	0xbc577bd9	-0.013152086
176	0x3ba19a13	0.004931697
177	0xbc664487	-0.014054424
178	0xb9e2af22	-0.00043236563
179	0xba4cbee0	-0.0007810425
180	0x3c8a5c54	0.016889729
181	0x3cb25ddb	0.02177327
182	0xbd2069b0	-0.03916329
183	0xbd0abdeb	-0.033872526
184	0x3b8aa723	0.00423135
185	0xbc881162	-0.016609851
186	0x3d28c025	0.04119887
187	0xbcd6b612	-0.026209865
188	0x3d21b82d	0.039482284
189	0x3c597756	0.013273081
190	0x3c3bd215	0.011463662
191	0x3c9dff6a	0.01928683
192	0x3c1c5aa9	0.009543099
193	0xbc072355	-0.00824817
194	0xbcb4af90	-0.022056371
195	0x3d0db4ef	0.03459638
196	0x3bc4cbde	0.006005748
197	0x3c246967	0.0100348955
198	0x3cc18d61	0.023626985
199	0x3c803d10	0.015654117
200	0xbc30577a	-0.010763044
201	0xbcada3bf	-0.021196244
202	0x3b8d0657	0.0043037343
203	0x3d01e779	0.03171489
204	0x3c8a211c	0.01686149
205	0xbc4ba357	-0.01242908
206	0x3cbc08b1	0.022953363
207	0x3cb3ae37	0.021933658
208	0x3bf23c57	0.007392447
209	0x3cb15877	0.021648629
210	0x3c73ac80	0.01487267
211	0xbb86106e	-0.004091314
212	0x3bcd5e21	0.0062673246
213	0x3c833592	0.016016755
214	0xbc4a6056	-0.01235207
215	0x3c2780e5	0.010223602
216	0x3c0642ae	0.008194609
217	0x3d01fae0	0.031733394
218	0xbc1b18b2	-0.009466337
219	0x3cd72cf4	0.026266553
220	0xbc90c25c	-0.017670803
221	0xbc4aebb8	-0.012385301
222	0x3a856b5d	0.0010179091
223	0x3c845e2f	0.016158191
224	0x3ca820e1	0.02052349
225	0xbbe0bfb8	-0.006858792
226	0x3b863c5c	0.004096551
227	0x3cfde1be	0.030991431
228	0x3bc8923a	0.006120947
229	0xbb094778	-0.002094714
230	0x3cca7f64	0.024718948
231	0x3ca6ccb3	0.02036128
232	0xbbaf6dbd	-0.005353658
233	0x3c48a1ae	0.012245579
234	0xbc0698a7	-0.008215106
235	0xbc7bfecc	-0.0153805725
236	0x3bb9f871	0.0056753685
237	0x3c60da6e	0.013723953
238	0x3c9a4f75	0.018836716
239	0xba9d036a	-0.0011979167
240	0x3caaabe5	0.020833919
241	0xba8827e4	-0.0010387865
242	0x3ca9db60	0.020734489
243	0xbd23df2e	-0.040007763
244	0x3b5020cb	0.0031757827
245	0x3c72ecd6	0.014826974
246	0x3b1939f1	0.0023380483
247	0x3c372636	0.011178544
248	0x39d99754	0.00041502214
249	0xbcb73109	-0.022362249
250	0x3cc6a6cf	0.024249462
251	0xbc543253	-0.012951451
252	0x3c113e56	0.00886496
253	0x3c6909d8	0.014223538
254	0xbc8cc485	-0.017183552
255	0xbbf361e0	-0.007427439

weight f4 [8]
0	0x3f791ba9	0.9730783
1	0x3f7c3e41	0.9853249
2	0x3f7d6ea9	0.9899698
3	0x3f8164d4	1.0108895
4	0x3f8230a5	1.0171095
5	0x3f81d677	1.0143574
6	0x3f7e2286	0.9927143
7	0x3f747464	0.954901

bias f4 [8]
0	0x3a174792	0.00057708577
1	0xbaa23acd	-0.0012377143
2	0x3b631767	0.00346514
3	0x39957ef1	0.00028514073
4	0xbb3195fa	-0.002709745
5	0xbb20e7de	-0.0024552266
6	0xbb49deea	-0.0030803033
7	0xba3427f7	-0.00068724103

running_mean f4 [8]
0	0xbde3058d	-0.11085043
1	0xbda64be8	-0.08119947
2	0x3df91403	0.1216202
3	0x3ceb4da6	0.02872355
4	0xbe59a0d0	-0.21252751
5	0x3e3ac28b	0.18238275
6	0x3e3c8b66	0.18412551
7	0x3d1e5004	0.038650528

running_var f4 [8]
0	0x3d9022ef	0.07037913
1	0x3d931277	0.07181256
2	0x3d9560e5	0.07293872
3	0x3d901448	0.07035118
4	0x3dd2f91a	0.103014186
5	0x3da43e07	0.08019643
6	0x3da39e99	0.079892345
7	0x3d92d20e	0.07168971

weight f4 [97, 8, 3, 3]
0	0xbc5c66d6	-0.013452252
1	0x3c8589e6	0.016301107
2	0x3d248cda	0.04017339
3	0xbc46c823	-0.012132677
4	0xbaec9e2b	-0.0018052509
5	0xbb680c24	-0.0035407627
6	0x3cf3ae69	0.029746251
7	0xbc5f3acc	-0.013624858
8	0x3cf74dc8	0.030188456
9	0x3c4078f1	0.011747585
10	0x3d10cad1	0.03534967
11	0xbb7dd2d3	-0.0038730397
12	0xbb886fe4	-0.004163729
13	0x3cad674d	0.021167422
14	0xbcbe5dac	-0.023238026
15	0x3a566d49	0.0008179737
16	0x3b854d7b	0.0040680743
17	0x3bf7cf87	0.007562581
18	0x3c0c66fa	0.008569473
19	0x3b157e66	0.0022810935
20	0x3958fae7	0.00020692834
21	0xb9a14fe7	-0.00030767845
22	0x3c25507e	0.010089992
23	0xbd08b0b2	-0.033371635
24	0xbb891cdd	-0.004184349
25	0xbcf07f27	-0.029357506
26	0x3ca99946	0.02070297
27	0x3c44d342	0.012013258
28	0x3cb5de53	0.022200739
29	0x3cc68870	0.02423498
30	0x3c1d4dae	0.00960104
31	0x3c0889ff	0.008333682
32	0x3c4997e0	0.012304276
33	0x3d3b7f9d	0.045776
34	0x3b9ba3f4	0.0047497693
35	0xbd17008b	-0.036865752
36	0x3cb94f1e	0.022620734
37	0x3d75b757	0.0599893
38	0xbc622894	-0.01380362
39	0x3c7ab6cb	0.01530237
40	0x3ce0463c	0.02737724
41	0xbc9ae827	-0.018909527
42	0x3b1e8bf2	0.00241923
43	0x3ba2ac01	0.004964352
44	0xbc1c4a4e	-0.0095392
45	0x3c216940	0.009851754
46	0xbcc546a5	-0.024081538
47	0xbcdc7fef	-0.026916472
48	0x3b472476	0.0030386723
49	0xbb993ce4	-0.004676448
50	0x3c3a6698	0.011376999
51	0x3c698fef	0.014255508
52	0x3cda0447	0.026613368
53	0x3c17024b	0.009216855
54	0xbd34c263	-0.044130694
55	0xbbbb47ab	-0.0057153306
56	0x3c1c48cb	0.00953884
57	0x3c9497ff	0.018138884
58	0xbc76c385	-0.015061264
59	0x3d158e65	0.03651275
60	0x3cb41a92	0.021985326
61	0xbb4ed1f9	-0.003155826
62	0x3d1a8843	0.037727606
63	0xbcb560a8	-0.022140816
64	0x3c609694	0.013707776
65	0x3cce2b7d	0.025167221
66	0xbc830fa3	-0.015998667
67	0xbc76e246	-0.015068596
68	0x3cc60133	0.024170494
69	0x3bc85f34	0.0061148647
70	0x3c7e74b7	0.015530757
71	0x3b867692	0.00410349
72	0x3c9ceba1	0.019155325
73	0x3c918fd3	0.017768776
74	0xbceee88b	-0.02916362
75	0xbd1804c1	-0.03711391
76	0xbd1a3d56	-0.03765615
77	0x3c6ff09d	0.014644769
78	0x3cc47449	0.02398123
79	0x3cc125e1	0.023577632
80	0xbad77796	-0.0016438838
81	0x3cb47ff0	0.022033662
82	0xbc4d38ff	-0.012525796
83	0x3c3389e8	0.010958172
84	0x3c68bb5c	0.014204826
85	0xbcc34e01	-0.023840906
86	0x3cae65b0	0.021288723
87	0xbb911837	-0.0044279355
88	0xbc7e233a	-0.015511328
89	0xbb89a0c0	-0.004200071
90	0x3cb39768	0.021922782
91	0xbb07a54b	-0.0020697888
92	0x3c1f428a	0.009720454
93	0xbbe6e85e	-0.0070467433
94	0x3b28893d	0.0025716566
95	0x3d02f20d	0.03196912
96	0x3bca1198	0.006166648
97	0x3bc1d190	0.0059148744
98	0x3ccab7ae	0.024745788
99	0x3c272f1e	0.010204105
100	0xbba71477	-0.005098875
101	0xbc7f7fd9	-0.015594446
102	0x3cc349b7	0.02383886
103	0xbd3508b1	-0.044197742
104	0x3b93abe5	0.0045065754
105	0x3d0dc5fa	0.034612633
106	0x3c41b948	0.01182396
107	0xbb82ccee	-0.0039917147
108	0x3d6e7a78	0.058222264
109	0x3d0bf15c	0.034165725
110	0x3bedad17	0.0072533
111	0xbcfd96ec	-0.030955754
112	0x3d179169	0.03700391
113	0xbccca2fa	-0.024980057
114	0x3c3c0b31	0.011477278
115	0x3c57f232	0.013180302
116	0x3cafb59f	0.021448908
117	0xbd3f0b01	-0.046641354
118	0x3c0cc8c7	0.008592791
119	0xbcdcae8b	-0.026938697
120	0xbc881d31	-0.016615482
121	0xbcb539ab	-0.022122225
122	0x3a85a101	0.0010195078
123	0xbc48a10a	-0.012245426
124	0x3d1d6ba6	0.03843274
125	0xbbacb1c7	-0.005270216
126	0x3c5cccb5	0.01347654
127	0xbbb9ae87	-0.0056665572
128	0x3c773051	0.015087203
129	0x3caa580d	0.020793939
130	0x3c077692	0.008268015
131	0x3c40b20b	0.011761199
132	0xbd056111	-0.032563273
133	0x3c9bdf36	0.019027334
134	0x3ca8ef56	0.020621937
135	0xbbf5f962	-0.0075065354
136	0xbd3b5543	-0.04573561
137	0xbcbe372d	-0.02321967
138	0x3af3d898	0.0018603979
139	0x3c981c1f	0.018568097
140	0x3c373c9a	0.011183882
141	0x3c30ff38	0.010803036
142	0x3aa12900	0.0012295544
143	0xbd447824	-0.047966138
144	0x3c744a99	0.014910364
145	0x3ced5345	0.02897037
146	0xbd0fb063	-0.035080325
147	0x3c9e2996	0.01930694
148	0x3cac8915	0.02106146
149	0xbc02fb02	-0.007994415
150	0xbcd112f7	-0.025521738
151	0x3b036155	0.0020047028
152	0x3a4eaeff	0.0007884353
153	0x3caa8ad4	0.020818152
154	0x3c2c99b9	0.010534697
155	0xbcb63d66	-0.022246074
156	0x3ca6d84d	0.020366812
157	0xbb3bd3e0	-0.0028660223
158	0x3c97f339	0.018548595
159	0x3b8039e0	0.0039131492
160	0xbb7ccf05	-0.0038575542
161	0x3cab1237	0.020882709
162	0xbce915cf	-0.028452782
163	0xbc6f8919	-0.014620089
164	0x3c9c0a5e	0.019047912
165	0x3ac1cfcb	0.0014786659
166	0xbc768d3a	-0.0150483195
167	0x3ca68e7a	0.02033161
168	0x3b740bb6	0.0037238426
169	0xbc61edaa	-0.013789574
170	0x3c7effdd	0.015563932
171	0xbb894d04	-0.004190089
172	0x3c52131b	0.012821938
173	0xbcadaab5	-0.021199564
174	0x3aee0627	0.0018159793
175	0xbc1f5490	-0.009724751
176	0xbccab7fb	-0.024745932
177	0x3d2adae1	0.041712645
178	0x3c6e6c0d	0.0145521285
179	0x3d227e44	0.039671198
180	0x3c863ed1	0.016387375
181	0xbcc195f8	-0.023631081
182	0x3aaf01f1	0.0013352019
183	0xbb905ed4	-0.0044058356
184	0x3adba617	0.0016757873
185	0xbc079efd	-0.008277652
186	0xba03e0ab	-0.00050307316
187	0xbc9ca826	-0.019123148
188	0x3bb2fb0a	0.005462055
189	0xb9bc0474	-0.00035861472
190	0x3bb2843c	0.0054478925
191	0x3c646fbd	0.013942656
192	0x3aa6026f	0.001266552
193	0xbc72a1f3	-0.0148091195
194	0x3c06c357	0.008225284
195	0xbc8929a5	-0.01674349
196	0x3aa1f0fd	0.0012355145
197	0x39ac7ccb	0.00032899374
198	0xbc8859a4	-0.016644306
199	0x3c130d88	0.008975394
200	0x3ce65c37	0.028120143
201	0xbc45a282	-0.012062671
202	0xbcbc257a	-0.022967089
203	0x3cf9a60d	0.030474687
204	0x3d2ce05d	0.042206157
205	0x3bcbaab2	0.006215417
206	0xbd47e19f	-0.048799153
207	0xbc9b424e	-0.018952515
208	0x3d08de31	0.033415023
209	0x3c48bae8	0.012251593
210	0xbc8f50e7	-0.017494632
211	0x3c1cb8b8	0.009565525
212	0xbc5dbc6b	-0.013533692
213	0x3c96c1af	0.018402902
214	0xbc8052f1	-0.01566455
215	0x3cadb28d	0.021203304
216	0xbcdc96a5	-0.026927302
217	0xbc4c575d	-0.012472001
218	0xbc77226d	-0.015083891
219	0x3aa5fa67	0.0012663127
220	0xbc677bf2	-0.014128672
221	0x3ccafbed	0.02477833
222	0xbc81c046	-0.015838753
223	0x3d06d1a9	0.03291479
224	0xbca6620d	-0.020310426
225	0x3cab689b	0.020923903
226	0x3cd58bcd	0.026067639
227	0xbb86e10a	-0.004116182
228	0xbc4158dc	-0.011800971
229	0xbbb6ea3b	-0.0055821217
230	0x3c1e8bc6	0.009676879
231	0x3c06a218	0.008217357
232	0x3ca44b14	0.020055331
233	0x3b1d7e2e	0.0024031508
234	0x3c879b54	0.016553558
235	0x3b985d95	0.0046498277
236	0xbc660d7e	-0.014041303
237	0x3d0eb376	0.034839116
238	0x3b16a52a	0.002298663
239	0x3c528cd2	0.012850957
240	0xba958fca	-0.001141065
241	0xbc788f54	-0.015170891
242	0x3ba055b3	0.0048930286
243	0x3c1f7bbd	0.009734091
244	0x3c61c45c	0.013779726
245	0xbc3b7ecb	-0.011443804
246	0x3bb7bb1f	0.0056070234
247	0xbb61918d	-0.003441903
248	0xbc3891ae	-0.0112652015
249	0x3bb71765	0.0055875056
250	0xbce06789	-0.02739312
251	0xbba20a4e	-0.004945076
252	0xbc25e2a5	-0.010124837
253	0xbcc6fdc2	-0.024290923
254	0x3cecc329	0.028901653
255	0x3cb7c121	0.022430958

bias f4 [97]
0	0x3cc7aeae	0.024375286
1	0xbd049db1	-0.03237695
2	0xbd8238ec	-0.06358513
3	0x3d777c3b	0.06042121
4	0xbdb6c941	-0.08925105
5	0xbc9db2cb	-0.019250294
6	0x3d690776	0.05689188
7	0x3de1854e	0.11011754
8	0x3cb7301e	0.022361811
9	0xbd981f43	-0.07427838
10	0xbd5de2b6	-0.054171287
11	0xbca2e997	-0.019886775
12	0xbd140527	-0.036137726
13	0x3def28cf	0.116777055
14	0x3d547788	0.051871806
15	0xbd078cf3	-0.033093404
16	0xbd7781a9	-0.060426388
17	0x3da9d210	0.08292019
18	0x3db2e5f8	0.08735269
19	0xbd3f45e1	-0.0466975
20	0xbddf5be5	-0.10906199
21	0x3dd437a5	0.10362176
22	0xbd9be719	-0.07612438
23	0x3da2345e	0.079201445
24	0xbd2b819e	-0.04187166
25	0x3df09471	0.11747063
26	0x3db69a74	0.08916178
27	0x3b29fb72	0.0025937227
28	0x3c366c79	0.01113426
29	0x3d9ab6b7	0.07554381
30	0x3c8e3077	0.017357094
31	0x3df9651d	0.12177489
32	0xbd3c691a	-0.04599867
33	0x3caf852b	0.021425804
34	0x3d231147	0.0398114
35	0x3d1462bf	0.036226984
36	0x3d200287	0.03906491
37	0xbd8ea662	-0.06965329
38	0xbc970106	-0.018433105
39	0xbd92b85d	-0.07164071
40	0xbccc1e77	-0.02491687
41	0x3dc43282	0.09579946
42	0x3d3281aa	0.04358069
43	0xbc2ecb03	-0.010668519
44	0xbd902bd3	-0.07039609
45	0x3d0409c6	0.032235883
46	0x3dc2b478	0.09507078
47	0x3d54df6a	0.051970877
48	0xbdacd7ab	-0.08439573
49	0xbd983485	-0.07431892
50	0x3ddc6843	0.10762074
51	0xbb9ce125	-0.0047875815
52	0x3ddb5c65	0.10710982
53	0x3ddebf15	0.1087629
54	0xbd7de684	-0.061987415
55	0x3d558d56	0.05213674
56	0x3d987907	0.07444959
57	0xbc376bdb	-0.011195148
58	0x3d511b38	0.05105135
59	0x3df9c4f7	0.12195771
60	0x3adb56fe	0.00167343
61	0x3cc7c6d8	0.024386808
62	0x3d9006a7	0.07032519
63	0x3d5a9a06	0.053369544
64	0x3c9f0ae8	0.01941438
65	0x3c9540d2	0.018219385
66	0x3d3ab4cb	0.045582574
67	0x3d9c64e0	0.07636428
68	0x3dd7d22c	0.10538134
69	0xbd6e833d	-0.058230627
70	0xbd3e8a86	-0.046518825
71	0xbdb2dded	-0.08733735
72	0xbc5e8687	-0.0135818785
73	0x385a9b0f	5.211966e-05
74	0xbbf740f6	-0.0075455857
75	0x3caf34a5	0.021387408
76	0xbd36ef42	-0.044661768
77	0xbd0bfb57	-0.034175243
78	0xbd408d13	-0.04700954
79	0x3c81c49a	0.015840817
80	0xbd984438	-0.07434887
81	0xbd162c42	-0.0366633
82	0xbdd8a6e6	-0.10578708
83	0xbd2d3621	-0.04228795
84	0xbd8b04c6	-0.0678802
85	0x3ce357e6	0.027751874
86	0xbb8552da	-0.0040687146
87	0xbdde1688	-0.10844141
88	0x3dc9d59d	0.098551966
89	0xbcb34998	-0.021885678
90	0xbd0b472d	-0.034003425
91	0x3b51ffbc	0.0032043299
92	0xbd85a361	-0.06525303
93	0x3de3144d	0.110878564
94	0x3da0917f	0.07840251
95	0x3da551f0	0.08072269
96	0xbd8a53fd	-0.06754301
