loggers/h256_w256_bs20_in_channel1_lr0.0003/0512_0052/models/BasicModel_100.pth (torch, 40207 bytes, 17 tensors)

weight f4 [2, 1, 3, 3]
000000 aa 5a 4e ba 40 b0 69 bc fd ea 02 bc 7c a0 df 3c
       -0.00078717864 -0.014263213 -0.007990596 0.027298205
000010 29 2a cd 3a 87 85 72 3b 2c 42 ac 3c dd 9b 2f bc
       0.0015652823 0.0037005858 0.021027647 -0.010718313
000020 1b 92 54 bc 86 26 a7 3b bc 67 0b 3a 2b 91 d7 3c
       -0.012974287 0.005101028 0.0005317887 0.026314339
000030 ce 3e 06 bd ef bb 31 3c a9 b0 d5 bb 2a 5c d1 3c
       -0.03277474 0.0108480295 -0.0065213037 0.025556643
000040 da b2 9a bc 0a e6 a4 bc
       -0.018884111 -0.020129222

weight f4 [2]
000000 9b 97 7d 3f 59 61 80 3f
       0.99059457 1.0029708

bias f4 [2]
000000 71 8a 6c bc 95 ef e2 bc
       -0.014437304 -0.027702132

running_mean f4 [2]
000000 6e 1e bd 3d de 01 06 be
       0.092343196 -0.1308665

running_var f4 [2]
000000 f1 e4 d5 3d 0e c2 09 3e
       0.10444058 0.13452932

weight f4 [4, 2, 3, 3]
000000 9c f8 92 bc 94 dd eb bc 96 87 32 3b 59 9b 10 bc
       -0.017940812 -0.02879218 0.002724146 -0.0088261
000010 5c 71 07 bd 9f 53 8f 3b dc e5 5b 3b 93 d6 60 3c
       -0.033067092 0.004373982 0.0033553755 0.0137230335
000020 ab a7 b9 3b 13 14 7a bc a2 bd b6 bc c5 fa ad ba
       0.0056657395 -0.015263575 -0.02230722 -0.0013273588
000030 a0 bc 31 3d ac 37 5d bc cd ff 19 3c 0f 06 ca 3b
       0.043392777 -0.013502043 0.009399367 0.006165273
000040 1d ff cc bb 5f c2 4e bc c1 13 14 bd 62 d4 31 3c
       -0.006255998 -0.012619584 -0.03615165 0.010853859
000050 71 8d 85 3a 48 2c 36 3c de 80 46 bb 6d 1d 67 bc
       0.0010189248 0.011118956 -0.0030289213 -0.014106137
000060 c1 2e 2b 3c 4d 05 5b bd c4 c1 4b bc 9e 46 d7 bb
       0.010448159 -0.053471852 -0.012436334 -0.0065696975
000070 a9 5f 20 bc 96 40 91 3c 40 18 3c 3c 3c 13 4b 3d
       -0.009788432 0.017730992 0.011480391 0.04957889
000080 aa a7 de 3c 03 46 10 3d 88 a3 42 3c 0a 14 a7 3a
       0.027179558 0.03522302 0.011879809 0.0012747061
000090 03 9a d0 3c 6b 1d 2d bc 6c 83 b5 bb 2e 99 24 3d
       0.025464064 -0.010566096 -0.0055393483 0.040185146
0000a0 ce 65 7d bc 27 d0 9a bc 78 61 8c bb 0e 21 19 3c
       -0.015466167 -0.018898083 -0.00428408 0.00934626
0000b0 d2 17 c2 3c 2a e4 6e 3c 12 71 77 3c 2c 58 ef 3c
       0.023692999 0.014580766 0.015102642 0.029216848
0000c0 1b 20 28 3c b7 3f b0 3c 38 96 ae 3c 24 2d 01 bc
       0.010261561 0.021514757 0.021311864 -0.0078842975
0000d0 4b ba 99 3c ce 5e ec 3b 7e 62 31 bd 21 10 17 3c
       0.01876559 0.00721345 -0.04330682 0.009220154
0000e0 51 2d 13 3c 42 f7 ff 3b c3 2d 4e bd 9b dd c9 bb
       0.008982972 0.007811458 -0.05033661 -0.0061604506
0000f0 7e 5f ca bc be d3 a3 3c 67 11 e2 bc 8f 22 0b bc
       -0.024703737 0.019998427 -0.027596189 -0.008492126
000100 12 27 94 3b c6 a6 8c 3a 5e 80 51 bd 76 2b f5 ba
       0.004521259 0.0010730855 -0.05114781 -0.0018704969
000110 44 7e 6f 3b 9c 2e 8a 3b 95 42 86 3b 13 4e 59 bc
       0.0036543766 0.004216982 0.0040972927 -0.013263243

weight f4 [4]
000000 e7 00 84 3f 20 1d 7f 3f 0d e7 80 3f a8 dd 82 3f
       1.0312775 0.99653816 1.0070511 1.0223894

bias f4 [4]
000000 61 ef bf bc 51 a5 28 bc 43 d5 83 3c bd 74 2d 3c
       -0.023429574 -0.010293321 0.016092902 0.010586915

running_mean f4 [4]
000000 95 a4 96 bd 1f 4a 4e 3d 0b 7a 34 3e cd 64 2a be
       -0.0735561 0.050363656 0.1762468 -0.16640015

running_var f4 [4]
000000 bb e7 de 3b 1d 9f 56 3c ad c3 47 3c 23 0d 5f 3c
       0.006802527 0.013099459 0.012192649 0.013613972

weight f4 [8, 4, 3, 3]
000000 ef 29 1f 3c d0 e0 ba 3c 24 5c 97 bc 69 1d 1d bb
       0.009714588 0.022812277 -0.018476553 -0.0023973829
000010 28 1e 25 bd 4c 88 82 3b 07 b8 e8 3c ce 15 bb bc
       -0.040311962 0.003983533 0.028408064 -0.022837546
000020 4e 35 a4 3c a9 64 8a bc 95 f0 2b 3d 3a 67 93 3c
       0.020044949 -0.016893702 0.041977484 0.017993558
000030 1a 41 26 bd a5 7a d5 3c 72 e2 e3 3b ba 45 ce 3c
       -0.04058943 0.026059458 0.0069544846 0.025179733
000040 a8 a4 3a bc ae d6 b2 bb d5 87 3b 3c 3d 29 c8 bc
       -0.011391796 -0.0054577207 0.011445959 -0.024433726
000050 66 0a bd bc 5d ad eb bb ae ae 56 3a ad 82 1a bc
       -0.023076247 -0.0071922974 0.00081894815 -0.00943057
000060 b7 26 4b b7 70 60 c1 3c a7 71 11 bd c9 6e 7b bb
       -1.2108757e-05 0.023605555 -0.035508778 -0.0038365594
000070 f4 3d 1f bd b6 e1 60 3b ab ac bf bc b0 55 38 3b
       -0.038877442 0.0034314222 -0.023397764 0.0028127246
000080 51 3c ca bc 84 5b 2c 3b 1f 25 8d bc 62 3c 1f bd
       -0.024686964 0.0026299665 -0.017229615 -0.038875945
000090 ec a0 94 3b f9 e7 a6 bc bf 26 81 b9 7b 97 7f 3c
       0.004535785 -0.020374285 -0.00024633665 0.015600081
0000a0 af 24 ba 3c 4a 29 a6 3c 06 86 2b 3c d7 ad 1e 3d
       0.02272257 0.02028336 0.010468965 0.038740005
0000b0 a4 00 99 ba 4c 4b 4f bc 8a 7d cc 3b e4 fa d3 bb
       -0.0011673165 -0.0126522295 0.0062405514 -0.0064691175
0000c0 73 24 2f 3c 64 05 56 bb 80 3f 5d 3c 3e f2 5c bc
       0.0106898425 -0.0032657022 0.013503909 -0.013485489
0000d0 48 bb 8d bc 89 b8 0c 3c 77 97 a1 ba 38 aa bc bc
       -0.017301217 0.0085889185 -0.0012328465 -0.023030385
0000e0 0d f6 a8 3b 49 b0 b7 3c 27 83 04 bc bd f0 cb bb
       0.0051562847 0.022422927 -0.00808791 -0.0062237666
0000f0 70 1d e1 bc d1 ad 05 3d 03 16 f3 bc ae c2 c1 bc
       -0.027479857 0.032636467 -0.029673582 -0.0236524
000100 35 78 a3 bc 10 16 25 bc 66 08 c7 3c ea 05 73 3c
       -0.01995478 -0.010076061 0.024295997 0.014832953
000110 56 b8 a6 bc d8 63 0c 3c c2 91 90 bc b6 68 21 bd
       -0.02035157 0.0085687265 -0.017647628 -0.0394065
000120 f3 a0 f4 3c 4a b2 81 3c dd e2 b8 3c 2c d8 e7 bc
       0.029861903 0.015832085 0.022569114 -0.028301321
000130 9d 25 90 bc 6e f9 3a bc 59 3d 8b 3b 1a a3 68 bc
       -0.01759606 -0.011412008 0.0042492566 -0.014199043
000140 8f 4a 96 3c 45 55 06 bd 8e fb 9c 38 cd 2a a5 3b
       0.0183461 -0.032796163 7.4855154e-05 0.0050405026
000150 2e da a8 3c 3a ef e1 bc be cb 9f 3c 3c c4 5c 3c
       0.020611849 -0.027579892 0.019506332 0.01347452
000160 e9 6e d3 38 93 95 51 3b 24 b3 02 bd 0f 92 c4 3a
       0.00010081923 0.0031980022 -0.031909123 0.0014997142
000170 d5 80 f1 3b 9f 1d bf 3c 37 fd 21 3d 05 79 78 bc
       0.0073700943 0.023329554 0.039548125 -0.015165572
000180 f2 0b 90 bc f5 94 8c 3b 96 df 36 bc b1 97 3f 3c
       -0.017583821 0.004290218 -0.0111617055 0.011693881
000190 33 98 69 bc 85 f8 06 3c 91 57 60 3d b0 c4 48 bc
       -0.0142574785 0.008237963 0.05477101 -0.012253925
0001a0 ab bd 6a bb 45 75 9a 3c a0 20 e5 3c c9 bb 00 3b
       -0.0035818617 0.018854747 0.027969658 0.0019643179
0001b0 41 c4 88 bc 89 1d 82 bb fd b3 86 bc 30 04 16 3d
       -0.016695144 -0.003970806 -0.016443247 0.036625087
0001c0 a2 63 f8 bc 37 b5 b9 bb c8 26 14 3c ba 9b 41 3c
       -0.030320946 -0.0056673544 0.009042449 0.011816913
0001d0 03 c6 c1 bc 30 a1 20 3c 3e 7c 03 bc 0b f2 56 3c
       -0.02365399 0.009804055 -0.008025227 0.013119231
0001e0 1d ab a2 bb 40 df 93 bc 8c cc cd 3c 55 53 bb 3c
       -0.004964246 -0.01805079 0.02512195 0.022866884
0001f0 63 fb 78 bc 25 3d 54 39 93 28 b1 3c bf 4a b4 bb
       -0.015196654 0.00020240674 0.021625793 -0.0055020745
000200 7c 84 13 3c 6d d8 c7 3c 5c ae 03 bd dd e9 dd bb
       0.009003755 0.024395192 -0.032148704 -0.0067722634
000210 db e9 8f 3c 46 74 83 bc bd b5 64 3b 1e 42 ec 3b
       0.017567566 -0.016046654 0.0034898364 0.00721003
000220 36 e1 38 3c ad ca 33 3d 10 59 e7 bb 4b f7 05 3d
       0.011284163 0.04389446 -0.0070601776 0.03270654
000230 76 39 99 3b 31 95 4a 3c cc b8 47 3d 0b 82 0c bd
       0.0046760393 0.012364672 0.04876022 -0.034303706
000240 64 5a bf bb ad 14 c0 bc d8 ce 83 bc fb 48 d3 3c
       -0.005839633 -0.023447359 -0.016089842 0.025791636
000250 2b 09 6d 3b 81 a1 1a 3b f0 6b 25 3d 56 5f c6 3c
       0.0036168795 0.00235948 0.04038614 0.024215382
000260 0d fa 1d 3c de 6c 2b 3c c8 d0 b4 ba 23 cb 73 bc
       0.009642136 0.010462968 -0.0013795132 -0.014879975
000270 42 36 ec bc d0 2b 1f bd e9 ff a5 bc 3a c7 bf 39
       -0.028834466 -0.038860142 -0.020263629 0.00036578794
000280 8d ca 04 bd 2e 68 b8 3b 0d 35 bd bc 23 8c 40 3c
       -0.03241973 0.0056276536 -0.023096586 0.011752161
000290 c4 c2 4d bc 67 94 84 ba 51 b8 ed bc e7 81 bd 3c
       -0.012558643 -0.0010115028 -0.029018553 0.023133231
0002a0 c3 1c d3 bc a2 7f af bc 9e a4 96 bc 15 08 3c bb
       -0.02577055 -0.021423165 -0.018389042 -0.002869134
0002b0 c6 02 88 3c 5d 3b c1 bc 52 e0 85 3c c1 b6 da bc
       0.016602885 -0.023587877 0.016342316 -0.026698472
0002c0 69 51 dd 3c 13 c0 95 3c 76 09 b5 3a 6e f9 a8 3b
       0.027016358 0.018280065 0.0013812024 0.0051566875
0002d0 3d 50 a9 3b 1f f5 51 3c 4a 5a bc bc 86 25 48 bd
       0.005167036 0.012814789 -0.022992272 -0.04886391
0002e0 e1 89 a4 bc f5 c7 92 bb a4 3a 26 3d 4e d2 91 bc
       -0.020085277 -0.004479403 0.040583268 -0.017800476
0002f0 cd b5 73 3d 29 e7 36 3c 2c 07 11 bb e8 22 08 3c
       0.05949955 0.011163511 -0.002212952 0.008309104
000300 9d e4 50 bc 09 77 80 3b 07 dd 1d bd 91 dd eb 3c
       -0.012749818 0.00392044 -0.038540866 0.028792175
000310 c1 b7 87 3b 04 91 ce 3a 62 ca 90 3c 9f 83 23 3c
       0.004141778 0.0015759771 0.017674629 0.009980111
000320 ec 92 c6 bc 45 82 19 bd f7 2b fd 3b be b4 10 3d
       -0.02423998 -0.03747775 0.0077261883 0.03532862
000330 9e b9 ad 3c fb dc d3 bb 29 5b 09 3c ef 59 1c 3b
       0.021206673 -0.006465552 0.008383551 0.0023857316
000340 06 b1 2e ba de ee 18 3b e9 eb 4f 3c 15 12 04 3c
       -0.0006663952 0.0023335735 0.012690523 0.008060952
000350 e7 5e 38 3c 37 fb 6e 3c d5 4a 12 bc 8a f5 5c 3c
       0.011253095 0.0145862615 -0.008928974 0.013486275
000360 ab 9a 74 3b 01 d2 fa 3c 0d e5 96 bc 11 e1 d9 3c
       0.0037323635 0.030617716 -0.018419767 0.026596578
000370 33 1f cc bc 66 eb 9d bc 99 fa 58 bc 5a 97 7e 3c
       -0.02491722 -0.019277286 -0.013243341 0.015539015
000380 d5 1c 8d 3c 79 ce 3b bc 7f 63 e8 bc 29 63 0e 3d
       0.017225662 -0.011462801 -0.028367756 0.034762535
000390 46 51 2e 3c 23 73 39 bc fc 6a 08 3d 97 c3 a4 3b
       0.010639494 -0.011318955 0.033305153 0.005028199
0003a0 be b3 b8 3b 95 29 b7 ba db 37 24 ba 96 82 a4 bc
       0.0056366613 -0.0013974184 -0.00062644266 -0.0200818
0003b0 40 28 3d 3b 1d 59 9a ba a3 32 22 3c b0 c3 b9 3a
       0.0028863102 -0.0011775825 0.009899768 0.0014172699
0003c0 b9 26 36 3c 5a 26 53 3c ff c1 a9 3c a1 03 e5 bc
       0.011117631 0.012887562 0.020722387 -0.027955832
0003d0 2d 9a dd bc 48 6e 21 3c a0 80 d6 3c 8d c9 d7 3b
       -0.027051056 0.009852953 0.02618438 0.006585306
0003e0 fb 15 50 bc e8 66 73 3b 0b d1 17 3c d1 fb a9 3b
       -0.012700553 0.0037140194 0.009266148 0.0051874896
0003f0 dc 63 2f 3c 3a 99 90 3c 92 bc 08 bc 06 e9 06 bb
       0.010704961 0.01765119 -0.00834574 -0.002058567

weight f4 [8]
000000 e9 53 83 3f 03 f3 81 3f df b1 84 3f dd 37 86 3f
       1.0259982 1.0152286 1.0366782 1.0485798
000010 33 11 86 3f e2 e7 85 3f 19 69 83 3f 78 4b 7f 3f
       1.0473999 1.046139 1.0266448 0.9972453

bias f4 [8]
000000 9e 93 de 3c ca 55 50 3b f2 7f e8 3c 1c bf 8b 3c
       0.027169999 0.0031789416 0.028381322 0.017058901
000010 6e 9a 0e 3c 1f 66 af 3b 6a 55 9a ba bc 0a df 3c
       0.008703811 0.00535275 -0.0011774723 0.027226798

running_mean f4 [8]
000000 4f 99 00 be b8 92 fa bc b1 45 a8 3d 38 08 ad 3d
       -0.12558483 -0.03058754 0.082164176 0.08448833
000010 6c 46 2d be bf 39 9e 3d f8 47 c5 3d 1e a8 f7 3c
       -0.16921395 0.07725858 0.096328676 0.030231532

running_var f4 [8]
000000 54 cf 8b 3b ef 08 8e 3b 72 d1 96 3b 54 8d 8c 3b
       0.004266659 0.004334561 0.0046026045 0.0042893086
000010 79 5e 18 3d 75 f0 b3 3b f6 e5 ee 3b 5e 45 55 3b
       0.03719947 0.005491311 0.007290597 0.0032542567

weight f4 [97, 8, 3, 3]
000000 b6 6e 41 bc d6 a3 84 3c ca 6a 64 3d 2e 59 94 bc
       -0.011806181 0.016191404 0.055765904 -0.01810893
000010 7f 86 bb bc ce 33 9d bc f8 04 15 3d c0 4a 8e bc
       -0.022891281 -0.019189741 0.03638169 -0.017369628
000020 8a f4 7d 3c a8 39 ae 3b 90 c8 09 3d 89 7d 37 bb
       0.015500197 0.0053169318 0.033638537 -0.0027998409
000030 2e 17 0c bb c8 99 b7 3c 5c d7 7c bc 1b 1e 2e bc
       -0.002137612 0.022412196 -0.015432205 -0.010627295
000040 a5 b0 8b 3a d3 2a a1 3b d8 c2 e7 bc b6 d5 88 bb
       0.0010657503 0.004918435 -0.02829115 -0.004175867
000050 23 cb 5b 3c 2a 98 83 bc 39 01 fd 3b fa 47 7a bc
       0.013415131 -0.016063768 0.007721093 -0.01527595
000060 ff 23 06 bc 36 3f e1 bc 1b ca cd 3c 28 b2 2e bb
       -0.008187293 -0.027495962 0.025120785 -0.0026656482
000070 0e 8d c9 3c ee 42 be 3c 03 66 e0 ba 80 2c a6 3c
       0.024603393 0.023225274 -0.0017120246 0.020284891
000080 3c 53 a0 3c a0 fd 17 3d 8c e6 80 3c 0e 84 9e bc
       0.01957094 0.03710711 0.015734933 -0.019350078
000090 8b 07 d1 3c f7 a9 80 3d 4d 3d 18 bc 07 3d 54 3c
       0.025516292 0.06282418 -0.009291959 0.012954003
0000a0 37 8d e1 3c 81 1a 21 bc c2 0d e9 3b 62 8e 99 3b
       0.027533157 -0.009832979 0.0071122358 0.004686163
0000b0 38 7d 9f bc 4a 82 a4 3c 60 eb 97 bc e6 d3 f6 bc
       -0.019468889 0.020081658 -0.018544853 -0.030130338
0000c0 8b ec bd 3b 52 e4 5b bc 51 90 e5 bb a8 9f 91 3c
       0.0057960204 -0.013421135 -0.0070057292 0.017776325
0000d0 c1 f6 d4 3c 84 ee 0c 3c 9f 26 8d bd 08 84 61 bc
       0.025996568 0.008601788 -0.06892132 -0.013764389
0000e0 b8 61 04 3c ab 22 ca 3c c8 26 de bb 29 09 35 3d
       0.008079939 0.024674734 -0.0067795254 0.04419819
0000f0 6f 1c 2c 3d 4c aa 7c 3c db 03 4e 3d db 6d 61 bc
       0.042019304 0.015421461 0.050296646 -0.013759102
000100 56 4e 75 3c 40 f4 ba 3c 8b 5e 33 3b 71 58 c5 bb
       0.01497229 0.022821546 0.0027369584 -0.006022506
000110 09 aa 2e 3b 11 a5 85 3a 3f 6d ef 3c 42 b0 90 3c
       0.0026651642 0.0010196288 0.029226897 0.017662171
000120 48 a2 09 3d ff 92 26 3d f6 a9 89 bb 08 56 22 bd
       0.03360203 0.04066753 -0.004201169 -0.039632827
000130 d5 b6 69 bd 18 69 3a 3c bb dc 81 3d 90 20 a8 3c
       -0.057059128 0.011377595 0.06340929 0.02052334
000140 23 46 dd 3b cc 03 87 3c 70 76 bd bc 3a 5a ec 39
       0.0067527457 0.016481303 -0.023127764 0.00045080652
000150 6f 6c f8 3b 97 a6 b4 bc 0e 12 20 3d fa fc de bc
       0.0075812857 -0.022052092 0.03907972 -0.027220238
000160 ff c4 1b bd f6 cc 74 bc 5e 07 49 3c 1a 39 2f 3b
       -0.038029667 -0.014941445 0.012269823 0.0026736916
000170 ab da e4 3c f5 4e e2 bc 3d 9a b8 bb f4 86 59 3d
       0.0279363 -0.02762554 -0.005633621 0.053107217
000180 ba 84 97 ba ef 9e fa bb e4 8b 9f 3b 45 c8 dc bb
       -0.0011559941 -0.007648341 0.004868971 -0.006737741
000190 12 94 14 bc 0e 0e 16 bd 1a 87 8b 3c c9 e5 7d bd
       -0.009068506 -0.036634497 0.017032195 -0.06198672
0001a0 ce 54 9f bb ce e1 37 3d 8f 12 8c 3c 9e b2 04 3c
       -0.0048624044 0.04489308 0.017098693 0.008099226
0001b0 c2 36 64 3d 90 06 fa 3c 41 48 29 3b 60 2d 29 bd
       0.055716284 0.030520707 0.002583042 -0.04130304
0001c0 26 df 00 3d 8f 18 a7 bc 02 9b 35 3c c4 9e 82 3b
       0.03146281 -0.020397453 0.01108432 0.0039862115
0001d0 66 f6 3b 3c c1 a4 3f bc cc 67 3c 3d 89 17 c6 bb
       0.01147232 -0.011696995 0.045997426 -0.006045286
0001e0 a7 4d 9a 3c ab 92 00 bb f5 ba 5a bb 8f 9f 24 3d
       0.018835856 -0.001961867 -0.0033375595 0.04019123
0001f0 31 ba 94 3d df ee 58 3b ff 8e 6b bc 36 4f cc bc
       0.07262076 0.0033101363 -0.014377355 -0.024940114
000200 e0 d9 a3 3c 3b 34 17 bc 99 3f 89 bc a5 88 0b 3c
       0.020001352 -0.009228761 -0.016753959 0.008516465
000210 de e8 0f bd 06 5b 18 3c e5 fc eb 3c 2c 6f ff bc
       -0.03513419 0.009299045 0.028807113 -0.03118094
000220 72 e9 8b bd 2f cf 6f bd eb ea e6 3c 3c da 80 3c
       -0.068316355 -0.058547195 0.02818819 0.015729062
000230 96 8f ac ba a5 9b 0b 3d 9c b5 a5 3c 2a 4f bc bc
       -0.001316535 0.03408398 0.0202282 -0.022986967
000240 d2 84 ec bc 1e 07 69 3b 64 9e 0e bd a3 56 be bc
       -0.028871927 0.003555722 -0.03481902 -0.023234671
000250 e3 6d c9 3c 8a 63 2e 3c 41 77 98 bc 19 c1 13 3d
       0.02458853 0.010643849 -0.018611552 0.036072824
000260 69 47 87 3c d1 78 e4 3b ce 99 70 3c d5 7d 1f bd
       0.016513543 0.0069724103 0.014685107 -0.038938362
000270 af d2 18 3d b6 40 b6 bc 5f 60 b3 3b 0b 83 35 3c
       0.0373103 -0.022247653 0.005474135 0.011078606
000280 60 08 36 3b 2b 90 6e bc 1b a9 1e bd dc 6f 6b ba
       0.0027775988 -0.0145607395 -0.03873549 -0.0008981207
000290 d4 3c 7f ba 6f 7b 02 3d c1 49 8e b7 b1 a0 77 ba
       -0.0009736542 0.031855997 -1.6962063e-05 -0.0009446247
0002a0 29 d8 d7 3c fb e7 ee 3a 81 ff 9b 3c 29 43 3a 3a
       0.02634819 0.0018227095 0.019042732 0.00071053446
0002b0 ee 46 56 3c 53 81 af bc 8f 7e d6 3c 3e c6 81 ba
       0.013078434 -0.021423971 0.026183395 -0.0009901
0002c0 eb d6 ae bc 06 12 81 3d da f9 e1 3a b9 d1 83 3c
       -0.021342715 0.06302266 0.0017240599 0.016091214
0002d0 7d 7e b6 3b dc 35 e6 bc c0 92 2b bb e5 05 20 ba
       0.005569278 -0.028101854 -0.002618 -0.0006104394
0002e0 fe 8a 89 3b 95 98 7d bb 91 4c 99 3b 1d 74 27 bc
       0.0041974774 -0.0038695682 0.004678317 -0.010220555
0002f0 28 ea 3f 3c b9 db d9 ba 34 ab 9d bc 06 cf 06 3d
       0.011713542 -0.0016621269 -0.019246675 0.032912277
000300 a3 2c 8d 3c 3e 88 c0 3b 46 95 9a 3c dc 30 a1 bc
       0.017233199 0.0058756163 0.018870007 -0.019676618
000310 ca a7 55 3c 3a 87 a6 3a 23 0c 1b bc 1f 6d d3 bb
       0.013040492 0.0012705096 -0.009463343 -0.006452217
000320 5f a9 97 3c 4c 71 d1 bb d7 05 34 bd dc cd 12 3c
       0.01851338 -0.00639168 -0.04395088 0.0089602135
000330 cf 58 cd 3c 5c 7c 09 bc a9 22 51 bd cd 87 2c bd
       0.025066761 -0.008391466 -0.051058445 -0.042121697
000340 2f 91 8f 3c 87 3a ac 3c 96 d3 5a bd ed 9a 9f 3c
       0.017525284 0.021024002 -0.05342444 0.019483054
000350 30 fa 12 3c cc 06 02 3d ce 6c 30 bc 36 61 a4 3c
       0.008970782 0.031744763 -0.010768129 0.020065885
000360 54 2d f8 bc 4a d3 57 3b cd c5 3d bd 25 cb cc bb
       -0.030295052 0.0032932335 -0.046331216 -0.0062498027
000370 d5 3e a7 ba f5 3d 2e 3d e6 0b 11 bd 07 3e e3 3b
       -0.0012759814 0.042539556 -0.035411738 0.0069348845
000380 5c 66 66 bb 7b 11 1f 3d d7 87 0c 3d d7 55 f0 bc
       -0.0035156226 0.03883503 0.034309234 -0.029337807
000390 41 e2 71 3c 06 04 bd 3b 7d 85 06 bc 4f c0 0d bb
       0.014763416 0.005768302 -0.008210537 -0.0021629517
0003a0 f8 56 91 3b 0d 40 de 3c e0 49 df 3c 90 57 ce 3b
       0.0044354163 0.027130151 0.027256906 0.0062970594
0003b0 5a 0d 45 bd 8e 8d c7 3c ca dd 8c 3b db 01 08 bb
       -0.048108436 0.02435949 0.0042989003 -0.002075306
0003c0 ee 35 ba bb 83 2a 9a bc 0f de f0 3b 61 0c a9 3a
       -0.0056826985 -0.0188191 0.00735069 0.0012897366
0003d0 25 cc 7e 3c 35 d7 a2 bc c5 5c af 3c 2d d1 27 3c
       0.015551602 -0.01987801 0.02140654 0.0102427425
0003e0 14 0e 0f bc 5f b5 e4 3c 1a fd 08 39 5b d3 b8 bc
       -0.008731384 0.027918516 0.00013064258 -0.02256172
0003f0 46 bb b9 bc 49 e0 51 bd 69 c3 20 3d 22 d8 cf 3b
       -0.022672307 -0.051239286 0.039248858 0.0063429037

bias f4 [97]
000000 8d cd ce 3c cb b7 1d bd e9 bf 84 bd 3b 86 79 3d
       0.025244499 -0.038505357 -0.064819165 0.060919028
000010 cd 8f a6 bd fd 7a 06 bc d7 34 5b 3d 35 12 e8 3d
       -0.081328966 -0.008208034 0.05351719 0.11331598
000020 fc b9 c1 3c dd f9 7d bd c2 24 50 bd 2e ae 64 bc
       0.023648255 -0.062005866 -0.050816305 -0.013957543
000030 b9 40 de bc 03 bd f0 3d 82 03 89 3d 65 b2 ff bc
       -0.027130472 0.11754801 0.06690122 -0.031212995
000040 ca 43 7f bd c2 09 b5 3d 17 01 c1 3d ff c2 41 bd
       -0.062320508 0.08839752 0.09424036 -0.047305103
000050 78 36 df bd bf d9 d2 3d 20 c0 87 bd 33 e8 8e 3d
       -0.10899061 0.10295438 -0.06628442 0.06977882
000060 ce 20 16 bd ff b0 fc 3d 4d 64 c0 3d 64 d0 47 3c
       -0.03665238 0.12338447 0.09394131 0.01219568
000070 ab 53 83 3c ad 07 9f 3d 72 f2 73 3c b8 cc fd 3d
       0.016031107 0.07765136 0.014889346 0.12392563
000080 db bf 2f bd ae aa 00 3d 39 c0 1a 3d 24 3f 2e 3d
       -0.042907577 0.031412773 0.037780974 0.042540684
000090 83 f2 5f 3d c0 56 82 bd d7 a0 f7 bc e2 72 82 bd
       0.054674637 -0.063642025 -0.030228062 -0.063695684
0000a0 13 da c0 bc 91 3e d3 3d 74 33 3d 3d 83 e4 55 bc
       -0.023541486 0.10314668 0.046191648 -0.01305497
0000b0 b1 e4 6d bd dc 41 1b 3d 0f c4 c3 3d 36 d1 89 3d
       -0.058079425 0.037904605 0.095588796 0.06729357
0000c0 bf 12 ae bd d4 9b 8e bd a2 0b e2 3d 81 f8 70 bb
       -0.08499669 -0.069633156 0.11037375 -0.0036769214
0000d0 79 2a e8 3d ea 81 d9 3d 21 0f 74 bd 68 a0 51 3d
       0.11336226 0.10620482 -0.05958474 0.051178366
0000e0 32 d0 97 3d 3b cd 29 bc de bd 61 3d 84 0d ff 3d
       0.07412757 -0.010363872 0.055112712 0.1245375
0000f0 13 d4 d8 ba 3b 00 f5 3c 00 76 bb 3d ce 48 85 3d
       -0.0016542695 0.029907336 0.09153366 0.06508027
000100 b4 31 bc 3c 9f 00 7e 3c 32 7a 2c 3d a7 f1 9b 3d
       0.022972919 0.015503078 0.042108722 0.07614451
000110 97 a2 d1 3d 72 7d 5f bd 62 2b 22 bd 78 2e b4 bd
       0.1023609 -0.054562993 -0.039592154 -0.08797926
000120 e7 97 f2 bc 5c 9d 29 bc 4a 27 db ba 18 cf ce 3c
       -0.029613448 -0.010352459 -0.0016720083 0.025245234
000130 3f fb 4f bd ee 2d 18 bd 03 8e 49 bd 15 e6 a9 3c
       -0.050776716 -0.037153177 -0.0492077 0.020739594
000140 b5 96 8e bd f8 31 f7 bc 43 c5 d3 bd a8 8d 1a bd
       -0.06962339 -0.030175194 -0.10340359 -0.03773275
000150 e0 b4 89 bd 9e c1 17 3d 85 8b 2f bb 52 e0 d2 bd
       -0.06723952 0.037049882 -0.002678604 -0.10296692
000160 ff f0 ce 3d 5d 10 cd bc a7 c6 1d bd 17 64 0e 3c
       0.1010456 -0.025032217 -0.038519528 0.0086908555
000170 2e 9f 77 bd da d0 e0 3d ff 51 a6 3d 95 81 7b 3d
       -0.06045454 0.10977335 0.08121108 0.061402876
000180 a4 55 7a bd
       -0.06111683
