loggers/h256_w256_bs20_in_channel1_lr0.0003/0512_0052/models/BasicModel_82.pth (torch, 40207 bytes, 17 tensors)

weight f4 [2, 1, 3, 3]
000000 60 c7 67 ba f2 6a 6f bc ea 18 e6 bb 0d 46 e3 3c
       -0.000884166 -0.0146129 -0.007022013 0.027743364
000010 1f 95 4c 3a bb a0 8a 3b 6a c4 aa 3c ff 13 24 bc
       0.0007804203 0.0042305863 0.02084561 -0.010014533
000020 9e 0d 57 bc f4 64 b5 3b fa c2 65 38 c1 13 e0 3c
       -0.013125805 0.005535716 5.477944e-05 0.02735317
000030 66 71 05 bd b8 2f 29 3c 9a 83 cc bb b0 d5 cc 3c
       -0.03257885 0.010326318 -0.006241274 0.025004238
000040 58 b8 8f bc 9f 35 ab bc
       -0.017543957 -0.020899592

weight f4 [2]
000000 fa ce 7d 3f 78 5a 80 3f
       0.99143946 1.0027609

bias f4 [2]
000000 ab 88 db bb 1f 10 99 bc
       -0.0066996417 -0.018684445

running_mean f4 [2]
000000 b7 2b d5 3d 1e 07 ef bd
       0.104087286 -0.11671279

running_var f4 [2]
000000 18 c6 d9 3d b4 6f 11 3e
       0.106334865 0.14202768

weight f4 [4, 2, 3, 3]
000000 e6 c6 9f bc c5 d5 e3 bc bd de 7b 3b 61 43 10 bc
       -0.019504022 -0.027811894 0.0038432323 -0.008805127
000010 a6 9c 07 bd 23 5b 7f 3b a0 01 6b 3b c9 e8 5c 3c
       -0.033108376 0.0038964234 0.0035859123 0.013483235
000020 06 67 c7 3b 51 6f 6c bc 79 94 bb bc f4 98 04 bb
       0.0060852794 -0.014430837 -0.022897946 -0.0020232769
000030 4f 0c 2f 3d d2 1d 64 bc 5d 2e 38 3c a9 5e b3 3b
       0.042736348 -0.013923125 0.011241523 0.005473931
000040 2e cc d7 bb 3f 86 47 bc 1a 2e 16 bd e5 de 2a 3c
       -0.0065856194 -0.012178003 -0.03666506 0.010429119
000050 40 53 9a 3a 32 ff 22 3c f6 85 0f bb c2 5e 6b bc
       0.0011774078 0.009948539 -0.0021899915 -0.014365854
000060 bc 78 34 3c c6 48 64 bd a8 e4 2b bc cf 03 ec bb
       0.011015113 -0.055733465 -0.010491528 -0.0072026025
000070 88 08 01 bc 89 1a 81 3c 48 37 44 3c d3 c2 41 3d
       -0.007875569 0.015759723 0.011976071 0.04730494
000080 b6 4b ee 3c 09 9e 18 3d 78 dd 32 3c 10 5d ac 39
       0.029088836 0.03726009 0.01091706 0.00032875733
000090 7b 51 cc 3c 71 fc 1f bc 70 b7 e5 bb f5 92 28 3d
       0.024941197 -0.009764777 -0.007010393 0.041155774
0000a0 23 88 8a bc ce 1d 99 bc 97 28 b7 bb b5 19 3c 3c
       -0.016910618 -0.01869097 -0.0055895555 0.011480738
0000b0 bd fe af 3c b1 41 6b 3c c9 13 6f 3c cc 5a ee 3c
       0.021483773 0.014358924 0.0145921195 0.02909603
0000c0 93 5f 11 3c e7 9b be 3c bf 6a a3 3c 1a ec e2 bb
       0.008872884 0.0232677 0.019948361 -0.006925118
0000d0 18 43 9b 3c 53 9f fa 3b a9 74 28 bd a6 13 ec 3b
       0.018952891 0.0076483875 -0.04112688 0.0072044907
0000e0 04 a2 33 3c d1 b4 d4 3b 7e 0d 4c bd b6 2c d4 bb
       0.0109639205 0.0064912816 -0.049817555 -0.0064750565
0000f0 35 27 c4 bc cd a9 a2 3c 07 3f ec bc a7 ce ea bb
       -0.023944477 0.019856358 -0.028838648 -0.007165748
000100 2b af ca 3b 76 a8 9c ba 16 6c 51 bd 1b d6 55 bb
       0.0061854324 -0.0011952061 -0.05112847 -0.0032628838
000110 f1 4e e6 3b 99 1a 07 3c 30 7a e9 3a 87 c0 57 bc
       0.0070284535 0.0082460875 0.0017812904 -0.013168461

weight f4 [4]
000000 de 2b 84 3f 40 69 7f 3f 63 ed 80 3f 55 69 82 3f
       1.0325887 0.99769974 1.0072445 1.0188395

bias f4 [4]
000000 e9 f6 f1 bb 86 d6 c7 bb b6 f5 9c 3c 17 29 7d 3c
       -0.0073841703 -0.0060985712 0.019160133 0.015451691

running_mean f4 [4]
000000 47 64 95 bd d4 a4 45 3d 30 f5 31 3e 54 e3 27 be
       -0.07294517 0.048252895 0.17378688 -0.16395313

running_var f4 [4]
000000 f4 22 e4 3b 58 45 5e 3c d3 17 4c 3c 21 f2 64 3c
       0.0069621745 0.0135663375 0.012456852 0.013973744

weight f4 [8, 4, 3, 3]
000000 a3 2e 02 3c 18 6a ac 3c f7 24 88 bc b8 b3 0a bb
       0.007945689 0.021046683 -0.016619189 -0.002116425
000010 67 3e 22 bd f0 41 14 3b 14 0c e9 3c 63 8d 98 bc
       -0.039610293 0.002262231 0.028448142 -0.018622106
000020 b4 75 a4 3c 1a f5 66 bc 8a cf 23 3d 89 f9 9a 3c
       0.020075656 -0.014096523 0.039992847 0.018917816
000030 38 36 30 bd 6d 96 d7 3c c8 52 fc 3b a8 42 d2 3c
       -0.043020457 0.026316846 0.007700298 0.02566655
000040 ff 80 30 bc c1 91 bb bb b7 c3 3f 3c a8 82 bf bc
       -0.010772943 -0.0057241623 0.011704377 -0.023377731
000050 a2 ae d0 bc a0 ac f4 bb 5a 30 01 3b 21 9e 2e bc
       -0.025473896 -0.0074668676 0.0019712658 -0.010657818
000060 ca c3 1a 3a c1 54 b3 3c 98 b8 0f bd 0d 12 89 bb
       0.00059038086 0.021891 -0.03508815 -0.00418306
000070 a9 ad 1b bd da ed 8b 3b ed bb 95 bc a2 46 1c ba
       -0.038007412 0.0042702975 -0.018278087 -0.0005961453
000080 34 9b cd bc f8 39 51 ba af 33 87 bc 18 37 2a bd
       -0.02509842 -0.00079813553 -0.016504137 -0.041556448
000090 7b 07 c2 3b dc 34 bb bc 8f b1 52 39 19 96 95 3c
       0.005921302 -0.022852354 0.00020093306 0.018260049
0000a0 dd ca 99 3c 23 2a 89 3c 8e 81 29 3c ad cf 17 3d
       0.01877349 0.016743725 0.01034583 0.03706329
0000b0 80 0f 3a 3b cd bc 3a bc d6 3b d5 3b 42 9b 24 bc
       0.0028390586 -0.011397553 0.006507377 -0.010046782
0000c0 b4 d3 19 3c 5f 41 33 bb 61 e7 63 3c 84 46 61 bc
       0.009388853 -0.0027352197 0.0139101455 -0.013749722
0000d0 2b 6f 93 bc a5 92 1f 3c ed fd eb ba b1 35 db bc
       -0.017997345 0.009739553 -0.0018004753 -0.026759
0000e0 3f 4c c5 3b b3 01 b1 3c 4a 68 8a bb e4 17 c1 bb
       0.006021052 0.021607256 -0.004223858 -0.0058927406
0000f0 3e 25 d2 bc 20 e7 f2 3c 68 ce fa bc 32 ac b3 bc
       -0.025652524 0.029651225 -0.030616 -0.021932695
000100 67 a9 cc bc 39 8e 2c bc f1 c0 bc 3c 56 f0 93 3c
       -0.024983121 -0.010531955 0.02304122 0.018058937
000110 f8 24 91 bc db 36 17 3c 1c 8f 9a bc c4 95 25 bd
       -0.017717823 0.009229387 -0.018867068 -0.04042603
000120 e4 ff 00 3d 43 7c 86 3c 19 08 b4 3c cb 67 ea bc
       0.031494036 0.016416674 0.021976518 -0.028613945
000130 c9 e4 91 bc d6 e4 54 bc ac db 3b 3b 6b 26 46 bc
       -0.017809289 -0.012994012 0.002866487 -0.0120941205
000140 c3 ef c4 3c 7d 5b 0a bd 8c e1 58 bb e1 1c 7e 3b
       0.024040109 -0.033778656 -0.003309342 0.0038774537
000150 df 07 b0 3c 02 b7 d2 bc f0 60 a1 3c 6d bd 4f 3c
       0.021488128 -0.02572203 0.019699544 0.01267944
000160 10 aa 23 3a 90 59 9d 3b b3 65 f8 bc 45 7c 54 ba
       0.0006243298 0.0048019364 -0.030321931 -0.0008105676
000170 c7 9c 21 3c 8b 82 c1 3c 75 65 1d 3d 76 3a 54 bc
       0.009864039 0.023621818 0.038426835 -0.012953391
000180 b8 a6 9c bc 95 2e 75 3b 59 bd 52 bc 61 bb 6c 3c
       -0.019122466 0.0037411798 -0.012862527 0.0144489715
000190 40 a9 39 bc 7f 03 c1 3b a0 1c 5f 3d c1 42 6a bc
       -0.011331856 0.0058903093 0.05447066 -0.014298142
0001a0 14 91 9f b9 10 c4 9f 3c 8b 9d c4 3c c1 8f b5 3b
       -0.00030434935 0.01950267 0.024000904 0.0055408184
0001b0 5a 81 56 bc d7 fe 84 bb 32 5b 8a bc 31 46 13 3d
       -0.013092363 -0.0040586996 -0.016889188 0.03595561
0001c0 bc 34 f7 bc cb 04 9d bb 97 62 a6 3b fe e6 6a 3c
       -0.030176513 -0.004791831 0.005077671 0.014337299
0001d0 43 49 d5 bc cf 2c 10 3c 89 53 a8 bb 3b 26 57 3c
       -0.02603591 0.008799746 -0.0051369113 0.013131673
0001e0 7b 00 84 ba e1 14 a6 bc e4 a7 de 3c 68 00 c1 3c
       -0.0010070944 -0.020273628 0.027179666 0.023559764
0001f0 5c a9 58 bc c9 62 36 ba fc 6a 94 3c 53 35 83 bb
       -0.013223972 -0.0006957469 0.01811742 -0.0040041595
000200 f1 70 fc 3b af c1 b4 3c 5b 1b 0e bd 74 99 20 bc
       0.0077038934 0.022065012 -0.034694057 -0.009802211
000210 53 ff 91 3c ae 91 7f bc 0d e8 1c 3b 6f 58 5a 3b
       0.017821943 -0.015598698 0.0023942024 0.003331687
000220 0d d5 20 3c fa f2 2a 3d 96 73 13 bc 55 e0 f8 3c
       0.00981642 0.041735627 -0.008999726 0.030380407
000230 44 84 b0 3b c6 06 31 3c c2 06 3c 3d bd a7 0b bd
       0.005386861 0.010804838 0.045904882 -0.034095515
000240 d3 19 0e bc 20 f9 ad bc 7e 52 57 bc bd ef c7 3c
       -0.008673149 -0.021236956 -0.013142226 0.024406308
000250 0d c9 7b 3a 3c 24 a6 3a 2a 80 18 3d 78 25 da 3c
       0.0009604849 0.0012675594 0.0372316 0.026629195
000260 1f cf 52 3c 48 fe 19 3c 87 61 81 39 b6 49 71 bc
       0.012866764 0.009399004 0.0002467746 -0.014727047
000270 01 0c df bc a7 9b 1d bd 16 53 9e bc 71 d4 2f 3b
       -0.027227404 -0.03847852 -0.019326728 0.0026829506
000280 32 a1 fe bc b4 ff ca 3b c0 24 b1 bc 06 2c 1f 3c
       -0.031082723 0.006195033 -0.02162397 0.009715086
000290 63 41 6c bc 8d b9 6f bb b4 81 1f bd bf cf b2 3c
       -0.014419886 -0.0036579103 -0.038942054 0.021827577
0002a0 f6 16 cd bc 4e a8 d3 bc 1c 69 aa bc e7 8a 05 bc
       -0.025035363 -0.02583709 -0.020802073 -0.008150793
0002b0 66 e8 94 3c e9 16 a8 bc 67 a3 25 3c 93 93 ae bc
       0.018177222 -0.020518737 0.010109759 -0.021310603
0002c0 d2 dd c2 3c 60 bf 51 3c 14 4b 85 3b 9a e5 81 3b
       0.023787413 0.012801975 0.004067788 0.003964138
0002d0 23 42 b1 3b 27 19 6a 3c 8a 05 d6 bc 2d 6a 5d bd
       0.0054094954 0.014288223 -0.026125688 -0.054056335
0002e0 06 c6 83 bc 2c 14 c7 bb d6 73 2f 3d 69 cc 93 bc
       -0.016085636 -0.0060754027 0.04283508 -0.018041806
0002f0 77 b2 67 3d 0a 4a 3a 3c 61 36 d4 ba 74 87 06 3c
       0.05656668 0.011370191 -0.0016190523 0.0082110055
000300 60 c1 44 bc e1 4a 25 3b f8 ca 1e bd 0d ab ea 3c
       -0.012008995 0.0025221633 -0.038767785 0.028646016
000310 89 25 fb 3b 6b c4 14 3a 2d a4 85 3c 60 8f 28 3c
       0.0076643866 0.00056750205 0.016313637 0.0102880895
000320 78 30 c0 bc b9 dd 18 bd 7d 29 0c 3c 9f 4a 0d 3d
       -0.023460612 -0.037320826 0.008554813 0.034494992
000330 63 0d a2 3c f1 cd e3 bb ad 9e 23 3c a4 98 84 3b
       0.019781774 -0.0069520404 0.009986562 0.0040465165
000340 d4 57 a4 ba 79 c2 54 3b 83 3c 50 3c 86 d1 98 3b
       -0.0012538382 0.0032464548 0.01270974 0.004663649
000350 df d1 17 3c 96 df 70 3c 93 92 f2 bb 72 e3 44 3c
       0.009266346 0.014701745 -0.007402727 0.012017118
000360 52 8d f9 3b 1c f0 f1 3c 44 18 a6 bc 77 03 a7 3c
       0.0076157236 0.029533438 -0.020275243 0.020387394
000370 eb 93 c2 bc e0 ea a1 bc 1d b6 11 bc 26 64 8e 3c
       -0.023752173 -0.019765317 -0.008893517 0.017381739
000380 8f 93 a4 3c 60 e8 57 bc a3 a7 ce bc 93 60 0b 3d
       0.020089893 -0.013177961 -0.02522642 0.034027647
000390 a9 a1 1a 3c e0 76 27 bc a7 4e 0b 3d fd 36 cf 3b
       0.009437957 -0.010221213 0.034010556 0.006323694
0003a0 09 91 6d 3b 7d 6b 24 ba 05 a3 85 ba a5 c5 af bc
       0.0036249778 -0.00062721205 -0.0010195678 -0.021456549
0003b0 15 89 70 3b d4 c4 56 3b d0 08 0f 3c 39 bc d1 3a
       0.00367028 0.0032771127 0.008730128 0.0016001529
0003c0 38 97 59 3c be 46 54 3c ea 8c 94 3c 0e a4 15 bd
       0.013280682 0.012956319 0.0181336 -0.036533408
0003d0 03 60 b9 bc fa e7 25 3c 9b 71 ca 3c 64 1c c9 3b
       -0.02262879 0.010126108 0.024712374 0.0061374176
0003e0 71 da 20 bc e0 86 07 bb 82 17 42 3c d2 8f 4b 3b
       -0.0098177055 -0.0020679757 0.011846425 0.0031061065
0003f0 2a 8d 29 3c 97 50 a3 3c e4 b8 31 bc 99 61 79 bb
       0.010348598 0.01993589 -0.010847304 -0.0038052558

weight f4 [8]
000000 0e 6a 81 3f 72 79 80 3f bc c0 82 3f 37 8d 84 3f
       1.011049 1.0037062 1.0215068 1.0355595
000010 21 db 84 3f 42 48 84 3f f9 bd 81 3f 51 7d 7b 3f
       1.0379373 1.0334551 1.01361 0.9823809

bias f4 [8]
000000 2a 16 98 3c 67 d8 05 3b 6f 3c ba 3c 27 10 45 3c
       0.018565256 0.0020423175 0.022733895 0.012027777
000010 7a ae a1 3b ff a7 63 3a 85 cc ad 39 a1 91 a9 3c
       0.0049341293 0.0008684396 0.0003314951 0.020699324

running_mean f4 [8]
000000 16 4d 01 be 42 a6 15 bd 83 86 aa 3d 92 63 8b 3d
       -0.12627062 -0.03653551 0.08326437 0.06806101
000010 24 f9 3e be 3c c3 93 3d 81 d6 de 3d c4 a4 e7 3c
       -0.18649727 0.072149724 0.10880757 0.028276809

running_var f4 [8]
000000 a3 f5 8f 3b 68 32 9d 3b f6 fc a2 3b 18 b1 8e 3b
       0.004393296 0.0047972687 0.004974003 0.0043546073
000010 e1 23 2e 3d 15 48 b8 3b 51 b6 07 3c c7 2b 5a 3b
       0.042514686 0.005623827 0.008283214 0.0033290253

weight f4 [97, 8, 3, 3]
000000 8f 80 41 bc 2c 6f 82 3c a2 1b 55 3d c8 3a 8f bc
       -0.011810436 0.015922152 0.052028306 -0.017484084
000010 d8 6b 85 bc c6 8b 63 bc b0 f5 07 3d 29 f5 63 bc
       -0.016286775 -0.013888305 0.03319329 -0.013913431
000020 89 23 a8 3c 0f 2b f7 3b 3b cf 0d 3d f9 17 01 bb
       0.020524757 0.007542975 0.03462146 -0.0019698127
000030 b2 b6 14 bb 99 eb bc 3c cb 68 81 bc 13 5f ee bb
       -0.0022691903 0.02306156 -0.01579704 -0.0072745173
000040 d6 47 3f 3b f6 a8 ce 3b 03 af af bc 8e dd 3e bb
       0.0029187105 0.006306763 -0.021445757 -0.0029123756
000050 51 db 1f 3c 7f 6d 47 bc 44 bb 0c 3c 63 18 a6 bc
       0.009756879 -0.012172102 0.0085895695 -0.0202753
000060 c7 b6 df bb fb 96 e5 bc f9 60 cb 3c 6a 4c 0c 3b
       -0.0068272087 -0.028026095 0.024826514 0.002140785
000070 62 64 c7 3c c1 e6 c9 3c be 2b f1 3a bd 44 8b 3c
       0.024339858 0.024646165 0.0018399877 0.01700055
000080 14 12 91 3c 3e 63 21 3d 2f c2 5d 3c 67 ae c1 bc
       0.017708816 0.039401285 0.0135350665 -0.023642732
000090 bb 84 c6 3c cf 4b 7e 3d be c5 26 bc f2 90 53 3c
       0.024233213 0.062084015 -0.010178981 0.012912976
0000a0 ae ea df 3c 0d d6 5d bc 17 f3 ac 3b c8 99 a2 3b
       0.027333584 -0.013539803 0.005278002 0.00496218
0000b0 03 09 91 bc e9 89 98 3c 15 93 a5 bc 0e 84 f4 bc
       -0.017704492 0.018620448 -0.020211736 -0.029848125
0000c0 a1 2e b9 3b 69 68 1f bc bc c8 d6 ba 3a f7 95 3c
       0.0056513106 -0.009729483 -0.0016386728 0.018306363
0000d0 42 09 dc 3c e1 6b 1c 3c c9 7a 7b bd 7e ce 30 bc
       0.026859883 0.009547205 -0.061396394 -0.010791419
0000e0 a8 80 04 3c e4 39 bf 3c f7 c3 06 bc 4f 98 2b 3d
       0.008087315 0.023343034 -0.008225433 0.0418933
0000f0 44 ee 1b 3d 74 22 38 3c be 1c 3f 3d 9c 27 54 bc
       0.038069025 0.011238683 0.04665827 -0.012948897
000100 05 4a 7b 3c b4 a3 c8 3c e8 12 9c b9 90 fa fd bb
       0.015337472 0.024492122 -0.00029768725 -0.0077508166
000110 48 91 05 3c 6f 67 2a 3b 8e 93 ce 3c 0d a7 60 3c
       0.0081523135 0.0026001593 0.025216844 0.013711703
000120 c7 7d 04 3d e3 3b 1e 3d 7d 11 22 bc 14 eb 20 bd
       0.032346513 0.03863133 -0.009891865 -0.039286688
000130 77 dd 4e bd 1e e1 41 3c 32 19 66 3d 93 d3 d1 3c
       -0.050504174 0.011833457 0.056176372 0.025613582
000140 2d 8e ea 3b 1d 66 92 3c de 88 af bc 86 6e 1d 3b
       0.007158062 0.017870957 -0.021427568 0.0024022176
000150 91 fe fb 3b b2 65 ae bc 4e 6f 16 3d 24 46 bf bc
       0.007690259 -0.021288726 0.036727242 -0.023348875
000160 3d c0 09 bd aa 0e 8c bc 7b ee 52 3c 00 b3 2c 3b
       -0.0336306 -0.017096836 0.012874241 0.002635181
000170 96 73 cd 3c c3 88 d0 bc 30 59 58 bb a7 5e 4f 3d
       0.02507953 -0.025455838 -0.0033012144 0.050627377
000180 fa bf c2 ba 5d 62 af bb 24 f5 1d 3c b7 81 d6 bb
       -0.0014858239 -0.005352302 0.009640966 -0.006546225
000190 77 f7 fb bb be f2 02 bd c9 6a 84 3c ad 2b 72 bd
       -0.007689412 -0.03196978 0.0161642 -0.059123684
0001a0 c3 6f 93 bb 91 3b 3b 3d af 2c 94 3c fe c9 ce 3b
       -0.004499407 0.045711104 0.018087713 0.0063107004
0001b0 aa 92 61 3d e5 f6 fe 3c 3a a6 65 3b f5 2a 21 bd
       0.05507151 0.031123588 0.0035041706 -0.039347608
0001c0 7b 75 05 3d 1e c9 ac bc d1 4d 2d 3c 54 55 ba 3b
       0.03258274 -0.021091994 0.010577635 0.0056864414
0001d0 d9 ce 51 3c 2f 43 b5 bc 60 61 13 3d 22 ea 6a bc
       0.012805664 -0.022126762 0.035981536 -0.014338048
0001e0 6c e4 50 3c 6e 5f d7 bb 16 e4 5e bb f4 7b 01 3d
       0.0127497725 -0.0065726554 -0.0034010462 0.03161235
0001f0 7d 66 8a 3d df 4f 8b 3b 67 88 19 bc e3 22 a2 bc
       0.06757829 0.0042514647 -0.0093709 -0.019792026
000200 64 bb 78 3c 3a d1 a3 bb e9 a7 43 bc 4f 7f 0f 3c
       0.015181396 -0.004999307 -0.011941888 0.00875838
000210 8a cd 1a bd bb 0e 39 3c e3 e4 ef 3c 5c 3d df bc
       -0.037793674 0.011295016 0.029283946 -0.027250938
000220 a2 15 87 bd 85 e8 51 bd 18 e1 b7 3c 2e 04 76 3c
       -0.06595923 -0.05124714 0.0224462 0.015015645
000230 db 36 92 3a 12 78 06 3d 31 08 8a 3c d2 b5 cb bc
       0.0011155264 0.03282935 0.01684961 -0.024866972
000240 ed d0 b5 bc 0f ed 10 3c 71 2d 19 bd 81 f4 7c bc
       -0.02219435 0.008845582 -0.037396852 -0.015439154
000250 63 93 d9 3c e3 8c 20 3c 51 66 ab bc 6e 27 ee 3c
       0.026559537 0.009799215 -0.020922812 0.029071536
000260 10 d2 85 3c 29 a4 26 3c b6 ab 6f 3c 81 60 16 bd
       0.016335517 0.010170975 0.014628341 -0.036713127
000270 79 68 06 3d 0d 6d 99 bc 93 21 bc 3b 61 e4 0c 3c
       0.032814477 -0.018728757 0.005741307 0.008599372
000280 dd 94 3e bb f9 3e ea bb 49 1f 0a bd 43 24 86 bb
       -0.0029080429 -0.00714862 -0.033721242 -0.004093678
000290 d6 f7 8e 3a 95 d4 de 3c 1c 96 32 bb f6 24 22 3b
       0.0010907601 0.027200976 -0.0027250117 0.0024741269
0002a0 17 5c b9 3c 5a 5a a8 ba f3 8a 8f 3c 0c a8 cc ba
       0.02262692 -0.001284431 0.01752231 -0.0015614047
0002b0 d5 5a 53 3c 60 86 ac bc 2d 86 9b 3c cc d6 a9 bb
       0.012900074 -0.021060169 0.018984878 -0.0051830765
0002c0 12 d3 c2 bc 7a 75 73 3d 88 d3 5c 3a 35 af 9b 3c
       -0.023782287 0.059438206 0.00084238546 0.019004444
0002d0 88 f7 f8 3b ad 76 e1 bc 62 1e 2d bb 9a 79 0b bb
       0.0075978674 -0.02752241 -0.0026415815 -0.0021282197
0002e0 69 10 36 3b c3 aa 2e bb 61 66 62 3b 8f b8 54 bc
       0.0027780777 -0.0026652075 0.0034545886 -0.012983455
0002f0 e6 0d 36 3c de f7 ae ba 36 db 78 bc 00 07 fd 3c
       0.011111712 -0.0013349017 -0.015188983 0.030887127
000300 92 6d 58 3c 37 8a 41 3b ca f8 a5 3c 5f 3b 99 bc
       0.013209717 0.0029531845 0.020260233 -0.018705068
000310 70 ee 6d 3c 7d e3 b2 3b dc 2b 28 bc 40 5b 74 bb
       0.01452218 0.0054592476 -0.010264363 -0.0037285835
000320 4e 5a a0 3c 5a c5 b4 bb 2c 1d 24 bd fb d6 3a 3c
       0.01957431 -0.00551669 -0.040066883 0.011403794
000330 dc c3 d0 3c 76 a6 ce bb 72 9a 58 bd 1c 22 1f bd
       0.025484018 -0.006306465 -0.052881666 -0.03885089
000340 e6 80 a6 3c 13 41 a3 3c 4d 0c 44 bd 16 6c 8a 3c
       0.020325135 0.01992849 -0.047863293 0.016897243
000350 23 a8 e4 3b fb f0 fc 3c 57 a3 3e bc e2 97 ad 3c
       0.0069780513 0.030876627 -0.011635623 0.021190587
000360 10 36 ef bc 5d 22 36 3a fa c0 1b bd 9f 6a 21 bb
       -0.029200584 0.00069478696 -0.038025834 -0.0024630202
000370 57 34 a4 3a 57 f1 23 3d 3b 23 04 bd a4 cd 2c 3c
       0.0012527806 0.04002508 -0.03226016 0.010547075
000380 06 d1 7c bb 0d 49 0d 3d 29 bb 00 3d b9 4d e4 bc
       -0.0038576736 0.034493495 0.03142849 -0.027869092
000390 2a 9b 27 3b fc 35 90 ba cc b2 a0 bb 50 0e 07 3b
       0.0025574663 -0.0011002417 -0.0049041267 0.0020607896
0003a0 5f 21 f2 3b 15 b3 b1 3c 8b fc d1 3c 2c 70 d2 3b
       0.007389232 0.021691838 0.025633117 0.0064220633
0003b0 27 a9 2a bd 35 f0 d9 3c 4f 11 b4 3b 48 5b 79 3b
       -0.041665222 0.026603797 0.0054952274 0.0038048793
0003c0 58 fb 34 bb 80 4d 8f bc 5f a4 c6 3b db 1f 4e 3b
       -0.0027615633 -0.01749301 0.006062075 0.0031452093
0003d0 08 c3 23 3c d9 a8 9e bc 6d f0 8f 3c 9c 27 b4 3b
       0.00999523 -0.019367622 0.017570699 0.005497886
0003e0 2e 0a 33 bc 96 87 cc 3c 0f cc d4 bb ff 82 b3 bc
       -0.01092772 0.024966996 -0.0064940522 -0.02191305
0003f0 84 d7 b0 bc 19 7d 45 bd d1 32 0a 3d e1 05 01 3c
       -0.02158714 -0.048215006 0.03373987 0.007874937

bias f4 [97]
000000 9f 7d cf 3c b0 3c 19 bd 0e 15 84 bd 1a a0 72 3d
       0.025328455 -0.03741139 -0.06449328 0.059234716
000010 de 5c aa bd ba e5 22 bc c6 bb 5e 3d b9 51 e8 3d
       -0.08318494 -0.009942466 0.054378293 0.11343712
000020 f8 bc c0 3c 6a 3c 83 bd 16 d6 50 bd 29 0c 79 bc
       0.023527607 -0.064080074 -0.05098542 -0.015200653
000030 e2 a6 e8 bc 56 01 f2 3d 74 76 83 3d aa 42 fe bc
       -0.028399888 0.11816661 0.064190775 -0.031037647
000040 d5 03 80 bd 11 ea b3 3d 08 91 bd 3d ec 0c 42 bd
       -0.06250731 0.08784879 0.09256178 -0.047375605
000050 8b b4 df bd ac 1c d4 3d 60 35 8b bd 9f 0f 97 3d
       -0.10923108 0.10357031 -0.0679729 0.07376026
000060 54 cf 19 bd 8e e7 fa 3d 74 8f be 3d 17 c1 2a 3c
       -0.03755124 0.12251197 0.09304705 0.010422013
000070 47 fc 69 3c 17 e9 a0 3d 6d ec 77 3c f6 ed fd 3d
       0.014281339 0.07856958 0.015132052 0.12398903
000080 9e 8d 2f bd 63 b4 f5 3c c4 fc 1d 3d ec 68 2c 3d
       -0.042859666 0.029993242 0.038571134 0.04209225
000090 80 8f 54 3d 4e f4 83 bd 65 2f e8 bc 8f d1 85 bd
       0.051894665 -0.06443082 -0.028342912 -0.06534111
0000a0 29 ec c0 bc 62 c0 cf 3d ba 58 3c 3d 5f f4 45 bc
       -0.02355011 0.10144116 0.045983054 -0.012082188
0000b0 44 db 76 bd b5 c1 13 3d e1 60 c2 3d 78 9e 83 3d
       -0.0602677 0.036073405 0.094911344 0.0642671
0000c0 24 83 ad bd 9a 40 90 bd d7 3e dc 3d b8 90 63 bb
       -0.08472279 -0.07043572 0.10754173 -0.003472371
0000d0 d3 c8 e5 3d 35 ee d9 3d 12 1f 7a bd ef 46 54 3d
       0.11219945 0.106411375 -0.061064787 0.05182546
0000e0 93 e6 96 3d f9 e7 26 bc 03 30 61 3d 83 10 fe 3d
       0.07368197 -0.0101871425 0.05497743 0.12405493
0000f0 e2 f2 8d ba 15 ac eb 3c 2a 06 b2 3d bd 63 7f 3d
       -0.0010829831 0.028768579 0.08692582 0.062350977
000100 e7 50 b2 3c fa 02 83 3c 98 43 2f 3d 70 4f 9c 3d
       0.021767093 0.01599263 0.04278907 0.07632339
000110 75 b9 d2 3d f6 06 63 bd 9c 70 28 bd 49 d2 b2 bd
       0.10289279 -0.05542656 -0.041123018 -0.08731515
000120 c1 d3 d4 bc 31 cb fa bb d1 2e e1 ba c1 3f c5 3c
       -0.025979878 -0.007653617 -0.001718009 0.024078252
000130 c3 47 4b bd 05 51 12 bd 94 15 47 bd ed ff a1 3c
       -0.049628984 -0.035721797 -0.048604563 0.019775355
000140 11 81 90 bd e2 fd 02 bd 19 09 d4 bd cf 9d 19 bd
       -0.070558675 -0.031980403 -0.10353298 -0.037504014
000150 80 02 89 bd 9a 81 13 3d 77 41 4d bb 53 cf d4 bd
       -0.0668993 0.03601227 -0.0031319538 -0.103911065
000160 5b eb cd 3d 4f 40 c4 bc 89 99 18 bd db 61 f9 3b
       0.10054656 -0.023956446 -0.037255798 0.0076105422
000170 81 5a 7b bd d4 e1 e1 3d 18 7a a5 3d d3 b1 86 3d
       -0.061365608 0.110294014 0.08079928 0.06576886
000180 76 27 80 bd
       -0.062575266
