loggers/h256_w256_bs20_in_channel1_lr0.0003/0512_0119/models/BasicModel_51.pth (torch, 40207 bytes, 17 tensors)

weight f4 [2, 1, 3, 3]
00000000: b06e 91bb 622a 9fbc dc15 1b3b 5a24 253d
00000010: 1b83 c8ba d6a2 4cbb 771f af3c 0201 34bc
00000020: 9a14 7bbc 5415 143c 4f4c a9bb ea14 ca3c
00000030: 3c26 3abd b75b 71ba 96ec 1bbc edb1 c93c
00000040: 3611 00bc 12e2 b6bc
-0.004438244 -0.01942939 0.0023664152 0.04031787 -0.0015297862 -0.0031224987 0.021377308 -0.010986568
-0.015324736 0.009038288 -0.0051665674 0.024668176 -0.04544662 -0.0009207087 -0.009516856 0.024620974
-0.007816603 -0.022324596

weight f4 [2]
00000000: f21f 7a3f f7cf 803f
0.97704995 1.0063466

bias f4 [2]
00000000: 4312 a63d d7e3 d3bc
0.08108952 -0.025865478

running_mean f4 [2]
00000000: d0b2 053e d1c2 eebe
0.13056493 -0.46633008

running_var f4 [2]
00000000: 49bb 0f3e af7a cd3e
0.14036287 0.40132663

weight f4 [4, 2, 3, 3]
00000000: a430 ffbc e193 cdbc 3b03 533c cfbc 36b9
00000010: 700b d9bc fb19 d5ba aa92 093c b2cf 533c
00000020: ade1 0a3c 92cc 9bbc b8eb 1fbd a000 013b
00000030: aeea 423d 9cb7 99bc 08e4 ca3a 58de 933a
00000040: dfd6 97ba 3dae 493c c9cc 16bd 9def 9a3c
00000050: d6f0 423c feff 483c 3728 36ba d416 c0bc
00000060: 634c 853c 16b1 7fbd 4816 38bb 8bda 66bb
00000070: a13c 07bc d825 17bc 7c69 db3c 2afa 043d
00000080: 5300 703c 68d0 163d 974f bb3c f5fa 77bb
00000090: 61aa c33c 639e 54bc 2f14 57bc 61f3 313d
000000a0: 61cd 82bc 64bd b73b 264c c2bb f51f a3ba
000000b0: b14a 6e3c 5697 90bc 3ff0 75bc 8713 633c
000000c0: 8a58 bebc f1ca 913c 6b07 733c 0120 033c
000000d0: 74f3 223d 7ae1 053c b243 03bd c758 70bb
000000e0: b6d0 b93c 10a7 593a 4e75 36bd e17c b1bc
000000f0: bd48 04bd 0326 953c 26ab a0bc 9cab 3dbc
00000100: 4a8e 7fbc a0d6 26bc b984 3fbd 2e06 5cbb
00000110: b06c 87bc aac0 943c 4f87 453c 5824 35bc
-0.031151123 -0.025094928 0.012879188 -0.00017427209 -0.026494712 -0.0016258353 0.008396784 0.012927936
0.008476657 -0.019018445 -0.03904316 0.001968421 0.04758709 -0.01876431 0.0015479336 0.0011281474
-0.0011584422 0.012309608 -0.036816392 0.018913085 0.01189824 0.012268065 -0.00069487415 -0.023448385
0.016271776 -0.06242474 -0.0028089453 -0.0035225477 -0.008254201 -0.009225331 0.026783697 0.032465138
0.014648515 0.036819845 0.0228651 -0.003783879 0.023884954 -0.012977215 -0.013127371 0.043444995
-0.015967073 0.005607294 -0.0059294878 -0.0012445437 0.014544175 -0.017650288 -0.015010892 0.013859636
-0.023235578 0.017796965 0.014833312 0.008003236 0.039782956 0.008171434 -0.03204698 -0.003667401
0.022682529 0.00083027873 -0.044545464 -0.021665992 -0.03229593 0.018206602 -0.01961286 -0.011576559
-0.015597889 -0.0101830065 -0.046757434 -0.003357302 -0.016531318 0.018158276 0.012056186 -0.011056028

weight f4 [4]
00000000: e068 883f 57cf 7c3f 9c72 783f 06b2 853f
1.0657005 0.98753875 0.9704988 1.0444953

bias f4 [4]
00000000: b14c 623c c84c 2dbd 4791 e93c 0c2c a4bd
0.01381223 -0.042309552 0.028511656 -0.08016214

running_mean f4 [4]
00000000: dc30 62bd b517 053c 213f a53d f115 44be
-0.055222377 0.008123328 0.080686815 -0.19148995

running_var f4 [4]
00000000: 90ed ac3b 8f23 213c 3339 863b 596f 5b3c
0.005277343 0.009835138 0.004096174 0.013393247

weight f4 [8, 4, 3, 3]
00000000: 3dc3 72bc faf6 4c3c 2a4a bfbc eea2 013c
00000010: 8a3c 3cbd 167c 80bc 71b5 c83c d914 b4bc
00000020: d15d 2ebb 1346 a13c 72a7 c23c 134d 783b
00000030: bfbf 49bd d5eb 083d d017 b53c 71d2 dc3c
00000040: ade6 cabc edda 563c 176f e3bb a404 b1bc
00000050: 5964 a2bc bb0f 183c 5414 8c3b c707 ccbc
00000060: d9b0 1538 558e 7a3b c6c3 c3bc 357a 69bc
00000070: e75f 27bd b0c0 56bc 73b9 973c dcc8 663c
00000080: b986 8dbb d59c a93b 233c e7bc 1e6e 67bd
00000090: 5a0a ad3c eedb 10bd 207c e0ba 85aa ce3b
000000a0: d49d 01bd 946b 133b cb14 e7bc 0be2 d7bb
000000b0: 889d 223c b556 1b3c bec7 583c fdcb 55bd
000000c0: 159c 24bb fe7f 973c 1698 c73b 2150 7bbc
000000d0: 529a d8b9 6b98 0c3c 37ee d6ba af3d 73bc
000000e0: 633d 66bb 3186 ed3c 4efc aabb bc1e 90bc
000000f0: 323c e8bb f513 303c e002 6d39 fd3a 32bd
00000100: 42a4 efbc b8a3 903c aa8d c73c 0526 543d
00000110: d4fb 1fbd 0882 2e3c 2de5 c4bc a811 54bd
00000120: 7209 ad3c 1a17 12bc 2884 39bc d407 e7bc
00000130: 1798 27bd a49b a8bc 65c8 703c 2cd0 4bbd
00000140: b817 1d3d 9b16 3cbc 1fba 33bd 5556 4d3a
00000150: b53d a23b c015 a7bc 003f 1c3d 70b0 ffbb
00000160: 170c 393c 3463 0d3c 1f4b 5abc 06ea 18bc
00000170: 7908 ac3c 6edc 5c3c dc24 8a3c edef b8ba
00000180: b329 dfbc 65ce 17bb 5ba9 58bc dee3 cbbb
00000190: e06e 2abc ed8a 4a3c 8bde 503d f6e8 1dbd
000001a0: 2321 0ebc 2143 793a a825 69bc 95b9 a83c
000001b0: 3a5c a1bc bc4d 4fbb 63de 5f3c e270 d13c
000001c0: e9fd aabb 4588 a53c 181a adbc bdf9 413c
000001d0: b026 b4bc e601 823c 1fca 2cbc 1a48 843c
000001e0: a353 96bb f1ae 3dbd 3d57 b63b 0420 0c3d
000001f0: 2fef 1a3b 07f4 96bc 50db 013c ac46 2a3a
00000200: 4be6 013c 0b03 d93b e3d1 d1bc e8a4 9dbc
00000210: c615 c93c 2b40 61bc 2f20 19bc 38fc a33c
00000220: ec62 9a3c 080b 143d b467 5a3c 1c84 6c3b
00000230: e015 d53a a26e 083d dc62 1a3d 192d ffbc
00000240: b36b 893c 1813 b4bc c9b4 eabb 0f5b 103c
00000250: a05c 12bb bfaa c83c 42b5 7b3c 8a4a 223d
00000260: f2d2 133c 26f7 aa3b 950a 67bc cd03 38bd
00000270: 0cc0 5bbd 9dbc 73bc 61c5 a8bc 9033 633a
00000280: 1ce9 16bd 9ba2 4dbc 1d25 75bc 72f2 293d
00000290: b1b3 38bc 979d 43bc f6cc 14bd 880f 3c3c
000002a0: 3dc5 a3bc 4e2b 873b 4ce6 093b ae7c 2bbd
000002b0: cab1 5d3b 0881 dbbb 30df 273b 77a1 673c
000002c0: b840 1f3d c072 bfbc ca37 a339 5fe6 8ebc
000002d0: 9005 7e3c eac9 083d acd4 80bd a26b e6bc
000002e0: 2aa7 c13b d430 91bc b9a1 643d 7e6b d9bc
000002f0: 1890 ff3c 123b 45bc 6f1a db3b c7a5 a23c
00000300: 8125 593c b6ec 01bb 3b19 ddbc 5f1a fb3c
00000310: 005d 393c fea1 133c b4f2 3f3c 0900 ea3b
00000320: 7aa9 c5bc fc17 d1bb e8d1 05ba d13b c93c
00000330: ebbb c938 ca2c 88bc 45c7 293c 4d18 503d
00000340: 4bc7 523c 8031 9e3c 4fcf 403c 75a2 42bc
00000350: 0bda 203c 4068 0ebc aeaa 7abc d3da 6839
00000360: 433a d4bb 642f 353d 6730 58bc 4ae5 b13c
00000370: ad1e a13c 8864 e1bc f22d 63bb fb38 52bc
00000380: 0309 263d 678d 53ba b1a1 963b 73ea b43c
00000390: 2a0d 2ebc afe7 213c 6095 693c 3310 593c
000003a0: f447 3ebb fb3c ad3b 41c6 d8bb 7218 36bc
000003b0: 63e2 a03c 1297 3c3c 086b 173b 5f1b 1dbd
000003c0: bd2d 2d3b 6e36 b83a c0b5 753c 20df 0cbd
000003d0: 7b15 b6bb bfed a23c ac1b 823c 1953 00bc
000003e0: c4d7 e3bc bb73 26bd 0aa6 46bc a873 66bb
000003f0: f874 723b 6c24 f23c 5281 89bc 84d6 13bc
-0.014817056 0.012510056 -0.023350794 0.007912381 -0.045956172 -0.015684169 0.02450058 -0.021982597
-0.0026606212 0.019686734 0.023761485 0.0037887737 -0.04925513 0.033428032 0.022106081 0.026955815
-0.024768198 0.013113719 -0.006940733 -0.021608658 -0.01982324 0.009281094 0.0042748842 -0.024906052
3.568907e-05 0.003823181 -0.023897063 -0.014250328 -0.040862944 -0.013107464 0.018521046 0.014085975
-0.0043190387 0.0051761665 -0.028226918 -0.0565015 0.0211231 -0.03536599 -0.0017126836 0.0063069486
-0.031644657 0.0022494541 -0.028208157 -0.0065882257 0.009925254 0.009481122 0.013231216 -0.05219649
-0.0025117446 0.018493649 0.006091128 -0.015338928 -0.00041313708 0.008581261 -0.0016397898 -0.0148462495
-0.0035131804 0.028994652 -0.0052180653 -0.01759278 -0.007087254 0.010746946 0.00022603152 -0.043513287
-0.029253129 0.017656192 0.024359543 0.05179407 -0.03905852 0.010651119 -0.02403506 -0.05177465
0.021122668 -0.008916641 -0.011323012 -0.028201975 -0.04091653 -0.020582028 0.014696215 -0.049759075
0.038352698 -0.011479999 -0.04387867 0.0007832994 0.0049512037 -0.020396113 0.03814602 -0.0078030154
0.011294386 0.008629609 -0.013323574 -0.009333139 0.021000134 0.013480289 0.016863279 -0.0014109589
-0.027241563 -0.0023163792 -0.013223971 -0.0062222322 -0.010402411 0.012362224 0.050993484 -0.038552247
-0.008674893 0.0009508599 -0.014230169 0.020596305 -0.019697297 -0.0031632027 0.013663861 0.025566522
-0.0052182567 0.02020658 -0.021130607 0.011839327 -0.021991104 0.015870046 -0.010546236 0.016147662
-0.004587607 -0.046309415 0.005564599 0.03421022 0.00236411 -0.018426908 0.007925823 0.0006495516
0.007928441 0.006622677 -0.025612777 -0.019243672 0.024546515 -0.013748209 -0.009346052 0.020017728
0.018845998 0.036143333 0.013330389 0.0036089486 0.001625713 0.033308633 0.037691936 -0.031149434
0.016774988 -0.02198176 -0.0071626646 0.008810773 -0.002233304 0.02449548 0.015363039 0.039621867
0.009022461 0.0052174507 -0.014101644 -0.0449255 -0.053649947 -0.014876512 -0.02060193 0.0008667046
-0.036843404 -0.012550975 -0.014962462 0.04149098 -0.0112733105 -0.011939428 -0.03632828 0.011478312
-0.019991511 0.0041250354 0.0021041809 -0.04186695 0.0033827894 -0.0066987313 0.0025615208 0.014137617
0.03888008 -0.023370147 0.0003113135 -0.017443834 0.015504256 0.033395685 -0.06290564 -0.028127495
0.00590982 -0.017723478 0.055818293 -0.026540514 0.031196639 -0.012038009 0.0066865007 0.01985444
0.0132535705 -0.0019824929 -0.02698957 0.030652223 0.011313677 0.00901079 0.01171558 0.0071411175
-0.024128664 -0.006381033 -0.0005104826 0.024564655 9.619429e-05 -0.01662292 0.010362451 0.050804425
0.012864898 0.019310713 0.011768176 -0.011879553 0.0098176105 -0.008691847 -0.015299482 0.00022206763
-0.006476672 0.04423465 -0.013195134 0.021715779 0.019667948 -0.027513757 -0.0034664837 -0.012830968
0.040535938 -0.0008070082 0.004596912 0.02208445 -0.010623256 0.009881898 0.014256805 0.013248491
-0.0029034587 0.0052868105 -0.0066154306 -0.011114227 0.0196392 0.011510627 0.0023104567 -0.03835618
0.0026424967 0.0014054307 0.014996946 -0.034392476 -0.00555676 0.019888757 0.015882336 -0.007832312
-0.027812846 -0.040637713 -0.012124548 -0.0035164151 0.0036995988 0.029558383 -0.016785298 -0.0090233125

weight f4 [8]
00000000: 9651 813f 1a6e 843f 34ab 813f dea1 863f
00000010: 7a3b 853f 8902 843f a8f0 7d3f 775f 7d3f
1.0103023 1.03461 1.0130372 1.0518148 1.0408776 1.0313274 0.9919534 0.9897379

bias f4 [8]
00000000: 128b 8dbb ee5a df3b 7aa8 413c ee02 2b3c
00000010: 168f 253c e11f 15bb ef45 3dbb 88d5 ad3c
-0.004319557 0.0068162596 0.011819953 0.01043771 0.010104915 -0.0022754597 -0.0028880795 0.021219984

running_mean f4 [8]
00000000: 5190 4ebe a5d8 14be cbff 00be 5753 503d
00000010: 4ecf 14be 5579 bd3d 557e 183d 8200 43be
-0.2017224 -0.14535768 -0.12597577 0.05086073 -0.14532205 0.09251658 0.037229855 -0.19043162

running_var f4 [8]
00000000: 2c63 063c b0f2 ad3b 53d6 cf3b d1d7 043c
00000010: a90c 723c d066 cd3b 99ae 833b dc6a b93b
0.008202355 0.0053084716 0.006342688 0.008108095 0.014773526 0.0062683597 0.0040186164 0.0056584906

weight f4 [97, 8, 3, 3]
00000000: b3fd e8bc 86ce 1f38 19e5 023d 9b2d 81bc
00000010: cefa d9bc 4dc9 43bc 03d8 853c 8237 fcbc
00000020: 745e 34bb c48f 793c bb2f 053d 560f d93a
00000030: 6b11 29bc 6b8d 66bc e0ec 23bd 80cd f33c
00000040: de17 42bb 6b8d dc3b a2d4 f23c 71b8 8e3c
00000050: 12f0 713c a029 883c 4bed 513c 3ae7 16bd
00000060: 8b8e 9d3c 3e65 4cbc df5a f73c 12bb 3d3d
00000070: 56c7 3a3d f5e4 633d d2c4 d43c bda7 0d3d
00000080: 0c2d 8e3d b795 3b3d a9fc 0b3b 8a5d f5bc
00000090: bf9f 083d 2f77 913d e139 1fbb 3f58 863c
000000a0: fe2b 073c 9475 1e3d 0eaa d03b 32b2 edba
000000b0: 059d 733a 1850 af3c f809 7d3b 43ac bebc
000000c0: 41ca e83b 60a1 bcbb eafa bbba dec6 8ebb
000000d0: d0dd dc3c 96cb eaba 68a7 aabc 7cdf eabb
000000e0: b345 153c 6290 ba3c 17d6 72bb 6777 203d
000000f0: 4810 f0bb ab65 dbbb 965b eb3c 2a99 d0bc
00000100: 94a6 b33b 1d3a 963c 8f11 4fbd beb1 0dbd
00000110: 1445 dabb bb71 43bd 33d0 34bc 2e4d 09bd
00000120: 037a e83c 3d16 c13c acdd 98bc e772 60bd
00000130: 7567 41bd 9b91 4abc 7a27 473c daf0 91b8
00000140: 2505 bc3b 2c49 b63c 116c adbb 08a0 913c
00000150: 51fa ca3c f71d b3bc 77ab d5bc 2cef 0c3c
00000160: 08a1 433b 4b27 c6ba 5621 443d eba7 d7bc
00000170: 0f33 65ba 19ab c23b 3069 51bc f3ce ab3b
00000180: 7bae 963c 9f54 21bb a72b 633b a85d ac3c
00000190: 0a43 cd3c c28f cbbc 65a3 c43c efbe f9bc
000001a0: 868f 6aba 3d3f 693d c8cd 653b 8241 ecbc
000001b0: aa9c 343d 6585 073d 53a3 803c 4684 43bc
000001c0: f137 383d 02d8 4b3c ca5c c63c 4e0e d63b
000001d0: 410f 813c 92f3 78bc 6766 533d cf4f 343a
000001e0: 4a52 e23c 58cd 78bc e943 b7bb 30bb 0fbd
000001f0: 32bc b03c 3df4 ce3b 1ed6 1fbb c5af dfbc
00000200: 3f1d e23c 4ec5 a83c 9340 23bc 2962 93bb
00000210: e49c afbc b063 c2ba 344d a8bb 3ab0 10bb
00000220: b0d1 c6bc 1f6c 193c 3dba c2bb 0e7a fa3c
00000230: 48d3 09bc e15b 7ebd e494 b8bb 65f2 79bd
00000240: f084 053c 0d69 fb3c adbc 9abc a37a 483c
00000250: cc73 173b 203e d9ba 5c21 a1bc 8104 5d3d
00000260: 17f9 a53c b688 753c cfcb 463c 03d3 8cbc
00000270: a09b 943a 9454 0f3d edf6 233d 72ba 4abb
00000280: f367 ba3b 083e 0cbc 50db cabc e624 71bc
00000290: 074f bcbb fb51 b8bb 63c4 ec3c 6da3 813c
000002a0: 450c f839 f6ec 613a 643a 02bd a443 093b
000002b0: ed7e 903c 82e3 67bc 942f 283b 3e08 06bc
000002c0: fa89 babc 4a49 973c ab4c 6ebc 1357 963b
000002d0: 83cb be3c bbc7 02bc d58f d93b 65ac db3b
000002e0: 7c70 9cbb 6b3e c7bb 98fe 2fbc 4029 83bc
000002f0: 444e 323b 1e28 fb3b 1eed 0dbc 6332 a8bc
00000300: 2fd7 9bbc 031c b63b 9bca 333c 2c9b 863b
00000310: f5bf f03b 36d6 c13b 6a88 043b d5e5 fcbb
00000320: e138 263a 44ae 9ebc f458 bbbc adb8 fe3b
00000330: 6985 ce3c f368 203b 66d1 1fbd 4c45 c8bb
00000340: 738c 9f3c 6995 1d3c cfce 263c 9221 a93c
00000350: ea67 0bbc 91f6 353c cb57 c73b 61c4 043d
00000360: 29f9 76bc 4a6e 5abc 3ea0 8bbc 6605 103c
00000370: a2fd a2bc f939 d73a 0506 0f3d 78fc 363d
00000380: 9213 25ba fb59 e63c 5173 d83c 9fad b3bb
00000390: 0b00 d739 8a70 49bc 6bae a73b e933 50bb
000003a0: afd9 7abc 7813 72bc 6a17 93bb fe8f 7a3c
000003b0: c404 05bd d6c2 bdbb fd49 843c 5ef6 013d
000003c0: acd6 bcbb 7be1 9aba af47 d23c 2996 ab3b
000003d0: e151 fa3c 288b 44bb 4432 fdbb 0d51 36bc
000003e0: 6028 c5bc 56ac edbb 0eaf 7abb c4c1 113d
000003f0: 5126 a3bc 9d47 a4bc a544 ce3c b12f 0a3d
-0.028441286 3.8100894e-05 0.031956766 -0.015768817 -0.02660885 -0.011949849 0.016338354 -0.030788187
-0.0027522119 0.01523203 0.032516222 0.0016560357 -0.010319094 -0.014071803 -0.040020823 0.029761076
-0.0029616277 0.0067307255 0.029642407 0.017421933 0.01476671 0.01662141 0.012812923 -0.03684161
0.019233009 -0.01247531 0.030194698 0.046320982 0.045600258 0.055638272 0.025972757 0.034583796
0.06942186 0.045797076 0.0021360314 -0.02995183 0.03335547 0.071028106 -0.0024295973 0.0163995
0.008250235 0.03868635 0.0063679283 -0.0018134771 0.0009293112 0.021400496 0.0038610678 -0.0232755
0.0071041887 -0.005756542 -0.0014341746 -0.004357203 0.026961237 -0.0017913457 -0.020831779 -0.0071677547
0.009110856 0.022773925 -0.0037053877 0.03917637 -0.0073261596 -0.0066954694 0.028730195 -0.02546366
0.005482504 0.018338257 -0.050553855 -0.034593336 -0.006661067 -0.047715884 -0.011035967 -0.03352087
0.028378492 0.023570174 -0.018660389 -0.05479708 -0.047217805 -0.012363817 0.012155408 -6.959001e-05
0.005737918 0.022251688 -0.0052924235 0.017776504 0.024777563 -0.021864874 -0.026082737 0.008601945
0.002985062 -0.0015117911 0.047883354 -0.026325187 -0.0008743265 0.0059408066 -0.012781426 0.005243176
0.018393746 -0.0024617088 0.003466347 0.021040753 0.02505638 -0.024848823 0.024003694 -0.030486552
-0.0008947778 0.056945074 0.0035065282 -0.02883983 0.04409472 0.0330862 0.015702879 -0.011933392
0.044975225 0.012441637 0.024214167 0.006532467 0.015754344 -0.01519479 0.05161133 0.00068783475
0.02762713 -0.0151856765 -0.0055928123 -0.035090625 0.021574114 0.0063157366 -0.0024389098 -0.027305493
0.027601836 0.020601895 -0.009964126 -0.0044977856 -0.021437116 -0.0014830735 -0.0051361565 -0.0022077695
-0.024269909 0.009364157 -0.0059426115 0.030575778 -0.00841219 -0.06209934 -0.0056329835 -0.06102218
0.008149371 0.03068974 -0.018888796 0.01223627 0.0023109792 -0.0016574301 -0.019669227 0.053959373
0.020260377 0.014986208 0.012133553 -0.017190462 0.0011337884 0.03499277 0.04003041 -0.0030933884
0.0056886612 -0.008559711 -0.02476278 -0.01471827 -0.0057467255 -0.005625007 0.028902238 0.015824998
0.00047311388 0.0008618379 -0.031793967 0.0020944858 0.017638648 -0.014153363 0.0025663124 -0.008180676
-0.02277087 0.018467564 -0.014544646 0.004588017 0.023290401 -0.00798219 0.0066394606 0.0067039006
-0.0047741514 -0.006080439 -0.010741852 -0.01601088 0.0027207294 0.0076646945 -0.00866249 -0.020531839
-0.019023506 0.0055575385 0.010973598 0.0041078534 0.007347102 0.0059154285 0.002022291 -0.007717828
0.0006340873 -0.019370206 -0.022869565 0.00777348 0.0252101 0.0024476617 -0.039018057 -0.0061117765
0.019476151 0.009618142 0.010181143 0.02064589 -0.008508662 0.011106149 0.006083464 0.032413844
-0.015074053 -0.013331959 -0.017044183 0.00879035 -0.019896332 0.0016420475 0.03491785 0.044674367
-0.00062971667 0.028119078 0.026422175 -0.0054833437 0.00041008028 -0.012294898 0.005117228 -0.0031769222
-0.015310689 -0.0147751495 -0.004488875 0.0152931195 -0.032475248 -0.0057910485 0.016148562 0.031729095
-0.0057628956 -0.0011816466 0.025668947 0.0052364063 0.030556621 -0.002999017 -0.0077269394 -0.011127722
-0.024067104 -0.00725321 -0.0038251313 0.03558518 -0.019915732 -0.02005368 0.025179217 0.03373689

bias f4 [97]
00000000: f472 103d 5c8e acbc c8ec 7fbd a83a 8a3d
00000010: 1ba5 a2bd 0ba0 98bc 4081 5a3d 26a8 dc3d
00000020: 9275 003d 84fc 9cbd 02c4 10bd e568 99bb
00000030: e385 10bd d3d1 f33d 2438 553d 4e59 02bd
00000040: 4930 80bd c25a af3d fe90 c33d a073 1fbd
00000050: 155c c7bd cafd d33d 28cc 92bd 7c60 9e3d
00000060: dd69 d5bc f0fb ee3d f834 b83d b0ac 6f3c
00000070: f0cc 3e3c f007 a53d c708 9d3c 034c 003e
00000080: 412a 47bd bfc9 ee3c 7b62 503d 4d27 383d
00000090: 5201 3d3d 56b0 5ebd 7482 a0bc a4dd 86bd
000000a0: b58b c9bc edb2 d03d e1ce 473d a7aa 22bc
000000b0: 30bc 7abd 49a4 163d 46fd db3d 297d 593d
000000c0: 4931 a8bd 5f0b 8cbd 5266 cb3d 04fc 943b
000000d0: 734a f93d f923 d53d a786 62bd cce4 673d
000000e0: 7977 9f3d e9fa 6cbc dcb2 5d3d b773 0f3e
000000f0: 26e5 473b 8e24 f33c a09a a43d 8a29 813d
00000100: 1649 a93c a5fc 253c 5402 343d c13a ad3d
00000110: 2680 db3d 6e69 5dbd f7c3 29bd 0934 a8bd
00000120: b72b 95bc eddc 2dbc 1902 d73b 2d2d e73c
00000130: 7ec9 29bd 3963 e8bc 2993 49bd 9a95 b83c
00000140: 4c7c 86bd ed1a 16bd eeb6 b9bd 4e8b 1fbd
00000150: e24e 92bd 4e5a 3b3d 1924 cf3b db9d c8bd
00000160: b6ed c43d 541d 5abc 8ad5 04bd 71f2 fd3b
00000170: 6964 75bd 4b3a ee3d 4352 a63d 3c7a c43d
00000180: e0a4 74bd
0.035265878 -0.021063976 -0.06248167 0.06749469 -0.079416476 -0.018631002 0.05334592 0.10774259
0.031362124 -0.07665351 -0.035343178 -0.004681694 -0.035283934 0.11905255 0.052055493 -0.03182345
-0.0625921 0.085622326 0.095491394 -0.038928628 -0.0973436 0.10351141 -0.07167846 0.07733247
-0.026051456 0.11669147 0.08994478 0.014628574 0.011645541 0.080581546 0.019169224 0.12528996
-0.04862428 0.029148934 0.05087517 0.044959355 0.046143837 -0.054367386 -0.019593455 -0.06585243
-0.02460275 0.101903774 0.04878128 -0.009928382 -0.061214626 0.03677777 0.107416674 0.053097878
-0.082125254 -0.06838106 0.099316254 0.004546644 0.12172403 0.10407252 -0.055304196 0.056614682
0.077864595 -0.0144641185 0.05412565 0.14008985 0.0030501573 0.029680517 0.08037305 0.06306751
0.020664733 0.010131036 0.043947533 0.08458472 0.10717802 -0.054055624 -0.041446652 -0.0821305
-0.018209321 -0.010611755 0.0065615294 0.028219784 -0.041451924 -0.028367626 -0.04921261 0.022532273
-0.065666765 -0.036646772 -0.09068094 -0.03895121 -0.07143952 0.045740418 0.006321442 -0.097957335
0.09615652 -0.013312656 -0.03243021 0.0077498485 -0.05991021 0.11632212 0.08121159 0.09593627
-0.05972755
