loggers/h256_w256_bs20_in_channel1_lr0.0003/0512_0119/models/BasicModel_64.pth (torch, 40207 bytes, 17 tensors)

weight f4 [2, 1, 3, 3]
000000 9d e1 9a bb b0 65 a4 bc d7 62 0b 3b 75 af 2b 3d
       -0.004726602 -0.02006802 0.002126863 0.041915376
000010 b3 58 dd ba 5d c7 54 bb 26 24 b6 3c d9 22 34 bc
       -0.0016887396 -0.0032467463 0.022234034 -0.010994636
000020 c2 fc 81 bc aa 00 24 3c 5c 4e b1 bb 45 af ca 3c
       -0.015867595 0.010009924 -0.0054109525 0.024741778
000030 09 02 3c bd 4a 2f 04 bb ef 24 1d bc 59 c1 cb 3c
       -0.04590038 -0.0020169788 -0.009591325 0.024872469
000040 4b a2 e9 bb 49 9f bf bc
       -0.0071299425 -0.023391383

weight f4 [2]
000000 f1 50 79 3f 0a c7 80 3f
       0.9738913 1.0060742

bias f4 [2]
000000 bf f1 c2 3d 7b 21 de bc
       0.09518766 -0.027115574

running_mean f4 [2]
000000 85 c3 0b 3e 18 e9 ed be
       0.13648804 -0.464669

running_var f4 [2]
000000 c5 8f 1b 3e 9e a9 d1 3e
       0.15191562 0.4094972

weight f4 [4, 2, 3, 3]
000000 20 5d 00 bd b3 09 d5 bc ef c6 60 3c 6e 97 15 39
       -0.03133881 -0.026005602 0.013719304 0.00014266159
000010 7b 42 d7 bc f4 d8 41 bb 75 35 06 3c d6 46 60 3c
       -0.026276818 -0.0029578777 0.008191456 0.013688764
000020 2b bb 0f 3c 37 0c 99 bc e9 2c 1c bd 85 88 29 3b
       0.008772652 -0.018682582 -0.038128767 0.0025868725
000030 66 53 4a 3d 00 82 ae bc 6a 16 09 3b 2f 4f 9e 39
       0.04939594 -0.021302223 0.00209179 0.00030195105
000040 75 95 6e ba 52 0c 47 3c 9e 94 1a bd 07 cb 9f 3c
       -0.00091012503 0.0121489335 -0.03773939 0.01950599
000050 08 e5 52 3c 88 60 44 3c f8 ee f4 39 28 0d c3 bc
       0.012871988 0.0119859055 0.00046717352 -0.023809984
000060 5d ec 82 3c cf f3 81 bd 36 5c 74 bb c4 a6 9c ba
       0.015981847 -0.06345331 -0.0037286407 -0.0011951555
000070 3a b9 e9 bb 63 bb 40 bc 6c fb e5 3c 5f 35 fc 3c
       -0.0071326764 -0.0117634265 0.028073989 0.030787168
000080 95 98 87 3c 5b 2e 14 3d 18 24 bf 3c 69 29 63 bb
       0.016552249 0.03617702 0.02333264 -0.0034662134
000090 0b 62 cb 3c 54 5c 5e bc b9 2e 57 bc 81 9f 35 3d
       0.024827024 -0.013571817 -0.013133698 0.044341568
0000a0 70 d5 7a bc da 42 a8 3b cf 1c d7 bb fc 70 b6 ba
       -0.0153096765 0.0051349225 -0.0065647135 -0.001391917
0000b0 ec 4a 66 3c f8 87 92 bc 54 1f 88 bc a3 67 4f 3c
       0.014055949 -0.0178871 -0.0166165 0.012658986
0000c0 59 11 b2 bc 4f 85 7f 3c c3 61 8e 3c 4a 05 09 3c
       -0.021736788 0.015595748 0.0173806 0.008363077
0000d0 a2 cd 28 3d 1b 58 11 3c 90 32 0b bd 5b 45 6a bb
       0.04121173 0.008871104 -0.033983767 -0.0035746905
0000e0 af 3c bf 3c 9d f0 31 3b 2b 68 34 bd a0 f3 b7 bc
       0.023344366 0.0027151473 -0.044044655 -0.022455037
0000f0 b7 18 07 bd e8 a4 91 3c bd bc 91 bc c1 bb 3d bc
       -0.032982554 0.017778829 -0.017790193 -0.011580409
000100 6d df 7e bc a3 c3 19 bc 0b 96 42 bd c0 0b 80 bb
       -0.015556199 -0.009385022 -0.047506373 -0.0039076507
000110 60 d5 94 bc 0a c3 91 3c a2 a4 5b 3c 66 c2 2e bc
       -0.018168151 0.017793197 0.013405951 -0.010666465

weight f4 [4]
000000 29 02 88 3f 97 69 7c 3f 67 a5 77 3f b2 f2 85 3f
       1.0625659 0.9859862 0.9673676 1.046469

bias f4 [4]
000000 76 c0 b8 3c 23 c1 78 bd 7c 0d cb 3c 44 aa c3 bd
       0.02255271 -0.060731065 0.024786703 -0.0955396

running_mean f4 [4]
000000 7b 0d 64 bd d6 ca 23 3c 2f 07 a8 3d b8 79 44 be
       -0.05567692 0.00999709 0.08204495 -0.19187057

running_var f4 [4]
000000 e2 d6 b0 3b 9b 83 25 3c ad b8 8e 3b 3a e5 59 3c
       0.00539671 0.010102178 0.004355511 0.013299281

weight f4 [8, 4, 3, 3]
000000 5a 5b 48 bc 79 77 2e 3c 56 9b 95 bc 37 09 1c 3c
       -0.012228811 0.010648602 -0.018262547 0.009523681
000010 f2 d8 4d bd 78 cb 5e bc ca f2 ac 3c c8 ce 8f bc
       -0.050255723 -0.013598315 0.021111865 -0.017554656
000020 dc 4c fe bb 25 5b a2 3c 3c d4 b9 3c 66 66 c4 3b
       -0.007760627 0.019818852 0.022684209 0.005993652
000030 58 58 5b bd c3 f9 04 3d 10 4b af 3c bd 8d f9 3c
       -0.053551048 0.032464754 0.021398097 0.030463094
000040 30 9f 00 bd c3 ac a0 3c 72 b3 e7 bb 13 b2 b6 bc
       -0.031401813 0.01961363 -0.007070952 -0.02230171
000050 3e 84 91 bc 7c 70 03 3c f7 15 d3 3b fc c1 da bc
       -0.017763253 0.008022424 0.0064418274 -0.026703827
000060 96 e5 7e 39 29 0b 99 3b 7d a0 c9 bc 46 4e 97 bc
       0.00024308855 0.00467052 -0.02461266 -0.01846994
000070 99 ff 1b bd b4 d0 5d bc bb 11 8b 3c b7 96 8f 3c
       -0.038085554 -0.013538528 0.016976228 0.017527921
000080 ba f7 42 ba 54 89 e8 3b c9 7b cd bc 19 b5 61 bd
       -0.0007437427 0.007096449 -0.02508344 -0.05510435
000090 e5 7d af 3c 66 aa fc bc c9 98 ba bb f5 68 e5 3b
       0.021422336 -0.030842971 -0.005694483 0.0070010372
0000a0 b1 96 06 bd 87 36 86 3b 66 25 f5 bc c5 13 09 bc
       -0.032858554 0.0040958556 -0.02992506 -0.00836653
0000b0 2b 4f 3e 3c 13 10 6b 3c 3d 7d 42 3c 09 1d 46 bd
       0.011615555 0.014347094 0.011870679 -0.048367534
0000c0 38 7b f5 bb dd 93 a8 3c f7 fa 85 3b 9f 69 6c bc
       -0.0074914955 0.02057832 0.004088755 -0.014429479
0000d0 ed b8 5e bb 25 cb 2d 3c 25 7c 2b bb db f5 5b bc
       -0.0033984736 0.010607515 -0.0026166525 -0.013425316
0000e0 28 fe 4d bb fe 0e fa 3c 17 18 9f bb 98 26 9f bc
       -0.0031432007 0.030524727 -0.0048551667 -0.019427583
0000f0 d7 3c d8 bb f9 b6 30 3c 4b 69 d0 39 e8 31 4d bd
       -0.0065990495 0.010785812 0.000397513 -0.050096422
000100 da 20 cf bc 54 9e a2 3c fc 5c d0 3c c5 9d 6f 3d
       -0.02528422 0.019850887 0.025434963 0.05850007
000110 7f 3e 41 bd 0c 8f 6f 3c a0 51 cb bc 33 42 64 bd
       -0.04717874 0.014621507 -0.024819195 -0.055727195
000120 0b 75 bc 3c 5c cd 21 bc d1 4b 5e bc 5f 3b db bc
       0.02300503 -0.009875622 -0.013567881 -0.026761709
000130 36 d0 25 bd 56 45 99 bc 90 ce 84 3c ad 3c 4c bd
       -0.04048177 -0.01870982 0.016211778 -0.049862552
000140 fd 02 23 3d 4f 56 0f bc 41 54 4c bd 20 04 60 3b
       0.03979777 -0.008748605 -0.04988504 0.0034182146
000150 96 a9 4c 3b 6c f1 ae bc 45 b9 1c 3d 8d 20 fd bb
       0.003122901 -0.021355353 0.038262624 -0.0077248276
000160 86 36 1e 3c e1 d9 14 3c 92 38 63 bc bb 06 15 bc
       0.009656554 0.0090851495 -0.013868468 -0.009095843
000170 1b cd a6 3c 87 c5 53 3c 88 f3 96 3c 01 dd 1a 3a
       0.020361474 0.012925512 0.018426672 0.0005907566
000180 48 c6 ea bc 86 2e 5b bb d7 33 6e bc db d6 2c bc
       -0.028659001 -0.0033444478 -0.014538727 -0.010549272
000190 da b8 fb bb e2 da 33 3c 34 a6 4a 3d 6a 7a 24 bd
       -0.007681948 0.010977479 0.04947491 -0.040155806
0001a0 b0 e9 39 bc ee e7 60 3a 01 81 a3 bc a4 9a a9 3c
       -0.011347219 0.0008579482 -0.019958975 0.020703621
0001b0 b6 51 94 bc fb e0 07 bb da fc 44 3c ca 9f bf 3c
       -0.018105369 -0.0020733464 0.012023175 0.023391623
0001c0 8e 1b a9 bb ab 62 ab 3c 0b 9b a9 bc 98 77 22 3c
       -0.0051607555 0.020921072 -0.020703813 0.009916209
0001d0 46 91 b6 bc fa 95 85 3c 26 b5 44 bc 65 b6 88 3c
       -0.022286069 0.016306866 -0.01200608 0.016688535
0001e0 e4 1c a4 bb ae 59 43 bd 9d 07 ba 3b 32 d7 0e 3d
       -0.005008327 -0.047692947 0.005677177 0.034873195
0001f0 6c 4c f9 3a d9 03 a4 bc 64 1a f7 3b 1c ba 1f 3b
       0.0019019968 -0.020021366 0.007540988 0.0024372404
000200 50 6f fc 3b 7c e7 00 3c 51 fa e9 bc d9 41 8f bc
       0.007703699 0.00786769 -0.028561743 -0.017487453
000210 6c e5 d1 3c fb 7e 6c bc 24 13 1d bc 82 75 c3 3c
       0.025622092 -0.014434571 -0.009587083 0.023859743
000220 7b b5 a8 3c 77 2d 08 3d e3 20 6c 3c 54 bf 0d 3b
       0.02059435 0.033246484 0.014412138 0.0021628933
000230 04 0a cd 39 7f d9 04 3d 4d 98 16 3d dd 1e 0b bd
       0.0003910811 0.032433983 0.03676634 -0.03396498
000240 27 cc 9d 3c 71 25 c5 bc 5e 57 cd bb d0 73 1d 3c
       0.019262386 -0.024065705 -0.0062665185 0.009610131
000250 00 81 83 ba 9b f6 b9 3c c4 88 22 3c e5 46 28 3d
       -0.0010032952 0.022700598 0.009920303 0.041083235
000260 cc 99 b7 3b f4 c3 d4 3b 17 bd 52 bc fb 93 4c bd
       0.005603051 0.006493086 -0.012862465 -0.049945813
000270 5b c6 5c bd af 4b fa bb 3c c9 af bc 6b 38 57 3b
       -0.053900104 -0.0076384167 -0.02145826 0.0032840024
000280 ca 5e 18 bd 00 7d 43 bc fb 4b 73 bc 12 02 2e 3d
       -0.037199773 -0.011931658 -0.014849658 0.042482443
000290 18 26 0e bc c4 e3 2c bc 3e 69 15 bd a2 e8 4f 3c
       -0.008676074 -0.01055235 -0.03647732 0.012689741
0002a0 95 c5 a9 bc 96 c1 77 3b 1f 58 89 3b dd 66 37 bd
       -0.020724097 0.0037804595 0.004191413 -0.044775832
0002b0 05 42 d0 3b 8c 4f 54 bb 2d e8 46 3a 93 98 2d 3c
       0.0063555264 -0.0032396046 0.00075876975 0.010595459
0002c0 a9 91 2c 3d ea 70 a4 bc 15 4d e8 39 f3 2e b6 bc
       0.0421311 -0.020073373 0.0004430792 -0.022239184
0002d0 1e c6 91 3c 93 90 0c 3d f9 e5 81 bd 86 79 01 bd
       0.017794665 0.034317564 -0.06342692 -0.031610034
0002e0 3c 45 9d 3b 30 0f 81 bc 52 d8 68 3d e9 82 ce bc
       0.004799513 -0.015754312 0.056846924 -0.025208907
0002f0 41 9c f7 3c 94 9a 8d bc 65 a3 10 3c 45 72 aa 3c
       0.030225875 -0.017285623 0.008828019 0.020806441
000300 c5 6e 5e 3c 98 2a e5 ba ac 11 df bc ae f8 dd 3c
       0.013576214 -0.0017484007 -0.027230106 0.027096119
000310 03 11 58 3c b6 0a e7 3b 28 27 40 3c 50 24 cc 3b
       0.01318765 0.0070508374 0.011728086 0.0062299147
000320 ce fa c2 bc f8 29 c1 bb 41 0b 42 ba 74 66 cc 3c
       -0.023801234 -0.0058948956 -0.00074021897 0.024951197
000330 08 61 99 3a 2b 9e 89 bc dc 08 37 3c 9b 1e 67 3d
       0.0011701891 -0.016799053 0.011171546 0.056425672
000340 1c 38 73 3c 43 25 86 3c aa 3e 30 3c d8 9c 27 bc
       0.0148449205 0.01637519 0.010757128 -0.010230266
000350 ab 15 43 3c b1 8c 50 bc d5 14 3a bc 6a 7f a0 ba
       0.0119070215 -0.012728856 -0.011357506 -0.0012245004
000360 80 00 b9 bb 37 df 2b 3d a0 c5 0c bc 7c e1 b8 3c
       -0.0056458116 0.04196092 -0.008592039 0.022568457
000370 46 09 96 3c 3d 74 fa bc 33 ba a5 bb 9a 7d 5c bc
       0.018314969 -0.030573005 -0.005057597 -0.01345768
000380 fb 3c 35 3d da 28 20 bb 53 1c 87 3b 8e 1a b1 3c
       0.04424761 -0.0024438412 0.0041232496 0.021619108
000390 ab 33 31 bc 69 3c 32 3c 91 cd 67 3c ee 59 36 3c
       -0.010815541 0.010878661 0.014148132 0.011129839
0003a0 9e 2b 64 bb f6 3e c3 3b 05 32 c6 bb 85 ad 3f bc
       -0.0034816037 0.0059584333 -0.0060484433 -0.011699085
0003b0 47 e1 92 3c 25 be 53 3c f6 09 3e 3b 15 eb 24 bd
       0.017929686 0.012923752 0.0028997636 -0.040263254
0003c0 31 6f 09 3b 79 7d 22 3b 91 50 6c 3c 55 c7 17 bd
       0.0020970816 0.0024794026 0.014423505 -0.037055332
0003d0 36 56 88 bb 3f e1 ac 3c df 69 92 3c f3 ba 35 bc
       -0.004160668 0.0211035 0.017872749 -0.011091935
0003e0 69 ec eb bc 5c 84 29 bd 81 24 4c bc 6f 47 e9 bb
       -0.028799253 -0.041385993 -0.012459875 -0.0071191113
0003f0 b6 0c af ba 28 d1 06 3d 7b 32 93 bc 81 c2 44 bb
       -0.0013355229 0.03291431 -0.017968407 -0.003002316

weight f4 [8]
000000 6a 26 84 3f f5 d5 86 3f 8b 97 85 3f ca 39 88 3f
       1.0324223 1.0534045 1.0436872 1.0642636
000010 04 a5 87 3f f1 66 87 3f 94 1d 81 3f 06 44 80 3f
       1.0597234 1.057829 1.0087152 1.0020759

bias f4 [8]
000000 65 0c 06 bc c2 f3 a6 3b d3 86 3c 3c a4 9f 4c 3c
       -0.008181666 0.005094976 0.011506754 0.012489233
000010 91 3b 64 3c 48 d4 82 bb 5c da a6 ba 33 9f 9b 3c
       0.013930217 -0.003992591 -0.0012729871 0.01899681

running_mean f4 [8]
000000 f8 3f 44 be a2 b5 0f be 84 69 0d be ee d3 2c 3d
       -0.19165027 -0.14034131 -0.13809782 0.0421943
000010 cb 87 0a be f1 8f c3 3d b5 bb f6 3c 2a 5d 3b be
       -0.13528363 0.09548939 0.030118803 -0.18297258

running_var f4 [8]
000000 13 70 00 3c 0f 71 a9 3b 59 b0 dc 3b 36 79 09 3c
       0.007839221 0.0051709483 0.0067348895 0.008390715
000010 5a e4 61 3c f1 07 c7 3b 35 4a 8a 3b 98 9a be 3b
       0.013787353 0.0060739447 0.004220272 0.005816769

weight f4 [97, 8, 3, 3]
000000 b0 2c 03 bd 79 da 8d bb 9b e6 05 3d 0e a7 22 bc
       -0.03202504 -0.0043290225 0.032690626 -0.009927524
000010 24 a0 e8 bc 04 04 5e bc 80 74 52 3c 60 36 09 bd
       -0.028396674 -0.013550762 0.012845159 -0.03349912
000020 41 c7 06 bc 54 d1 70 3c b2 6a f8 3c ed 11 05 3b
       -0.008226217 0.014698345 0.030324314 0.0020304874
000030 e3 48 7a bc 85 9b c6 bc 83 d8 2e bd bc 65 0c 3d
       -0.015276167 -0.02424408 -0.04268695 0.03427671
000040 d1 1a e4 bb 51 bb c3 3b c8 a6 ff 3c 82 38 ab 3c
       -0.0069612046 0.0059732576 0.031207457 0.020900968
000050 02 29 94 3c c0 87 8b 3c 02 7e 5d 3c 51 c6 14 bd
       0.01808596 0.017032504 0.013518812 -0.03632194
000060 74 7d c0 3c 29 5c a2 bb b1 9b 00 3d 44 87 55 3d
       0.02349732 -0.004954834 0.03139848 0.052130952
000070 d6 fa 3c 3d da 72 6d 3d 73 57 cc 3c 65 57 14 3d
       0.046137653 0.05797086 0.024944043 0.03621616
000080 1c 07 a3 3d ac 47 3b 3d 77 82 0e b9 2d a4 04 bd
       0.079603404 0.04572265 -0.00013590777 -0.032383133
000090 fc 77 13 3d 46 8c 95 3d d7 0b 2d bb 3b 99 68 3c
       0.036003098 0.07302146 -0.0026404762 0.014196689
0000a0 3b d4 40 bb e4 28 55 3d 74 5d d6 3b 71 da 39 bc
       -0.0029423374 0.05204095 0.006541902 -0.011343584
0000b0 c0 12 d7 3b a5 22 a3 3c b6 9c f7 3b d6 dd c7 bc
       0.0065635145 0.01991398 0.007556523 -0.024397772
0000c0 e4 e0 18 3c 25 83 10 bc 6e 96 bc bb d4 82 d2 bb
       0.009330962 -0.00882033 -0.0057552373 -0.0064242873
0000d0 f1 ce c7 3c 2a c4 d2 bb 65 b7 6b bc da 1b 06 bc
       0.02439067 -0.006432076 -0.014386986 -0.008185351
0000e0 14 25 e1 3b 15 34 d6 3c 53 bc 0b 3b 9e f2 3b 3d
       0.006870875 0.026147882 0.0021321967 0.045885675
0000f0 e9 c4 20 bc 10 8b 3e bb 00 15 f5 3c 9b a2 b6 bc
       -0.009812572 -0.0029074587 0.02991724 -0.022294333
000100 5f 35 a8 3b fa 9c 95 3c f9 b4 5e bd 49 07 16 bd
       0.0051333155 0.018263329 -0.054371808 -0.03662804
000110 09 02 2a bc d3 a7 6f bd 2e d2 79 bc 40 07 19 bd
       -0.010376462 -0.05850966 -0.015247865 -0.03736043
000120 51 f1 fc 3c 4b 4f b6 3c 1a f9 90 bc c8 48 49 bd
       0.030876787 0.022254607 -0.017696906 -0.049141675
000130 5f a6 34 bd c8 1e 91 bc b0 ce a4 3c 53 2f 48 bb
       -0.044103976 -0.017714873 0.020118088 -0.0030545786
000140 98 ef f0 3b f6 b7 8f 3c a8 8b 06 bc 6c 75 87 3c
       0.0073527806 0.017543774 -0.008212008 0.016535483
000150 e5 7c b0 3c 18 85 f0 bc 78 2f 0f bd 5b 2e 73 3c
       0.02154393 -0.029360339 -0.03495738 0.014842595
000160 2d 26 fb 3b a7 e1 00 3a 13 d6 50 3d 67 7c eb bc
       0.007664463 0.00049164373 0.050985407 -0.028745843
000170 11 51 81 b9 bc e3 ef 3b 36 de 72 bc e6 e1 cd 3a
       -0.00024665197 0.007320849 -0.014823487 0.0015707582
000180 9f fa 9d 3c 16 af 0c ba e3 17 90 3a 33 90 a9 3c
       0.019284545 -0.0005366666 0.0010993447 0.020698642
000190 75 11 f6 3c a5 0a de bc ec c6 b2 3c 3f fa f2 bc
       0.030037621 -0.027104685 0.021823369 -0.029660342
0001a0 b6 1d 04 b9 6c 53 76 3d 90 74 a8 ba 08 97 01 bd
       -0.00012599569 0.06013815 -0.0012852121 -0.031638175
0001b0 98 01 25 3d 3a 1c 04 3d bb a1 7d 3c 74 5c 0b bc
       0.040284723 0.03225348 0.015480454 -0.008505929
0001c0 b7 cb 37 3d ba 37 a1 3c 02 cc ea 3c 65 14 9c 3b
       0.044872012 0.019679893 0.028661732 0.0047631734
0001d0 c9 5a 51 3c 91 9d a2 bc 74 e8 55 3d 30 3f 38 3b
       0.0127779925 -0.019850524 0.052223638 0.0028113835
0001e0 db ee 0f 3d 75 2c 93 bc 07 75 73 bb bc 71 09 bd
       0.0351399 -0.017965535 -0.003714861 -0.03355573
0001f0 3e 2b 8e 3c 8d 00 1b 3c 28 7e 7d bb c5 ed e8 bc
       0.017354604 0.009460581 -0.0038679931 -0.02843369
000200 9e 05 11 3d 12 f8 9a 3c 63 17 1c bc c4 32 28 bb
       0.035405748 0.018917117 -0.00952706 -0.0025665024
000210 75 ea aa bc 16 4b 1e bb b0 66 e9 bb 69 cb 3e ba
       -0.020863751 -0.0024153641 -0.007122837 -0.0007278235
000220 a9 ed b1 bc f3 1a 5c 3c aa a7 15 bc ee 8a ff 3c
       -0.02171977 0.01343416 -0.0091342125 0.031194177
000230 cc 5e 10 bc f2 ba 8d bd 13 fb 48 bb 1a c5 7e bd
       -0.008811664 -0.069204226 -0.003066723 -0.06219969
000240 3e ba b0 3b f0 17 02 3d 8a 6b 5a bc 61 1d ec 3b
       0.0053932955 0.03176111 -0.013331303 0.0072056507
000250 53 96 ab bb 42 96 8d bb c1 ef 65 bc e3 e5 81 3d
       -0.005236426 -0.0043208906 -0.014034213 0.063426755
000260 d9 27 b3 3c 8a 29 53 3c 1e d6 28 3c 8d 46 5f bc
       0.021869587 0.012888322 0.010304956 -0.01362766
000270 65 ba bb b8 57 8d 28 3d d5 6f 3b 3d 31 37 50 bb
       -8.9515735e-05 0.041150417 0.04576095 -0.0031771178
000280 0e 55 2d 3c 4a 5f 1f bc 8a 7f b0 bc ea 96 76 bc
       0.010579361 -0.0097273085 -0.02154519 -0.015050629
000290 64 ac 1a bc aa b9 04 bc 29 46 1e 3d 55 3f 79 3c
       -0.009440515 -0.008100906 0.03864113 0.015212853
0002a0 91 86 6f bb de 4a af 3a 00 46 22 bd cb ce 8e 3a
       -0.0036548714 0.0013373753 -0.03961754 0.0010895369
0002b0 33 58 98 3c e5 06 43 bc 99 3b 5c 3b a7 be 02 bc
       0.018596744 -0.011903499 0.003360486 -0.007980025
0002c0 f8 6b a8 bc 4d e6 87 3c 31 55 95 bc b5 db 34 bb
       -0.020559296 0.016589308 -0.018229099 -0.0027596776
0002d0 a2 a2 a9 3c 09 f6 47 bb 66 f2 ba 3b 15 6b 2f 3c
       0.020707432 -0.0030511639 0.0057051657 0.010706683
0002e0 59 2f 4f bc 5b 07 ab bb dd 4b 68 bc 08 82 ad bb
       -0.012645566 -0.0052193827 -0.0141782435 -0.005295042
0002f0 32 19 e9 3b a9 ef 69 3c 62 15 0d bc 0d e1 a9 bc
       0.007113599 0.014278331 -0.008611055 -0.020737195
000300 53 3f 9f bc e9 25 3b 3c 44 c6 39 3c 95 15 f5 3b
       -0.019439375 0.011422613 0.011338774 0.0074793794
000310 e2 07 b7 3b 37 c3 d0 3b d6 db 17 3c 67 2c 26 bc
       0.0055856565 0.0063709277 0.009268722 -0.010142422
000320 4f 7c bc 3a ed 97 cb bc 64 6e ae bc fc 7e 83 3b
       0.0014380309 -0.024852717 -0.021292873 0.0040129405
000330 bd 26 b7 3c 7d 39 b5 b9 7f 69 17 bd ee d1 ca bb
       0.022357339 -0.00034565842 -0.036965843 -0.0061895764
000340 17 95 87 3c d4 10 eb 3b c9 75 58 3c 4a da 9c 3c
       0.016550584 0.007173637 0.013211676 0.019147057
000350 df 2c 53 bc f8 d0 be 3b 6d 4c f2 3b fb 10 cd 3c
       -0.012889116 0.005823251 0.0073943646 0.025032511
000360 cc 6e 3d bc 2d 05 5c bc e3 2e 94 bc 84 9f a6 3b
       -0.011562061 -0.013428968 -0.018088764 0.0050849337
000370 fa e1 ca bc 89 0d 5c bb b0 32 36 3d c4 89 31 3d
       -0.024765957 -0.0033577404 0.044481933 0.043344274
000380 cb 11 54 3b 70 86 00 3d 9a 18 ca 3c a1 0c 11 bc
       0.0032359238 0.03137821 0.024669934 -0.008853109
000390 4e 7f 46 3b 49 ec 53 bc 74 0e 3c 3c 4e fb 1e bb
       0.0030288282 -0.012934753 0.011478055 -0.0024258676
0003a0 b2 77 8e bc 89 22 31 bc 22 a7 36 ba c7 9a 8a 3c
       -0.01739106 -0.0108114565 -0.0006967654 0.016919507
0003b0 82 e0 1a bd 2e 14 5e bc d7 43 9a 3c 68 28 10 3d
       -0.037811764 -0.013554616 0.018831177 0.035194784
0003c0 33 8a 25 bc 1d 9c d2 ba 11 b4 d4 3c 4c 25 bc 3b
       -0.01010375 -0.0016068254 0.025964769 0.005741751
0003d0 59 c3 08 3d 11 86 9f ba b1 a6 06 bc 72 49 34 bc
       0.033389423 -0.0012170692 -0.008218453 -0.011003839
0003e0 b9 50 e2 bc 4f 15 46 bc 81 d0 96 ba e2 af 20 3d
       -0.027626382 -0.012090041 -0.0011506231 0.039230235
0003f0 28 cc bc bc 27 8f 9e bc 4f 99 c6 3c f3 1f 12 3d
       -0.023046568 -0.01935537 0.024243025 0.035675

bias f4 [97]
000000 5f ae 1f 3d 0b 5c 96 bc cb 3e 82 bd d2 17 8d 3d
       0.038984653 -0.018354436 -0.06359633 0.06889309
000010 a1 ce 9e bd 3f 8d 92 bc cb 2d 4f 3d bb 3c da 3d
       -0.07754255 -0.017889617 0.05058078 0.10656115
000020 ba 37 06 3d 3a 2e 9f bd a5 5e fd bc 58 0a 9c ba
       0.03276799 -0.07772489 -0.03092892 -0.0011904938
000030 5c 18 15 bd 57 cf f4 3d 8c 06 55 3d 1a ad ff bc
       -0.036400184 0.119536094 0.052008197 -0.031210471
000040 60 0a 82 bd 59 82 ad 3d f4 91 c5 3d 94 c0 17 bd
       -0.06349635 0.084721275 0.09646979 -0.03704889
000050 a4 ec c0 bd 4a 35 d2 3d 94 62 92 bd 05 ef 9d 3d
       -0.094201356 0.1026407 -0.071477085 0.07711605
000060 da 73 ba bc 7f 94 ec 3d f4 37 b7 3d 3b d7 88 3c
       -0.02276032 0.11551761 0.08946219 0.016704192
000070 73 de 46 3c f7 06 a8 3d 90 86 a5 3c 37 b3 ff 3d
       0.012137997 0.082044534 0.020205766 0.124853544
000080 3f 34 4d bd 1c e3 f0 3c c5 d0 56 3d 76 d9 40 3d
       -0.050098654 0.02940517 0.052445192 0.047082387
000090 db a2 43 3d 67 55 4e bd a7 3e ac bc 51 39 84 bd
       0.047762733 -0.050374415 -0.021025969 -0.06456245
0000a0 77 16 cd bc 6b 51 d2 3d 03 56 47 3d b1 bf 2c bc
       -0.025035126 0.102694355 0.04866601 -0.01054375
0000b0 c2 0e 75 bd 86 e3 1c 3d c3 72 e2 3d 21 fd 58 3d
       -0.059828527 0.03830292 0.11057045 0.052975778
0000c0 7a 3d a9 bd 6f c3 87 bd b8 c9 c6 3d a5 57 c5 3b
       -0.08263679 -0.06629073 0.097064435 0.006022411
0000d0 07 04 fd 3d 35 73 d2 3d 45 91 56 bd a7 b0 69 3d
       0.12354284 0.1027588 -0.052384634 0.057053234
0000e0 9c dd a0 3d 2b af 79 bc 06 28 5c 3d fd 3c 13 3e
       0.07854769 -0.015239517 0.053749107 0.14378734
0000f0 1a 69 4c 3b 81 48 fd 3c c0 51 a8 3d da 57 85 3d
       0.0031190575 0.030918362 0.082187176 0.06510897
000100 4d 16 b1 3c b4 27 fd 3b 7b d9 39 3d 67 75 b1 3d
       0.02161708 0.0077256802 0.04537342 0.08664971
000110 24 30 df 3d 9b 4f 5b bd 0c 2d 26 bd 31 e0 a7 bd
       0.10897854 -0.053542715 -0.040570304 -0.08197058
000120 43 69 a5 bc c8 8e 55 bc 9f 9a 25 3c d5 83 f6 3c
       -0.020191794 -0.01303453 0.010107665 0.03009216
000130 25 de 27 bd 7e 57 db bc bd 10 53 bd 8a 70 c8 3c
       -0.040983338 -0.026775118 -0.051529635 0.024467725
000140 7c 4a 84 bd 69 19 0f bd 14 6e b4 bd d6 ce 15 bd
       -0.06459519 -0.034936342 -0.08810058 -0.036574207
000150 72 6a 95 bd 81 aa 48 3d 67 e7 05 3c ed d5 c2 bd
       -0.072956935 0.04899073 0.008172846 -0.09513459
000160 05 46 c3 3d cb 9a 31 bc 41 8e 02 bd 79 a8 03 3c
       0.095348395 -0.010840128 -0.031873945 0.0080357725
000170 1e 9c 73 bd 1b 0f ef 3d 7c fe a5 3d 0a 88 c8 3d
       -0.059475057 0.11672803 0.0810518 0.097915724
000180 03 49 67 bd
       -0.056466114
