loggers/h256_w256_bs20_in_channel1_lr0.0003/0512_0119/models/BasicModel_39.pth (torch, 40207 bytes, 17 tensors)

weight f4 [2, 1, 3, 3]
000000 3e 17 82 bb 93 eb 98 bc 3d d6 2d 3b 71 7b 1c 3d
       -0.003970056 -0.018667018 0.00265254 0.03820366
000010 fe 82 9f ba 11 17 4f bb ce 26 a8 3c 46 51 2b bc
       -0.0012169776 -0.0031599442 0.020526316 -0.010456389
000020 f7 b9 7a bc 77 c2 f4 3b 04 3a 8e bb 4c 5b c6 3c
       -0.015303127 0.007469471 -0.004340412 0.024213456
000030 8e 18 36 bd 4c 47 fb 39 a4 86 23 bc 1e d5 c7 3c
       -0.04445701 0.0004792757 -0.009980831 0.024393614
000040 1c 7f 02 bc f7 05 bc bc
       -0.007964876 -0.022952063

weight f4 [2]
000000 c8 97 7a 3f 3d 04 81 3f
       0.9788785 1.0079418

bias f4 [2]
000000 8f 59 84 3d c7 a6 b6 bc
       0.064623944 -0.022296323

running_mean f4 [2]
000000 a2 87 f2 3d 5d a1 ee be
       0.11842276 -0.46607485

running_var f4 [2]
000000 6e 6a 00 3e 84 2c c4 3e
       0.125406 0.38315213

weight f4 [4, 2, 3, 3]
000000 bf 51 00 bd aa 8b c2 bc 53 eb 4f 3c 01 8d 71 ba
       -0.03132796 -0.023748238 0.012690383 -0.00092144316
000010 5d 99 d8 bc 9f 5e a7 ba 61 fb 16 3c cd 5d 48 3c
       -0.026440317 -0.0012769288 0.009215207 0.012229395
000020 f4 98 13 3c d7 9c 90 bc c2 99 21 bd 1c 0b 9d 39
       0.009008635 -0.017652912 -0.039453276 0.0002995365
000030 87 22 3a 3d 38 36 8b bc c0 15 13 3b 6e 80 cf 3a
       0.045443084 -0.016993627 0.0022443384 0.0015831122
000040 ad 12 14 bb 4a 39 50 3c 57 13 11 bd d0 2a 88 3c
       -0.002259414 0.012708971 -0.035418835 0.016621977
000050 42 b2 47 3c 53 4a 59 3c dc d7 cd ba 88 21 bb bc
       0.012188496 0.013262349 -0.001570459 -0.022843137
000060 08 24 81 3c e0 36 7c bd 67 67 3e bb 33 8d ed bb
       0.015764251 -0.06157577 -0.0029053332 -0.0072494983
000070 53 c4 b2 bb eb 4c a9 bb f4 67 cb 3c 57 d9 06 3d
       -0.0054555326 -0.00516664 0.024829842 0.032922115
000080 06 2b 5d 3c 71 42 1e 3d 95 4f c1 3c 20 86 a0 bb
       0.013499027 0.038637582 0.023597518 -0.0048988014
000090 25 ad bd 3c f7 bd 44 bc c9 99 54 bc 5d 3b 2d 3d
       0.02315385 -0.012008182 -0.012976118 0.04229294
0000a0 fe 20 86 bc 81 7f ba 3b db ef b8 bb b2 00 c8 ba
       -0.016373154 0.005691469 -0.0056438274 -0.0015258996
0000b0 6b 89 69 3c 63 7b 8d bc 51 23 66 bc bb 3b 7a 3c
       0.014253954 -0.01727075 -0.014046506 0.01527303
0000c0 cc 54 ca bc 2b f6 ae 3c 5c 83 24 3c 31 89 eb 3b
       -0.024698637 0.021357616 0.010041084 0.0071879853
0000d0 35 00 1e 3d 97 41 07 3c 3d 52 f5 bc ec 3a 85 bb
       0.038574416 0.008255384 -0.02994644 -0.004065862
0000e0 7f d5 ae 3c 07 30 25 bb 0c 39 30 bd c4 ae ac bc
       0.021342037 -0.0025205628 -0.043023154 -0.021079428
0000f0 90 a0 fe bc f5 e8 96 3c 3c 60 a9 bc fb fe 2a bc
       -0.031082422 0.01842163 -0.020675771 -0.010436769
000100 9e 51 86 bc 58 50 1e bc 3b b3 47 bd bc 0a 03 bb
       -0.01639634 -0.00966271 -0.048754912 -0.0019995412
000110 19 88 85 bc f5 80 95 3c 6f 69 3b 3c e5 c9 3f bc
       -0.016300248 0.018249968 0.011438712 -0.01170585

weight f4 [4]
000000 1c 14 88 3f 47 e1 7c 3f 86 c9 79 3f 1b a4 85 3f
       1.0631137 0.98781246 0.97573125 1.0440706

bias f4 [4]
000000 12 a6 44 3b c3 d6 9e bc 03 40 e9 3c fb 6d 72 bd
       0.0030006212 -0.019389516 0.028472906 -0.059186917

running_mean f4 [4]
000000 52 27 5e bd e3 17 45 3c 3d 06 a0 3d dc a4 43 be
       -0.054236718 0.012029621 0.0781369 -0.19105858

running_var f4 [4]
000000 66 a4 aa 3b 78 e9 1d 3c b3 8c 7a 3b f8 f7 56 3c
       0.005207586 0.009638183 0.0038230836 0.013120644

weight f4 [8, 4, 3, 3]
000000 5e 2e 72 bc f8 f5 80 3c 3b 6c e0 bc 03 ae 54 3b
       -0.014781563 0.015742287 -0.027395358 0.0032452352
000010 49 0d 2b bd d0 f3 60 bc 8f a7 d7 3c 99 29 c0 bc
       -0.041760717 -0.013730004 0.026325015 -0.023457335
000020 37 4a 72 3b f8 6b 8d 3c 96 f0 d0 3c a3 0f 41 ba
       0.0036970505 0.017263398 0.025505345 -0.0007364696
000030 e4 ad 3f bd 8e 97 02 3d 9c 4c a5 3c cf 42 d1 3c
       -0.046796694 0.031882815 0.020178132 0.025544552
000040 79 c6 a1 bc db a1 0e 3c 77 23 d1 bb b1 0b ac bc
       -0.01974796 0.008705582 -0.0063824016 -0.021001669
000050 f2 09 bd bc f6 0e 29 3c c8 ed 6c b9 50 1a bc bc
       -0.023076031 0.010318508 -0.00022595294 -0.022961766
000060 af bb 7d b9 a0 4a 5a 3b db fc b9 bc 12 28 29 bc
       -0.00024197878 0.003330864 -0.022703579 -0.010324495
000070 30 45 27 bd 05 7b 27 bc 41 eb a9 3c c1 b9 1a 3c
       -0.040837467 -0.010222201 0.02074206 0.009443701
000080 fe 8f 23 bc 8c 67 2c bb 58 f1 04 bd c7 97 6a bd
       -0.009983061 -0.0026306836 -0.032456726 -0.057273652
000090 4f df 90 3c 7c 42 21 bd 2d 55 5c 3a 8c 28 fb 3b
       0.017684607 -0.039370045 0.0008405026 0.0076647457
0000a0 8d c2 fc bc b6 53 1b 3b 9a 78 f2 bc be 92 6b bb
       -0.030854488 0.0023701019 -0.029598523 -0.003594562
0000b0 a3 60 45 3c f5 ed 3c 3b da 9d 4b 3c 14 da 4c bd
       0.012046966 0.0028828357 0.012427771 -0.050012663
0000c0 e4 ae 64 3b 9d 69 7e 3c e5 6f 10 3c 4b 9e 5a bc
       0.0034894282 0.01552811 0.00881574 -0.013343404
0000d0 99 06 9f ba de 5c 85 3b 02 39 8c ba 76 a5 92 bc
       -0.0012132704 0.0040699085 -0.0010698142 -0.017901164
0000e0 16 48 86 bb b2 56 e2 3c 9d c9 e8 bb a7 91 88 bc
       -0.004097949 0.02762923 -0.0071041123 -0.016671015
0000f0 7d a6 02 bc a5 95 33 3c 2e 8d e3 b8 53 10 21 bd
       -0.007974264 0.010960971 -0.000108505 -0.03932221
000100 8c 6d 14 bd 37 c4 42 3c a4 90 ae 3c 93 f7 23 3d
       -0.036237285 0.011887602 0.021309204 0.040031027
000110 2a c1 04 bd 60 57 4b 3c 4d 6e cb bc 97 27 3a bd
       -0.032410778 0.012410969 -0.024832869 -0.045447912
000120 60 50 92 3c 79 73 03 bc f5 3b 0e bc 18 05 f0 bc
       0.017860591 -0.008023136 -0.008681287 -0.029299304
000130 8a b5 26 bd 3e 6c b2 bc 55 9d 3f 3c de cb 43 bd
       -0.040700473 -0.02178013 0.011695226 -0.047801845
000140 84 37 14 3d 5b d1 6a bc 8e 22 13 bd 6c ef e2 ba
       0.036185756 -0.014332141 -0.035921626 -0.0017313785
000150 78 54 dd 3b 80 82 ad bc f0 e8 1a 3d 38 17 03 bc
       0.006754454 -0.021180391 0.037819803 -0.008001141
000160 04 97 48 3c a4 4e 37 3c e6 34 48 bc b8 20 27 bc
       0.012243036 0.011188183 -0.012219643 -0.010200672
000170 e3 c0 b0 3c c7 62 51 3c 58 7e 91 3c f2 f0 95 bb
       0.02157635 0.012779898 0.01776044 -0.004575842
000180 aa 97 d5 bc 48 4a 31 bb f2 95 58 bc 4e 34 06 bb
       -0.026073296 -0.0027052332 -0.0132193435 -0.0020477953
000190 dc 7d 3e bc 8d 78 4f 3c 43 e4 53 3d d9 4e 20 bd
       -0.011626687 0.012663019 0.05173136 -0.039137695
0001a0 bd 18 03 bc 9d 49 48 3b 7d 36 22 bc d1 8d 9f 3c
       -0.008001504 0.0030561455 -0.009900686 0.019476803
0001b0 20 fe a6 bc 97 b0 81 bb f9 6c 7d 3c f4 57 ed 3c
       -0.020384848 -0.0039578187 0.015467876 0.028972603
0001c0 5e 67 fc bb 6e 97 8b 3c 3a 7b 9f bc 28 b3 4e 3c
       -0.007702752 0.01703998 -0.019467939 0.012615956
0001d0 f7 f4 b5 bc e9 0a 8d 3c 13 42 21 bc 47 6c 76 3c
       -0.022211535 0.017217116 -0.0098424135 0.015040464
0001e0 76 f3 74 bb a1 21 40 bd ea 76 e1 3b 77 7e ff 3c
       -0.003737656 -0.04690707 0.0068806307 0.031188233
0001f0 08 60 eb 3a 11 47 6f bc 58 7f 01 3c 21 eb 92 ba
       0.0017957697 -0.014604346 0.007903896 -0.001120899
000200 6c b8 fe 3b 4f 27 c8 3b 03 b4 c3 bc 1a b3 aa bc
       0.0077734496 0.0061082016 -0.023889547 -0.020837355
000210 b3 6c c2 3c 92 e8 4d bc 86 c5 0c bc 31 42 7e 3c
       0.023733472 -0.012567656 -0.008592015 0.015518711
000220 87 a0 93 3c db eb 1a 3d c0 ca 6a 3c 71 5c c6 3b
       0.018020881 0.037822586 0.014330566 0.0060535003
000230 79 67 3f 3b a6 f9 11 3d ed 3e 14 3d 27 aa ea bc
       0.0029205962 0.035638474 0.036192823 -0.028645588
000240 96 7b 41 3c e2 7e 96 bc d9 dc 2b bc 29 54 0b 3c
       0.01180925 -0.01837105 -0.010489666 0.008503952
000250 e8 74 62 bb 40 73 c1 3c 8b 18 9d 3c b8 9a 23 3d
       -0.0034554545 0.023614526 0.019176742 0.039942473
000260 77 7b 37 3c 75 24 87 3b 9a 9b 5f bc f5 77 26 bd
       0.01119887 0.004124219 -0.013647938 -0.040641744
000270 28 b2 58 bd 36 df ba bc 69 56 a8 bc 7b fa 02 3a
       -0.052904278 -0.022811513 -0.020549016 0.0004996431
000280 ea 3a 09 bd 41 b6 57 bc 1a 1f 79 bc c6 e1 21 3d
       -0.03350345 -0.013166011 -0.015205169 0.039521955
000290 49 af 3b bc 0c a1 23 bc 9a bb 21 bd 5f 1b 22 3c
       -0.011455365 -0.009987127 -0.03948555 0.009894221
0002a0 05 8d a7 bc 14 22 37 3b e3 17 c4 3a 56 e4 19 bd
       -0.020452986 0.0027943896 0.0014960732 -0.037571274
0002b0 20 cd 87 3a e6 a7 29 bc d0 80 5e 3b a9 b5 89 3c
       0.0010360815 -0.0103549715 0.003395129 0.016810255
0002c0 e1 4b 10 3d 21 d8 c6 bc 5c cf d1 39 c5 45 16 bc
       0.035228614 -0.02427298 0.0004001808 -0.009171908
0002d0 e5 a9 8f 3c 5d a2 ee 3c 74 0c 81 bd 4b 91 d6 bc
       0.017537067 0.029130155 -0.06301203 -0.026192328
0002e0 21 67 34 3c cb 57 95 bc 15 a7 5a 3d f6 2c e8 bc
       0.011010916 -0.01823034 0.053381998 -0.028341752
0002f0 e5 cb fc 3c fb c6 80 bb 60 b2 5c 3b f1 bf 90 3c
       0.030858943 -0.0039299703 0.0033675656 0.01766965
000300 b1 a5 73 3c e8 f9 81 bb cd 6b e2 bc 1c 1e 0a 3d
       0.014871047 -0.0039665587 -0.027639294 0.03372012
000310 9a d4 38 3c 4a 46 2b 3c df d6 49 3c fa 2e 00 3c
       0.011281157 0.01045377 0.012319296 0.0078237
000320 d5 ad bc bc b2 de 02 bc a6 a1 80 3a 61 a7 be 3c
       -0.023032108 -0.007987665 0.00098138 0.023273172
000330 5b b6 82 3a c8 70 95 bc c0 4a 1f 3c 0a fa 36 3d
       0.0009972559 -0.018242255 0.009722412 0.04467205
000340 cf e5 0e 3c cc 94 b9 3c ba f4 41 3c b4 c2 4c bc
       0.008721783 0.02265396 0.0118381325 -0.012497593
000350 a8 9d d6 3b c5 03 bf ba f2 5c b0 bc b7 06 77 3a
       0.006549556 -0.0014573267 -0.021528695 0.0009423303
000360 18 0b 9c bb ab e1 2e 3d c5 e7 86 bc 37 d2 a0 3c
       -0.0047620647 0.042695682 -0.016467938 0.019631488
000370 3d 7b 8e 3c 68 b9 cc bc 8d 79 36 bb f5 4e f6 bb
       0.017392749 -0.024990752 -0.0027843446 -0.0075167366
000380 62 91 0f 3d ae d5 75 3a af 1f c0 3b bf b0 bc 3c
       0.035050757 0.0009377849 0.005863152 0.023033498
000390 e0 1a 03 bc 4b 07 14 3c c5 dd 7a 3c b7 50 85 3c
       -0.008002013 0.009034942 0.015311663 0.01627384
0003a0 72 22 76 bb fc 74 c4 3b 13 95 07 bc 19 78 4a bc
       -0.0037557152 0.005995391 -0.008275288 -0.012357735
0003b0 40 52 b7 3c 4d 34 44 3c 82 d8 c8 3b 08 37 10 bd
       0.022378087 0.01197536 0.0061293254 -0.035208732
0003c0 11 65 2f 3b 0b d2 2b 39 5a 14 7d 3c 6f 68 10 bd
       0.002676312 0.00016386078 0.015446747 -0.035255846
0003d0 56 08 a1 bb 05 ca 9c 3c 35 66 3c 3c bc 16 1e bb
       -0.004914324 0.0191393 0.011498977 -0.0024122437
0003e0 2c fd c8 bc 2c 4f 32 bd cf 52 cb bb cf f1 02 bc
       -0.024534784 -0.043532535 -0.00620494 -0.007992222
0003f0 79 e7 fd 3b 53 e5 d5 3c 08 59 88 bc 17 83 26 bc
       0.007748541 0.026110327 -0.016644016 -0.01016309

weight f4 [8]
000000 f1 66 7d 3f 1b dd 81 3f 00 b7 7b 3f c3 1b 85 3f
       0.989852 1.0145601 0.9832611 1.0399097
000010 45 32 83 3f a6 64 81 3f 70 e9 79 3f a7 7b 7a 3f
       1.0249716 1.010884 0.9762182 0.9784493

bias f4 [8]
000000 ad 8d 17 bb 6f 28 03 3c 90 c0 4c 3c 87 a9 1d 3c
       -0.0023125217 0.008005246 0.012497082 0.009622938
000010 df 12 bc 3b c2 f7 8b ba b2 14 89 bb de 57 bc 3c
       0.0057395543 -0.0010678696 -0.0041833753 0.022991117

running_mean f4 [8]
000000 9c 66 5d be 7c 13 27 be b7 27 f6 bd b1 50 6a 3d
       -0.21621174 -0.16316026 -0.12019294 0.05720586
000010 d9 5b 22 be e3 92 b6 3d fe 97 54 3d 41 7e 52 be
       -0.1585535 0.08914735 0.051902764 -0.20555975

running_var f4 [8]
000000 ed 0d 0d 3c d8 89 c4 3b 97 b8 d2 3b a3 ac 08 3c
       0.008609277 0.0059978776 0.006430696 0.008341941
000010 c2 79 88 3c 2a c1 e0 3b be 88 8d 3b 54 fe ba 3b
       0.016659621 0.0068589645 0.0043192795 0.005706588

weight f4 [97, 8, 3, 3]
000000 f2 2f ca bc b6 58 9d 3b 92 17 07 3d ef 4e 95 bc
       -0.024681065 0.004801835 0.032981463 -0.018226115
000010 99 00 b7 bc 09 6c 1b bc e3 9e ad 3c ea d9 db bc
       -0.022339152 -0.009486207 0.021193927 -0.026837308
000020 48 b3 a4 3b a5 26 78 3c 0a 71 0c 3d 3e 03 36 3a
       0.005026255 0.015145932 0.03428749 0.0006943232
000030 6a 85 1b bc 1d 1b a0 bb a1 71 16 bd a1 7f b3 3c
       -0.009492258 -0.0048860447 -0.03672946 0.021911444
000040 9f ef 4e b9 be 01 d2 3b 8e 1e dc 3c 8f 0b 69 3c
       -0.00019734957 0.006408899 0.026870038 0.014223947
000050 11 1f 40 3c 95 80 6a 3c 02 df 3c 3c 6b 4e 17 bd
       0.011726157 0.014312883 0.011527779 -0.03694002
000060 81 33 65 3c ae 9d 91 bc 14 85 e9 3c bc 16 27 3d
       0.01398933 -0.017775383 0.02850584 0.040793166
000070 2d 5e 36 3d 31 f8 54 3d ba 40 db 3c a4 95 00 3d
       0.044523407 0.051994506 0.026764262 0.03139271
000080 e1 a3 6f 3d 4a e4 3e 3d a2 0e 93 3b a8 0e e3 bc
       0.058505896 0.046604432 0.0044878284 -0.02771695
000090 83 7b 00 3d 86 0e 8e 3d 3a cf 4e bb 70 20 94 3c
       0.03136779 0.06936364 -0.0031556622 0.018081874
0000a0 8e 3f 99 3c 87 e9 bd 3c ed 6c bf 3b 0b 29 c3 3b
       0.018707063 0.023182644 0.0058418424 0.0059558204
0000b0 37 93 3e bb 2d 8e a2 3c f4 cc 83 ba cd 45 ad bc
       -0.0029079446 0.019843185 -0.0010055588 -0.021151448
0000c0 38 9e 9b 3b 3c bd 3b bb 72 84 55 3b 25 72 07 bb
       0.0047490858 -0.0028646728 0.0032580164 -0.00206674
0000d0 3f 2c eb 3c 85 e7 32 3b a5 2e da bc 49 27 f7 bb
       0.028707622 0.002729864 -0.02663357 -0.007542525
0000e0 57 be 1b 3c 26 ad a4 3c e2 89 1e bc d5 36 07 3d
       0.00950583 0.020102095 -0.0096764285 0.033011276
0000f0 d2 93 34 bb a9 41 0c bc e6 e2 e9 3c a2 8d dc bc
       -0.0027553928 -0.0085605765 0.028550576 -0.026923005
000100 ae 34 cc 3b ac 02 99 3c ac bf 39 bd 6b 0d 06 bd
       0.006231866 0.018678032 -0.04534881 -0.03272764
000110 4f 47 20 bb de 62 0f bd 28 58 b0 bb de 09 df bc
       -0.0024456566 -0.035006396 -0.005381603 -0.027226385
000120 c5 8c cb 3c d2 d9 b7 3c 4c 0e ae bc 14 12 72 bd
       0.024847398 0.022442732 -0.021247052 -0.059099272
000130 66 52 4a bd f0 af a3 bb 9c a2 db 3b 8c f4 df 3a
       -0.049394988 -0.0049953386 0.006702734 0.001708643
000140 a1 47 40 3b 3f d0 cd 3c 8a 20 71 bb e4 0b 8e 3c
       0.002933957 0.025123714 -0.0036793076 0.017339654
000150 a5 c2 cd 3c 40 39 86 bc bb ea 24 bc 8b 94 05 ba
       0.025117228 -0.01638472 -0.01006573 -0.0005095682
000160 85 cb 86 bb 96 65 2d bb e8 5d 33 3d ec c0 b6 bc
       -0.004113617 -0.0026458255 0.043790728 -0.02230879
000170 7f 6b bb 39 cd e5 8b 3b 10 0c 28 bc 71 99 23 3c
       0.0003574751 0.0042693377 -0.010256782 0.009985314
000180 96 1c 86 3c fe 68 75 bb db c2 c7 3b ba ae a2 3c
       0.016371053 -0.0037446613 0.0060962266 0.019858707
000190 a6 bd 9d 3c 97 c7 b8 bc 26 fa d0 3c c8 6d 03 bd
       0.01925547 -0.02255611 0.025509905 -0.032087117
0001a0 2a 99 41 ba 9b 90 5f 3d c2 50 0d 3c 6b db bf bc
       -0.0007385189 0.054581266 0.008625211 -0.023420056
0001b0 cc 98 44 3d 89 71 0a 3d 9d e7 71 3c bb 63 82 bc
       0.04799728 0.03379968 0.014764694 -0.015916696
0001c0 8a 9d 35 3d 84 cb 24 3b 09 42 9e 3c 76 6f 14 3c
       0.044339694 0.0025145719 0.019318597 0.0090597775
0001d0 48 e2 a9 3c 1a f9 5b bc c6 1d 43 3d 85 48 8f bb
       0.020737782 -0.01342609 0.047635816 -0.0043726587
0001e0 74 ab 95 3c cd df 5b bc a1 cb e6 bb 06 27 12 bd
       0.018270232 -0.0134200575 -0.0070433174 -0.035681747
0001f0 14 58 d5 3c a0 29 09 3b c8 40 3b 3b f4 26 d0 bc
       0.026042975 0.0020929351 0.0028572548 -0.0254092
000200 16 29 a2 3c cf ad b8 3c 84 a1 11 bc d3 ba cc bb
       0.019794982 0.022543816 -0.008888606 -0.006247857
000210 a2 9f b9 bc cf bf 5b 3a 82 41 49 bb 32 c2 32 bb
       -0.022659127 0.0008382769 -0.0030709212 -0.0027276394
000220 f6 cd da bc 69 a2 8f 3b ec 3b 09 bb 9d b1 ee 3c
       -0.026709538 0.0043833745 -0.0020940257 0.029137427
000230 ae bf ce bb 6e 20 4e bd 68 7d dc bb cb 11 6d bd
       -0.006309471 -0.050323896 -0.006728817 -0.057878297
000240 b0 1f 5a 3c 92 26 fd 3c 05 61 ba bc 56 18 92 3c
       0.013313219 0.03090218 -0.02275134 0.01783387
000250 bb e7 2f 3c 58 b0 d9 b9 ef 19 b3 bc 48 31 32 3d
       0.010736401 -0.00041520852 -0.021862952 0.04350403
000260 45 b1 8e 3c 35 f7 8d 3c e8 c2 67 3c ac 6b a1 bc
       0.017418513 0.017329792 0.01414559 -0.019704662
000270 a5 11 ff 3a b6 09 db 3c 19 18 08 3d 6c 20 ec bb
       0.0019460215 0.026738029 0.033226106 -0.0072060134
000280 a6 39 68 3a f1 98 b4 bb f9 56 d1 bc b0 72 81 bc
       0.0008858688 -0.005511396 -0.025554167 -0.015801758
000290 59 bf f0 ba a0 04 94 bb 17 8f 84 3c 24 9e 78 3c
       -0.0018367573 -0.004517153 0.016181512 0.015174422
0002a0 c5 f3 2d 3b cd 37 37 bb 1c f0 b5 bc 1c eb 96 3a
       0.0026543003 -0.0027956844 -0.02220922 0.001151416
0002b0 98 70 79 3c db 95 8c bc c1 95 e4 3a 23 9f ec bb
       0.015224598 -0.0171613 0.001743965 -0.007221119
0002c0 16 f7 c3 bc 0c ef af 3c 2a cc 0a bc 51 07 43 3c
       -0.02392153 0.021476291 -0.008471528 0.0119036
0002d0 96 dd c6 3c ee 2e 47 bc 07 be fa 3b f0 93 5a 3b
       0.024275582 -0.012157185 0.0076520476 0.0033352338
0002e0 31 15 01 3b 41 5b a8 bb 80 c5 09 bc f0 6b ce bc
       0.001969647 -0.0051378314 -0.008408904 -0.025197953
0002f0 20 7a ac 37 b2 fa fb 3a 0f bf 05 bc d2 9b 99 bc
       2.0560867e-05 0.0019224493 -0.008163228 -0.018751059
000300 f9 50 8f bc 1e cc 6f ba 76 cc 23 3c 54 cc 02 3a
       -0.017494665 -0.00091475423 0.009997478 0.00049895537
000310 f1 63 0b 3c 9a fa ba 3b e0 94 98 bb b3 5c 9c bb
       0.008507715 0.0057061436 -0.004656419 -0.004771793
000320 d9 45 4c 3a c1 82 4b bc c9 5c be bc c7 da 34 3c
       0.00077923905 -0.012421311 -0.023237603 0.011038489
000330 59 03 f2 3c 73 f6 8c 3b 40 2d 22 bd 0c 93 d2 bb
       0.029542612 0.00430184 -0.039593935 -0.0064262208
000340 1d ce bd 3c 96 86 23 3c 6d fe dc 3b 53 29 b7 3c
       0.023169572 0.009980818 0.006744197 0.022358572
000350 d5 a5 ec bb 7d d3 87 3c f1 bc 98 3b 17 1e 15 3d
       -0.007221917 0.016580338 0.0046611954 0.03640565
000360 7b 5f 92 bc 9d a9 4d bc 30 1f 74 bc 3d 02 32 3c
       -0.017867794 -0.012552646 -0.014900014 0.010864791
000370 06 6c 88 bc db 34 e8 3b 86 1a cf 3c 6f 35 39 3d
       -0.016653072 0.007086379 0.025281202 0.045216974
000380 cb c0 92 bb 19 2f c8 3c 66 9d da 3c fc 92 2a bb
       -0.004478549 0.02443652 0.026686382 -0.002602755
000390 74 71 00 ba 32 d3 61 bc f2 9f f8 b9 67 5f e7 ba
       -0.00048997183 -0.013783263 -0.00047421415 -0.0017652333
0003a0 6d 9e 4b bc bf b5 92 bc d8 c0 a9 bb 1a 91 58 3c
       -0.012427908 -0.017908929 -0.0051804595 0.013218189
0003b0 7b 0d d9 bc f4 af 21 3b 5f ef 52 3c 01 93 d5 3c
       -0.026495686 0.0024671527 0.012874453 0.026071073
0003c0 a4 93 10 bb 49 08 04 bb fb 34 bd 3c 50 fe 8c 3b
       -0.0022060657 -0.002014654 0.023096552 0.0043027773
0003d0 cc 4a d5 3c 43 65 b5 bb c3 4b df bb 20 c0 40 bc
       0.026036642 -0.005535753 -0.0068144514 -0.011764556
0003e0 a4 17 a8 bc c8 ca 2a bb 26 22 e5 bb 7f 1e 00 3d
       -0.020519085 -0.0026060808 -0.006992596 0.031279083
0003f0 f6 fe 85 bc c6 cc aa bc bd a1 d3 3c bc 52 fd 3c
       -0.016356926 -0.020849597 0.025833959 0.03092324

bias f4 [97]
000000 8a 7f 04 3d d3 8d c4 bc bb d6 7b bd f4 18 88 3d
       0.032348193 -0.023993408 -0.06148408 0.066453844
000010 46 ab a6 bd ef 97 9d bc 16 c7 62 3d a7 f2 de 3d
       -0.081381366 -0.019237487 0.055365644 0.10886126
000020 b4 22 f5 3c 14 c0 9a bd d7 09 22 bd ee 7d 04 bc
       0.029923774 -0.07556167 -0.039560165 -0.008086665
000030 c5 bb 0c bd c9 17 f3 3d d9 1f 55 3d 93 f8 03 bd
       -0.03435876 0.11869771 0.052032325 -0.03221948
000040 c0 cc 7d bd 68 e0 b0 3d f2 f6 c1 3d 71 59 27 bd
       -0.061962843 0.08636552 0.09470929 -0.040856782
000050 18 9a cc bd 04 c0 d5 3d 7e e3 93 bd f7 07 9f 3d
       -0.099903286 0.10437015 -0.07221125 0.07765191
000060 14 38 ef bc 92 18 f0 3d f6 00 b9 3d bb 4e 49 3c
       -0.029201545 0.117234364 0.090333864 0.012286837
000070 01 35 3d 3c 7d 0b a2 3d ab 77 95 3c a3 93 00 3e
       0.011548282 0.079123475 0.018245539 0.12556319
000080 3f 3e 41 bd a5 09 eb 3c 1d 25 48 3d fd 59 30 3d
       -0.047178503 0.028691122 0.04886352 0.04305457
000090 91 2d 36 3d b1 c1 6e bd bd 57 95 bc bc f1 88 bd
       0.04447705 -0.058290187 -0.018230313 -0.06686732
0000a0 bb 92 c6 bc 0a 5c cf 3d 7d 9b 47 3d d2 32 1b bc
       -0.024239888 0.10124977 0.04873227 -0.009472566
0000b0 b9 b5 80 bd c3 93 10 3d 46 1f d6 3d f0 64 59 3d
       -0.06284661 0.035297167 0.10455184 0.053074777
0000c0 3c 7c a7 bd 94 4e 8f bd 8b 85 cf 3d 05 49 51 3b
       -0.08177993 -0.069974095 0.10132893 0.0031934392
0000d0 d4 4b f5 3d 39 33 d7 3d 66 9b 6a bd 6a cc 66 3d
       0.11977354 0.10507817 -0.057277106 0.05634729
0000e0 57 c9 9d 3d 65 6e 5d bc d3 07 5e 3d 05 2d 0c 3e
       0.07704418 -0.01351509 0.05420668 0.13689049
0000f0 bf f9 3f 3b 43 62 ea 3c b2 59 a0 3d a3 c7 7a 3d
       0.0029293147 0.028611308 0.07829608 0.061225545
000100 09 b4 a4 3c 42 a0 4f 3c 51 96 30 3d 0e 37 a9 3d
       0.020105379 0.012672486 0.043112103 0.08262454
000110 2f ba d8 3d a3 a2 5f bd 05 d4 2c bd 9c 38 a9 bd
       0.10582387 -0.05459846 -0.042194385 -0.082627505
000120 19 54 87 bc 4d d1 05 bc 6e ae 61 3b 2c 68 d9 3c
       -0.016519593 -0.008167577 0.0034436244 0.02653893
000130 91 d8 2a bd d5 74 f6 bc b0 b5 42 bd c9 72 ab 3c
       -0.04171044 -0.030085007 -0.047536552 0.020928757
000140 eb f4 88 bd ae bc 1a bd 9f 87 be bd 06 b1 27 bd
       -0.066873394 -0.037777595 -0.093032114 -0.040940307
000150 aa 57 8f bd c0 85 2f 3d 6f b1 89 3b 5c 8b cd bd
       -0.069991425 0.042852163 0.00420206 -0.10036346
000160 b9 a9 c6 3d 3e 96 7b bc 67 17 06 bd fc 73 ea 3b
       0.09700341 -0.015355645 -0.032737162 0.0071549397
000170 bd f8 77 bd dd 5c ed 3d 50 6b a6 3d 72 9d bf 3d
       -0.06053995 0.11589978 0.08125937 0.09356202
000180 c1 33 80 bd
       -0.06259871
