loggers/h256_w256_bs20_in_channel1_lr0.0003/0512_0119/models/BasicModel_79.pth (torch, 40207 bytes, 17 tensors)

weight f4 [2, 1, 3, 3]
00000000: ec73 b9bb 5a9a a5bc 393e 003b 11b3 323d
00000010: 53e5 02bb 726a 72bb 8cb8 ba3c f354 40bc
00000020: ae8d 82bc e72c 2b3c a2a0 aebb 85f7 d03c
00000030: 64ab 40bd 4aef 4cbb 5ff0 26bc 337f d23c
00000040: d2b6 f3bb 3a43 c5bc
-0.005659571 -0.020215202 0.0019568338 0.043627802 -0.0019973114 -0.0036989716 0.022793077 -0.0117390035
-0.015936699 0.010447717 -0.0053292075 0.025508652 -0.04703845 -0.0031270557 -0.010189145 0.025695419
-0.0074375654 -0.024079908

weight f4 [2]
00000000: a65a 783f 9bc3 803f
0.9701332 1.0059694

bias f4 [2]
00000000: 28b5 e03d 8870 fbbc
0.10972053 -0.030693308

running_mean f4 [2]
00000000: f2a7 0a3e 9d8d efbe
0.13540629 -0.4678773

running_var f4 [2]
00000000: 8e75 263e 1903 e13e
0.16255781 0.43947676

weight f4 [4, 2, 3, 3]
00000000: 3742 04bd 46c2 d4bc 2d31 633c eb01 e03a
00000010: 6470 e6bc c61f 6abb 6820 f03b 1b27 713c
00000020: 9404 0a3c aeb8 9dbc a0bf 1abd 5045 143b
00000030: 9a93 513d fc2c bdbc 67c7 8e3a e80c 17ba
00000040: 19d9 913a 6c47 403c 3f08 22bd adb8 a23c
00000050: 5c2f 6b3c 6056 4a3c 2ac3 5fb9 8110 bcbc
00000060: f7c9 7d3c a8c1 81bd 9951 8abb a17f 9239
00000070: 69f9 aebb 3451 6bbc 5dcd ea3c 2428 f53c
00000080: f156 993c e32a 1b3d 6a62 bf3c 91d1 d1ba
00000090: 8117 d43c c0f3 73bc da99 5abc 3f5c 3a3d
000000a0: 665a 75bc a513 a03b 013c d9bb 6691 4bba
000000b0: 6660 513c ff32 94bc f749 84bc 3c29 6a3c
000000c0: 364e a9bc 42d1 783c ea4d 973c 5679 233c
000000d0: 4e50 293d b56d 353c 1e17 14bd ee36 87bb
000000e0: 935f c43c aa1b 923b f567 31bd 68e6 bebc
000000f0: 29e2 05bd dcd2 8d3c 1c12 89bc d055 36bc
00000100: e180 a2bc a843 0bbc 616c 3fbd 1ed8 c4bb
00000110: e439 98bc 3647 9a3c 2ef8 5d3c 5f7d 17bc
-0.03228971 -0.025971543 0.013866705 0.0017090415 -0.028129764 -0.0035724505 0.007328082 0.014718796
0.008423943 -0.019253101 -0.037780404 0.0022624321 0.051166154 -0.02309274 0.0010893167 -0.0005762116
0.0011127322 0.011735778 -0.039558645 0.01986345 0.014354553 0.012349695 -0.00021339642 -0.022957088
0.015490047 -0.06335765 -0.004221153 0.0002794238 -0.0053397906 -0.014362622 0.028662378 0.029926367
0.018718215 0.037882697 0.023362357 -0.001600789 0.025890114 -0.0148896575 -0.013342345 0.04549813
-0.014975166 0.0048851543 -0.0066294675 -0.00077655015 0.012779331 -0.018090723 -0.01614855 0.014292058
-0.020667177 0.01518661 0.01846977 0.009977659 0.04133635 0.0110735195 -0.03615486 -0.004126421
0.023971355 0.004458864 -0.04331203 -0.023303226 -0.032686386 0.01731246 -0.016732268 -0.011128858
-0.019836845 -0.008500017 -0.046734218 -0.0060072085 -0.018582292 0.018832784 0.01354794 -0.009246199

weight f4 [4]
00000000: c906 883f b8ba 7b3f e8e9 763f 21ff 853f
1.0627071 0.98331785 0.9645066 1.0468484

bias f4 [4]
00000000: a4ed d43c 0eb4 9abd a3c0 c23c d0dd e1bd
0.025992222 -0.07553874 0.023773497 -0.110286355

running_mean f4 [4]
00000000: 18e5 6fbd d1b5 7b3c 44b5 b53d f71a 48be
-0.05856809 0.015363173 0.08872464 -0.19541536

running_var f4 [4]
00000000: 00e3 b83b e2da 2a3c 4946 9a3b d654 5e3c
0.005642295 0.010428162 0.0047080857 0.013570031

weight f4 [8, 4, 3, 3]
00000000: 8d68 2cbc 023c 3e3c a2d6 8dbc 85b1 373c
00000010: c7c4 56bd d96c 13bc e281 943c 803e 53bc
00000020: 95f8 18bc 2657 923c 8bab b13c ab18 153c
00000030: 62c2 60bd 32f6 093d 61a4 9d3c 724c 113d
00000040: 42f1 15bd 8e4a b53c 033c dabb f898 aebc
00000050: ce49 99bc 00d8 f63b 9cfa eb3b b019 e5bc
00000060: 41d7 7b39 73fa b83b 0d0d cfbc ebbc b7bc
00000070: c23f 0bbd 0f20 81bc 5701 5d3c 4728 b43c
00000080: cc62 ec3b 8afb 113c 957a c4bc ff0b 5abd
00000090: aaf4 ad3c 58fc eebc fbe7 e4bb 5054 083c
000000a0: 1abb 11bd efbe a33b ab96 febc 2e7c 24bc
000000b0: 566c 4b3c efd6 a13c 9b5d 223c 388e 36bd
000000c0: 1357 36bc 4f75 b53c 7474 493b 5538 65bc
000000d0: 02de 90bb 4a27 383c ca52 86bb 206d 4bbc
000000e0: ef49 f6ba f36b 013d 18d6 9cbb 1a50 afbc
000000f0: bb2c d5bb d1fa 193c 2897 bd3a 7791 5abd
00000100: 9cdf cabc 87dd c23c 5e72 d53c 179b 823d
00000110: 39e6 51bd d154 673c 0113 cebc b26e 6abd
00000120: e42b bd3c e257 0dbc 0c43 6cbc 2104 d2bc
00000130: a257 2ebd c81f 7bbc f7cc 9c3c 23f6 53bd
00000140: 1f5f 263d c10d 89bb 4c46 64bd d57d b33b
00000150: 62e2 d83a cb3a babc d779 123d ee02 e1bb
00000160: 0980 e13b 77ab 303c 2bde 75bc a476 1fbc
00000170: 5a2f ac3c b98c 3d3c daf4 a33c 5139 403b
00000180: 0c71 f0bc 3044 a0bb 8f6f 7abc c951 81bc
00000190: 5622 cebb 58e8 313c 820d 453d 8e67 2cbd
000001a0: 654d 31bc 24ce 793a 698f c5bc c0f4 aa3c
000001b0: ff0b 9bbc 7098 0dbb 26f2 413c 41ee a83c
000001c0: 4650 c2bb bc15 bc3c 35bc 94bc 3644 073c
000001d0: da04 c9bc b89c 913c 958d 6abc 2cd7 8f3c
000001e0: 3903 adbb 18f0 48bd 7d78 a03b 2dd6 113d
000001f0: 0d0d d23a 7c65 a0bc e7f1 d53b ccf0 ae3b
00000200: c358 fb3b 2b05 243c f89b 05bd 8eef 82bc
00000210: a894 d33c a211 63bc e1f0 18bc c01e d03c
00000220: cbe9 bc3c 4a90 f93c 7df7 823c 0f8d 463a
00000230: 7015 5b3a 8648 f13c aa95 103d 9635 08bd
00000240: 58ea a73c a0c6 b0bc b8ec b0bb eceb 3d3c
00000250: 5aa4 c43a fb28 a93c f9a1 3b3b 3ae9 2b3d
00000260: f28b ed3b 219c 203c 5717 38bc 460a 5ebd
00000270: 169f 5bbd 83e4 8fbb 7f5f 9fbc f54d dd3b
00000280: aac8 1fbd 9d7a 46bc b37d 84bc fd9b 333d
00000290: 6ddf f4bb 8159 2cbc fd06 0ebd 972e 463c
000002a0: 8628 b3bc a76e 443b 4e9c a63b d1c3 4cbd
000002b0: 53cb 213c 3dc6 3fbb e30a 1cbb 6cfe 0d3c
000002c0: d798 293d e26a 9dbc 56cf c03a 0305 dfbc
000002d0: b0e8 8f3c 8207 0e3d 62c9 83bd ee99 0ebd
000002e0: 64fe a93b 55cb 78bc 328c 713d 5f98 cebc
000002f0: 7676 f83c eedd a5bc e443 2e3c 703b a13c
00000300: 1abd 803c 4582 74bb e7be dfbc 5778 d13c
00000310: 4a03 833c e6d3 9e3b d5bf 3f3c 0c0a cb3b
00000320: 83dc c3bc 4bdf 03bc b7c0 ed39 eda8 ca3c
00000330: ace3 503a 1bde 8abc 3937 373c 7b02 6a3d
00000340: 169e 5c3c d125 693c 5bb1 563c 8abe c3bb
00000350: 0619 5f3c d678 87bc a98c 26bc 56ff b1ba
00000360: 9a44 90bb 071a 223d 3c63 97bb 43c4 c23c
00000370: bdcd 9a3c 91de 09bd f78a 90bb 22c0 80bc
00000380: bf99 423d 8bd6 09bb c9b5 7b3b ca27 a43c
00000390: ba63 50bc 752c 2b3c 5a05 793c c9ed 163c
000003a0: 72e0 54bb 8e9d e93b b4a5 d4bb 380f 34bc
000003b0: 8012 8c3c 76e3 613c f3fd 2a3b d694 2cbd
000003c0: 4585 b73a fb90 563b ef0e 5a3c 6a97 22bd
000003d0: c8e8 3bbb d23d b63c 0163 9e3c b485 65bc
000003e0: a514 ccbc 1942 2fbd 3aa2 3ebc 91ed 2dbc
000003f0: 1d2f c0bb 3851 083d 5f80 83bc 4113 e33a
-0.010522974 0.011610987 -0.017314259 0.011211758 -0.052433755 -0.008998119 0.01812834 -0.012893319
-0.00933661 0.017863821 0.021688243 0.00910012 -0.054872878 0.033682056 0.019243421 0.035473295
-0.036607035 0.022130277 -0.006659986 -0.021313176 -0.01871195 0.0075330734 0.007201506 -0.02796635
0.00024017414 0.0056450902 -0.025274778 -0.02242895 -0.03399635 -0.015762357 0.013489089 0.021991862
0.007213926 0.008910069 -0.023984233 -0.053234097 0.021234829 -0.029173061 -0.006985662 0.008320883
-0.035578825 0.0049971263 -0.031077703 -0.010039372 0.012415966 0.019755809 0.009910013 -0.044569224
-0.011129159 0.022150664 0.0030739577 -0.013990481 -0.0044209966 0.011239836 -0.0040992247 -0.012416154
-0.0018790344 0.03159709 -0.004786264 -0.0214005 -0.0065055764 0.009398178 0.0014464604 -0.053361382
-0.024764828 0.023787273 0.026055511 0.06377237 -0.051244948 0.014119343 -0.025155546 -0.057234474
0.023092218 -0.00862691 -0.014420282 -0.025636734 -0.042564042 -0.015327401 0.019140704 -0.051748406
0.04061806 -0.004182548 -0.055731103 0.005477647 0.001654696 -0.022733113 0.035760727 -0.0068668043
0.006881718 0.010783068 -0.015006582 -0.009732876 0.021018673 0.011569195 0.020014215 0.0029331038
-0.02935078 -0.004890941 -0.015285387 -0.015786069 -0.0062907143 0.010858618 0.048108585 -0.042090945
-0.010821675 0.00095293135 -0.024116235 0.020868659 -0.018926619 -0.0021605752 0.011837518 0.02062142
-0.0059299795 0.022959583 -0.01815615 0.008256009 -0.024538446 0.017774925 -0.014315982 0.017558657
-0.005279925 -0.049057096 0.004897176 0.035604645 0.0016025618 -0.019579642 0.006529081 0.005338764
0.0076704933 0.010010998 -0.032619447 -0.01598337 0.02582772 -0.013859184 -0.009334774 0.025405288
0.0230607 0.03046431 0.015987152 0.000757412 0.00083573814 0.029453527 0.03529898 -0.03325423
0.020497486 -0.021579087 -0.005399313 0.011591893 0.0015002594 0.020649424 0.0028630479 0.04197047
0.007249349 0.009802849 -0.011236033 -0.054209016 -0.053618513 -0.0043912544 -0.019454716 0.006753678
-0.039009728 -0.012114194 -0.01617322 0.043849934 -0.0074729235 -0.010519386 -0.034674633 0.012096069
-0.021869909 0.002997318 0.005084551 -0.049991433 0.009875136 -0.0029262446 -0.00238102 0.008666616
0.041405525 -0.019216005 0.0014710228 -0.02722407 0.017567009 0.03467513 -0.06434895 -0.034814768
0.0051877964 -0.015185197 0.05897159 -0.02521914 0.030329924 -0.020247426 0.010636304 0.019681662
0.01571517 -0.0037309092 -0.027312709 0.025570078 0.01599278 0.0048470376 0.011703451 0.006196266
-0.02390886 -0.008048843 0.00045347746 0.024738753 0.0007968496 -0.016951611 0.0111826 0.05713127
0.013465425 0.014230208 0.013103808 -0.0059736418 0.013616806 -0.016537111 -0.010165372 -0.0013580124
-0.004402709 0.039575603 -0.004619984 0.023775226 0.018896932 -0.03365952 -0.004411097 -0.015716616
0.047509905 -0.0021032419 0.0038407913 0.020038504 -0.012719089 0.010447611 0.01519903 0.009211966
-0.0032482413 0.0071293777 -0.00648948 -0.010989957 0.017098665 0.013787141 0.0026091307 -0.04213413
0.0014001509 0.0032740224 0.0133092245 -0.03969518 -0.0028672684 0.022246275 0.019334318 -0.014008928
-0.024912188 -0.042787645 -0.0116353575 -0.010615722 -0.0058649913 0.03328058 -0.016052423 0.0017324464

weight f4 [8]
00000000: d34f 873f be3e 893f 783c 893f def8 893f
00000010: 726a 8a3f b539 8b3f bb69 833f 5625 823f
1.0571235 1.0722272 1.0721579 1.0779073 1.0813735 1.0876986 1.0266641 1.0167644

bias f4 [8]
00000000: aacd 34bc 45a8 193b 904d 423c a647 813c
00000010: 4389 8b3c 1ee4 a4bb 1372 d03a f6b4 863c
-0.011035362 0.0023446244 0.011859313 0.015781235 0.017033225 -0.0050320765 0.0015903137 0.01644371

running_mean f4 [8]
00000000: 5999 30be aecf 0cbe cea3 15be 1454 193d
00000010: f9f9 05be a8b5 bc3d bc80 d63c 8261 3abe
-0.17245997 -0.13751099 -0.14613268 0.0374337 -0.13083638 0.09214336 0.026184432 -0.18201259

running_var f4 [8]
00000000: 5f33 f53b b3bb a63b 9e8e eb3b 8744 0f3c
00000010: 5eb2 623c 6a9f c23b 494c 8c3b 450c c73b
0.0074829306 0.0050882935 0.007188632 0.008744366 0.013836471 0.005939414 0.004281555 0.0060744607

weight f4 [97, 8, 3, 3]
00000000: 9a39 0ebd d0e9 18bc 15fe 073d 6310 21bb
00000010: da10 f6bc 1ccf 5cbc 034d 113c 1f88 14bd
00000020: 984a 37bc 111c 663c 2871 e03c d8f5 a83a
00000030: 96e3 a6bc cacb 0bbd 4b8e 37bd 1d1b 1f3d
00000040: ee78 29bc e3f4 933b ca04 063d f605 d13c
00000050: bfdc b93c 79de 7d3c a30a 633c a03e 11bd
00000060: f8cc e23c fea9 9a3b 571c fe3c 3def 6c3d
00000070: d5b5 3c3d 4845 713d dbea c43c 6a0c 163d
00000080: 597b b53d 8656 3f3d 74e9 31bb 1536 0fbd
00000090: 2bec 1e3d f6a4 9a3d 3578 55bb 2f5a 4c3c
000000a0: 6da8 74bc 00f9 7d3d 47a3 f53b ca8d b5bc
000000b0: 6d33 563c 375b 6e3c da12 393c a450 c4bc
000000c0: 272b 393c 5382 3abc 1f3f 26bc c2a6 1ebc
000000d0: 71c7 af3c 564d 3fbc db2b dbbb 6f8d 1ebc
000000e0: bf2d 7c3b c524 f03c 6538 f13b ce97 5c3d
000000f0: 5411 33bc 4cb4 863a 712e fd3c d123 8ebc
00000100: 8a9e 993b 547a 963c ceb6 65bd 9bb4 22bd
00000110: 1572 64bc b6b2 89bd ed93 97bc efba 25bd
00000120: 6e19 083d 3ee6 a53c 1673 92bc f577 3cbd
00000130: 2222 27bd d5e6 a8bc f9c5 ea3c 436f d4bb
00000140: fbdc 333c 572e 3c3c cf6c 46bc c48d 5d3c
00000150: 4f02 843c 2083 15bd 1cc0 1ebd 117e a93c
00000160: db43 1d3c 43a0 293b 9053 593d ac8c e7bc
00000170: 617a 823b 6ba0 013c fb5b 83bc 3556 15bb
00000180: 7b76 a23c e610 873b f944 43bb a789 a43c
00000190: 8b30 0e3d 87d4 f5bc ba37 8e3c 3de8 eebc
000001a0: e707 853a 26e4 823d 090e acbb 1d33 04bd
000001b0: 5cfc 103d 9f2a fc3c 29fb 603c 164e e4bb
000001c0: 0797 3a3d 6a56 d33c 94ce 023d 955b 833b
000001d0: 33da 313c e266 dabc 65fa 523d 0c46 413b
000001e0: 8cc6 233d d1af a6bc 1a75 9eba 021b 05bd
000001f0: 5000 503c 8aa5 393c 7e16 29bb 402e e6bc
00000200: 469e 313d eea3 8c3c 16af f3bb 5bab 25b9
00000210: aa29 a8bc 42f8 94bb e217 10bc 5a39 e13a
00000220: ee04 9ebc 0695 8c3c ddd4 2bbc 877b fc3c
00000230: c2a6 f4bb 1ca6 94bd f8dc fe39 2ded 7dbd
00000240: 79cb 903b 2f0f 073d fdb5 d6bb 24a5 2d3b
00000250: e8fd 43bc 184f f9bb d8d8 abbb 1d0e 943d
00000260: ce92 b73c 3a11 2c3c b88e 063c a9bb 1abc
00000270: 37e0 bfb9 69a6 3b3d 3bb6 523d e0fa 8fbb
00000280: 6e51 7e3c 3195 19bc af55 91bc 5efe 7bbc
00000290: f813 5abc ff2b 33bc 81af 3e3d a500 783c
000002a0: 9373 d9bb 612f 87b9 3f85 3cbd 9c9a bcba
000002b0: 6641 943c 5ba8 4fbc 6f6c 8d3b a0ea edbb
000002c0: 2e7f 8dbc 0852 813c 0fd6 a3bc d723 32bc
000002d0: 6d1a 8a3c d7eb b83a 89ca aa3b 5ae1 5c3c
000002e0: d14c a6bc cb08 35bb c0c6 98bc 650b bd3b
000002f0: 1c26 383c a092 a33c 025b 1ebc e93d adbc
00000300: 217c aebc 85bd 833c e0ff 453c 4f6b 3a3c
00000310: 7918 8d3b 9be3 d13b c3dd 803c 3b0c 46bc
00000320: a6c6 503b 0653 f4bc 25e8 9abc be70 1bba
00000330: a023 a33c f815 99bb 477e 0bbd bf71 dabb
00000340: af68 6b3c dc33 813b 9ed2 893c 0aa1 9e3c
00000350: 7972 9dbc 48ab 123b 8504 1f3c 98be 803c
00000360: 17cf 06bc 8312 52bc 0785 88bc 5696 143b
00000370: b1ee ddbc 6a20 03bc 7e7a 553d 8545 2e3d
00000380: 13e4 023c 53cc 093d a038 b53c f93a 48bc
00000390: 0998 b33b 2d4f 5ebc 44fe 8d3c 0e93 b2ba
000003a0: 47de a4bc 6452 02bc 66c9 ad3b bb78 8b3c
000003b0: 21c9 2ebd cd7e 9dbc 9a34 b23c 3fec 123d
000003c0: d576 6ebc 4bc9 f6ba aada c03c f265 e03b
000003d0: 76c3 0d3d 7e41 0138 deb8 04bc d958 34bc
000003e0: 75c6 fabc c876 89bc c952 993a 2744 2a3d
000003f0: 4208 d1bc 0ab0 8ebc 1138 c53c 713e 153d
-0.034722902 -0.009333089 0.033201296 -0.0024576418 -0.030037332 -0.013477113 0.008868459 -0.036262628
-0.011187218 0.0140447775 0.027397707 0.001289065 -0.020372193 -0.034129895 -0.044813436 0.038844217
-0.010343773 0.0045152768 0.03271941 0.025515538 0.022688268 0.015494936 0.013857516 -0.035460114
0.027685627 0.0047199717 0.031019373 0.057845343 0.046071846 0.058903962 0.024037769 0.036632933
0.08861417 0.046713375 -0.0027147206 -0.034963686 0.038799446 0.07550995 -0.003257287 0.012472673
-0.014932734 0.062005043 0.007496271 -0.022162337 0.013073784 0.0145481145 0.0112959985 -0.023964234
0.011301792 -0.011383611 -0.010146885 -0.009683313 0.021457406 -0.011676153 -0.0066885776 -0.009677275
0.0038479415 0.029314408 0.007361459 0.05385571 -0.010929424 0.0010277121 0.030905934 -0.017351063
0.004688089 0.018368877 -0.05608254 -0.03972302 -0.013943215 -0.067235395 -0.018503154 -0.040461477
0.033227377 0.02025139 -0.017877143 -0.046012837 -0.040804036 -0.020617882 0.028658854 -0.00648299
0.010977979 0.011485658 -0.012110903 0.013522569 0.016114382 -0.036502004 -0.03875743 0.020689996
0.009598698 0.0025882877 0.053058207 -0.02826532 0.003981874 0.007911782 -0.01603507 -0.002278698
0.019831887 0.0041218875 -0.002979575 0.020085169 0.034714263 -0.030008567 0.017360557 -0.029163474
0.001014945 0.06391172 -0.0052506966 -0.032275308 0.03539692 0.030782042 0.013731756 -0.0069673164
0.045554187 0.025798041 0.03193529 0.00400872 0.010855245 -0.026660386 0.051508326 0.0029491214
0.03998427 -0.020347508 -0.0012089342 -0.03249646 0.012695387 0.0113309715 -0.002580076 -0.028098226
0.043363832 0.017168012 -0.0074366434 -0.00015799461 -0.02052768 -0.004546196 -0.008794757 0.001718323
-0.01928946 0.017160904 -0.010487762 0.030820621 -0.007466168 -0.07258245 0.0004861129 -0.061993767
0.004418787 0.032973465 -0.0065524564 0.0026496137 -0.011962391 -0.0076083057 -0.0052443556 0.072292544
0.02240887 0.010502154 0.008212738 -0.009444156 -0.00036597412 0.045812998 0.05144332 -0.0043939203
0.015522344 -0.009373949 -0.017741052 -0.01538047 -0.013310425 -0.010935782 0.046554092 0.015136872
-0.006636092 -0.00025784507 -0.04602551 -0.0014389339 0.01809759 -0.012674416 0.004315905 -0.0072606355
-0.017272558 0.015786186 -0.019999532 -0.010872803 0.016858304 0.0014108372 0.0052121324 0.013481462
-0.0203003 -0.002762365 -0.018649459 0.0057691806 0.011239555 0.019967377 -0.009665253 -0.021147685
-0.021299424 0.01608158 0.012084931 0.011378123 0.004305896 0.0064053065 0.015730744 -0.012087877
0.0031856685 -0.029824745 -0.018909523 -0.00059295807 0.019914448 -0.0046718083 -0.034055974 -0.0066663916
0.01436822 0.0039429497 0.016824063 0.019363899 -0.019219624 0.0022379924 0.009705667 0.015715882
-0.008228085 -0.012821796 -0.016664995 0.0022672615 -0.027091356 -0.008003334 0.05211877 0.042546768
0.007988947 0.033642124 0.022121727 -0.012221091 0.0054807705 -0.013568682 0.017333157 -0.0013624148
-0.020125521 -0.007954214 0.0053035496 0.017025342 -0.04267228 -0.019225502 0.021753598 0.035869833
-0.014554699 -0.00188283 0.023541767 0.0068480903 0.034610234 3.081699e-05 -0.008100716 -0.011007511
-0.03061221 -0.016780272 0.0011697646 0.0415689 -0.025516633 -0.017417926 0.024074586 0.036436502

bias f4 [97]
00000000: 6bd2 303d 3e94 81bc b1e6 84bd 9399 913d
00000010: 71c0 9abd 9500 89bc cff2 403d caff d73d
00000020: 9174 0b3d 31aa a1bd 9f78 d5bc a633 243b
00000030: e42b 1cbd 4cf3 f53d 7c46 543d bbc8 fdbc
00000040: 7393 84bd 822b ac3d 7e28 c83d 1cd0 0fbd
00000050: 7862 b9bd 3ea8 d03d 9797 92bd 9327 9e3d
00000060: 11aa 99bc 22cf e73d dce4 b53d c549 973c
00000070: f0a4 613c e842 aa3d d22d ae3c c5c7 fe3d
00000080: 577f 52bd 028a f33c b624 5b3d 489a 4a3d
00000090: fae3 4b3d 970c 3cbd d734 b8bc ff2e 81bd
000000a0: 8364 d1bc e306 d53d bbbe 463d 2629 35bc
000000b0: 2095 70bd 99b6 223d 501e ea3d ef0a 573d
000000c0: 8023 aabd 5d3c 82bd e6c3 c03d 375c f73b
000000d0: dda2 003e bf71 cf3d af04 47bd 89fe 6c3d
000000e0: 6d83 a23d dac7 82bc ff5f 593d d683 173e
000000f0: 8c8c 4d3b 4205 053d 6bc1 ab3d 4468 8a3d
00000100: c1c2 ba3c 5134 b23b a698 413d 339f b53d
00000110: e31b e43d b166 5abd 23d6 21bd b6d0 a8bd
00000120: 39f2 bbbc 1a61 80bc 3386 6c3c 309e 033d
00000130: 3e97 26bd 105e cebc c97f 5ebd 8919 dc3c
00000140: c807 82bd 9c75 04bd 5601 aebd 6920 0abd
00000150: 9a83 98bd b347 593d 3259 263c d326 bbbd
00000160: 570e c23d 3937 02bc 58a9 00bd 0714 043c
00000170: afb9 71bd cbb6 f03d b196 a53d a7ab cb3d
00000180: 976a 57bd
0.04316942 -0.015817758 -0.064893134 0.0710937 -0.075562365 -0.01672391 0.04710656 0.10546835
0.034046713 -0.078937896 -0.026058493 0.00250552 -0.038127795 0.12009296 0.05182503 -0.030979505
-0.06473436 0.08406736 0.09773348 -0.035110578 -0.090519845 0.1018834 -0.0715782 0.07722392
-0.018757852 0.11318804 0.08881542 0.018467793 0.013772234 0.083135426 0.021262083 0.12440447
-0.051390972 0.029728893 0.053501807 0.04946354 0.049777962 -0.045910444 -0.022486134 -0.06307792
-0.025560623 0.10401704 0.04852174 -0.011057174 -0.058735967 0.03972492 0.11431563 0.05250066
-0.08307552 -0.0635917 0.09412365 0.0075488347 0.12562127 0.10129117 -0.04858845 0.05785993
0.07935224 -0.015964437 0.053070065 0.14796385 0.003136429 0.032475717 0.08386501 0.06758168
0.022797944 0.0054383655 0.047264718 0.088682555 0.111381315 -0.05332059 -0.039510857 -0.082429335
-0.02294265 -0.015671302 0.014436292 0.03213328 -0.04067158 -0.025191337 -0.054321084 0.026867645
-0.063491404 -0.032338724 -0.084963486 -0.033722315 -0.07446976 0.053046893 0.010153102 -0.091382645
0.09475391 -0.007947736 -0.0314115 0.0080614155 -0.059014972 0.11753615 0.08085383 0.099448495
-0.052591886
